sandbox/snapshots3/model-3504.pt (torch, 71725 bytes, 8 tensors)

conv1.weight f4 [16, 3, 3, 3]
000000 f7 83 12 3f 4c 32 97 bf 4e 4a 9a 3f aa 99 9d be
       0.5723261 -1.1812224 1.2053926 -0.307813
000010 89 4d 44 3f c2 46 a1 3f f1 db fc be d0 55 39 3e
       0.7668081 1.2599719 -0.49386552 0.18099141
000020 d3 ef ac 3f 67 f3 45 3f df 72 ee be 1b 84 93 3f
       1.3510689 0.7732453 -0.46572015 1.152469
000030 02 2b 3b bf 48 1f 6a be 02 c7 32 3e 60 2c 4e 3f
       -0.731125 -0.22863495 0.17458728 0.8053646
000040 8d 5c aa bf ea cc 2c bf e7 94 82 be 62 f6 93 bf
       -1.3309494 -0.67500174 -0.25504228 -1.1559565
000050 27 62 cb 3e c5 f5 92 be 48 8d 39 3f fa cf 82 3f
       0.39723322 -0.28703132 0.72481203 1.021972
000060 0f 38 52 bf 50 a4 83 bf 88 36 56 3e 10 7f 6c 3f
       -0.8211679 -1.0284519 0.2091924 0.9238138
000070 ee 95 1f bf f3 82 41 be 0d 4b b5 bf 71 60 7f 3f
       -0.6233815 -0.1889761 -1.4163529 0.9975653
000080 fa 13 39 bf 68 b2 54 be 87 eb 5d 3e 37 90 a6 3f
       -0.72296107 -0.20771182 0.21671878 1.3012761
000090 5c e9 25 3f cc e3 70 3f 39 e1 91 3f 10 44 62 3f
       0.64809203 0.9409759 1.1396858 0.88385105
0000a0 c7 b2 8c 3f 19 32 a4 3f 7c 64 a6 3e 7b 89 9a bf
       1.0992059 1.2827789 0.32498538 -1.2073206
0000b0 01 88 27 bf df bf c6 be c9 e4 87 bf 63 19 8c 3f
       -0.654419 -0.3881826 -1.0616695 1.0945247
0000c0 fd e2 cc 3e f9 48 88 3f 4c 13 8e 3f 14 25 a4 3e
       0.40016928 1.064727 1.1099639 0.32059538
0000d0 79 cb 8a bf 75 93 1f bf 66 96 38 bf 4a 55 50 3e
       -1.0843345 -0.62334377 -0.7210449 0.20345035
0000e0 63 c9 33 3f 7a de 0b 3f 42 0a 9f 3f fe 5e 83 be
       0.70229167 0.5463635 1.2425005 -0.2565841
0000f0 47 12 cd 3e cb f7 b6 bf 55 89 bd 3f d9 4a 76 bf
       0.40053007 -1.429437 1.4807535 -0.9620796
000100 ae d2 b2 bf 2f 58 40 bf 44 c7 ab 3f 6f 2b 4a 3f
       -1.3970544 -0.7513456 1.3420186 0.78972524
000110 e3 7b 53 3e b5 9f 87 bf a4 75 aa 3e f6 b4 b2 bf
       0.20652728 -1.0595614 0.33292878 -1.3961475
000120 5f 76 85 bf ef 20 3f 3f e3 f4 a1 3f be ef 3c 3e
       -1.0426749 0.7465963 1.2652858 0.1845083
000130 69 e8 01 bf d0 ba 10 3f 90 5f 94 3e f2 9d dc be
       -0.50745255 0.56535053 0.28979158 -0.43089253
000140 10 7d 66 3f a5 8a 60 bf db 6a 9d 3e 18 bb 99 bf
       0.9003458 -0.87711555 0.30745587 -1.2010221
000150 c2 b2 7a 3f 40 ce 7e 3e 64 5d 3e be 49 f8 87 bd
       0.9792901 0.24883366 -0.18590313 -0.066391535
000160 3a cf 2d be 71 e3 54 3f c0 49 64 bd d6 0a b7 3e
       -0.16973582 0.8315955 -0.055734396 0.35750455
000170 74 e6 41 3f 01 23 99 3e e6 ac ae bf 88 cc 46 bf
       0.7574227 0.29909518 -1.3646514 -0.7765584
000180 43 91 24 bf 6a 4f b5 be ff 4b 09 bf 69 50 83 3f
       -0.6428415 -0.3541215 -0.53631586 1.0258914
000190 50 83 df 3e fc 0b 6b bf 33 b1 1b 3f a2 bd 58 3f
       0.4365487 -0.9181516 0.6081726 0.84664357
0001a0 a1 df b0 3f af 91 2f bf 21 3d 03 3f 9a 9e cd 3f
       1.3818246 -0.6858167 0.5126515 1.6064026
0001b0 c4 bf 98 3f 79 c4 00 be 36 54 54 3f e3 64 40 3f
       1.1933522 -0.12574948 0.82940996 0.7515394
0001c0 1a 78 bc bf 05 31 2a bf f3 91 8f 3f e8 22 8a bf
       -1.4724152 -0.6648105 1.1216415 -1.0791903
0001d0 ea c9 35 bf b3 ff 13 3f 18 c1 75 bf a5 f5 a2 3f
       -0.7101122 0.5781204 -0.9599776 1.2731215
0001e0 92 23 1d be 86 e7 2b bf a1 f4 59 bf 8a a2 a3 bf
       -0.153456 -0.6715015 -0.851389 -1.2783978
0001f0 bc 25 b1 bf b6 55 82 3f c5 ce 03 3e 01 c5 47 3e
       -1.3839641 1.0182407 0.12871845 0.19508745
000200 8d 51 c0 3e 26 69 0d 3f d0 c2 ac 3f 07 5d ea bc
       0.37562218 0.5523857 1.3496952 -0.028608812
000210 58 29 27 bb d1 08 1e bf 0a b7 e1 bd 59 ff 98 3f
       -0.002550682 -0.617322 -0.1102124 1.1952926
000220 25 3b ea 3e c7 0f af bf 4b 11 52 3e ff d8 bc bf
       0.4574825 -1.367669 0.20514409 -1.4753722
000230 91 fd 3d 3f 3a 5c 13 3f 2f 23 7b bf c4 21 8a bf
       0.74215037 0.575626 -0.9810056 -1.0791554
000240 43 0e 89 bf cc 07 04 3f 82 5d 0b be bc 35 4b 3e
       -1.0707477 0.515744 -0.13609889 0.19844717
000250 2f 10 5f 3f 04 fb b2 3f 7e 9b bf bd 8b f1 78 bf
       0.8713407 1.3982854 -0.0935583 -0.97243565
000260 d1 a0 91 be c4 70 2f bf 85 b3 fe bc c2 7c bb bf
       -0.28443006 -0.6853144 -0.031091461 -1.4647448
000270 eb 88 b6 3f 4c 96 ae 3f 73 f1 41 3f 8a 4d a6 bf
       1.4260534 1.3639617 0.7575905 -1.2992413
000280 60 80 12 bf 81 e6 f6 be 95 d3 82 bf f8 fb 4d 3f
       -0.57227135 -0.48222736 -1.022082 0.804626
000290 8f 7a 83 3f a8 91 bc bf be 69 ad 3f 58 0e 8d 3f
       1.0271777 -1.4731951 1.3547895 1.1020002
0002a0 d6 b7 b3 3f 6f 98 be 3f 83 54 85 bf 7c aa 19 bf
       1.4040477 1.4890269 -1.0416416 -0.60025764
0002b0 ad f3 af bf 82 aa 8d 3f d9 8e 12 bf c5 c9 d4 be
       -1.3746239 1.106766 -0.5724922 -0.41560188
0002c0 f6 60 9e 3f 49 87 51 bd 24 ff 5e bf 1d 2b 8e bf
       1.237334 -0.05115441 -0.87108064 -1.1106907
0002d0 cc e7 19 be 49 0b 73 bf c4 76 1f 3f 9e 35 6c bf
       -0.1502983 -0.94939095 0.62290597 -0.92269313
0002e0 04 e0 a9 3e 10 ff 37 bf 2f b7 00 bf 4f 19 79 bd
       0.33178723 -0.7187357 -0.50279516 -0.06081515
0002f0 98 5c 6e bf 49 24 b6 3f f4 bc a3 bf 25 cc b4 3f
       -0.93110037 1.4229823 -1.2792039 1.41248
000300 d0 4c 8e 3f b0 13 1a bf f9 e3 c8 bf 16 58 14 bf
       1.1117191 -0.6018629 -1.5694572 -0.5794691
000310 75 a9 aa 3f 2b 24 91 3e 0a 82 8b bf 54 ed 92 be
       1.3332964 0.28347906 -1.089906 -0.28696692
000320 be d7 8d 3f a2 2e 66 3f 5d 9d 8f 3f a6 bb b4 3f
       1.1081464 0.89914906 1.1219898 1.4119766
000330 b1 47 9c 3f 87 83 aa 3d 08 9c 26 be ab e1 a6 3e
       1.2209378 0.08325868 -0.16270459 0.32594046
000340 43 a6 c7 bf 05 a6 b2 bf f4 2f b8 3d bb 0f c2 bf
       -1.5597614 -1.3956915 0.08993521 -1.516105
000350 12 44 8c bf fb 1a 9c 3f 1b bb f1 be 04 2b 73 3f
       -1.0958273 1.2195734 -0.47213063 0.9498751
000360 74 10 fd 3e 47 00 9f 3f 59 e6 4e bf 82 1c 5f 3f
       0.49426615 1.242196 -0.8082023 0.87152874
000370 d0 8d b8 3e ed d1 9f bf bf 90 a9 bf e6 d8 af 3f
       0.36045694 -1.2485939 -1.3247298 1.3738067
000380 ee c1 92 bd f5 60 93 bf be 70 7e bf 3a 1f 92 bf
       -0.071658954 -1.1513964 -0.9939078 -1.141578
000390 77 b4 56 3f 47 fd 70 bf 66 f0 4f bf 39 1a 99 3f
       0.8386912 -0.9413647 -0.81226194 1.1961128
0003a0 37 e3 9f bf 46 50 08 3e 9e 4e 91 3e 81 a5 f0 3d
       -1.2491215 0.13311872 0.28380293 0.11750317
0003b0 2c d0 84 bf a4 66 2e 3f 2c 11 9e bf 66 f3 ab 3f
       -1.0376029 0.6812537 -1.234899 1.3433654
0003c0 e3 ac 0e 3f 7c 07 bb be f2 79 ae 3f 1f 51 98 bf
       0.55732554 -0.36529148 1.3630965 -1.1899756
0003d0 5a 98 8e 3f 88 91 1c bf ea a6 02 3f e7 f5 de 3e
       1.1140244 -0.61159563 0.5103594 0.43546984
0003e0 25 5f bc 3d ed f6 aa 3f 4a c7 8b bf 86 2f 5a 3e
       0.09197835 1.3356606 -1.0920193 0.21307191
0003f0 6a a1 03 bf de 3b 0f bf 58 bd 8e 3f a6 c0 50 bf
       -0.51418173 -0.55950725 1.1151533 -0.8154396

conv1.bias f4 [16]
000000 e2 95 9f 3f e9 f6 85 bf 16 fe 00 3f 4a 4a a9 bf
       1.2467616 -1.0465976 0.50387704 -1.3225796
000010 a8 a4 db 3e 57 9a 1c 3f fe 7b 6f bf cf 87 02 3c
       0.4289906 0.61173004 -0.9354857 0.00796695
000020 0a e3 3c 3e 46 a8 53 3f e9 f2 ee 3e 0f 7b a6 3f
       0.18445984 0.8267864 0.466697 1.3006305
000030 18 fc c0 bf a1 4c 58 bf d2 a3 2c 3f da a9 39 3f
       -1.5076933 -0.84491926 0.6743747 0.725248

conv2.weight f4 [32, 16, 3, 3]
000000 67 d9 b4 bd 51 51 04 bf 3b 4d a1 3e 68 0e 04 3f
       -0.08830529 -0.5168658 0.31504235 0.5158448
000010 eb 97 fe 3d 48 f6 cd 3d d0 c7 ec be 1c ad 1b 3e
       0.1243132 0.1005674 -0.46246195 0.15202755
000020 01 59 13 be 40 ff 03 bf 7f 16 87 3e 67 82 05 bf
       -0.14389421 -0.51561356 0.2638435 -0.52152103
000030 a4 dd b6 be 32 0e a2 bd 6a 70 13 3f f8 4e 9e 3e
       -0.35715973 -0.07912864 0.57593405 0.30919623
000040 31 0f e5 3e c4 80 c5 bd d9 35 db 3e 65 0d 14 bf
       0.44738153 -0.09643701 0.4281452 -0.5783294
000050 c5 24 c9 3e fc 72 18 3f 10 44 ec 3d 01 1c cd be
       0.39285865 0.5955045 0.115364194 -0.40060428
000060 89 a5 08 3f 40 41 3c be f7 36 a9 be 21 4e ff be
       0.53377587 -0.18384266 -0.33049747 -0.49864295
000070 5c ad 27 bf c9 7c 88 3e b9 8f 91 3d 38 95 0b 3e
       -0.654989 0.26657704 0.07107491 0.13631141
000080 df 35 ee bd 4d 67 b3 3b d0 af 3a 3e 51 31 8f 3c
       -0.11631369 0.005474961 0.1823113 0.01747957
000090 d4 f2 5b 3d 84 83 15 3f c3 f9 1c 3e 41 df 1f be
       0.053698376 0.584038 0.15329652 -0.15612508
0000a0 09 54 24 bf 15 65 6e 3e 36 62 a3 3e a1 a7 a2 be
       -0.6419073 0.23280747 0.31910866 -0.31768516
0000b0 5c 14 a5 be 04 f3 c3 bd 94 4d f1 be 13 f6 b4 3e
       -0.32242095 -0.09567836 -0.471295 0.3534399
0000c0 50 07 dc bd 80 be 27 3f fb 14 9a be c5 3f 9d 3d
       -0.10743582 0.65525055 -0.30094132 0.07678179
0000d0 44 77 08 bf 6c 36 2b 3e 2a 5f 33 be fa 60 7e be
       -0.53306985 0.16719979 -0.17516771 -0.24841681
0000e0 b3 ba bb 3e 53 45 b1 3e 7a 8d 03 3f ed e3 17 3f
       0.36665878 0.34623203 0.5138775 0.5933216
0000f0 15 86 11 3f 35 c4 37 be 09 5f 0e 3f 5d 4e 31 be
       0.5684522 -0.17945941 0.5561376 -0.1731505
000100 e9 db e5 be 16 54 5f 3d 28 e7 20 bf 0d 00 16 3f
       -0.4489434 0.05452355 -0.62852716 0.5859383
000110 9f 12 0b 3f fe b5 f1 be 55 5b cd 3e 45 8c 9e bd
       0.5432529 -0.47209162 0.40108743 -0.07741598
000120 63 4f 72 be d3 7d 22 3f 64 4a e9 be a3 4c a5 3e
       -0.23663096 0.6347324 -0.45564568 0.32285032
000130 9e e4 a9 be 9a 7c d4 3d b6 23 df 3d fe e4 03 3f
       -0.33182234 0.10375328 0.10895483 0.5152129
000140 05 0e 09 3f ae 61 68 3e 60 23 0d 3e 20 28 02 3f
       0.5353702 0.22693512 0.13783026 0.50842476
000150 ed f8 8c 3e 12 e7 94 be 67 d0 44 3d b0 1f 93 be
       0.27533665 -0.29082543 0.04805031 -0.28735113
000160 83 a4 1f 3f d7 2d 69 3b 2b 84 3d 3e 49 c6 23 bf
       0.623604 0.0035580301 0.1850745 -0.63974434
000170 cc 02 1a bf 58 bb 00 bf 1a f6 90 3e 25 0a 43 be
       -0.6016052 -0.50285864 0.2831276 -0.19046839
000180 24 d7 9c 3e 60 fc fa 3e 29 35 7c 3e 1d 0e c8 3b
       0.3063289 0.49020672 0.24629654 0.006105198
000190 aa ea 5c bd e7 ba 84 be fc 56 08 bf e6 74 c4 be
       -0.05393473 -0.25923845 -0.5325773 -0.38370436
0001a0 a7 a9 07 3f 7f b3 14 bf 77 e4 8e 3c 4b a3 d9 3d
       0.52993244 -0.5808639 0.017442925 0.10626849
0001b0 86 c6 5f bd c2 db 7f 3a 08 52 e3 3e fc 44 0f bf
       -0.054632686 0.00097602245 0.44398522 -0.55964637
0001c0 a7 62 23 3f d3 b6 d2 3e 47 01 21 3f 70 06 13 bf
       0.63822407 0.4115511 0.62892574 -0.574317
0001d0 59 78 01 3e 00 68 20 3f 2d 3c 84 3e 4d b9 79 3e
       0.12643565 0.6265869 0.2582716 0.24387093
0001e0 41 9a e8 be 83 b4 b4 3e 89 5d 00 bf 99 db 68 be
       -0.45430186 0.3529397 -0.50142723 -0.2274002
0001f0 d7 9c ad 3e 90 f6 0d be 85 39 47 be 25 72 0a bf
       0.33908722 -0.13863587 -0.19455536 -0.5408042
000200 4d 80 8b be 7e 27 29 3f c6 14 0f 3f e8 7d 35 be
       -0.27246323 0.66075885 0.5589107 -0.1772381
000210 fc 87 f7 be 63 6b d3 3d 0f a7 f3 be 75 63 f0 be
       -0.48345935 0.10323217 -0.47588393 -0.4695088
000220 30 88 26 be 68 4e 68 be 36 d6 8e be 78 73 a8 3e
       -0.16262889 -0.2268616 -0.27897805 0.32900596
000230 b7 c7 1d bf ae 6b 27 bf 4f 03 18 bf f7 d5 2a bd
       -0.61632866 -0.6539868 -0.5938005 -0.04170796
000240 c5 3f b6 3e 6c 46 08 bf 4b f9 1b 3f 1e 28 19 bf
       0.35595527 -0.53232455 0.60927266 -0.5982684
000250 bd 5e 81 3d ec 27 11 bf 96 07 01 bf 94 ef cb 3e
       0.06316898 -0.5670154 -0.504022 0.3983122
000260 db 68 72 bd fa 01 ac bd 0b 89 c1 3d 27 ae 3f 3b
       -0.05918203 -0.083988145 0.09449967 0.002924809
000270 fb 76 73 be a1 44 a5 3e f7 d4 f5 3e b3 cc e2 3d
       -0.23775856 0.32278922 0.48014042 0.110741995
000280 df e7 54 be 23 d9 0b 3f c9 6e 11 3e fa 58 a9 3e
       -0.20791577 0.546282 0.14202417 0.33075696
000290 6e a3 b6 be 2a 0d 38 3e 2d bf b1 3e 91 86 c8 be
       -0.35671562 0.17973772 0.34716168 -0.39165166
0002a0 a0 15 a7 3e 3f dc 0c 3f 9f bb e6 bc f2 38 18 bf
       0.32633686 0.5502357 -0.028165637 -0.5946189
0002b0 b9 55 3c 3d 01 7b 0a bf be b0 fe be 84 87 b5 3d
       0.04598019 -0.5409394 -0.4974422 0.08863738
0002c0 d5 ee 9a 3e ac ec d9 3e cc fb 01 3f f4 5f 61 be
       0.3026034 0.4256338 0.50774837 -0.2200926
0002d0 53 18 86 be 5b cc 22 bf 21 ca e8 3e 61 d2 26 be
       -0.26190433 -0.6359307 0.45466712 -0.1629119
0002e0 12 6a e1 3e ed 23 28 bf e0 7d 7d bd bf 1c c3 3e
       0.44026238 -0.6567982 -0.061887622 0.3810787
0002f0 13 4a 70 be 01 56 b9 3e 4f 6c f8 be f8 64 f5 3e
       -0.23465757 0.36198428 -0.48520133 0.47928596
000300 95 38 c5 be f5 60 22 bd a5 9a dc 3e 96 6a 98 be
       -0.3851973 -0.039643247 0.43086734 -0.2976882
000310 47 2e 24 bf c2 f8 d2 3e 42 f8 e4 3d 8a fc e9 be
       -0.64133114 0.41205412 0.11180164 -0.45700485
000320 c5 c0 d9 be 4a 0d 95 be 1e 38 b2 bc 58 89 8d 3e
       -0.42529884 -0.291117 -0.021755274 0.27643847
000330 de 0d a3 3c f6 4a 22 bf 52 a1 df 3e db f3 83 3e
       0.019904073 -0.6339563 0.43677765 0.25771984
000340 d3 2d a5 be 87 13 36 bd 79 54 30 3e 7d 86 0d 3f
       -0.32261524 -0.044452216 0.17219724 0.5528334
000350 68 34 7d 3e f4 e5 98 3d 56 fb 21 bc a9 ea bc be
       0.24727023 0.07465735 -0.009886583 -0.36897781
000360 64 6b a9 be a7 67 d5 3e 38 20 82 be e0 e4 41 3e
       -0.33089745 0.41680643 -0.25415206 0.18934965
000370 e7 79 2f be b4 76 06 3f a6 94 07 bf ac 6c bf b8
       -0.17136346 0.52524877 -0.52961195 -9.1278314e-05
000380 3a 2a 2b be 66 08 30 3f b3 02 a3 3e 5f fc c8 3e
       -0.16715327 0.68762815 0.31837997 0.39255044
000390 0c 4d c3 be 45 8c a1 3e 4c b9 b1 3e 7f c3 0b 3f
       -0.3814472 0.3155233 0.34711683 0.5459518
0003a0 a7 b7 0f bf c0 d5 4f 3d ac 90 0b be 6e 3b 9e 3e
       -0.56139606 0.050740957 -0.13629407 0.30904716
0003b0 ea 45 78 3e 94 60 dc 3e ea bc 17 be e0 74 4b 3e
       0.2424542 0.43042433 -0.14818159 0.19868803
0003c0 9f 86 99 3d 4c 03 0e be 3a 34 17 bf d9 68 8c bd
       0.0749638 -0.13868445 -0.59064066 -0.068559356
0003d0 6d 45 06 bd 2c 58 9e 3c 26 7f 28 be 0c e6 9f 3e
       -0.032781053 0.019329153 -0.16454753 0.312302
0003e0 47 93 2c 3f b6 c8 a0 be 06 b0 9c be 2a e0 e8 3e
       0.6741223 -0.3140313 -0.30603045 0.45483524
0003f0 97 e2 4d be e4 f6 03 3f ae 99 33 3d 32 f2 88 be
       -0.20105968 0.515486 0.043847732 -0.2674728

conv2.bias f4 [32]
000000 f3 1e 29 bf f0 37 e2 3e 5a 1d 0e bf ef 96 24 be
       -0.6606285 0.44183302 -0.55513537 -0.16073202
000010 28 50 84 be 42 53 13 3e 69 14 e7 3e cb f9 d2 bd
       -0.25842404 0.14387229 0.4513276 -0.103015505
000020 93 2d a9 bd 8f b3 88 3d 62 eb e4 be 8b 4a 10 bf
       -0.08260646 0.06674873 -0.44710833 -0.56363744
000030 b0 55 cf bd 98 1b 0a 3e fc 7f 5e be ee 82 df be
       -0.101237655 0.13487089 -0.2172851 -0.4365458
000040 b8 30 d0 be 35 98 96 3e 93 13 de be 05 ea fc bd
       -0.4066217 0.29413 -0.4337431 -0.12349323
000050 6a 4a 90 3d bb 9d 17 3f 8b 5c 19 3f 5b 57 b9 be
       0.07045443 0.5922505 0.59906834 -0.3619946
000060 87 4e 28 3f e0 84 1f 3e c3 e4 c4 3e 42 dd 1a bf
       0.65744823 0.15578032 0.3845578 -0.6049386
000070 ee 43 f7 be bc 3c 40 3b b1 fe 99 bd b1 9d 30 3f
       -0.48294014 0.0029333076 -0.07519282 0.6899062

conv3.weight f4 [32, 32, 3, 3]
000000 72 b4 1e be c1 2c 5f 3e d0 69 9b 3d 7f df e0 be
       -0.15498522 0.21794416 0.075885415 -0.43920514
000010 86 47 b1 be bf 5a e4 3e f7 1b 8d be 4d 73 85 be
       -0.3462488 0.44600484 -0.27560398 -0.2606453
000020 d3 a6 d3 3e 89 6f b4 3e 32 df 96 3e b4 9d 8b 3e
       0.41338214 0.35241345 0.2946716 0.27268755
000030 0b 2b 78 be 47 5c de 3e 24 78 28 be c1 6c 8e be
       -0.2423517 0.43429777 -0.1645208 -0.27817348
000040 34 56 a0 3e df 46 9e be c0 90 31 be c9 44 cf be
       0.31315768 -0.30913445 -0.17340374 -0.40482166
000050 65 8b bc 3e 46 37 d4 3d 83 f0 ac be 48 6b bf 3e
       0.368251 0.10362105 -0.33777246 0.37386537
000060 51 83 d5 be 1f ef 41 3e f3 8b 9b 3e ee 96 36 be
       -0.4170175 0.18938874 0.3038021 -0.17831013
000070 1c c5 bd 3d 37 9d ae 3e 78 ab 90 3d 5e 5a da be
       0.09266111 0.3410432 0.07063955 -0.4264707
000080 cd c6 77 bd 6a 62 30 3e c8 99 67 3e a8 3b f5 bd
       -0.060492326 0.17225042 0.22617257 -0.11974269
000090 78 fc aa bd b4 08 3e be f4 48 f0 3e 99 3f 5b bd
       -0.08348936 -0.18558007 0.4693066 -0.05352745
0000a0 95 31 cd bc 65 5c e8 be d7 a6 29 3c 7c 0e 90 3c
       -0.025048057 -0.4538299 0.010354719 0.017585032
0000b0 20 58 70 be d7 7c a2 3e 1d 0a 26 3e 85 5d ad be
       -0.23471117 0.3173587 0.16214795 -0.33860412
0000c0 a8 52 b9 bd b0 a5 b5 3e 26 b9 07 3d 0e f1 c9 3d
       -0.090489686 0.35477972 0.033135556 0.09860431
0000d0 b4 8d e6 3d 9b 55 de 3e 08 7b 8c 3e c6 23 52 3e
       0.112574965 0.43424687 0.27437615 0.20521459
0000e0 8e fd 5c 3a 97 0b 91 3d d6 fe 4b be 6f cb ec be
       0.00084301166 0.07082289 -0.19921431 -0.46248958
0000f0 33 6c 7e 3e 87 9c bf 3e 6d f4 b7 3d 29 4b 50 be
       0.24845962 0.37424108 0.089821674 -0.20341171
000100 09 f3 ad be 0f 11 8d be 88 57 ec be 2e db 89 3e
       -0.33974484 -0.27552077 -0.4616053 0.26925033
000110 30 3d 91 3e 13 87 f5 bd e0 38 bf 3e e8 ee af bd
       0.28366995 -0.11988654 0.3734808 -0.085904896
000120 c1 94 fa bd d3 44 ba 3e f6 32 02 be 95 8d 02 be
       -0.12235404 0.36380634 -0.12714753 -0.12749322
000130 5b 86 d1 3e 9e b1 6c be 0d 9e d9 be 29 63 ab be
       0.40922818 -0.2311463 -0.42503396 -0.3347409
000140 70 06 d9 be bd 56 98 bd af e6 24 3e 7b 83 bd 3e
       -0.42387724 -0.07438419 0.16103624 0.37014374
000150 35 34 b1 be 20 b6 e6 3d 88 31 aa 3e fa 1c 97 3e
       -0.34610143 0.11265206 0.33240914 0.29514295
000160 47 7c 84 3e 3b 43 9a 3d de 89 dc bd 69 d5 70 3d
       0.25876066 0.075323544 -0.107684836 0.058797274
000170 9c 5f b3 be 9e 4e d6 3e 3d 0c df be 98 46 bd 3c
       -0.35033882 0.41856855 -0.43564025 0.02310495
000180 d6 3e f3 be c8 06 3f be 0c 9a e2 be d2 80 ad be
       -0.47508878 -0.1865493 -0.44258153 -0.33887345
000190 4b 18 f6 3d c5 2b 86 3e 8e 07 a7 be d9 6a c7 be
       0.12016352 0.26205269 -0.3262295 -0.38948706
0001a0 07 8c 13 3e 61 66 26 3e 7f 2a 81 3e 7f 27 06 3e
       0.14408885 0.16249992 0.25227734 0.13101004
0001b0 6f 58 dd 3d 60 f1 68 3e 3b fe 5e be 33 e4 a6 3e
       0.10807883 0.22748327 -0.21776669 0.32595977
0001c0 24 45 88 be a6 c0 b9 bd b6 f3 f9 bc ff 3d b0 3e
       -0.2661525 -0.09069948 -0.030511718 0.344223
0001d0 e1 a3 f7 bd 01 f1 9c be 23 c0 f3 bd 62 c7 d0 3e
       -0.12091804 -0.3065262 -0.119018815 0.40777117
0001e0 b6 92 73 3e 11 06 b4 be 43 bc 26 3e ed c7 83 be
       0.23786435 -0.35160878 0.16282754 -0.2573847
0001f0 be 82 cd be 84 3a 94 bc 51 04 db bd 19 f3 52 3e
       -0.4013881 -0.018094309 -0.10694183 0.20600547
000200 46 3d bf be d9 5d a6 3e 19 24 e1 bd e4 bb 03 bf
       -0.37351435 0.32493475 -0.10993213 -0.51458573
000210 d1 e8 ab be b3 8f 20 3d 37 58 bc 3e 53 5e 94 be
       -0.33576062 0.039199542 0.36786053 -0.28978214
000220 6f 4b 4c 3d 17 1d 3e be 1f 3c 87 be 2c 3f 94 bd
       0.049876627 -0.18565784 -0.26413056 -0.072386116
000230 01 a4 b5 bd d4 17 f3 be 4b f8 24 3e 5f 65 50 be
       -0.08869172 -0.47479117 0.16110341 -0.2035117
000240 ec 48 9c 3d 8d 43 a3 bd 49 fd c1 bd 6a 69 8f bd
       0.07631096 -0.07971869 -0.094721384 -0.07002528
000250 51 6f 81 be 6c 8b 6b 3d 9e dd 12 3e 12 42 4f bc
       -0.2528024 0.05750601 0.14342353 -0.01265003
000260 84 70 27 3c 7c 60 52 3e 9c cf b2 3e 62 71 1a be
       0.010219697 0.20544618 0.34924018 -0.15082315
000270 d5 f2 bb be 9d 68 20 be 8b a7 de 3e 6c 8f 25 3e
       -0.36708704 -0.15664907 0.434872 0.16167992
000280 74 23 dc 3d bb a6 9a 3e 66 e4 99 be 12 1f af 3d
       0.1074895 0.3020533 -0.30057067 0.08550848
000290 3c 81 ce 3d 4b 40 bb 3e 7b 21 12 be 47 f6 16 be
       0.10083243 0.3657249 -0.14270584 -0.14742385
0002a0 6a 1c 25 3e 01 63 41 3e 7e 1a 6e 3c 80 24 77 3e
       0.1612412 0.18885423 0.014532683 0.24135017
0002b0 7f 23 4a be b1 36 bf 3d bc cd b3 be bd bf 09 3e
       -0.19740103 0.093366034 -0.351179 0.13452049
0002c0 a3 db 1c be 86 70 be be 69 db dc be 1f 93 cd be
       -0.1531816 -0.37195224 -0.43136147 -0.40151307
0002d0 51 61 99 be 2f 6d 39 3d 09 90 a6 be 4b 65 e4 be
       -0.2995706 0.04527014 -0.32531765 -0.4460853
0002e0 8f 01 8f 3b c2 81 16 bd 39 3f 16 3e da a4 ad bd
       0.0043641995 -0.03674484 0.14672555 -0.084787086
0002f0 40 bd a4 3e 36 5f 97 3e ba ac 96 3d fd cb 9f bc
       0.32175636 0.29564828 0.07357164 -0.019506449
000300 7b ea d8 be 13 e2 a3 bc a9 30 06 be 67 46 88 3d
       -0.42366394 -0.020005262 -0.131045 0.06654053
000310 81 86 e0 bd 8f d1 53 3e d7 9c f9 be ca 92 d7 3e
       -0.109631546 0.20685409 -0.48752472 0.4210418
000320 91 60 88 be 09 bb c9 3d 50 d5 8a be d8 2a d5 3d
       -0.26636174 0.09850127 -0.2711587 0.104085624
000330 50 02 47 be ed c3 b0 3d 7b 6a ca 3e 3e 57 fb bd
       -0.19434476 0.0863112 0.39534363 -0.122724995
000340 33 d7 e6 3e ea 2e f5 be 9a 0e 81 bd d5 e1 a7 be
       0.4508606 -0.47887355 -0.06301613 -0.32789484
000350 97 53 a3 bd bb 9e f2 bc e4 25 82 bd 57 f8 fd bd
       -0.07974928 -0.029616704 -0.06354883 -0.12400883
000360 83 8d 08 3e fa 78 bd 3e 51 0e 2a bd f5 06 4f be
       0.13335232 0.3700636 -0.04151756 -0.20217498
000370 e4 7c fb bc 6c f6 f4 3e cd bf be 3e ca 90 9b be
       -0.0306992 0.47844255 0.37255707 -0.30383903
000380 8d 39 e9 3d a5 93 58 3d cc a6 54 3e e1 a4 95 be
       0.1138793 0.05287518 0.20766753 -0.29227355
000390 f7 58 84 3e d4 39 3c be 1b ab 80 3e 72 16 24 be
       0.25849125 -0.18381435 0.25130543 -0.16024187
0003a0 b1 7f e3 be 04 87 8f bd 24 2a e3 3e 7a 8e 24 3e
       -0.44433358 -0.07008174 0.44368088 0.16069975
0003b0 07 88 7d be 15 5a 1f be 68 5c a2 bd 42 21 63 3e
       -0.24758922 -0.15561707 -0.07927781 0.22180656
0003c0 41 f5 b5 be 3d d2 2b be 88 d7 cf 3e da 0b 7e 3e
       -0.35538676 -0.16779418 0.40594125 0.24809209
0003d0 6a fa 2a 3e 48 d6 86 3c 75 e4 b0 3e d6 ed af bd
       0.16697088 0.0164596 0.345493 -0.085902855
0003e0 c0 29 a0 3d 91 40 59 be b7 1f cd 3e 49 cd 96 3e
       0.07820463 -0.21216036 0.4006326 0.29453495
0003f0 3b bf 92 be f7 ee 94 be dd 73 bd 3e b8 70 c7 3e
       -0.28661522 -0.29088566 0.3700246 0.38953185

conv3.bias f4 [32]
000000 77 e9 70 3d 83 38 17 3e 20 15 eb 3d 72 a1 ef be
       0.0588164 0.14767651 0.11478639 -0.4680286
000010 f8 ef 6c be 85 04 ca bd d9 f0 86 3e 19 10 01 bf
       -0.23138416 -0.09864143 0.26355627 -0.5041519
000020 c8 50 e3 bd d6 41 c5 3d 4c 77 26 be 31 6f cf be
       -0.11099392 0.09631698 -0.16256446 -0.4051452
000030 7a d4 7f bd ba 9c d0 3e f1 78 76 be b7 7e d4 3d
       -0.062458493 0.40744573 -0.24069573 0.103757314
000040 8d 8b 31 3e bc 9c 47 bc 3d 73 ca 3e 74 8c 3c 3e
       0.1733839 -0.0121833645 0.39541045 0.18412954
000050 07 8c 73 3e b3 f8 c4 be 74 b7 a7 bd 6c d2 f7 be
       0.23783885 -0.38470992 -0.08189288 -0.48402727
000060 05 a5 29 3e 30 db 1e 3e cf 68 c0 be 97 3e e8 bc
       0.16566856 0.15513301 -0.37579963 -0.028350158
000070 98 3a 8e 3e 2f ea 18 be 5a 95 cf 3d 42 80 f3 3e
       0.27779078 -0.14933084 0.101359084 0.4755879

fc1.weight f4 [10, 288]
000000 c9 ff e4 3d 6a d3 0a 3d cc 98 81 3e a0 78 57 be
       0.111816 0.033893026 0.25311887 -0.21042109
000010 1c bc 25 be 67 b1 6f 3e 9b 9a 3d 3d aa 63 15 3e
       -0.1618504 0.23407517 0.04629002 0.145888
000020 13 df a1 3d ea a8 a7 3e fb 2d a8 3e 1d 07 72 be
       0.07903876 0.3274606 0.3284758 -0.23635526
000030 5a dc de be 7f f6 f3 3b 4c 62 51 be 9d 9c eb 3e
       -0.4352749 0.007445156 -0.20447654 0.46017924
000040 5d 96 a2 3d 68 17 35 be 1e c9 b1 3e b2 49 cf 3e
       0.07938836 -0.1768471 0.34723753 0.40485913
000050 26 70 81 be 79 fc 8a 3e fd 66 5b 3e 03 45 9d be
       -0.25280875 0.27145746 0.21426006 -0.30716714
000060 e4 87 da be a0 bf c3 39 f0 00 e1 3e ef 50 0e be
       -0.426818 0.0003733607 0.43946028 -0.13898061
000070 a7 be c7 3e 14 46 a6 3e 7c 9b b7 be b0 83 0a 3e
       0.39012644 0.3247534 -0.35860813 0.13526797
000080 21 74 51 bd 8c e7 10 bd 39 85 bb 3e 03 a0 8a 3e
       -0.05113614 -0.03537707 0.36625078 0.27075204
000090 ce 76 f7 3d 28 8b dd 3e c4 50 a7 be c5 a2 ca 3d
       0.12083207 0.4327023 -0.32678807 0.09894327
0000a0 07 fa 80 bd 0a f8 2f 3e 0b 67 9b 3e 58 44 95 be
       -0.06297689 0.17184463 0.30352053 -0.29153705
0000b0 54 af 68 bd 4f 0d 20 3e 14 36 86 3e 95 87 26 3e
       -0.05680783 0.15630077 0.26213133 0.16262658
0000c0 47 a4 65 bd 44 10 83 3e 50 11 31 be 8e f9 97 be
       -0.05606487 0.25598347 -0.1729176 -0.29682583
0000d0 86 1c 9f 3d 86 e0 85 3e 4c 9a d9 be a2 47 49 3d
       0.07769112 0.2614786 -0.42500532 0.04914058
0000e0 e8 88 67 bb 75 8e dd bd f5 15 7b 3e 9c e5 9a be
       -0.0035329405 -0.10818187 0.24520095 -0.30253303
0000f0 77 bf 58 be df 7f 28 3e e9 d2 b7 be 19 21 8e be
       -0.21166788 0.16455029 -0.359031 -0.27759627
000100 ff 37 cd 3c 0e 49 fe bd 21 be b0 3e e1 06 ce 3e
       0.025051115 -0.12416278 0.34520057 0.40239623
000110 5f 18 d3 3e 37 8b 83 be 5b dc ee bd 4a 8b 23 3e
       0.4122953 -0.2569215 -0.11663123 0.15971103
000120 d1 de b7 3e ee f1 32 3e f1 aa 0a 3e 9c 26 8d be
       0.35912183 0.17475101 0.13541771 -0.2756852
000130 41 e3 63 3e 85 4c c5 be 76 06 2a be 4b 4e ba bd
       0.22254659 -0.38534942 -0.16604027 -0.090969644
000140 b1 b8 f7 3d ce 2f 8b 3e f1 ad cb 3e 4d 1a 91 bd
       0.12095774 0.2718491 0.39781144 -0.070850946
000150 d3 ac d7 3e 0f c5 e4 3e ac 63 cb bd 30 62 29 be
       0.42124042 0.44681594 -0.0993112 -0.16541362
000160 7f 8a dc bd ae d4 cd 3e 5b 37 04 3e 84 7f d9 3e
       -0.107686035 0.40201324 0.12911741 0.424801
000170 28 47 81 3e a3 0b 85 be ea da 0b be 07 d7 af 3d
       0.252496 -0.2598544 -0.13657728 0.08585935
000180 26 85 3e 3e d5 5f 11 3c a0 6c 9e be 16 e7 9a 3e
       0.1860548 0.008872946 -0.3094225 0.3025443
000190 3d f1 fd 3c 74 79 ab 3e 01 42 da 3e 79 fd b2 3e
       0.03099882 0.334911 0.42628482 0.3495901
0001a0 5a be 0f 3e 1e 6c c2 bc a0 c2 75 3e ba c1 ea 3c
       0.14037457 -0.023733195 0.24000025 0.02865683
0001b0 19 9d 03 bd cf 6c 03 be 63 77 d8 3e c6 1f 89 3e
       -0.032132242 -0.12834476 0.42278585 0.26782054
0001c0 06 09 d3 3d 38 e8 ee be 49 44 c1 be 9e 34 9c be
       0.103044555 -0.46661544 -0.3774741 -0.30508894
0001d0 99 1a c8 bd 12 be c0 3d 25 08 bf 3e e1 cc 98 3e
       -0.09770698 0.09411253 0.373109 0.2984381
0001e0 d5 0c 82 3e 84 01 8a be 6d 9c ae 3d 4e eb b1 3e
       0.25400415 -0.2695428 0.085259296 0.34749836
0001f0 66 b6 83 be 94 17 82 3e f5 c1 a4 be 09 9e d6 3d
       -0.25725096 0.25408614 -0.32179227 0.104793616
000200 13 99 25 be aa c4 0a be 52 36 53 3e 48 2b 66 3e
       -0.16171674 -0.13551584 0.2062619 0.22477448
000210 86 c3 df 3d ae 70 df bd ca 78 1e 3e 81 49 a0 3e
       0.10925965 -0.10910164 0.15475765 0.3130608
000220 75 61 d5 3e 92 90 89 3e ff 31 bc 3e e1 21 14 bd
       0.41675916 0.2686811 0.36756894 -0.036165122
000230 20 ef c9 be c5 50 b4 3e 51 49 85 3e df 03 7c 3e
       -0.3944025 0.35217872 0.26032498 0.24610852
000240 ec 68 b3 be 4a 52 74 3e cc 10 35 3e 94 92 99 3c
       -0.35040987 0.23859516 0.17682189 0.018746652
000250 41 e7 75 3e fa b0 78 3c 48 fe f7 bc 6d a7 2c be
       0.24013998 0.015178913 -0.030272618 -0.16860743
000260 59 07 f0 3e f2 20 4e 3e a5 91 92 3e 95 54 94 be
       0.46880606 0.20129755 0.28626743 -0.2897078
000270 b5 10 cc be 25 98 4e 3d c5 57 93 3e 51 76 a4 be
       -0.39856496 0.050438065 0.287779 -0.32121518
000280 03 c6 98 be be 00 3f 3e 71 8d 0d 3e 29 9f e5 3b
       -0.2983857 0.18652627 0.13823487 0.0070074988
000290 db f9 24 3e f9 37 cc bd 78 43 79 3e 70 ef 3b 3d
       0.16110937 -0.099716134 0.24342144 0.045882642
0002a0 af 7c 6f be 51 69 7b 3e ec 7a 19 3e f4 2f 2b 3e
       -0.23387407 0.24551894 0.14988297 0.16717511
0002b0 d1 5f 87 be ad c0 9b 3e 26 f4 ad bb 56 78 8d be
       -0.2644029 0.30420437 -0.005308646 -0.27630872
0002c0 29 36 b6 3d 61 8c 7d 3e eb 2b ed bd 6f 63 ed 3e
       0.08897049 0.24760582 -0.11580642 0.46364924
0002d0 ed e5 dd bb 7c 48 19 3e e1 77 b5 3e f1 36 3c be
       -0.006771794 0.14969057 0.35443023 -0.18380333
0002e0 27 ed d9 3d a5 77 68 be fc 40 2a 3e 0d 15 f2 3e
       0.10640936 -0.22701891 0.16626352 0.47281685
0002f0 cb a0 b7 3e 2a dd 32 3c 01 77 aa be 19 f0 b7 be
       0.35864863 0.010916987 -0.33293918 -0.35925367
000300 e0 52 c1 be a8 95 36 3e 4d bc a9 3e 43 ee c6 ba
       -0.3775854 0.17830527 0.33151475 -0.0015177209
000310 b5 fb d5 be 64 01 c6 be 7a ca 84 bd 6c cd a4 be
       -0.417936 -0.38672936 -0.06483932 -0.32187974
000320 20 78 8b 3e 6e bc d9 bc 97 15 be 3d eb 2c 86 3e
       0.27240086 -0.026579108 0.09281462 0.26206145
000330 88 2d cc bb 08 f6 c8 be 68 aa 01 3e ab 96 75 3e
       -0.0062310137 -0.39250207 0.12662661 0.23983257
000340 05 72 81 be 30 d3 5d 3e 47 98 ee be 42 21 4a 3e
       -0.25282302 0.21662593 -0.46600553 0.1973925
000350 3b 09 a9 3e 70 f9 ae 3e 96 6b 18 be eb db 6b 3c
       0.33014855 0.3417468 -0.14884791 0.014395694
000360 a9 a2 9a 3e ac 99 1b be 85 14 c8 3e ad cf 80 3e
       0.30202225 -0.1519534 0.39078155 0.25158444
000370 59 9d df bd a7 7b aa be 10 ab 28 3e 68 35 a1 3d
       -0.109186836 -0.33297464 0.16471505 0.078715146
000380 34 23 11 be ce 5b ed be 13 6e c8 3c 2c 7c fd bd
       -0.14173585 -0.46359104 0.02446655 -0.123771995
000390 f4 d2 83 3e 7a c4 c9 3d ad f9 62 be 86 69 e3 bc
       0.25746882 0.09851928 -0.22165556 -0.027760278
0003a0 5a fa 4a 3d ee 04 da 3e 45 d0 b8 3e dc 15 c5 3e
       0.04955516 0.42581886 0.36096397 0.3849324
0003b0 a8 b2 8c be 84 ad b4 bc 39 f8 1e 3c 72 51 7e 3e
       -0.27480054 -0.022055395 0.009702736 0.24835756
0003c0 5b b0 5a 3e cc fd 82 be 29 2d b0 3e 0e 97 97 be
       0.21356337 -0.25584257 0.34409454 -0.29607433
0003d0 a5 15 cb 3e c7 ec f5 3d 85 31 a0 bd b2 b9 b2 3e
       0.3966495 0.12008052 -0.07821945 0.349073
0003e0 6c f0 a7 be 2e bd cd 3e 35 17 2b 3e 11 b7 cb be
       -0.32800615 0.40183395 0.16708072 -0.39788106
0003f0 6e d4 cd 3c a0 1a 40 be 88 bc 08 3d e5 1f ec 3d
       0.025125708 -0.18760157 0.033382922 0.11529521

fc1.bias f4 [10]
000000 78 0b 87 be c4 f6 cc be a3 1d 3a be df 69 4e be
       -0.26375937 -0.40032017 -0.18175368 -0.20157574
000010 65 8a 01 bf fc 74 09 bd f4 01 1d bf 9c 36 90 bd
       -0.506018 -0.03355883 -0.61331105 -0.07041666
000020 b1 3a 5a 3c 76 9e 9c 3e
       0.013319657 0.30589646
