sandbox/snapshots3/model-1752.pt (torch, 71725 bytes, 8 tensors)

conv1.weight f4 [16, 3, 3, 3]
00000000: 4374 113f 07c4 95bf 33aa a13f cf01 a0be
00000010: 93eb 493f ad64 a93f 32f1 fbbe 543f 493e
00000020: f456 b33f fc99 453f 0ce2 e8be 477d 9a3f
00000030: 880a 3dbf e0cf 5bbe cc37 6b3e b245 4e3f
00000040: 9cc4 a9bf 0953 23bf 5dcb 85be de78 93bf
00000050: 1912 e33e ba3a 99be 6890 3b3f 8908 893f
00000060: cdd8 54bf f426 84bf 5c06 743e 1ac1 703f
00000070: 20ca 19bf 5ffb 1fbe ab54 b4bf c9ee 823f
00000080: fdec 30bf 43f1 54be 2d2d 623e da02 a93f
00000090: 1e8d 2c3f 2cac 793f 0a40 973f 607e 673f
000000a0: 3fe0 903f 1d6a a93f 1467 aa3e d2b4 99bf
000000b0: 01b3 22bf 4a5f b6be 9c24 83bf 6e2b 923f
000000c0: a835 db3e aa44 8d3f 64e5 933f 30a4 ac3e
000000d0: 59f9 88bf d548 19bf 7816 44bf 5e5a 283e
000000e0: efec 2c3f 3d10 033f 8ad2 9a3f b105 91be
000000f0: 8089 be3e 820f bbbf e8ad bb3f 49d0 80bf
00000100: 9bef b7bf 2c7e 46bf e207 a83f fb92 423f
00000110: 67ca 3f3e 67d8 8abf e482 9e3e 674d b4bf
00000120: fef1 89bf 8187 383f 45c5 a03f 944e 293e
00000130: 0cb7 06bf 58a9 0f3f 6857 903e f71e e1be
00000140: 7ba1 683f 2935 68bf 938b 903e 0e56 9dbf
00000150: dea8 723f 24bf 633e 2fde 56be a4a8 d7bd
00000160: f7d9 4cbe f7a3 4f3f ffdf a7bd cbcb ab3e
00000170: 2a70 3c3f 83f1 893e caf7 b1bf 0b18 4cbf
00000180: c95b 2ebf 72b1 c3be ec39 0ebf 1d94 803f
00000190: ccdf d53e 70a2 70bf ac13 153f bd0b 543f
000001a0: 681f af3f 3689 38bf 4eb4 fa3e 1a18 cc3f
000001b0: 4319 983f 0294 0abe 0b31 553f cd2a 3c3f
000001c0: e80d c0bf 0a71 2dbf 748e 8c3f c75b 8dbf
000001d0: 69bf 37bf 474f 103f e19b 7abf 62a9 a23f
000001e0: 53f3 37be 6113 34bf c04b 5ebf f0d6 a7bf
000001f0: 56ad b4bf c48b 813f 8d20 e03d 9e5c 333e
00000200: 46ed bb3e b696 063f 9e35 a93f b27f 3ebd
00000210: 4864 fdbc a40b 24bf cfe5 f5bd af45 9c3f
00000220: d14c f63e fc86 adbf 20e0 683e b5c8 babf
00000230: c0d7 413f ec7d 183f e9bc 78bf aeb0 89bf
00000240: dc1f 86bf b3cc 0a3f a0f4 f0bd 9b13 653e
00000250: 307b 653f 8fbd b53f 4742 91bd 270a 75bf
00000260: 23f2 8bbe a974 29bf 91eb b7bb 955c b9bf
00000270: de11 ba3f 13fe b13f 245d 473f 9dab a3bf
00000280: 393e 0ebf a130 f1be c5df 86bf 0a84 473f
00000290: 1568 803f de08 c1bf 07dd a93f 4d49 893f
000002a0: 2897 af3f eabb ba3f cd0f 8abf 5a6e 22bf
000002b0: 8f01 b3bf 2716 8b3f bc24 1bbf 051c e1be
000002c0: 9816 9b3f 2e48 a7bd f1de 65bf b491 92bf
000002d0: 0344 40be 8d6b 78bf 16af 1a3f 5bf3 75bf
000002e0: b88c 9e3e c56c 3fbf a29f 09bf 3947 b4bd
000002f0: 9234 78bf beac ba3f da52 a1bf d73f b93f
00000300: 4ead 933f e932 15bf c72f c7bf 69d1 09bf
00000310: a01c ae3f 6fbd 963e c333 88bf 4369 8bbe
00000320: 1498 913f 5e37 703f ff2f 923f b8e4 b63f
00000330: 5bf1 a13f ca71 de3d 8606 1bbe 43f8 af3e
00000340: f6a4 c7bf 4eff b0bf 0070 f53d 3950 c1bf
00000350: 02e7 8bbf de75 a13f 78a6 e6be 51b4 753f
00000360: 17a3 003f 5c21 a03f 0c8e 51bf a8d4 623f
00000370: 727d bc3e 5eb7 9fbf 3676 a7bf d343 b23f
00000380: 2740 5ebd bdb8 92bf 5aa8 7bbf 5556 92bf
00000390: a625 5b3f b199 6dbf a8b7 4cbf f172 9c3f
000003a0: 100f 9dbf 930f 233e 963e 983e f30a 0b3e
000003b0: 30e7 83bf d655 343f 9a95 9bbf ebfb ae3f
000003c0: 9495 163f 8bce abbe 9fd3 b23f cd20 9cbf
000003d0: 130d 8e3f 2831 1cbf c3da 003f 409f de3e
000003e0: c942 bb3d d863 ac3f e3f1 8bbf bec8 513e
000003f0: 81de 0abf c664 0fbf a07a 903f 8bfb 52bf
0.56818026 -1.1700448 1.2630066 -0.3125138 0.7887508 1.3233849 -0.49207455 0.19653064
1.4010911 0.77188087 -0.4548496 1.2069482 -0.73844194 -0.21466017 0.22970504 0.80575097
-1.3263125 -0.63798577 -0.26131716 -1.1521261 0.44349745 -0.29927617 0.7326722 1.070573
-0.8314331 -1.0324388 0.23830551 0.9404465 -0.60074043 -0.15623234 -1.4088339 1.0229121
-0.69111615 -0.20795159 0.22087546 1.3203995 0.6740283 0.9752834 1.1816418 0.9042721
1.1318434 1.3235508 0.33281767 -1.2008307 -0.6355439 -0.35619575 -1.0245547 1.1419504
0.42814374 1.103658 1.155438 0.33719015 -1.0701095 -0.5987676 -0.76596785 0.16440722
0.6754903 0.5119665 1.2095501 -0.28324655 0.3721428 -1.4614108 1.4662447 -1.0063564
-1.4369997 -0.77536273 1.3127406 0.76005524 0.18729554 -1.0847291 0.30959237 -1.4086121
-1.0776975 0.7208176 1.2560202 0.16533881 -0.5262306 0.56117773 0.28191686 -0.43968937
0.908714 -0.90706116 0.28231487 -1.2291887 0.9478892 0.22240883 -0.20983194 -0.105302125
-0.20005022 0.81109565 -0.08197021 0.3355392 0.7360865 0.2694207 -1.3903744 -0.79724187
-0.68108803 -0.38221318 -0.5555713 1.00452 0.41772306 -0.9399786 0.5823314 0.8283041
1.368146 -0.7208437 0.48965687 1.5944855 1.1882709 -0.13533023 0.8327796 0.7350281
-1.5004244 -0.6775061 1.0980973 -1.1043633 -0.71776444 0.5637097 -0.978941 1.2707942
-0.17963915 -0.7034207 -0.86834335 -1.3112469 -1.4115398 1.0120778 0.109437086 0.175158
0.36704463 0.52573717 1.3219488 -0.0465085 -0.030931607 -0.6408026 -0.12006723 1.2208766
0.4810548 -1.3556819 0.22741747 -1.4592501 0.75719833 0.5956714 -0.97163254 -1.0757043
-1.0478473 0.54218596 -0.117654085 0.2237076 0.89641094 1.4198474 -0.070927195 -0.95718616
-0.27333173 -0.66193634 -0.0056127985 -1.4481379 1.4536703 1.3905662 0.77876496 -1.2786747
-0.55563694 -0.47107413 -1.0537039 0.7793585 1.0031763 -1.5080831 1.3270577 1.0725495
1.3718004 1.4588597 -1.0786072 -0.63449633 -1.3984851 1.0866135 -0.6060293 -0.4396669
1.211627 -0.08168064 -0.89793307 -1.1450715 -0.18775944 -0.9703911 0.6042341 -0.96074456
0.30966735 -0.74775344 -0.53759205 -0.08802647 -0.96955216 1.4583967 -1.2603409 1.4472607
1.1537263 -0.5828081 -1.5561455 -0.5383516 1.3602486 0.294414 -1.0640796 -0.27228746
1.1374536 0.93834484 1.1420897 1.428855 1.2651781 0.10861547 -0.15139207 0.34369096
-1.5597217 -1.3827913 0.11984253 -1.5102607 -1.0929873 1.2614095 -0.4504888 0.95978266
0.50248855 1.251018 -0.8185737 0.8860574 0.36814457 -1.2477834 -1.308295 1.3926948
-0.0542604 -1.1462628 -0.9830376 -1.1432596 0.8560432 -0.9281264 -0.7996774 1.2222577
-1.2270222 0.1592391 0.2973525 0.13578396 -1.0304928 0.70443475 -1.215503 1.3670629
0.5882199 -0.33556017 1.3970832 -1.219751 1.109774 -0.61012506 0.50333804 0.43480873
0.09143598 1.346797 -1.0933193 0.20486733 -0.54245764 -0.56013143 1.1287422 -0.82415074

conv1.bias f4 [16]
00000000: 011e a43f 55b7 86bf 62f0 ee3e cc0d adbf
00000010: f1e1 de3e 2d78 233f c571 77bf 3364 143d
00000020: a0aa 533e 4889 533f 8bbe e33e 9d77 aa3f
00000030: b620 c0bf a70e 54bf 7cc7 373f c92f 333f
1.2821656 -1.0524698 0.46667773 -1.3519835 0.43531755 0.6385525 -0.96657974 0.03622837
0.20670557 0.8263135 0.4448131 1.3317753 -1.5009983 -0.8283486 0.71788764 0.6999479

conv2.weight f4 [32, 16, 3, 3]
00000000: da8d afbd 3a23 07bf 42d4 9a3e 619a 043f
00000010: 8e85 de3d 3460 a23d 963e f0be 42b1 143e
00000020: f148 28be 592a 02bf ad05 8a3e 7b38 08bf
00000030: 272a b7be 0dc0 aebd 8111 0c3f 4f06 973e
00000040: b920 e23e fdb5 e1bd b344 da3e d2d3 12bf
00000050: 2c65 c53e 579d 183f 22d9 c63d 3049 dbbe
00000060: d008 073f 26c1 3cbe 9907 a4be f2a5 fabe
00000070: 10c5 28bf 4ec0 7b3e 7022 863d 98af 173e
00000080: f648 f1bd bbc0 93bc 034a 403e 2139 3d3c
00000090: 352a f83c 4230 0f3f aac8 1c3e 721c 11be
000000a0: e7b3 28bf 9ccb 7b3e 4189 9e3e c604 aebe
000000b0: de76 aebe cdc2 d8bd 209a f8be c884 b53e
000000c0: c629 f8bd e80c 233f 06f5 99be 6bef 883d
000000d0: 09f3 07bf 6a41 233e 7ea2 26be 7a38 5fbe
000000e0: 114e b93e 4f36 b63e 7af2 003f 88c3 133f
000000f0: b8b7 113f 221a 56be d8ef 0c3f 2e80 40be
00000100: e791 e0be 13b9 323d f519 24bf 75c3 123f
00000110: 032e 083f 404c f7be ef02 c83e 6af8 9fbd
00000120: 9c06 7dbe 6dd0 233f 1953 eebe 7505 9f3e
00000130: 0ea1 afbe 6792 df3d ea07 cc3d 16cb 063f
00000140: 9e45 093f 3a00 563e 6a6f 093e 6eff 023f
00000150: db78 8c3e 0969 9abe 4f8c 2b3d 8821 93be
00000160: d837 173f 4619 ad3c 034f 403e 15f1 26bf
00000170: 242b 1cbf 2aee 01bf dfa0 943e 05cf 59be
00000180: d615 9b3e 38d1 f63e a746 673e f9a1 aabb
00000190: cc42 75bd 3b85 8cbe 806a 0abf adf7 cabe
000001a0: 43b2 033f ffe8 16bf 137d d43b 9e0f c63d
000001b0: 2e2d 60bd 682a 803a b0b8 e33e 6c89 0fbf
000001c0: efad 233f a316 d33e 8f4c 213f e04a 13bf
000001d0: 2bb3 eb3d 77b6 213f 55fe 8c3e bb6a 713e
000001e0: 1d71 e0be 3f86 b83e d0ab 02bf 51ec 6ebe
000001f0: cef6 a53e dd11 19be 7e16 50be f858 0dbf
00000200: f08f 8ebe eca2 253f 6d70 133f 5ad3 38be
00000210: f989 fdbe 2be0 bc3d 6e4e fdbe 075e f5be
00000220: 2ccb 22be 2c24 78be a2d5 94be add8 a43e
00000230: 47cd 20bf 8192 2cbf 6374 17bf ab82 19bd
00000240: e1fd b13e 5aa5 08bf 9932 173f 4bb3 1dbf
00000250: 1788 673d 1005 19bf 14d7 09bf ac64 c33e
00000260: 2b3f abbd 3925 8cbd aaeb fa3d 277c 063d
00000270: 9ae3 66be 548e b03e d1db 003f f93a f53d
00000280: 02e6 46be aa3c 113f 5cc5 153e 1d6a b63e
00000290: 1916 babe b56b 303e 0abe bd3e b702 d1be
000002a0: d371 a53e b34a 0c3f 39cc 2abd 266f 21bf
000002b0: 693d 083d 0e89 0dbf b44c 05bf fb7c aa3d
000002c0: d135 a03e 887d e23e 06d9 013f 8d14 56be
000002d0: 57cd 8fbe 000f 25bf 485c e93e 0654 3bbe
000002e0: a539 fe3e 5f48 1dbf 5c98 94bd cfcf e33e
000002f0: 18b2 49be b2b2 a53e 789c 06bf 2199 eb3e
00000300: 8a52 d4be 5ae0 7fbd 0b9f da3e 21f8 9fbe
00000310: 6105 25bf d6e4 dc3e 5254 313e a1c0 d3be
00000320: 4a75 c7be 926a 7fbe 2e56 9f3c 19c9 963e
00000330: 7e38 833d d32a 1ebf ba21 f23e d2a0 843e
00000340: 536c abbe f116 49bd 6990 293e 1e8e 0b3f
00000350: 480e 6d3e 819f 943d ba48 0fbd df76 d0be
00000360: 2c6c b2be 51b2 d93e aa2b 88be 3a6f 433e
00000370: 06a3 2fbe 277a 0f3f d101 08bf 88cb 04bc
00000380: 931b 41be fda5 253f 1d04 813e 304c b03e
00000390: 201d ebbe bd7c 873e d23d 913e fb47 0c3f
000003a0: aa22 1dbf 8589 f539 d66a 13be bf2a a23e
000003b0: 3877 7c3e 3778 da3e 2d7e 17be d59f 503e
000003c0: fc10 7b3d c932 15be 5aa1 18bf 650e b6bd
000003d0: 3cdb 2fbd 3430 d13b 19ad 3cbe 8a9e 9b3e
000003e0: 936a 293f 842f a6be 593b a5be 09d9 de3e
000003f0: d914 42be e47e 053f a632 693d 59c4 86be
-0.08571978 -0.52788126 0.30240065 0.51798064 0.10865317 0.079285055 -0.4692275 0.14520743
-0.16434075 -0.5084587 0.26957455 -0.5321118 -0.35774347 -0.085327245 0.5471421 0.29497
0.4416559 -0.1102104 0.42630538 -0.5735446 0.3855375 0.5961508 0.097093835 -0.42829275
0.5274782 -0.18433055 -0.32037047 -0.4895473 -0.65925694 0.24585077 0.06549537 0.14813077
-0.11781494 -0.018036237 0.18778233 0.011549265 0.030293563 0.5593301 0.15310922 -0.14171007
-0.6589951 0.2458939 0.3096409 -0.33988017 -0.34075063 -0.1058403 -0.48555088 0.35452867
-0.12117343 0.6369157 -0.3006975 0.0668629 -0.5310522 0.15942922 -0.16272923 -0.21798888
0.36192372 0.3558831 0.5036999 0.5772023 0.5692096 -0.20908406 0.5505347 -0.18798897
-0.43861315 0.04363353 -0.6410211 0.57329494 0.5319521 -0.48300362 0.39064738 -0.07811053
-0.24709553 0.6398991 -0.46547773 0.3105885 -0.34302562 0.10916596 0.09962447 0.52653635
0.5362185 0.20898524 0.13421407 0.51171005 0.27435955 -0.3015826 0.041881856 -0.2873652
0.59069586 0.021130215 0.1878014 -0.6521161 -0.6100333 -0.50754035 0.29028985 -0.21270378
0.30290097 0.48206496 0.22585545 -0.005207297 -0.059878156 -0.27445397 -0.54068756 -0.39642087
0.5144388 -0.58949274 0.0064846366 0.096709475 -0.054730587 0.0009778263 0.44476843 -0.56069064
0.63937277 0.41228208 0.63007444 -0.57536125 0.11508783 0.63169044 0.2753779 0.2357587
-0.438363 0.36039922 -0.51043415 -0.23332335 0.3241486 -0.1494822 -0.2032108 -0.5521388
-0.2784419 0.64701724 0.57593423 -0.18049374 -0.49519327 0.09222444 -0.494739 -0.479233
-0.15897816 -0.24232548 -0.2906924 0.3219656 -0.6281323 -0.6741105 -0.5916197 -0.03747813
0.34764007 -0.53377306 0.5906158 -0.61601704 0.05652627 -0.5977335 -0.5384381 0.38162744
-0.08361658 -0.06843037 0.122519806 0.032833245 -0.2254776 0.34483588 0.50335413 0.11974139
-0.19423679 0.5673319 0.14626068 0.35627833 -0.36344984 0.17228587 0.3705905 -0.40822384
0.32313403 0.5480148 -0.04169867 -0.63060224 0.03326169 -0.55287254 -0.52070165 0.083246194
0.3129106 0.44236398 0.50721776 -0.20906277 -0.2808635 -0.64476013 0.45578218 -0.18293771
0.49653354 -0.61438555 -0.07255623 0.44494483 -0.19696844 0.32362896 -0.525825 0.46015266
-0.41469222 -0.062469818 0.42699465 -0.31243995 -0.6446133 0.43143338 0.17317322 -0.41357902
-0.38956672 -0.24942997 0.019450273 0.294503 0.064072594 -0.61784095 0.47291356 0.25903946
-0.33481082 -0.049094144 0.16558994 0.5451373 0.23149979 0.072569855 -0.034981467 -0.4071569
-0.34848154 0.42518857 -0.26595813 0.19085398 -0.17152032 0.56045765 -0.5312777 -0.008105166
-0.18858175 0.64706403 0.2519845 0.34433126 -0.45920658 0.26462355 0.28367478 0.54797333
-0.6138102 0.00046832502 -0.14396223 0.31673238 0.24654853 0.42669842 -0.14794226 0.20373471
0.061295494 -0.14570154 -0.596212 -0.08889464 -0.042933688 0.00638392 -0.18425407 0.30394393
0.66178244 -0.32458127 -0.3227184 0.4352496 -0.18953265 0.52146745 0.056933068 -0.26321676

conv2.bias f4 [32]
00000000: 9222 2cbf eaa7 d23e 4134 0bbf 45c7 07be
00000010: 0162 8bbe f3af f03d ddd9 eb3e 0e1b e0bd
00000020: 8e4c acbd 9464 8f3d f557 dbbe f7d8 0bbf
00000030: ca79 a6bd 706b 103e e3a5 65be aba4 ebbe
00000040: 2cd7 c6be c0b8 ac3e bd55 ddbe 5dcf d5bd
00000050: 9360 b13d f556 1c3f fc1f 1f3f c5cc b6be
00000060: 5038 293f d3b6 403e 4918 da3e 75a6 16bf
00000070: 867f fbbe 941e 823a dd03 88bd c6bc 363f
-0.6724025 0.41143733 -0.5437661 -0.13259609 -0.2722321 0.1175231 0.46064654 -0.1094266
-0.08413039 0.07001606 -0.42840543 -0.5462794 -0.08128698 0.14103484 -0.22426562 -0.4602407
-0.38836038 0.33734703 -0.43229476 -0.10439942 0.08660998 0.61070186 0.6215818 -0.35703102
0.6610155 0.18819742 0.42596653 -0.58847743 -0.4912073 0.0009927326 -0.06641362 0.71381795

conv3.weight f4 [32, 32, 3, 3]
00000000: 146c 1abe 6993 5f3e 40ae 9b3d 2746 e1be
00000010: a699 b1be 67c1 e43e bbe5 90be e5b0 85be
00000020: a306 d43e 822f bd3e 72f2 9f3e 3a84 943e
00000030: 9895 67be 4573 e53e 108a 21be 2514 82be
00000040: 55c6 aa3e 0cc1 99be 81bf 33be 8ca4 d0be
00000050: a3e0 bc3e e81f cd3d d463 a8be 2c46 c23e
00000060: de06 d7be 48c9 3b3e 71e2 983e c62c 25be
00000070: 793f e03d 75e1 b63e acac 9e3d feb8 d8be
00000080: ed4e 84bd ebfb 313e f7a6 693e bb28 fabd
00000090: fd78 b2bd 89b4 2ebe f107 dd3e 3aaa 58bd
000000a0: 6f0c aabb bb26 edbe a005 893c 4681 c03c
000000b0: ef78 71be 0f6e ac3e a9a0 433e e432 a8be
000000c0: b631 dabd d1b6 b73e 831b b03c 54f3 da3d
000000d0: 32cc ba3d 9dbf e83e 5fa1 8f3e 2bc7 5f3e
000000e0: a7e0 383b 9e80 963d 68f9 48be ec9b edbe
000000f0: d06b 803e cc88 c03e bfd2 b53d f9aa 50be
00000100: 2945 aebe a74e 8dbe 08c5 ecbe c618 8a3e
00000110: a081 913e 93f4 f5bd d891 bf3e 0841 b0bd
00000120: 3f0a f7bd 04c8 bb3e ce44 fabd 99e3 01be
00000130: 2a61 d13e 7175 67be a5a1 d7be 39c0 a3be
00000140: b9fe dbbe 1288 98bd 10e3 253e 318c c63e
00000150: b459 b0be 3c43 e73d d2f4 ab3e 6276 963e
00000160: 0220 863e c070 983d 7d55 b6bd ec57 9f3d
00000170: 37c4 acbe a355 e03e 1a23 dcbe eadf 0b3d
00000180: c279 edbe 6583 34be ae4a dcbe 700d aebe
00000190: 2b64 f83d 12f4 843e a114 a9be 2919 c4be
000001a0: e05b 193e c621 303e 6485 8a3e 7daf 153e
000001b0: d137 ed3d f001 713e e784 5ebe 6d74 a83e
000001c0: 3cff 85be 5830 b2bd 8522 efbc 3afb b43e
000001d0: a0a2 e6bd b6fd 98be 118d edbd d888 d43e
000001e0: 11ab 863e 5cf8 adbe ceaf 383e eaff 77be
000001f0: 03bd c7be 443b 1dbb ef72 a7bd 06ad 6b3e
00000200: e445 b7be b9c3 b13e 29e8 abbd e261 fdbe
00000210: 30e0 9fbe 5154 5e3d bdd6 c13e 278a 8ebe
00000220: 0141 823d 56e3 33be 1d13 7ebe 7a7d 89bd
00000230: e2b4 abbd d0b4 f0be b005 2a3e 3938 4abe
00000240: 5fef 9a3d a565 98bd 3ca6 b1bd ef6b 73bd
00000250: 2ed5 7abe d49e 893d fd2d 1c3e 3751 a1bb
00000260: 5752 b93c 365b 593e 5123 ba3e fd6d 14be
00000270: 5133 b7be 87f9 13be 76e1 e13e b725 293e
00000280: 2bea e63d 2dfd 9a3e 3b5d 99be aa32 bd3d
00000290: 1e97 d03d b25b b83e 2548 0cbe 223b 1bbe
000002a0: 8b44 243e be76 3d3e 0a94 343c a5e4 813e
000002b0: e789 3bbe d0f9 c53d 8c41 b1be b616 133e
000002c0: 1773 14be 2267 cabe b88c ddbe 7797 cebe
000002d0: 93ec 98be 9bb9 3d3d 25db a6be c47b e4be
000002e0: 0e42 fb3b 83ed 05bd efd4 1b3e 1845 adbd
000002f0: 3dd9 a83e 88f0 993e e3e3 963d ef80 bebc
00000300: 2937 d3be 69bd 0ebc 579a f2bd 77f7 8a3d
00000310: e8f3 ccbd fdf1 613e 81c3 f4be a03a dc3e
00000320: 55e0 83be 3f95 ca3d 126d 86be b1df e93d
00000330: 2ec0 3ebe cbf5 c83d 41ed cf3e 7328 00be
00000340: 586c e73e 240d f0be 3d02 8abd edac aabe
00000350: e698 d0bd 6be3 fabc 50ee 72bd c5cc f9bd
00000360: 87fa 023e 51d1 c13e 33a1 fbbc 6f6d 54be
00000370: 949f 0abd 3847 ea3e a102 c23e 0358 a1be
00000380: b9f5 063e 5c29 803d 2c76 5d3e d029 92be
00000390: aa8e 8c3e 3369 34be 8aa4 883e fd5b 18be
000003a0: b0dd dfbe d22f 6dbd dbc5 e33e fe84 283e
000003b0: e03b 7abe ec53 1abe 1321 8fbd 55f3 683e
000003c0: 3ad9 b6be c916 24be 3c2d d53e f337 7f3e
000003d0: 6536 253e d9ce 123c f1bd af3e b491 afbd
000003e0: 9bd5 b93d 06b6 56be a9f5 ca3e 4f32 953e
000003f0: 562d 94be 7a2d 97be 56d4 c33e 54c8 cb3e
-0.15080291 0.21833576 0.07601595 -0.43998834 -0.34687537 0.44678804 -0.2830027 -0.26111522
0.41411313 0.36950308 0.3123966 0.2900713 -0.22615659 0.44814506 -0.15775323 -0.25405994
0.3335444 -0.30030096 -0.17553522 -0.4075054 0.36890134 0.10015851 -0.32888663 0.37944162
-0.41997427 0.18338501 0.2986026 -0.16130361 0.109496064 0.35718885 0.07747778 -0.42328638
-0.064603664 0.17381255 0.22817598 -0.122148 -0.08714483 -0.17061056 0.4317012 -0.052896716
-0.0051894705 -0.46318612 0.016726315 0.023499142 -0.23581289 0.33677718 0.19104256 -0.32851326
-0.10654013 0.35881665 0.021497494 0.106909424 0.091209784 0.4545869 0.28052804 0.2185332
0.0028210075 0.073487505 -0.19626391 -0.4640802 0.25082254 0.37604368 0.08878087 -0.20377721
-0.3403714 -0.2759907 -0.46244073 0.26972026 0.2841921 -0.120095395 0.37415957 -0.08606154
-0.12062501 0.36676037 -0.12220155 -0.12684478 0.40894443 -0.22603394 -0.42115512 -0.31982592
-0.42967775 -0.07447828 0.16199899 0.38778833 -0.34443438 0.11292121 0.3358522 0.29387194
0.26196295 0.0744338 -0.08903024 0.07780442 -0.3374345 0.43815336 -0.4299553 0.034149088
-0.46381956 -0.17628248 -0.43025726 -0.33994627 0.121284805 0.2596746 -0.3302355 -0.38300446
0.14976454 0.17200384 0.27054894 0.14617725 0.11582912 0.23535895 -0.21730386 0.32901326
-0.2617129 -0.08700627 -0.029191265 0.3534792 -0.11261487 -0.29881066 -0.11599172 0.41510653
0.26302388 -0.33978546 0.18035814 -0.24218717 -0.39011392 -0.0023991624 -0.08176219 0.23015222
-0.3579551 0.34719637 -0.083938904 -0.4948874 -0.3122573 0.05427963 0.37859145 -0.27839777
0.06360055 -0.1756719 -0.24811979 -0.06713386 -0.0838411 -0.4701295 0.16603732 -0.1974801
0.07565188 -0.07441262 -0.08674285 -0.059429105 -0.24495384 0.06719747 0.15251918 -0.0049230116
0.02262227 0.212262 0.3635507 -0.14495082 -0.3578134 -0.14450656 0.44117326 0.16518293
0.11275133 0.30271283 -0.29953942 0.09238179 0.10185073 0.36007458 -0.13699396 -0.15159276
0.16041772 0.18502328 0.011021623 0.25369754 -0.18314324 0.096667886 -0.3462032 0.14364132
-0.14497028 -0.3953181 -0.43271422 -0.40349934 -0.29867992 0.046319585 -0.3258907 -0.44625676
0.0076677864 -0.032697212 0.15217946 -0.08460444 0.3297824 0.30066323 0.07367685 -0.02325484
-0.4125302 -0.008712151 -0.11845844 0.067854814 -0.10007459 0.22064967 -0.47805408 0.43013477
-0.2575709 0.09891748 -0.2625509 0.11419619 -0.18627998 0.09812506 0.40610698 -0.1251543
0.45199847 -0.46885026 -0.06738708 -0.33335057 -0.10185413 -0.03062602 -0.059309304 -0.1219726
0.12790881 0.37855008 -0.030716514 -0.2074487 -0.03384359 0.4575746 0.3789263 -0.3151246
0.13179673 0.06257889 0.2162711 -0.28547525 0.27452594 -0.17618255 0.26688033 -0.1487884
-0.43723822 -0.057906933 0.4448689 0.16456982 -0.24436903 -0.15071076 -0.0698873 0.22749074
-0.35712606 -0.16024317 0.41636074 0.24923687 0.16134031 0.008960449 0.343246 -0.085727125
0.09073945 -0.20967874 0.3964055 0.29139945 -0.2894084 -0.29526883 0.38247937 0.39801276

conv3.bias f4 [32]
00000000: b811 933d e920 303e b22d 133e 2690 d7be
00000010: 3056 69be 6f61 b4bd 59bc 8e3e f429 f2be
00000020: 4f65 aabd 5b01 fe3d 95f1 1fbe 27fc ccbe
00000030: 37a3 13bd ead1 e43e a385 60be 1510 fa3d
00000040: 2288 353e ec28 863c bfcb e23e 0163 433e
00000050: caa0 8d3e 9fac c2be 853f 9abd 8dab efbe
00000060: 81f9 283e a5a3 383e da10 bfbe 03ce 843c
00000070: 10d3 b33e e74a 10be dca7 da3d e10c f43e
0.07181114 0.17200054 0.143729 -0.42102164 -0.22786784 -0.088076465 0.27878073 -0.47297633
-0.08320104 0.12402602 -0.156195 -0.40036127 -0.036044326 0.44691402 -0.21925978 0.12210099
0.17727712 0.016376935 0.4429607 0.19080736 0.27661735 -0.38022324 -0.07531647 -0.4681057
0.16501428 0.18031175 -0.37317544 0.016211515 0.35121965 -0.14091073 0.10676548 0.47666076

fc1.weight f4 [10, 288]
00000000: 32d6 e23d b85b 063d 662c 873e 4ead 5cbe
00000010: 1a96 0ebe d734 793e 8807 0f3d 6223 113e
00000020: 38f8 7c3d 9b10 a83e 62d5 a83e 5666 72be
00000030: 7550 dfbe 2915 ef3b 2cfa 51be e67f ec3e
00000040: dc4b a23d 5596 35be 9cd4 b23e da02 d13e
00000050: ab3e 81be 518b 8b3e deff 5b3e af68 9dbe
00000060: 85c9 dbbe 4f37 a7ba cbd3 e13e 8fc2 16be
00000070: 7745 cb3e b8dc a63e 7722 bcbe 6e3c 0f3e
00000080: 3805 8ebd 2e9b 16bd 9a61 b93e 0204 853e
00000090: c88c 013e 6203 de3e c276 a7be 4900 bb3d
000000a0: ad97 87bd edd2 2e3e 4c8a 9c3e 74d5 97be
000000b0: dc7d 6ebd bfeb 213e 01f2 8f3e 4335 363e
000000c0: 4f67 c4bd 4afa 6a3e 581c 6abe 5cb1 96be
000000d0: 695d 213d 273c 8a3e 3612 dbbe 4e81 523d
000000e0: 0254 75bb 1157 dbbd b618 7d3e 6a10 9bbe
000000f0: 9fa9 57be ab36 293e 94a0 b7be 1ee5 8dbe
00000100: eae4 cd3c 5f4c fdbd d748 b03e e4d6 d03e
00000110: 7580 d63e a430 84be 51f0 f4bd 2428 253e
00000120: 7232 c93e 1cee 5a3e 9cc0 283e 6846 91be
00000130: 0116 853e 2b1e d0be d32f 38be 9fb7 babd
00000140: 28bb 043e 0d6d 833e 01b4 d33e 633f 9fbd
00000150: ce56 da3e 579f e93e e4e7 d1bd 774b 39be
00000160: 76be e3bd ac0c d53e 28f9 fc3d 14f2 e43e
00000170: 3228 6a3e 6235 93be 0e5d 42be d496 673d
00000180: 5075 373e 5fba 18bb 5077 aebe 1b85 9e3e
00000190: 3499 e83c 924e ac3e 2009 d93e 3571 b63e
000001a0: f8d9 093e af09 00bd 0934 813e c605 e63c
000001b0: e5f2 02bd f0aa 03be 1f21 d93e 2f6b 893e
000001c0: bf95 d53d ff9d efbe 53b8 c1be fccc 9cbe
000001d0: 550d c8bd e8d1 993d 8a04 b83e 723d 9d3e
000001e0: 92ce 7c3e 018c 94be 5b56 aa3d 11b2 ae3e
000001f0: 71a4 8dbe 29ac 883e 0008 a6be 1fed e53d
00000200: f572 25be adac 08be c4b4 583e 0862 683e
00000210: 7397 e43d 3741 edbd 8240 263e 96a4 a23e
00000220: 4992 d63e 5659 8a3e ce14 bd3e 92f5 0ebd
00000230: a4d6 cabe 3a2d b53e b2de 853e 17a9 7e3e
00000240: c379 b2be f028 743e eaa8 353e 3765 a13c
00000250: 3a5b 763e 6e16 823c 6def f4bc 3dfa 2cbe
00000260: 31b8 f03e 0dc9 4d3e c398 933e 8c28 96be
00000270: 13cc cebe 8ead 483d 960b 943e d26c a5be
00000280: 8b6b 98be ef80 413e 5f94 383e 8db8 79bc
00000290: fd38 303e 0b46 c0bd 9bdb 843e 8a4b 5c3d
000002a0: 50bb 84be 7d4f 973e 7e81 263e 7589 2b3e
000002b0: d7a4 87be 9202 9c3e f59a aebb d7af 8dbe
000002c0: f462 b63d c91f 7e3e 99e0 edbd e9da ed3e
000002d0: 54a2 82bb 65ac 1b3e 79c7 b63e 34c9 3dbe
000002e0: 64c2 e23d 754d 6dbe b3e1 2d3e aa95 f43e
000002f0: e50c ba3e 4bc4 b73b 5980 a9be f95c b7be
00000300: 54c5 cabe e51a 473e c937 b33e 8594 0dbc
00000310: 3d89 dabe 2c66 c2be 4e02 84bd ff3a a5be
00000320: 6660 8b3e 614b c9bc deca bf3d ab89 863e
00000330: d5c4 bbbb fdcc c9be e673 013e ada4 793e
00000340: ec06 81be dbbc 613e 47f7 eebe 5aec 4f3e
00000350: 8cf8 ab3e 7005 af3e 544d 14be 09ec 7e3c
00000360: c355 993e 7582 19be 7d6d c83e 3d21 823e
00000370: 3759 e0bd 544c aabe b8b1 283e d10f a33d
00000380: 7b4e 11be 386c edbe f780 ca3c 0a2f fdbd
00000390: 22e5 843e 4148 ca3d 26d7 62be fe0d ebbc
000003a0: 904e 523d 8cef dc3e 7a68 b93e deb6 c53e
000003b0: 17bb 8cbe 3cac b1bc a646 323c 50d9 7e3e
000003c0: 7750 5b3e ff45 83be 4b2a b03e ee26 97be
000003d0: aef2 df3e ea34 f93d 5921 9cbd da90 bd3e
000003e0: fcfa a9be d028 d73e e015 313e 879a c3be
000003f0: 1c6d 323c f271 50be f034 3cbc 7e0d c53d
0.11076011 0.032802314 0.2640106 -0.21550485 -0.13924447 0.24336563 0.03491929 0.14173654
0.061760157 0.3282517 0.32975298 -0.2367185 -0.4361607 0.0072962237 -0.20505589 0.4619133
0.07924625 -0.17733128 0.34927833 0.40822488 -0.25243124 0.27254727 0.21484324 -0.3074393
-0.42927185 -0.0012757572 0.44106898 -0.14722656 0.39701435 0.3259027 -0.36745045 0.13987896
-0.06934589 -0.036769085 0.36207277 0.2597962 0.1265136 0.43361956 -0.32707793 0.09130914
-0.06620727 0.1707265 0.30574262 -0.2965504 -0.058225498 0.15812586 0.28114322 0.17793755
-0.09590017 0.2294704 -0.22862375 -0.2943219 0.039395723 0.26999018 -0.4278733 0.051392846
-0.0037434106 -0.10709966 0.24716458 -0.3028596 -0.21060799 0.1652476 -0.358647 -0.27713865
0.025133569 -0.12368082 0.34430572 0.4078895 0.4189488 -0.2581836 -0.11959899 0.16128594
0.392963 0.21379894 0.16479725 -0.28374028 0.2599335 -0.40648016 -0.17986993 -0.09117054
0.1296202 0.25669137 0.4134827 -0.07775762 0.42644352 0.4562938 -0.10249308 -0.18095194
-0.11120312 0.4161123 0.1235221 0.4471594 0.22866896 -0.28751665 -0.1898081 0.056540325
0.17915845 -0.0023304445 -0.34075403 0.30960926 0.028393365 0.33653694 0.42389774 0.35633245
0.13462055 -0.031259235 0.25235012 0.028078925 -0.031969924 -0.12858176 0.42408082 0.26839587
0.104289524 -0.4680023 -0.3783594 -0.3062514 -0.09768168 0.075107396 0.35940963 0.30710942
0.24688175 -0.29013065 0.08317252 0.3412023 -0.2766452 0.26693848 -0.3242798 0.11226868
-0.16157134 -0.1334712 0.21162707 0.22693646 0.11161699 -0.11584704 0.16235545 0.31766194
0.41908482 0.27021283 0.36929935 -0.034902163 -0.39616883 0.35386068 0.26146466 0.2486919
-0.34858522 0.23843741 0.17740217 0.019701583 0.24058238 0.015879836 -0.029899323 -0.16892333
0.47015527 0.20096226 0.28827485 -0.2932781 -0.4039007 0.04899364 0.2891509 -0.32309586
-0.2976955 0.1889684 0.18025349 -0.015241754 0.1720924 -0.0938836 0.25948796 0.053782977
-0.25924158 0.29552832 0.16260335 0.16751654 -0.2649295 0.3047071 -0.005328531 -0.27673218
0.089055926 0.24816813 -0.11615104 0.46456078 -0.003986636 0.15202482 0.3569906 -0.18533784
0.11072233 -0.23174079 0.16980629 0.47770435 0.36337963 0.0056081167 -0.33105734 -0.3581312
-0.39603674 0.19443853 0.35003498 -0.008641367 -0.4268283 -0.37968576 -0.06445752 -0.32271573
0.27221984 -0.024572076 0.09364866 0.26276907 -0.0057302513 -0.39414206 0.12641868 0.24379225
-0.25200593 0.22044699 -0.46673033 0.20305005 0.33588064 0.34183836 -0.14482623 0.015559205
0.29948243 -0.14991172 0.39146033 0.25415984 -0.109545164 -0.3326136 0.16474044 0.07962001
-0.14190094 -0.46371627 0.024719698 -0.123624876 0.25956064 0.098770626 -0.22152385 -0.028693195
0.051344454 0.4315151 0.36212522 0.3861608 -0.27486488 -0.021688573 0.010881102 0.24887586
0.21417414 -0.2563934 0.34407267 -0.29521888 0.43739837 0.12168296 -0.07623548 0.37024575
-0.33199298 0.42023325 0.17293501 -0.38203833 0.0108902715 -0.20355967 -0.011487231 0.09621714

fc1.bias f4 [10]
00000000: 25b0 9cbe 97e8 bbbe 38e1 28be 3eee 6fbe
00000010: d130 00bf c6ff 9cbd c0df f1be c969 ff3d
00000020: 2078 433e feef d73e
-0.30603138 -0.3670089 -0.16492164 -0.23430726 -0.5007449 -0.076659724 -0.4724102 0.12471349
0.19088793 0.42175287
