sandbox/snapshots3/model-2112.pt (torch, 71725 bytes, 8 tensors)

conv1.weight f4 [16, 3, 3, 3]
0.56613535 -1.1764389 1.2475009 -0.3142097 0.78055817 1.3070312 -0.49457166 0.19054404
1.3880814 0.7695534 -0.46125144 1.1917337 -0.739745 -0.22162718 0.21451284 0.8031235
-1.3306671 -0.64890134 -0.26216996 -1.1565449 0.43044466 -0.29913747 0.727438 1.0571784
-0.8316086 -1.0346187 0.22952864 0.9337074 -0.60895216 -0.16616459 -1.4142525 1.014032
-0.7008607 -0.21184964 0.21632902 1.3133196 0.6662716 0.9655313 1.1704888 0.89709806
1.1222148 1.3125553 0.32805863 -1.2051308 -0.64201695 -0.3648913 -1.0345013 1.1299379
0.41985625 1.093182 1.1438035 0.3310968 -1.0755533 -0.6060451 -0.75493807 0.17443559
0.6826644 0.52111405 1.2183595 -0.27630433 0.3800064 -1.4532351 1.4703883 -0.99583966
-1.4270142 -0.76868546 1.3206519 0.76818293 0.19299233 -1.0777277 0.3159928 -1.4046522
-1.0697727 0.7272471 1.2590444 0.17070073 -0.5207785 0.5634096 0.28510594 -0.4365275
0.9082244 -0.90432346 0.2848106 -1.2260178 0.9503025 0.22441263 -0.2075535 -0.10166701
-0.19739857 0.8130057 -0.079140246 0.33820647 0.73872477 0.27227014 -1.3876865 -0.79479235
-0.6769481 -0.37933853 -0.5532081 1.0073481 0.4207774 -0.9362299 0.5854068 0.83052284
1.3700283 -0.7163982 0.49250606 1.5961349 1.1952704 -0.12729323 0.8386719 0.7436038
-1.4903 -0.67029506 1.1082059 -1.0951562 -0.713275 0.5705621 -0.97094 1.2761146
-0.17120647 -0.6943491 -0.86185074 -1.3010687 -1.4033141 1.0152618 0.11655891 0.18244477
0.3726453 0.53330684 1.3291317 -0.04095858 -0.023021877 -0.63464975 -0.11700007 1.2143469
0.474752 -1.3598005 0.22197847 -1.4636952 0.7529962 0.5915062 -0.9737734 -1.0766811
-1.0543047 0.53493536 -0.123396866 0.21718267 0.88975346 1.4139923 -0.07622995 -0.9610222
-0.27620697 -0.66827005 -0.012477675 -1.4532233 1.4468529 1.3836815 0.773152 -1.2834309
-0.55973727 -0.47390908 -1.0482482 0.7838238 1.0073653 -1.5024022 1.331395 1.0772622
1.3769312 1.4638404 -1.0727665 -0.62887746 -1.392927 1.0917436 -0.6019561 -0.4359336
1.2164172 -0.07893566 -0.8945414 -1.1402692 -0.18061106 -0.9633402 0.61066717 -0.95485514
0.31437802 -0.740876 -0.5328317 -0.08319769 -0.9625066 1.4496579 -1.2651266 1.4398803
1.1435744 -0.5877347 -1.5595077 -0.5480738 1.3537526 0.29120597 -1.0702282 -0.27570158
1.131812 0.9295496 1.1377516 1.4256865 1.2557088 0.103449054 -0.1535807 0.3397785
-1.5593847 -1.3841927 0.113679565 -1.5108594 -1.0924445 1.2531341 -0.45405847 0.95875466
0.501571 1.2495201 -0.81433266 0.88509667 0.36816227 -1.2453837 -1.308825 1.3913903
-0.054742742 -1.146712 -0.9851301 -1.1412718 0.8543023 -0.9294816 -0.8003062 1.2193527
-1.2294313 0.15637667 0.29434016 0.13122292 -1.0316323 0.70060736 -1.2192359 1.3629838
0.5834411 -0.3405107 1.3916773 -1.2139298 1.1104157 -0.6110612 0.5044268 0.4346241
0.091279514 1.3432751 -1.0933516 0.20684244 -0.54000574 -0.5632007 1.1226504 -0.8258395
00000000: 3fee 103f 8d95 96bf 1cae 9f3f 18e0 a0be
00000010: a9d2 473f cc4c a73f 7f38 fdbe fa1d 433e
00000020: a7ac b13f 7401 453f 2629 ecbe bb8a 983f
00000030: ee5f 3dbf 3cf2 62be 41a9 5b3e 8099 4d3f
00000040: 4d53 aabf 661e 26bf 243b 86be aa09 94bf
00000050: 3e63 dc3e 8c28 99be 6039 3a3f 9f51 873f
00000060: 4de4 54bf 636e 84bf 8e09 6b3e 7307 6f3f
00000070: 4ae4 1bbf 0d27 2abe 3a06 b5bf cdcb 813f
00000080: 9b6b 33bf 1def 58be 5b85 5d3e db1a a83f
00000090: c790 2a3f 0f2d 773f 94d2 953f 38a8 653f
000000a0: bca4 8f3f d001 a83f 4df7 a73e ba41 9abf
000000b0: 395b 24bf 08d3 babe 8a6a 84bf cea1 903f
000000c0: 66f7 d63e 63ed 8b3f 2768 923f 8585 a93e
000000d0: bbab 89bf c625 1bbf 9f43 41bf 3e9f 323e
000000e0: 18c3 2e3f bb67 053f 34f3 9b3f c377 8dbe
000000f0: 3390 c23e 9c03 babf af35 bc3f 59ef 7ebf
00000100: 67a8 b6bf 92c8 44bf 1f0b a93f a3a7 443f
00000110: c89f 453e fbf2 89bf cfc9 a13e a5cb b3bf
00000120: 50ee 88bf de2c 3a3f 5e28 a13f 2ccc 2e3e
00000130: bd51 05bf 9d3b 103f 68f9 913e 8880 dfbe
00000140: 6581 683f be81 67bf b2d2 913e 27ee 9cbf
00000150: 0647 733f 6dcc 653e e888 54be cb36 d0bd
00000160: da22 4abe 2421 503f 4814 a2bd 6629 ad3e
00000170: 111d 3d3f fe66 8b3e b69f b1bf 8377 4bbf
00000180: 784c 2dbf a938 c2be 0c9f 0dbf c8f0 803f
00000190: 2370 d73e c3ac 6fbf 38dd 153f 259d 543f
000001a0: 165d af3f df65 37bf c129 fc3e 264e cc3f
000001b0: 9ffe 983f 2859 02be 34b3 563f d25c 3e3f
000001c0: 27c2 bebf 7598 2bbf b1d9 8d3f 142e 8cbf
000001d0: 3199 36bf 5c10 123f 868f 78bf b957 a33f
000001e0: c050 2fbe ddc0 31bf 40a2 5cbf 6b89 a6bf
000001f0: cc9f b3bf 19f4 813f 70b6 ee3d cdd2 3a3e
00000200: 5dcb be3e cc86 083f fd20 aa3f 2fc4 27bd
00000210: 6098 bcbc 6878 22bf bc9d efbd b86f 9b3f
00000220: b212 f33e f10d aebf 534e 633e 5d5a bbbf
00000230: 5cc4 403f f36c 173f 3749 79bf b0d0 89bf
00000240: 75f3 86bf 86f1 083f 7fb7 fcbd 2265 5e3e
00000250: e2c6 633f b3fd b43f 731e 9cbd 8d05 76bf
00000260: 006b 8dbe bf13 2bbf 2a6f 4cbc 3903 babf
00000270: 7a32 b93f 7a1c b13f 4aed 453f 7747 a4bf
00000280: f14a 0fbf 36a4 f2be ff2c 86bf ada8 483f
00000290: 59f1 803f b74e c0bf 276b aa3f bae3 893f
000002a0: 483f b03f 1f5f bb3f 6a50 89bf 1dfe 20bf
000002b0: 6f4b b2bf 41be 8b3f cc19 1abf b032 dfbe
000002c0: 8fb3 9b3f 05a9 a1bd aa00 65bf 57f4 91bf
000002d0: 1bf2 38be 779d 76bf af54 1c3f 6371 74bf
000002e0: 28f6 a03e 0daa 3dbf a967 08bf 8d63 aabd
000002f0: d566 76bf 648e b93f abef a1bf ff4d b83f
00000300: a560 923f c875 16bf f39d c7bf 914e 0cbf
00000310: c447 ad3f f318 953e 3dfd 88bf c228 8dbe
00000320: 37df 903f f6f6 6d3f d8a1 913f e57c b63f
00000330: 11bb a03f 19dd d33d 4244 1dbe 73f7 ad3e
00000340: eb99 c7bf 3a2d b1bf d5d0 e83d d763 c1bf
00000350: 39d5 8bbf b366 a03f 5a7a e8be f270 753f
00000360: f566 003f 46f0 9f3f 1b78 50bf b295 623f
00000370: c47f bc3e bc68 9fbf 9487 a7bf 1419 b23f
00000380: ed39 60bd 75c7 92bf 7c31 7cbf 3215 92bf
00000390: 8eb3 5a3f 82f2 6dbf dee0 4cbf c013 9c3f
000003a0: 015e 9dbf 3521 203e c1b3 963e 4d5f 063e
000003b0: 870c 84bf 015b 333f ec0f 9cbf 4176 ae3f
000003c0: 655c 153f 6b57 aebe 7b22 b23f 0d62 9bbf
000003d0: 1a22 8e3f 826e 1cbf 1d22 013f 0d87 de3e
000003e0: c1f0 ba3d 70f0 ab3f f2f2 8bbf 81ce 533e
000003f0: d13d 0abf ec2d 10bf 02b3 8f3f 386a 53bf

conv1.bias f4 [16]
1.2731872 -1.056041 0.47350433 -1.3466198 0.43668672 0.63329715 -0.96096784 0.028841576
0.20293196 0.82211584 0.44736582 1.3251119 -1.5034268 -0.83023065 0.71142155 0.7057882
00000000: ccf7 a23f 5a2c 87bf 296f f23e 0a5e acbf
00000010: 6795 df3e c31f 223f fd01 76bf 2b45 ec3c
00000020: 65cd 4f3e 2f76 523f 220d e53e 449d a93f
00000030: 4a70 c0bf ff89 54bf b91f 363f 89ae 343f

conv2.weight f4 [32, 16, 3, 3]
-0.08914459 -0.5263335 0.30273163 0.5155204 0.11018243 0.08097345 -0.46937898 0.14439458
-0.16176136 -0.5134224 0.26573032 -0.52991885 -0.36089018 -0.08655615 0.5497124 0.29419604
0.44036832 -0.1093017 0.42356443 -0.5732322 0.38548222 0.5940665 0.09848889 -0.42685732
0.5269272 -0.18712175 -0.32433528 -0.48936492 -0.6590209 0.24575958 0.06547123 0.14257394
-0.11777203 -0.018029531 0.1877126 0.011629581 0.030708106 0.5600896 0.15011536 -0.14675723
-0.6558018 0.24173832 0.30905896 -0.3386933 -0.34305096 -0.105094336 -0.48546275 0.35220847
-0.12078561 0.63865 -0.30319992 0.06683876 -0.53429234 0.15813246 -0.16267022 -0.21790841
0.36403105 0.35082915 0.5056604 0.580144 0.56992614 -0.20629644 0.550453 -0.1883287
-0.44268373 0.04496644 -0.6412176 0.5733454 0.53213376 -0.4839147 0.39164227 -0.078855805
-0.24631771 0.63529646 -0.4653133 0.3113924 -0.34348378 0.1075001 0.09993842 0.5263432
0.5325311 0.21083143 0.1339334 0.5101484 0.2740405 -0.29947406 0.03993938 -0.28838202
0.59293664 0.016334778 0.18373549 -0.6537644 -0.6098572 -0.5111226 0.28767186 -0.21013674
0.3023457 0.48116344 0.22729442 -0.007322262 -0.060860958 -0.27424186 -0.5431418 -0.3958232
0.5141913 -0.59007496 0.005539022 0.09746642 -0.05471047 0.0009774491 0.4446075 -0.56047606
0.63913673 0.41213188 0.6298384 -0.5751467 0.115044914 0.62747526 0.27084634 0.23754236
-0.44302118 0.35972065 -0.50906116 -0.23336597 0.32459426 -0.1479165 -0.20482479 -0.554214
-0.27995187 0.64441407 0.57119423 -0.1822432 -0.49567303 0.0911488 -0.4945737 -0.47998908
-0.16160464 -0.24109717 -0.2898471 0.3208208 -0.6274912 -0.673789 -0.5916356 -0.038550198
0.35118312 -0.53126585 0.5963633 -0.60896987 0.060322944 -0.58933645 -0.5279271 0.38778412
-0.076356284 -0.071919985 0.11740011 0.028246941 -0.22576724 0.34334853 0.5015626 0.12155865
-0.19269834 0.56668776 0.14711513 0.3524927 -0.35995656 0.17497896 0.36734086 -0.40503255
0.32749948 0.5481957 -0.039420456 -0.62866867 0.02985973 -0.554039 -0.5202148 0.07929476
0.30651098 0.43615603 0.50343627 -0.2136931 -0.28762126 -0.6557059 0.44517565 -0.1869445
0.4781513 -0.62763405 -0.07874099 0.4262523 -0.21134779 0.32962984 -0.5204522 0.4589997
-0.41330078 -0.061297342 0.424718 -0.311728 -0.6443293 0.4273218 0.16198394 -0.42147574
-0.3976312 -0.25871816 0.0110833375 0.2900938 0.055966094 -0.6237793 0.46716082 0.2639959
-0.32744464 -0.043068666 0.17179656 0.55302006 0.24011022 0.07770073 -0.02443932 -0.39415315
-0.34072393 0.42611682 -0.26048312 0.18812639 -0.17305206 0.551519 -0.5393056 -0.008350099
-0.18616877 0.6558034 0.2655578 0.356516 -0.44774577 0.27573016 0.2959201 0.5446394
-0.60559 0.011243635 -0.14318204 0.31567946 0.24661595 0.42935413 -0.14582804 0.20553742
0.06703561 -0.14082253 -0.59247744 -0.08546565 -0.040376067 0.009285356 -0.18009593 0.3066071
0.6647874 -0.32103965 -0.31913218 0.43888208 -0.19012235 0.5200285 0.05900945 -0.26382303
00000000: 7091 b6bd cbbd 06bf a4ff 9a3e 25f9 033f
00000010: 53a7 e13d 68d5 a53d 7152 f0be 2cdc 133e
00000020: c5a4 25be a76f 03bf ce0d 883e c3a8 07bf
00000030: 99c6 b8be 5a44 b1bd f4b9 0c3f dda0 963e
00000040: f577 e13e 92d9 dfbd 70dd d83e 58bf 12bf
00000050: ed5d c53e be14 183f 8bb4 c93d 0b8d dabe
00000060: b3e4 063f d89c 3fbe 460f a6be 0a8e fabe
00000070: 98b5 28bf 66a8 7b3e c815 863d e7fe 113e
00000080: 7632 f1bd abb2 93bc bb37 403e 008a 3e3c
00000090: 918f fb3c 0862 0f3f d7b7 193e 8747 16be
000000a0: a0e2 27bf 408a 773e fa3c 9e3e 3569 adbe
000000b0: 60a4 afbe b33b d7bd 938e f8be ab54 b43e
000000c0: 725e f7bd 917e 233f 053d 9bbe c3e2 883d
000000d0: 62c7 08bf 7aed 213e 0693 26be 6223 5fbe
000000e0: 4762 ba3e e19f b33e f672 013f 5184 143f
000000f0: aee6 113f 603f 53be 7dea 0c3f 3dd9 40be
00000100: 71a7 e2be bb2e 383d d626 24bf c4c6 123f
00000110: eb39 083f abc3 f7be 5685 c83e 277f a1bd
00000120: b63a 7cbe caa2 223f 8b3d eebe d36e 9f3e
00000130: 1bdd afbe 0329 dc3d 84ac cc3d 6ebe 063f
00000140: f553 083f 32e4 573e d625 093e 1699 023f
00000150: 094f 8c3e aa54 99be 7a97 233d cfa6 93be
00000160: b2ca 173f 83d0 853c 2825 3c3e 1b5d 27bf
00000170: 9a1f 1cbf eed8 02bf ba49 933e 162e 57be
00000180: 0ecd 9a3e 0e5b f63e debf 683e 96ef efbb
00000190: 5749 79bd 6e69 8cbe 570b 0bbf 57a9 cabe
000001a0: 0ba2 033f 270f 17bf af80 b53b 799c c73d
000001b0: 1618 60bd c01d 803a 98a3 e33e 5c7b 0fbf
000001c0: 779e 233f f302 d33e 173d 213f d03c 13bf
000001d0: ab9c eb3d 38a2 203f 5fac 8a3e 4e3e 733e
000001e0: acd3 e2be 4e2d b83e d551 02bf 7df7 6ebe
000001f0: 3831 a63e 6c77 17be 97bd 51be f8e0 0dbf
00000200: da55 8fbe 52f8 243f c939 123f f69d 3abe
00000210: dbc8 fdbe 39ac ba3d c438 fdbe 21c1 f5be
00000220: b07b 25be 2de2 76be d766 94be a042 a43e
00000230: 43a3 20bf 707d 2cbf 6e75 17bf d0e6 1dbd
00000240: 46ce b33e 0a01 08bf 44ab 183f 73e5 1bbf
00000250: 3115 773d c1de 16bf 3b26 07bf a48b c63e
00000260: af60 9cbd c94a 93bd 786f f03d 2166 e73c
00000270: 872f 67be 61cb af3e 6866 003f bef3 f83d
00000280: b752 45be 7312 113f 59a5 163e ec79 b43e
00000290: 3a4c b8be af2d 333e 1a14 bc3e 6d60 cfbe
000002a0: 03ae a73e 8e56 0c3f 5877 21bd 6ef0 20bf
000002b0: 649c f43c 80d5 0dbf cc2c 05bf 4b65 a23d
000002c0: 02ef 9c3e d84f df3e 33e1 003f 5dd2 5abe
000002d0: 1843 93be 58dc 27bf 10ee e33e 616e 3fbe
000002e0: 3fd0 f43e a0ac 20bf f542 a1bd be3d da3e
000002f0: 8e6b 58be 3ec5 a83e 5b3c 05bf 0202 eb3e
00000300: 299c d3be ec12 7bbd a374 d93e d09a 9fbe
00000310: c4f2 24bf ecc9 da3e 1edf 253e abcb d7be
00000320: 5196 cbbe b576 84be e396 353c 2d87 943e
00000330: b43c 653d 00b0 1fbf b42f ef3e 782a 873e
00000340: d3a6 a7be c568 30bd 70eb 2f3e b992 0d3f
00000350: 74df 753e 8f21 9f3d f834 c8bc 71ce c9be
00000360: 5e73 aebe fc2b da3e 0b5e 85be 34a4 403e
00000370: 8f34 31be 5930 0d3f ef0f 0abf dbce 08bc
00000380: 07a3 3ebe bbe2 273f 31f7 873e 4489 b63e
00000390: ef3e e5be 812c 8d3e d782 973e 7d6d 0b3f
000003a0: f207 1bbf 3937 383c 509e 12be bda0 a13e
000003b0: e488 7c3e 4ed4 db3e f253 15be 6778 523e
000003c0: f749 893d c833 10be 9aac 17bf 9d08 afbd
000003d0: 6061 25bd 9b21 183c 116b 38be 9bfb 9c3e
000003e0: 822f 2a3f 4f5f a4be 4b65 a3be 27b5 e03e
000003f0: 6faf 42be 9620 053f e5b3 713d d013 87be

conv2.bias f4 [32]
-0.6728669 0.41784453 -0.54735714 -0.13818045 -0.2683586 0.12271205 0.4589599 -0.11059492
-0.08267625 0.06953767 -0.4328963 -0.5540016 -0.08647459 0.1399361 -0.22204278 -0.46124917
-0.38904512 0.32644558 -0.43289348 -0.11064631 0.08231094 0.6046812 0.616356 -0.36110133
0.6590168 0.18423165 0.41963202 -0.5844532 -0.4805066 -0.0020422835 -0.06804533 0.70779806
00000000: 0141 2cbf b8ef d53e 991f 0cbf 2d7f 0dbe
00000010: 4c66 89be 7550 fb3d cbfc ea3e 977f e2bd
00000020: 2a52 a9bd c469 8e3d 95a4 ddbe 0dd3 0dbf
00000030: 9719 b1bd 694b 0f3e 2f5f 63be da28 ecbe
00000040: ec30 c7be e023 a73e 37a4 ddbe 889a e2bd
00000050: a392 a83d 63cc 1a3f 82c9 1d3f 46e2 b8be
00000060: 53b5 283f 39a7 3c3e 02da d63e ba9e 15bf
00000070: f604 f6be d5d7 05bb 5a5b 8bbd 4132 353f

conv3.weight f4 [32, 32, 3, 3]
-0.15074927 0.2182553 0.07598913 -0.4398274 -0.34674662 0.4466271 -0.28289542 -0.26101866
0.41396293 0.36477602 0.30708915 0.28468445 -0.22973 0.44455814 -0.159289 -0.25934047
0.32944283 -0.30237812 -0.1751927 -0.40731636 0.36918822 0.1000877 -0.33136392 0.37859526
-0.41790983 0.18642549 0.30144545 -0.16514051 0.106037036 0.3533345 0.07662236 -0.422999
-0.062916495 0.17395861 0.22867946 -0.12060611 -0.090651825 -0.17225337 0.44174302 -0.04923302
-0.005982673 -0.46131754 0.009536031 0.020695355 -0.23233213 0.33096215 0.18261488 -0.3303339
-0.10916252 0.35760838 0.019443247 0.101952 0.096173495 0.4511776 0.2789714 0.21415684
0.00022642202 0.07275792 -0.19723809 -0.46341228 0.24924478 0.3751159 0.089361295 -0.2037021
-0.34024265 -0.27589414 -0.46226907 0.2696237 0.2840848 -0.12005248 0.3740201 -0.08602935
-0.121774755 0.36661714 -0.12255916 -0.12637912 0.40927956 -0.22878069 -0.42140037 -0.32710183
-0.43017337 -0.074459836 0.16172053 0.38481778 -0.34466088 0.11338332 0.3348411 0.29389095
0.26082096 0.07463293 -0.09421049 0.07194028 -0.34203148 0.43180943 -0.4325148 0.029833514
-0.46644774 -0.17912704 -0.43389338 -0.3396417 0.12054118 0.2572727 -0.3298375 -0.38486716
0.14499491 0.16615273 0.26143682 0.1381621 0.113881394 0.2339714 -0.21587417 0.32703823
-0.26266277 -0.08796002 -0.030087488 0.35087386 -0.11501772 -0.29998586 -0.116272636 0.41405648
0.25675994 -0.34262595 0.17606676 -0.24501804 -0.39197204 -0.005156854 -0.08816121 0.22359149
-0.3627047 0.34186012 -0.08931714 -0.4994547 -0.31702086 0.052451614 0.3776563 -0.28196904
0.059199627 -0.17907435 -0.25304386 -0.06919805 -0.08531357 -0.47188953 0.16432087 -0.19861497
0.075658865 -0.07679508 -0.08980766 -0.063525856 -0.24843869 0.063467704 0.14928189 -0.007628708
0.018263979 0.2110925 0.3607628 -0.14550796 -0.36035404 -0.1472468 0.43787894 0.16574728
0.11265946 0.30388382 -0.3013002 0.09020343 0.10293126 0.36263055 -0.13798963 -0.14937949
0.15999697 0.1862429 0.013402163 0.24867576 -0.18750307 0.09397779 -0.34825057 0.13913263
-0.15028845 -0.38708916 -0.4325011 -0.40412244 -0.29875818 0.045535978 -0.3254014 -0.44557822
0.0071286303 -0.034777254 0.15054353 -0.08525965 0.32803962 0.29826108 0.07244186 -0.02249238
-0.41716713 -0.0122266915 -0.123738796 0.06753166 -0.102676794 0.21785761 -0.48173097 0.42716506
-0.2621299 0.09794657 -0.26469055 0.11137156 -0.18990737 0.09461302 0.40336403 -0.12651679
0.4542131 -0.46910033 -0.0686667 -0.3315996 -0.09414948 -0.030699031 -0.06220278 -0.1224861
0.13122714 0.3777837 -0.03126462 -0.20456032 -0.03317834 0.46031016 0.3769693 -0.31500491
0.12949045 0.059558883 0.21277028 -0.28800032 0.26933685 -0.17877533 0.26193202 -0.15094684
-0.43874574 -0.060717154 0.44474682 0.16379018 -0.24431717 -0.15188877 -0.073093645 0.22563171
-0.35579136 -0.16193166 0.4140018 0.24794966 0.16423199 0.01252132 0.34553662 -0.08360584
0.08997396 -0.20819782 0.39995128 0.2945427 -0.28818232 -0.2952928 0.3800381 0.39447165
00000000: 045e 1abe 517e 5f3e 30a0 9b3d 0f31 e1be
00000010: c688 b1be 4fac e43e abd7 90be 3da4 85be
00000020: f3f2 d33e ecc3 ba3e ca3a 9d3e 29c2 913e
00000030: 573e 6bbe 209d e33e a81c 23be 46c8 84be
00000040: bbac a83e 4ed1 9abe b765 33be c58b d0be
00000050: 3d06 bd3e c8fa cc3d 88a8 a9be 3dd7 c13e
00000060: 47f8 d5be 53e6 3e3e 0f57 9a3e 981a 29be
00000070: f229 d93d 42e8 b43e 2fec 9c3d 5393 d8be
00000080: 5dda 80bd 3522 323e f32a 6a3e 5600 f7bd
00000090: aaa7 b9bd 3063 30be 242c e23e 90a8 49bd
000000a0: 4c0a c4bb d031 ecbe 033d 1c3c 4e89 a93c
000000b0: 79e8 6dbe df73 a93e 65ff 3a3e 8621 a9be
000000c0: 9990 dfbd 7218 b73e 7247 9f3c 36cc d03d
000000d0: 9cf6 c43d c000 e73e 57d5 8e3e ee4b 5b3e
000000e0: b36b 6d39 1b02 953d c8f8 49be 6044 edbe
000000f0: 063a 7f3e 310f c03e 0e03 b73d 4997 50be
00000100: 4934 aebe ff41 8dbe 88ae ecbe 1e0c 8a3e
00000110: 9073 913e 13de f5bd 907f bf3e 2830 b0bd
00000120: 0b65 f9bd 3eb5 bb3e 4c00 fbbd 8769 01be
00000130: 178d d13e 7c45 6abe cac1 d7be e479 a7be
00000140: af3f dcbe 667e 98bd 119a 253e d606 c53e
00000150: 6477 b0be 8435 e83d 4b70 ab3e e078 963e
00000160: 538a 853e 26d9 983d 6ef1 c0bd 6d55 933d
00000170: c01e afbe 2016 dd3e 9472 ddbe 6a65 f43c
00000180: 3dd2 eebe 146d 37be 4627 debe 84e5 adbe
00000190: 4bde f63d 3fb9 833e 76e0 a8be 4f0d c5be
000001a0: 8c79 143e f123 2a3e 0cdb 853e 5e7a 0d3e
000001b0: a63a e93d 3396 6f3e 1e0e 5dbe 8e71 a73e
000001c0: bc7b 86be 6224 b4bd 097a f6bc bda5 b33e
000001d0: 698e ebbd bf97 99be 5920 eebd 36ff d33e
000001e0: 0a76 833e ab6c afbe d84a 343e 02e6 7abe
000001f0: 8fb0 c8be d4fa a8bb dd8d b4bd 2bf5 643e
00000200: 6eb4 b9be 4a08 af3e e8eb b6bd 87b8 ffbe
00000210: 8f50 a2be 81d7 563d 2b5c c13e 3f5e 90be
00000220: 4f7b 723d 445f 37be f78e 81be b5b7 8dbd
00000230: e2b8 aebd 819b f1be bb43 283e b961 4bbe
00000240: 09f3 9a3d bd46 9dbd 14ed b7bd d819 82bd
00000250: b666 7ebe 5bfb 813d 5add 183e 3efa f9bb
00000260: 579e 953c a228 583e e7b5 b83e 0a00 15be
00000270: 5380 b8be ddc7 16be ab31 e03e a8b9 293e
00000280: 01ba e63d a996 9b3e 0544 9abe 93bc b83d
00000290: a0cd d23d b6aa b93e 274d 0dbe f0f6 18be
000002a0: 3fd6 233e 75b6 3e3e bf94 5b3c dca4 7e3e
000002b0: ce00 40be 6d77 c03d e64d b2be c978 0e3e
000002c0: 37e5 19be 8d30 c6be c970 ddbe 23e9 cebe
000002d0: d5f6 98be ef83 3a3d 039b a6be d422 e4be
000002e0: 4997 e93b 9872 0ebd 1528 1a3e 9d9c aebd
000002f0: cff4 a73e adb5 983e 665c 943d f141 b8bc
00000300: ee96 d5be 7652 48bc c46a fdbd 0a4e 8a3d
00000310: 3648 d2bd 1116 5f3e 71a5 f6be 61b5 da3e
00000320: e435 86be 3698 c83d 8585 87be c616 e43d
00000330: 1477 42be 79c4 c13d bb85 ce3e 9e8d 01be
00000340: 9f8e e83e eb2d f0be 20a1 8cbd 6cc7 a9be
00000350: 71d1 c0bd 897c fbbc 58c8 7ebd fed9 fabd
00000360: 6860 063e dd6c c13e 550f 00bd 4378 51be
00000370: 03e6 07bd c6ad eb3e 1f02 c13e 5348 a1be
00000380: 2599 043e 04f4 733d 74e0 593e c774 93be
00000390: 85e6 893e e110 37be f41b 863e cf91 1abe
000003a0: 48a3 e0be 8db2 78bd dbb5 e33e 9db8 273e
000003b0: 482e 7abe bb88 1bbe 1fb2 95bd 000c 673e
000003c0: 492a b6be 6ad1 25be 0bf8 d33e 84e6 7d3e
000003d0: 6e2c 283e 3926 4d3c 2dea b03e 8a39 abbd
000003e0: 4444 b83d cf31 55be 6ac6 cc3e 4dce 963e
000003f0: a28c 93be 9e30 97be 5b94 c23e 30f8 c93e

conv3.bias f4 [32]
0.069714345 0.16902448 0.13998556 -0.432396 -0.22879656 -0.08543904 0.27731556 -0.48454615
-0.08839422 0.119304456 -0.15235601 -0.400778 -0.038913902 0.43834853 -0.220334 0.11803704
0.17586678 0.007992893 0.42988828 0.18793714 0.2680579 -0.38372475 -0.075998515 -0.46786678
0.16495527 0.17597258 -0.37396288 0.010703296 0.34446996 -0.14171985 0.10641819 0.482112
00000000: 65c6 8e3d c114 2d3e 6058 0f3e 0263 ddbe
00000010: a549 6abe aafa aebd 4efc 8d3e 6f16 f8be
00000020: 0708 b5bd e555 f43d 3703 1cbe c632 cdbe
00000030: 2f64 1fbd 386f e03e 3c9f 61be 67bd f13d
00000040: 6c16 343e a0f4 023c 511a dc3e 9872 403e
00000050: e33e 893e 9277 c4be 1ca5 9bbd 3c8c efbe
00000060: 09ea 283e 2832 343e 1078 bfbe e15c 2f3c
00000070: 5e5e b03e 021f 11be c8f1 d93d 62d7 f63e

fc1.weight f4 [10, 288]
0.112682745 0.035243485 0.26435322 -0.21101254 -0.14513327 0.24154913 0.04021824 0.1445818
0.0699611 0.3281127 0.329525 -0.23665287 -0.43596613 0.0073905513 -0.20491372 0.4616741
0.07926677 -0.17723256 0.34874102 0.40761572 -0.2524796 0.27221227 0.21481805 -0.307339
-0.4288234 -0.0007325171 0.44077137 -0.14003447 0.39671463 0.3275024 -0.36135516 0.13891909
-0.059610393 -0.034314547 0.36489856 0.2662194 0.12524542 0.43338472 -0.3267985 0.092482924
-0.065846406 0.17072143 0.30559435 -0.29562777 -0.057985004 0.16000281 0.2764903 0.17724764
-0.079880744 0.24132252 -0.21036518 -0.29800692 0.050504822 0.26673305 -0.4273619 0.050876897
-0.0035765672 -0.107265115 0.24711782 -0.30269372 -0.21081184 0.16512273 -0.3587226 -0.27716973
0.025036365 -0.12437299 0.344628 0.40574872 0.4149919 -0.2575785 -0.11755863 0.16040583
0.37623483 0.19722348 0.15509476 -0.27913046 0.2489484 -0.3926911 -0.17161076 -0.08555937
0.13167809 0.26115528 0.40954128 -0.07373447 0.42562032 0.45451427 -0.1003582 -0.17407295
-0.10908495 0.41193464 0.1304316 0.44614232 0.23746175 -0.2761106 -0.17514412 0.06547255
0.18555288 0.0027989768 -0.33002353 0.30672872 0.029413527 0.33611804 0.42544782 0.35587484
0.13726287 -0.028702516 0.25004178 0.028028995 -0.03203844 -0.12852256 0.4238578 0.268262
0.10411441 -0.46763948 -0.37822694 -0.306058 -0.09762674 0.08186775 0.3650101 0.3077504
0.2526026 -0.28357404 0.08512588 0.34558862 -0.26936993 0.26681465 -0.32383332 0.11048909
-0.16155292 -0.13409425 0.2113572 0.22752257 0.1111319 -0.11431625 0.16059841 0.3164835
0.41860393 0.26985282 0.3690245 -0.035359785 -0.39558995 0.35366175 0.2612982 0.24793811
-0.34847972 0.23876685 0.17730778 0.019749967 0.24055552 0.015859036 -0.029906062 -0.16887711
0.4699259 0.20128721 0.28783232 -0.29174602 -0.40194267 0.049974367 0.2891499 -0.3225996
-0.29766008 0.18827932 0.162196 -0.0010736546 0.17721525 -0.09987827 0.25662568 0.056901075
-0.24418584 0.28158262 0.16062535 0.16740315 -0.2648317 0.3046137 -0.005344815 -0.27663803
0.08905779 0.24805364 -0.116075344 0.4643789 -0.004570136 0.15192886 0.356845 -0.18441433
0.109319605 -0.23028229 0.16926956 0.47715575 0.36212838 0.0057330565 -0.3309255 -0.35860512
-0.3910496 0.18671781 0.3465684 -0.004919436 -0.42539883 -0.38260007 -0.06456861 -0.32259598
0.2722472 -0.025208592 0.09351162 0.26271528 -0.005760368 -0.3936418 0.12628639 0.24369496
-0.25181457 0.22036652 -0.46655837 0.20283574 0.3356535 0.34173563 -0.14517152 0.01567112
0.29937515 -0.14985807 0.39132085 0.25406328 -0.10950493 -0.33249557 0.16468143 0.07959051
-0.1418473 -0.46389103 0.024599494 -0.12368913 0.2593767 0.099020526 -0.22124885 -0.028753823
0.05127563 0.43040136 0.36184764 0.38586414 -0.27494532 -0.021655563 0.010530836 0.2487096
0.2141195 -0.25625762 0.34409767 -0.2920356 0.4277716 0.11993501 -0.075026035 0.36552033
-0.3329193 0.41696784 0.17165512 -0.38498217 0.019603813 -0.19668137 0.0045828177 0.104961686
00000000: 36c6 e63d 795b 103d 4e59 873e ac13 58be
00000010: d19d 14be a858 773e e2bb 243d 400d 143e
00000020: c447 8f3d 63fe a73e 80b7 a83e 2155 72be
00000030: f436 dfbe 702c f23b e7d4 51be 8c60 ec3e
00000040: 9e56 a23d 747c 35be 2f8e b23e 02b3 d03e
00000050: 0245 81be 685f 8b3e 43f9 5b3e 8a5b 9dbe
00000060: be8e dbbe 6406 40ba c9ac e13e 3265 0fbe
00000070: 2e1e cb3e 65ae a73e 8b03 b9be ce40 0e3e
00000080: 072a 74bd 698d 0cbd fcd3 ba3e e94d 883e
00000090: 5640 003e 9ae4 dd3e 2252 a7be b067 bd3d
000000a0: 7bda 86bd 99d1 2e3e dd76 9c3e 865c 97be
000000b0: af81 6dbd c7d7 233e 2390 8d3e 6880 353e
000000c0: 8498 a3bd 401d 773e f869 57be 5d94 98be
000000d0: 25de 4e3d 3c91 883e 2ecf dabe 4b64 503d
000000e0: d764 6abb d0ad dbbd 740c 7d3e acfa 9abe
000000f0: 0fdf 57be ef15 293e 7daa b7be 31e9 8dbe
00000100: 1019 cd3c 44b7 febd 1573 b03e 4cbe cf3e
00000110: d179 d43e 54e1 83be 94c2 f0bd 6d41 243e
00000120: daa1 c03e f4f4 493e 29d1 1e3e 30ea 8ebe
00000130: 54ec 7e3e cf0e c9be bbba 2fbe c039 afbd
00000140: 9fd6 063e 25b6 853e 65af d13e 1902 97bd
00000150: e8ea d93e 18b6 e83e 9a88 cdbd 2e40 32be
00000160: ee67 dfbd 19e9 d23e dd8f 053e c46c e43e
00000170: 2c29 733e 5e5e 8dbe fb58 33be 7916 863d
00000180: 9301 3e3e 0a6f 373b d8f8 a8be 8c0b 9d3e
00000190: a3f4 f03c aa17 ac3e 4cd4 d93e 3a35 b63e
000001a0: a38e 0c3e 8a21 ebbc 7a05 803e 109d e53c
000001b0: bd3a 03bd 6b9b 03be e403 d93e a359 893e
000001c0: f039 d53d 716e efbe f6a6 c1be a2b3 9cbe
000001d0: 87f0 c7bd 47aa a73d 9be2 ba3e 7691 9d3e
000001e0: 2155 813e 9e30 91be 7a56 ae3d fef0 b03e
000001f0: dbea 89be ee9b 883e 7bcd a5be 1b48 e23d
00000200: 216e 25be 0150 09be 066e 583e adfb 683e
00000210: 1f99 e33d a31e eabd e973 243e 200a a23e
00000220: 4153 d63e 262a 8a3e c7f0 bc3e 6cd5 10bd
00000230: c48a cabe 2713 b53e e1c8 853e 7de3 7d3e
00000240: ef6b b2be 4c7f 743e 2c90 353e afca a13c
00000250: 3054 763e cfea 813c 8ffd f4bc 1fee 2cbe
00000260: 219a f03e 3c1e 4e3e c25e 933e bc5f 95be
00000270: 6ecb cdbe ecb1 4c3d 750b 943e c62b a5be
00000280: e766 98be 4bcc 403e b516 263e dfb9 8cba
00000290: ea77 353e fa8c ccbd 7164 833e 1a11 693d
000002a0: da0b 7abe 992b 903e f97a 243e bb6b 2b3e
000002b0: 0598 87be 54f6 9b3e 8f23 afbb 80a3 8dbe
000002c0: ee63 b63d c601 7e3e e9b8 edbd 12c3 ed3e
000002d0: 14c1 95bb 3d93 1b3e 63b4 b63e 1cd7 3cbe
000002e0: f5e2 df3d 1fcf 6bbe 0055 2d3e c24d f43e
000002f0: e468 b93e 5ddc bb3b 116f a9be 179b b7be
00000300: a737 c8be f432 3f3e 6a71 b13e 3833 a1bb
00000310: e0cd d9be 28e4 c3be 8c3c 84bd 4d2b a5be
00000320: fc63 8b3e 4082 cebc 0583 bf3d 9e82 863e
00000330: 78c1 bcbb 6b8b c9be 3851 013e 2c8b 793e
00000340: d7ed 80be c3a7 613e bde0 eebe 2cb4 4f3e
00000350: c7da ab3e f9f7 ae3e d8a7 14be b860 803c
00000360: b347 993e 6574 19be 355b c83e 9514 823e
00000370: 1f44 e0bd dc3c aabe 40a2 283e 5900 a33d
00000380: 6b40 11be 2083 edbe e184 c93c ba50 fdbd
00000390: 06cd 843e 46cb ca3d 0f8f 62be 238d ebbc
000003a0: 6506 523d 915d dc3e 1844 b93e fc8f c53e
000003b0: a2c5 8cbe 0267 b1bc 8789 2c3c bbad 7e3e
000003c0: 2442 5b3e 3334 83be 922d b03e b185 95be
000003d0: e104 db3e 7da0 f53d 40a7 99bd 7b25 bb3e
000003e0: 6674 aabe cf7c d53e 5cc6 2f3e 621c c5be
000003f0: 2d98 a03c d766 49be 762b 963b 27f6 d63d

fc1.bias f4 [10]
-0.2953578 -0.3794113 -0.17260446 -0.23195574 -0.49070105 -0.09176648 -0.47496468 0.106415465
0.1746579 0.41885063
00000000: 2339 97be 3342 c2be 39bf 30be ce85 6dbe
00000010: 2b3d fbbe 10f0 bbbd 922e f3be 5af0 d93d
00000020: 85d9 323e 9773 d63e
