sandbox/snapshots3/model-6696.pt (torch, 71725 bytes, 8 tensors)

conv1.weight f4 [16, 3, 3, 3]
000000 f6 fb 13 3f e5 de 95 bf 14 64 97 3f 3d 17 97 be
       0.57806337 -1.1708647 1.1827416 -0.29509917
000010 ee be 44 3f cb f8 9d 3f 57 1a f7 be 4f b2 3a 3e
       0.76853836 1.234155 -0.48262283 0.18232082
000020 2f 0b aa 3f 43 f7 47 3f 8f a1 e8 be 6d 01 91 3f
       1.3284663 0.78111666 -0.4543576 1.132856
000030 c0 21 36 bf 09 9c 5e be 68 79 21 3e 92 d1 51 3f
       -0.7114525 -0.2173921 0.15768969 0.81960404
000040 39 78 a8 bf 3a e0 2e bf 25 21 75 be 4d 91 91 bf
       -1.3161689 -0.6831089 -0.23938425 -1.1372467
000050 21 44 c5 3e 1c ca 86 be 19 4a 3d 3f a8 20 81 3f
       0.3852854 -0.26326072 0.7394119 1.0088091
000060 60 9c 4b bf 2c ea 80 bf 11 2f 53 3e 56 fc 6a 3f
       -0.79535484 -1.0071464 0.20623423 0.91791284
000070 45 dc 1f bf 5d c8 48 be 05 1d b5 bf ad 0c 7d 3f
       -0.6244548 -0.19607683 -1.4149481 0.98847467
000080 d9 2d 3b bf 94 69 53 be 0f 04 5f 3e 05 54 a5 3f
       -0.7311683 -0.20645744 0.21778892 1.2916266
000090 03 ee 23 3f c5 94 6e 3f 93 25 90 3f f9 22 60 3f
       0.6403505 0.93195754 1.1261467 0.87553364
0000a0 41 41 8b 3f bc 2f a2 3f 04 82 a5 3e 02 d9 99 bf
       1.0879289 1.2670817 0.32325757 -1.201935
0000b0 c7 31 28 bf ac 5f c9 be 62 5d 88 bf be 48 8a 3f
       -0.65700954 -0.39330804 -1.0653498 1.0803449
0000c0 62 3d c9 3e e6 d2 86 3f bd 30 8c 3f c5 6a a3 3e
       0.39304644 1.0533111 1.0952374 0.31917396
0000d0 8c 0e 8a bf ad f1 1f bf 01 73 34 bf fa ac 56 3e
       -1.0785689 -0.6247814 -0.7048798 0.20964423
0000e0 b1 de 33 3f f3 4a 0d 3f 0a 4f 9f 3f 54 9b 7f be
       0.70261675 0.5519249 1.2445996 -0.24961597
0000f0 47 86 d0 3e c0 a4 b4 bf 73 38 be 3f 24 c7 71 bf
       0.40727445 -1.4112778 1.4860977 -0.9444449
000100 86 4c b1 bf 3c 69 3f bf e3 fa ab 3f d3 f0 4a 3f
       -1.3851478 -0.7476995 1.343594 0.7927372
000110 a9 c8 57 3e df 79 86 bf e0 4f b0 3e 21 e3 b0 bf
       0.2107264 -1.0505942 0.3443594 -1.3819314
000120 44 71 83 bf 3b 9a 3f 3f c2 2d a1 3f 22 d3 3e 3e
       -1.0268941 0.7484471 1.2592089 0.18635228
000130 af 47 01 bf ba 15 10 3f 37 e3 94 3e d5 20 d8 be
       -0.50500005 0.5628315 0.290796 -0.4221255
000140 1a 8f 66 3f 06 f0 5a bf 51 28 a7 3e 1b 55 96 bf
       0.90062106 -0.85522497 0.32647946 -1.1744722
000150 90 b3 7f 3f d5 0f 89 3e 44 14 2c be ac 68 0a bd
       0.99883366 0.2676989 -0.16804606 -0.03379123
000160 05 fa 14 be a8 c5 57 3f 69 c6 2e bd 98 7b bd 3e
       -0.145485 0.84285975 -0.042669687 0.37008357
000170 d7 b2 45 3f 6a da a0 3e e1 7a ac bf 9e 64 43 bf
       0.7722601 0.31416637 -1.3475 -0.76325405
000180 82 4d 1d bf c1 0b ac be 36 ef 06 bf e3 83 84 3f
       -0.6144639 -0.33602718 -0.52708757 1.0352749
000190 f1 27 e5 3e be 15 66 bf e1 fa 1e 3f a7 d3 5a 3f
       0.44757035 -0.89876926 0.6210156 0.85479206
0001a0 c4 7d b1 3f c1 d7 28 bf d3 99 06 3f a5 b2 cd 3f
       1.3866506 -0.65954214 0.5257847 1.6070143
0001b0 3d 8e 98 3f 98 27 f8 bd a4 f4 52 3f 60 87 3f 3f
       1.1918408 -0.12116927 0.8240454 0.7481594
0001c0 c1 1b bc bf 35 d7 2a bf 8f 5a 8e 3f f4 29 8b bf
       -1.469597 -0.6673463 1.1121386 -1.0872178
0001d0 28 e3 38 bf 85 07 15 3f de 11 73 bf a1 6b a2 3f
       -0.7222161 0.582146 -0.9494914 1.2689096
0001e0 38 ac 16 be 61 8c 2a bf 1d 51 59 bf 3c de a2 bf
       -0.14714134 -0.6662045 -0.84889394 -1.272407
0001f0 e4 34 b1 bf 51 ec 80 3f 65 b7 0e 3e 7d 69 54 3e
       -1.3844266 1.0072118 0.13937147 0.20743366
000200 61 c5 c2 3e 6e 84 0f 3f 22 27 ad 3f 04 e6 c7 bc
       0.38041213 0.56061447 1.3527567 -0.024401672
000210 a7 18 70 3a e1 2a 1e bf 6e 6b e9 bd ea b8 98 3f
       0.0009158947 -0.6178418 -0.11397444 1.1931431
000220 ea 17 e8 3e ab 64 ae bf de c7 54 3e 7e 5e bc bf
       0.45330745 -1.3624471 0.20779368 -1.4716337
000230 c7 56 3d 3f 7e b2 14 3f 97 4e 79 bf 59 01 89 bf
       0.73960537 0.5808486 -0.97385544 -1.0703536
000240 23 76 88 bf 69 a1 02 3f 62 48 0b be 9a 9f 4d 3e
       -1.0661052 0.5102754 -0.1360183 0.20080414
000250 b7 e5 5d 3f cc 53 b2 3f d7 38 b3 bd 1c 7b 77 bf
       0.8667864 1.3931823 -0.08751076 -0.96672225
000260 8f 25 8f be f6 e3 2e bf f6 41 13 bd cd 12 bb bf
       -0.27958342 -0.6831659 -0.035951577 -1.4615113
000270 7a 1b b6 3f eb a6 ad 3f 51 01 41 3f 46 35 a5 bf
       1.4227135 1.3566564 0.75392634 -1.2906883
000280 3e 94 11 bf fd 74 f4 be b9 69 7b bf 6e 0e 54 3f
       -0.56866825 -0.47745505 -0.98208195 0.8283452
000290 46 eb 84 3f 7c 7a b7 bf fa 6b b0 3f 46 43 8f 3f
       1.03843 -1.4334254 1.3782952 1.1192405
0002a0 15 28 b7 3f 06 9e c1 3f 6a 76 81 bf c2 2c 11 bf
       1.4309107 1.512635 -1.0114262 -0.5670892
0002b0 81 a8 ae bf 6c d3 8b 3f d3 56 0b bf 92 e3 d0 be
       -1.3645173 1.0923896 -0.5442936 -0.40798622
0002c0 ef 4a 9d 3f 86 79 e3 bc 8e 35 5b bf e2 bd 8c bf
       1.2288493 -0.027767908 -0.8562859 -1.0995448
0002d0 96 29 e4 bd 20 7b 72 bf e0 29 1a 3f b3 ad 64 bf
       -0.111407444 -0.94719124 0.60220146 -0.89327544
0002e0 67 d8 a7 3e 6d 5b 3b bf 8c 3f f6 be 38 48 67 bd
       0.3278229 -0.7318638 -0.48095357 -0.056465358
0002f0 45 04 6e bf f4 e1 b4 3f 0e b5 a3 bf 88 f1 b1 3f
       -0.92975265 1.4131455 -1.2789629 1.3901834
000300 3b 1b 8c 3f 9c 77 1b bf 13 ab c9 bf 03 1f 18 bf
       1.094581 -0.60729384 -1.5755333 -0.5942232
000310 87 12 a9 3f d8 09 8e 3e 1d e9 8a bf 82 99 91 be
       1.3208779 0.27741885 -1.085239 -0.2843743
000320 0d a1 8b 3f 6f 2b 63 3f bb b9 8e 3f b7 1e b3 3f
       1.0908524 0.8873815 1.115043 1.3993748
000330 c7 12 9a 3f 7e 8d 9f 3d 55 a4 28 be 98 1a ab 3e
       1.203698 0.07790659 -0.16468938 0.33418727
000340 ef 97 c5 bf 08 9d b2 bf a4 28 b1 3d 45 f1 c0 bf
       -1.5436991 -1.3954172 0.0865033 -1.507363
000350 7b de 8b bf d4 2a 9a 3f c4 0a f2 be 0d af 72 3f
       -1.0927271 1.204432 -0.4727384 0.94798356
000360 11 a5 02 3f e3 98 a1 3f 79 5b 47 bf 9d a7 61 3f
       0.5103312 1.2624782 -0.7787395 0.8814638
000370 9a 3b c1 3e b2 5a 9d bf b1 8c a7 bf 2c c5 b0 3f
       0.37740785 -1.2293303 -1.3089811 1.3810172
000380 67 d7 84 bd 85 17 92 bf e1 f9 7a bf 18 4c 90 bf
       -0.06486397 -1.1413428 -0.98037535 -1.1273222
000390 63 d5 56 3f ef 9c 6e bf 65 fe 4e bf 52 f5 98 3f
       0.8391935 -0.9320821 -0.80856925 1.1949866
0003a0 aa 17 9f bf fd a1 03 3e fe fe 8f 3e 38 8a f3 3d
       -1.2429097 0.12854762 0.2812423 0.118915975
0003b0 b3 28 84 bf 06 bb 2c 3f e9 c2 9d bf c3 90 aa 3f
       -1.032492 0.67472875 -1.2325107 1.3325428
0003c0 6c 41 0d 3f cd b5 bc be 96 95 ac 3f ac c3 92 bf
       0.5517795 -0.36857453 1.348315 -1.1465964
0003d0 62 c6 91 3f e3 f6 15 bf 4f 3f 07 3f 92 13 e7 3e
       1.1388667 -0.58579844 0.52830976 0.45132118
0003e0 98 77 e6 3d 55 d1 ab 3f 80 54 89 bf b7 a6 6d 3e
       0.112532794 1.3423258 -1.0728912 0.23208128
0003f0 9e c5 f4 be 22 fe 09 bf 4d f7 8f 3f 72 81 4c bf
       -0.4780702 -0.539034 1.1247345 -0.7988502

conv1.bias f4 [16]
000000 a4 68 9d 3f 40 60 84 bf 18 24 05 3f 0e 94 a5 bf
       1.2297559 -1.0341873 0.520082 -1.2935808
000010 17 12 d2 3e 23 02 1c 3f b3 b4 6a bf 02 de 7a 3c
       0.41029426 0.6094076 -0.91681975 0.01531172
000020 ca d3 32 3e ee 36 57 3f fd b7 f0 3e bd 3c ab 3f
       0.17463604 0.8406819 0.47015372 1.3377911
000030 be da c0 bf 18 be 58 bf 70 5d 26 3f 03 a9 3d 3f
       -1.5066755 -0.8466506 0.64986324 0.74086016

conv2.weight f4 [32, 16, 3, 3]
000000 d6 32 c4 bd 12 a6 05 bf 84 28 9b 3e f0 69 03 3f
       -0.09580009 -0.5220653 0.30304348 0.5133352
000010 03 b9 f9 3d bd 4f d6 3d 77 30 e6 be 2d f8 1c 3e
       0.12193491 0.104644276 -0.4495885 0.15329047
000020 8a 65 06 be b8 2f 04 bf 5d 35 83 3e ba 98 0c bf
       -0.13124672 -0.51635313 0.2562665 -0.5492054
000030 ef 88 b4 be 93 cd 8f bd f1 0a 16 3f c5 26 a9 3e
       -0.35260722 -0.07021632 0.58610445 0.3303739
000040 87 29 ea 3e a9 03 97 bd 94 61 d7 3e 36 7b 17 bf
       0.45734808 -0.07373745 0.42066634 -0.5917238
000050 db c1 be 3e 67 81 17 3f 0c 1a f0 3d 5a 83 c6 be
       0.37257275 0.5918183 0.11723718 -0.38772088
000060 24 df 0b 3f e9 e6 36 be af 11 a1 be c1 30 ff be
       0.5463736 -0.17861523 -0.31458804 -0.49841884
000070 0c 70 28 bf 49 f2 83 3e ff ce a9 3d 71 6e 07 3e
       -0.6579597 0.25770786 0.082914345 0.13225724
000080 7d d8 cc bd 8b 3a a0 bc 82 72 52 3e d6 03 56 3d
       -0.10002229 -0.019559165 0.20551494 0.052249752
000090 54 47 83 3d 79 34 15 3f c1 b0 2c 3e 1a a6 32 be
       0.06410089 0.5828319 0.16864301 -0.17446175
0000a0 50 53 26 bf 22 4f 50 3e 34 e3 a0 3e 9a cb 9e be
       -0.64970875 0.20342687 0.31423342 -0.3101471
0000b0 8d 6c ab be b2 89 aa bd 6a 20 f7 be 50 4a ac 3e
       -0.33481255 -0.083270445 -0.48266917 0.33650446
0000c0 dc c4 e7 bd 32 46 27 3f ee 3e 9f be 61 e0 c9 3d
       -0.11316845 0.65341485 -0.311027 0.0985725
0000d0 c9 0a 03 bf 04 cd 2e 3e 31 4f 40 be 22 0e 86 be
       -0.5118833 0.17070395 -0.18780209 -0.26182657
0000e0 3d f0 b4 3e 18 5d a7 3e 1d 58 01 3f ed 7f 14 3f
       0.35339537 0.32688212 0.50525075 0.580077
0000f0 3f 4e 17 3f 98 d6 3d be 4b b2 0b 3f 7f e5 29 be
       0.5910377 -0.18538892 0.5456893 -0.16591452
000100 0d 39 e8 be a2 83 4c 3d b9 d9 1f bf 0a 8b 17 3f
       -0.45356026 0.049930222 -0.62441593 0.5919653
000110 54 6c 0c 3f 00 8e f5 be 4a 20 cf 3e b1 43 9f bd
       0.54852796 -0.479599 0.40454322 -0.07776583
000120 49 03 6a be e2 9a 1f 3f 05 0c e7 be a6 47 a6 3e
       -0.22852816 0.6234571 -0.45126358 0.32476538
000130 d9 64 a7 be 16 83 bc 3d fa 27 c2 3d d9 8e ff 3e
       -0.32694128 0.0920469 0.09480281 0.49913672
000140 c0 f3 04 3f 5f a4 6e 3e 65 28 0d 3e 3e ba 00 3f
       0.51934433 0.2330489 0.1378494 0.50284183
000150 0a 02 80 3e d5 c4 96 be 12 31 0e 3d a5 07 96 be
       0.25001556 -0.29447046 0.034714766 -0.29302707
000160 02 35 1f 3f b7 ca 69 bc 91 82 2f 3e 50 23 23 bf
       0.6219026 -0.014269522 0.17139651 -0.6372576
000170 3c 7d 1c bf 68 a5 00 bf c8 22 8d 3e bd 95 4c be
       -0.6112859 -0.5025239 0.27565598 -0.19978996
000180 8e c5 a1 3e ec 0f fd 3e 3d 44 85 3e fb d9 20 3c
       0.31596035 0.4942621 0.26028624 0.009817596
000190 57 6e 43 bd 82 95 83 be b8 3e 08 bf 53 3d be be
       -0.04771265 -0.25700003 -0.532207 -0.37156162
0001a0 5d 55 08 3f 7f c4 11 bf 29 b3 96 3c c9 47 fe 3d
       0.53255254 -0.56940454 0.018395977 0.12416036
0001b0 7e 0b 5f bd ca 07 7f 3a 00 97 e2 3e 5f cf 0e bf
       -0.05445432 0.00097286387 0.4425583 -0.55785173
0001c0 7f d9 22 3f 43 08 d2 3e 1f 78 20 3f c0 89 12 bf
       0.6361312 0.41021928 0.6268329 -0.5724144
0001d0 d1 26 f1 3d 80 72 1f 3f 11 81 76 3e aa d4 6d 3e
       0.11774982 0.6228409 0.24072672 0.23225656
0001e0 c6 b7 f0 be ee 1f b2 3e ed b3 05 bf f5 b0 5e be
       -0.47015208 0.34789985 -0.5222767 -0.21747191
0001f0 95 62 b0 3e 66 48 00 be 4d 28 4c be f3 fe 08 bf
       0.34450212 -0.12527618 -0.19937249 -0.5351402
000200 30 6a 8d be 99 f7 27 3f 59 ec 0a 3f bb fb 36 be
       -0.27620077 0.6561218 0.5426689 -0.17869465
000210 4a e8 f1 be 74 70 e0 3d 98 cb ee be 3c 1e f0 be
       -0.47247535 0.10958949 -0.46639705 -0.46898067
000220 7e 0f 2b be 73 98 6a be ef d5 8a be 78 36 aa 3e
       -0.16705129 -0.22909717 -0.27116343 0.3324468
000230 69 c6 1a bf d7 12 28 bf f2 60 17 bf 0b 7b 2d bd
       -0.60459 -0.6565375 -0.591323 -0.04235367
000240 99 21 b9 3e 2e 9b 04 bf 31 cb 1f 3f ca 16 17 bf
       0.36158445 -0.51799285 0.6241942 -0.5901915
000250 fc b4 94 3d c9 c8 0a bf 25 f0 f6 be 9d 20 d2 3e
       0.072610825 -0.54212624 -0.4823009 0.41040507
000260 9d 4e 27 bd 5c 5a 9b bd 50 17 c2 3d 13 ca a1 3b
       -0.040846456 -0.07585594 0.09477103 0.004937419
000270 e9 48 71 be e1 9a a3 3e 43 12 f7 3e fc 81 de 3d
       -0.2356297 0.319541 0.4825612 0.10864636
000280 e0 6a 53 be 41 94 0c 3f 7a 00 19 3e ec d1 ac 3e
       -0.20646238 0.5491372 0.14941588 0.33753908
000290 83 5d aa be d1 83 43 3e 91 c3 b3 3e f5 fd bb be
       -0.3327447 0.19093253 0.35110143 -0.3671719
0002a0 c4 95 ac 3e 18 5a 14 3f b7 a5 d6 3b 9d a1 0b bf
       0.33708012 0.5794997 0.0065505165 -0.5454348
0002b0 e0 f9 97 3d e4 79 00 bf ff 57 e0 be e2 4d 04 3e
       0.07420707 -0.5018599 -0.43817136 0.12920335
0002c0 eb a0 ac 3e 19 65 f2 3e 0b 21 0f 3f df 0a 37 be
       0.3371652 0.47342756 0.55909795 -0.1787524
0002d0 df 6b 68 be f7 1c 1a bf 6b 82 f1 3e e0 ef e3 bd
       -0.226974 -0.60200447 0.47169814 -0.11129737
0002e0 91 97 dd 3e ad 6e 27 bf f0 db 23 bd 4f 57 ad 3e
       0.43279698 -0.6540325 -0.04000467 0.33855674
0002f0 09 03 7a be d1 34 cc 3e ca 5a e5 be 3e b4 01 3f
       -0.2441522 0.39884046 -0.4479583 0.5066565
000300 ab 61 ad be e5 c5 8a bc 86 40 e4 3e 25 fe 8f be
       -0.33863577 -0.016940067 0.44580477 -0.28123584
000310 cf bf 22 bf ad 5d d1 3e 51 66 94 3d 0d b3 f6 be
       -0.63573927 0.4089178 0.07246078 -0.4818348
000320 96 74 e1 be 91 11 a0 be f3 24 2e bd af 95 8b 3e
       -0.4403426 -0.31263402 -0.042515706 0.27262637
000330 83 97 6f bc 90 c5 22 bf 03 78 d4 3e c1 59 85 3e
       -0.014623526 -0.63582706 0.41497812 0.2604504
000340 0e 5a a0 be 3c f4 19 bd 78 37 2f 3e 27 f5 0b 3f
       -0.31318706 -0.037586436 0.17111003 0.5467095
000350 16 f5 80 3e e2 86 8a 3d 36 78 33 bb e9 cb b3 be
       0.25186986 0.06764008 -0.0027384884 -0.3511651
000360 db f4 a6 be ec 0d d5 3e 54 e8 7d be 3d df 47 3e
       -0.32608685 0.41612184 -0.24795657 0.19518752
000370 c9 90 1d be 1d f5 02 3f f4 32 05 bf 2a d5 b8 3b
       -0.15387262 0.51155263 -0.52030873 0.0056406455
000380 a3 88 2a be 7c ec 34 3f d0 89 b3 3e e8 34 d5 3e
       -0.16653685 0.70673347 0.3506608 0.41641927
000390 b9 b9 a6 be 4f 21 b0 3e 27 54 c4 3e c9 83 08 3f
       -0.3256357 0.34400412 0.38345453 0.5332609
0003a0 96 98 05 bf 56 55 c8 3d d0 37 f5 bd cd 87 a2 3e
       -0.5218595 0.097819015 -0.11973536 0.31744233
0003b0 30 60 83 3e af f0 de 3e dc 0d 0c be b5 b0 54 3e
       0.25659323 0.43543002 -0.13677162 0.20770533
0003c0 4c c5 a6 3d 0f 9b 07 be 91 ae 14 bf 6a 41 37 bd
       0.081431 -0.13242744 -0.5807887 -0.044740118
0003d0 d5 37 68 bc 4d 51 32 3d 17 49 15 be 27 68 a9 3e
       -0.014173468 0.043534566 -0.14578663 0.33087274
0003e0 30 e3 31 3f 3a e6 9b be de 90 8d be 52 d7 f4 3e
       0.69487286 -0.30449086 -0.27649587 0.47820526
0003f0 e9 ad 62 be 76 da 00 3f f9 4e de 3c dc c1 8d be
       -0.22136654 0.50333345 0.027137266 -0.27686965

conv2.bias f4 [32]
000000 f6 1a 28 bf b1 4b ef 3e cf fa 0e bf 9e 9f 13 be
       -0.6566614 0.46737435 -0.55851454 -0.14416358
000010 0f 91 79 be 4a 15 15 3e ae 0e e3 3e 8d 4f d6 bd
       -0.24371742 0.14558902 0.44347137 -0.10464392
000020 cb e3 c4 bd f7 cc 94 3d 0c 43 eb be 70 76 10 bf
       -0.096137606 0.072656564 -0.4594959 -0.5643072
000030 1a cf dd bd 7d 0d 1f 3e e8 95 63 be a1 6b cd be
       -0.10830517 0.15532489 -0.22225153 -0.40121177
000040 3c 9c d1 be 0d c2 92 3e f0 16 db be 0d b8 03 be
       -0.4093951 0.28663674 -0.42790937 -0.12863179
000050 6e 55 87 3d 56 f6 16 3f 6d 14 17 3f c1 03 b0 be
       0.06608091 0.5896963 0.5901554 -0.34377864
000060 62 1b 28 3f e1 61 10 3e da 81 c0 3e 6b 0d 1e bf
       0.6566678 0.14099838 0.3759907 -0.61739224
000070 44 be ea be b6 9d 6a 3c a7 ad 9e bd c7 49 33 3f
       -0.45848286 0.014319828 -0.07747965 0.7003445

conv3.weight f4 [32, 32, 3, 3]
000000 bf 38 48 be b9 71 5e 3e 20 ed 9a 3d 77 24 e0 be
       -0.19552897 0.21723069 0.07564759 -0.4377782
000010 8e f3 ac be b7 9f e3 3e bf ab 8c be 15 03 85 be
       -0.33779567 0.4445779 -0.27474782 -0.25978914
000020 43 f8 d2 3e 94 58 b3 3e aa d4 94 3e 8e 4b 89 3e
       0.41205034 0.35028517 0.290685 0.26815456
000030 6e a9 7b be 04 de db 3e af 85 26 be 0e a8 90 be
       -0.24576351 0.42942822 -0.16261934 -0.28253216
000040 46 ec 9e 3e db 06 9b be 7d e9 30 be ed a9 ce be
       0.31039637 -0.30278668 -0.17276569 -0.40364018
000050 bb b1 bb 3e ed 32 d7 3d 1f 68 ac be b3 06 ba 3e
       0.36659035 0.1050776 -0.33673188 0.36333236
000060 34 60 d5 be 71 e6 42 3e 9a 99 98 3e e0 72 3f be
       -0.4167496 0.19033219 0.2980469 -0.18696165
000070 0b eb a1 3d bc 97 aa 3e e8 f5 84 3d 0b 7b d8 be
       0.07906159 0.3331889 0.064922154 -0.42281374
000080 d1 b1 5a bd c6 d8 31 3e 89 26 68 3e 29 9d e8 bd
       -0.053392235 0.17367849 0.2267095 -0.11358101
000090 80 bc af bd 3d 62 43 be 4e 06 f1 3e c4 f9 c3 bd
       -0.085808754 -0.19080444 0.47075123 -0.095691234
0000a0 9b 5b 96 bd dd bc e5 be a6 84 bf 3b 46 00 27 3d
       -0.07341691 -0.44870654 0.0058446703 0.040771745
0000b0 00 da 82 be 5e 49 a5 3e 1b ae 35 3e c4 cc a6 be
       -0.25556946 0.32282537 0.17742197 -0.325781
0000c0 13 7d b8 bd e6 ba ae 3e 52 c5 26 3d 60 97 dd 3d
       -0.09008231 0.34126967 0.040715523 0.10819888
0000d0 a2 a0 da 3d 80 ef d3 3e 77 7f 8c 3e 7f bd 4f 3e
       0.106751695 0.41393661 0.27440998 0.20287131
0000e0 84 5e 29 3a e6 89 90 3d 46 70 49 be 21 f6 eb be
       0.00064609223 0.07057552 -0.19671735 -0.4608622
0000f0 dc f5 7d 3e b6 30 bf 3e 04 4c b7 3d 99 9c 4f be
       0.24800819 0.3734185 0.08950046 -0.20274581
000100 69 5d ad be d7 a0 8c be 08 90 eb be f6 6a 89 3e
       -0.3386033 -0.2746646 -0.46008325 0.26839417
000110 80 c0 90 3e 93 bf f4 bd c8 96 be 3e 48 59 af bd
       0.28271866 -0.119506024 0.37224412 -0.08561951
000120 a3 b9 f9 bd 33 af b9 3e e0 58 0b be 5d 1d 02 be
       -0.121936105 0.3626648 -0.13608122 -0.12706514
000130 cb d7 d0 3e 1e ea 6b be c5 6e d9 be d5 7b a5 be
       0.40789637 -0.23038527 -0.42467323 -0.3232104
000140 0d fa d7 be 23 2c 98 bd 6e 93 30 3e 78 cd b8 3e
       -0.4218296 -0.074302934 0.1724374 0.3609426
000150 40 5f b6 be 18 fb e5 3d cb df a5 3e 4a a0 96 3e
       -0.35619545 0.11229533 0.32397303 0.29419166
000160 1a 74 84 3e eb b8 9c 3d 76 3d e2 bd f7 16 58 3d
       0.25869828 0.07652458 -0.11046879 0.052756276
000170 bb 0f b4 be 25 63 d3 3e d0 a7 de be 27 a5 8f 3c
       -0.3516825 0.4128658 -0.43487406 0.017534805
000180 c7 ca f4 be c8 c0 41 be 6b a2 df be d0 78 b0 be
       -0.47810957 -0.18921196 -0.43678603 -0.34467173
000190 77 53 d9 3d 19 af 84 3e 8a 0d a5 be 16 10 c0 be
       0.10611623 0.2591484 -0.32236892 -0.37512273
0001a0 e0 b4 14 3e da f7 28 3e 1f 8a 81 3e e9 ea 03 3e
       0.14522123 0.16500798 0.2530069 0.1288258
0001b0 8c b6 cd 3d 83 a2 5e 3e 36 87 62 be 65 75 a5 3e
       0.10044584 0.21741681 -0.22121891 0.32316127
0001c0 ad a0 89 be 19 2e c4 bd d8 87 11 bd a0 db ae 3e
       -0.26880398 -0.09579105 -0.03552994 0.34151936
0001d0 f0 ac fa bd 68 38 9a be 80 99 e9 bd bc ae d3 3e
       -0.122400165 -0.3012116 -0.11406231 0.4134425
0001e0 40 1e 71 3e 74 51 b4 be f2 3c 24 3e 69 42 83 be
       0.23546696 -0.35218394 0.16038874 -0.25636604
0001f0 63 a1 c9 be cc 6a a9 bc 8e fd ea bd 04 c4 44 3e
       -0.3938094 -0.020680808 -0.11474143 0.19215399
000200 ab 7d c1 be 6d c8 9f 3e 1e 2b fa bd 12 bd 05 bf
       -0.3779119 0.312076 -0.12215255 -0.52241623
000210 09 62 b0 be 61 39 fd 3c 5e a3 bb 3e fb 8b 92 be
       -0.34449795 0.03091115 0.36648077 -0.28622422
000220 50 5d 3c 3d 7e 1a 47 be 03 88 8a be e9 6c 9f bd
       0.045987427 -0.194437 -0.27056894 -0.07784445
000230 cc 7e c1 bd be 4d f7 be ab be 21 3e 78 c0 5c be
       -0.09448013 -0.483015 0.1579539 -0.21557796
000240 bd d1 9f 3d 3f 2c 9e bd 09 ba c4 bd 43 b7 94 bd
       0.07803676 -0.07723283 -0.09605796 -0.07261517
000250 a8 08 82 be 81 2f 6f 3d 80 42 10 3e 3f 3e 6c bc
       -0.2539723 0.058394913 0.14087868 -0.0144191375
000260 b0 78 08 3c e5 87 45 3e 77 d9 ad 3e fe c9 1a be
       0.008329555 0.19290121 0.33954975 -0.15116116
000270 d8 e0 c0 be 50 0e 28 be 28 d4 e0 3e d2 96 18 3e
       -0.37671542 -0.1641171 0.43911862 0.14901283
000280 42 41 d2 3d f1 41 95 3e 28 41 9c be 45 5c 99 3d
       0.10266353 0.29151872 -0.3051846 0.07488302
000290 a4 b4 bc 3d 50 95 b8 3e 0a 90 1a be fe fb 15 be
       0.09214142 0.36051416 -0.15094009 -0.14646909
0002a0 b9 37 1e 3e 80 3e 43 3e c4 e4 77 3c 8e 57 80 3e
       0.15450944 0.1906681 0.015130226 0.250668
0002b0 60 e0 4d be 0b 0c cd 3d f6 9e af be 03 d0 09 3e
       -0.20105124 0.10012063 -0.34300965 0.13458256
0002c0 8c 4d 18 be 0e 87 bc be 41 88 d4 be 3a 59 c9 be
       -0.14873332 -0.3682179 -0.41510203 -0.39325887
0002d0 58 1b 99 be bd 43 37 3d 98 19 a6 be 8e aa e4 be
       -0.29903674 0.044742335 -0.324414 -0.44661373
0002e0 73 4d 9a 3b 83 38 19 bd ac ae 16 3e f6 2a ac bd
       0.0047089397 -0.03740741 0.1471507 -0.08406632
0002f0 14 68 a4 3e 8a 2b 94 3e 5c 1d 94 3d 53 83 8d bc
       0.32110655 0.28939468 0.07232162 -0.017274534
000300 c0 0e da be 29 ae ee bc 5e 4a 0c be 4d f0 84 3d
       -0.42589378 -0.02913578 -0.13700244 0.06491146
000310 7f f3 eb bd f9 70 4d 3e e1 f0 fb be 6d 01 d5 3e
       -0.115210526 0.20062627 -0.49207214 0.4160265
000320 8d 86 8d be cb 99 d8 3d 75 2e 8f be 09 35 b7 3d
       -0.27641717 0.10576209 -0.2796513 0.089456625
000330 c2 3e 43 be 3e 83 9b 3d 2a a4 cb 3e 3a ba 0b be
       -0.19066909 0.07593392 0.39773685 -0.13645259
000340 95 33 e4 3e f6 5a f7 be 83 2e 6b bd 12 54 9d be
       0.44570604 -0.48311585 -0.057417404 -0.30728203
000350 94 22 92 bd e6 14 0f bd 5b 0a 89 bd 7e 2b ff bd
       -0.071355015 -0.03493204 -0.06691428 -0.12459467
000360 eb 61 f7 3d 62 45 b1 3e 6f 49 a8 bc bd 5c 4e be
       0.12079223 0.34623247 -0.020542828 -0.20152564
000370 60 e2 42 bd a1 42 ff 3e d1 1d c0 3e f5 61 9b be
       -0.04757917 0.4985552 0.37522748 -0.30348173
000380 5c d5 cc 3d d7 c4 4f 3d 43 0d 54 3e 07 30 96 be
       0.100016326 0.05072483 0.20708184 -0.29333517
000390 bd 3d 83 3e 84 a7 3e be 3a 4a 7f 3e 9b 55 25 be
       0.2563304 -0.1861859 0.24930659 -0.16145937
0003a0 0b ea e2 be 15 3d 95 bd 01 e1 e1 3e ba 7b 1f 3e
       -0.44319186 -0.07287041 0.44116977 0.15574542
0003b0 19 55 7d be 16 73 1c be a4 0f a9 bd 95 79 60 3e
       -0.24739493 -0.15278277 -0.08254936 0.2192138
0003c0 1a 5e b4 be 22 d5 2b be 62 90 cd 3e aa 4d 80 3e
       -0.35228044 -0.16780522 0.40149218 0.25059253
0003d0 a5 72 2c 3e 7c 6e c2 3c d9 0c b1 3e a3 24 a5 bd
       0.16840608 0.023734324 0.34580114 -0.080636285
0003e0 43 d3 9c 3d 75 b2 5a be a5 76 cd 3e 9d 5b 97 3e
       0.076574825 -0.21357138 0.4012958 0.29562083
0003f0 8d 63 92 be 6c bd 94 be a8 ad bc 3e 78 af c3 3e
       -0.28591576 -0.29050767 0.3685124 0.3821981

conv3.bias f4 [32]
000000 c9 fa 6e 3d 4f 22 0c 3e ca ef c9 3d a2 e3 f8 be
       0.058344636 0.13684963 0.09860189 -0.4861117
000010 e3 18 79 be 5b 93 e1 bd 7f 86 80 3e 64 96 03 bf
       -0.243259 -0.11014434 0.25102612 -0.5140135
000020 d2 95 fd bd 6c 0d bc 3d 5b 73 3d be 0b bf ca be
       -0.123820916 0.091822475 -0.18501036 -0.3959888
000030 8a f3 9c bd 6f a8 c6 3e b2 c3 81 be 02 08 bb 3d
       -0.07663639 0.3880038 -0.25344616 0.09132387
000040 bf 3c 2e 3e b6 29 dc bc ae 00 c6 3e 89 52 3b 3e
       0.1701536 -0.026875358 0.38672394 0.18293203
000050 a3 d6 53 3e 75 ae c7 be 6f 19 b3 bd de d5 fd be
       0.20687346 -0.39000288 -0.087450854 -0.4957723
000060 66 06 36 3e 64 a0 14 3e 53 45 c0 be 41 5d 5c bd
       0.17775878 0.14514309 -0.3755289 -0.05379987
000070 42 2d 69 3e c0 1d 1d be 79 3c ca 3d 27 6f fc 3e
       0.2277117 -0.1534338 0.098748155 0.49303553

fc1.weight f4 [10, 288]
000000 42 f2 dc 3d 84 f9 12 3d bc 1e 75 3e e0 e9 52 be
       0.107883945 0.035882488 0.23937505 -0.20597029
000010 b4 d7 2c be 77 5f 67 3e a8 26 61 3d af 1b 19 3e
       -0.16879159 0.2259501 0.054968506 0.14951967
000020 a3 f8 a3 3d 99 18 a7 3e a5 a4 a7 3e 1a 3e 71 be
       0.08006408 0.32635954 0.327428 -0.23558846
000030 1a 1f de be f4 62 f0 3b d5 c5 50 be 29 b4 ea 3e
       -0.43383104 0.007336015 -0.20387967 0.45840576
000040 57 47 a2 3d 9a 89 34 be 58 00 b1 3e 87 41 ce 3e
       0.07923763 -0.17630616 0.34570575 0.40284368
000050 ec 12 81 be ac 8c 8a 3e 95 bf 5a 3e f5 dc 9c be
       -0.2520975 0.2706045 0.21362145 -0.30637327
000060 96 7f d9 be 9b dc 01 3a cc f0 df 3e 79 37 0e be
       -0.42480153 0.0004953832 0.437384 -0.13888349
000070 ed 7d c5 3e 25 37 a5 3e 34 1b b7 be 6c bb 08 3e
       0.38572636 0.32268634 -0.35762942 0.13352746
000080 29 5d 4b bd 9f ff 12 bd 20 a0 ba 3e 06 0c 8a 3e
       -0.04964939 -0.03588831 0.3645029 0.26962298
000090 76 43 f1 3d d3 3c da 3e c8 bc a6 be ce 65 ca 3d
       0.11780445 0.4262453 -0.32565904 0.09882699
0000a0 4e a4 7d bd 95 ea 2a 3e 3f 79 9b 3e 39 a2 91 be
       -0.06192427 0.16691048 0.3036594 -0.2844408
0000b0 0b fa 65 bd 71 49 1a 3e a1 66 72 3e 7a 4c 20 3e
       -0.056146663 0.15067078 0.23671962 0.15654173
0000c0 32 5e 36 bd 1d 7b 83 3e 79 70 12 be 25 32 95 be
       -0.044523425 0.25679865 -0.14300717 -0.2913982
0000d0 f2 5e ac 3d 75 3b 7e 3e e9 b2 d8 be be 12 49 3d
       0.08416547 0.24827369 -0.42323998 0.04909014
0000e0 64 4a 6d bb d2 2f dc bd e1 ee 78 3e a9 42 99 be
       -0.003620767 -0.107513085 0.24309875 -0.2993367
0000f0 fe 74 58 be 8a 8f 27 3e 1b 6c b7 be 1b d1 8d be
       -0.21138379 0.1636335 -0.35824665 -0.27698597
000100 14 d4 c8 3c c1 5b fd bd 5a 12 b0 3e f2 30 cc 3e
       0.02451519 -0.12371016 0.34389 0.39881092
000110 cb ab d1 3e 01 50 83 be 66 c1 ef bd fc 48 22 3e
       0.4095138 -0.25646976 -0.1170681 0.15848154
000120 43 79 b1 3e 5e 2c 2a 3e a2 fd f4 3d cd 9e 8c be
       0.34662828 0.16618487 0.11962439 -0.27464905
000130 c5 da 53 3e 40 89 c4 be c4 e6 25 be 18 fc be bd
       0.20688923 -0.38385963 -0.16201311 -0.09325427
000140 49 b9 eb 3d 2c fa 8b 3e 00 e1 cd 3e 3f 0d 88 bd
       0.1150995 0.27339303 0.40210724 -0.066431515
000150 63 82 d8 3e a0 ec e2 3e df 93 c4 bd 34 72 29 be
       0.42286977 0.44321156 -0.09598517 -0.16547471
000160 14 19 dd bd 93 60 cc 3e 51 96 f7 3d 62 73 d0 3e
       -0.10795799 0.3991743 0.120892175 0.4071303
000170 3b 40 7e 3e 8b 47 84 be eb 5a 09 be ac 84 ae 3d
       0.2482919 -0.25835833 -0.13413589 0.08521399
000180 f1 34 3c 3e 0b 88 7b 3b 56 ed 9d be 7b 7f 97 3e
       0.1837957 0.0038380648 -0.30845135 0.29589447
000190 78 76 d4 3c 89 ad aa 3e 9e 05 d7 3e d2 a8 ab 3e
       0.025935397 0.33335522 0.41996473 0.33527237
0001a0 5e 7b 11 3e 87 a5 00 bd da 9e 64 3e 22 22 ec 3c
       0.14207217 -0.03140786 0.22326222 0.02882487
0001b0 ff 96 03 bd c4 2a 03 be 14 83 d7 3e aa b3 88 3e
       -0.032126423 -0.12809283 0.42092192 0.26699573
0001c0 47 c0 d1 3d c5 1c ee be ea 85 c0 be a0 a8 9b be
       0.10241752 -0.46506324 -0.37602168 -0.30402088
0001d0 26 74 c7 bd be 55 cc 3d 8c 49 bc 3e f1 d7 8f 3e
       -0.097389504 0.099772915 0.36774862 0.28094438
0001e0 4e c0 7c 3e 32 9b 87 be 12 76 a3 3d ed 2f b0 3e
       0.24682733 -0.26485592 0.079815045 0.34411564
0001f0 6f 2e 81 be 23 e9 75 3e 35 a7 a3 be 0a 19 cf 3d
       -0.2523074 0.24014716 -0.31963506 0.10112198
000200 48 b3 25 be a9 a6 0a be 98 5b 4d 3e 92 dd 60 3e
       -0.16181672 -0.13540138 0.20054471 0.21959522
000210 7c fe da 3d d6 ce d7 bd 57 5e 18 3e 8d f4 9e 3e
       0.1069307 -0.10537498 0.14879738 0.31045952
000220 ba 57 d4 3e 32 fd 88 3e 3a 35 bb 3e 14 75 12 bd
       0.4147318 0.26755673 0.36564046 -0.035756186
000230 47 31 c9 be 26 42 b3 3e 7c c4 84 3e 41 4a 7a 3e
       -0.39295408 0.35011405 0.25931156 0.24442388
000240 4f b8 b4 be ca 8a 73 3e 2c 7b 34 3e 05 fc 7d 3c
       -0.35296866 0.23783413 0.17625111 0.015501981
000250 bd 23 75 3e 0d e6 77 3c 6f 70 07 bd 45 1e 2c be
       0.23939414 0.015130532 -0.03306621 -0.16808422
000260 8e 31 ef 3e 47 6c 4d 3e 38 d5 91 3e eb a1 93 be
       0.46717495 0.20060836 0.28482985 -0.2883447
000270 ce 49 cb be 01 f7 4b 3d 0a af 92 3e 6b 9a a3 be
       -0.39704746 0.04979611 0.2864917 -0.3195375
000280 fe 48 98 be 64 4e 3e 3e 84 ed b4 3d 55 71 5d 3c
       -0.2974319 0.18584591 0.08834365 0.01351579
000290 ff 75 a6 3d ba 64 8e bd d2 f9 4f 3e 49 02 30 3d
       0.08127975 -0.06952806 0.20310143 0.04297093
0002a0 aa ce 5d be 21 be 0d 3e 1d 93 f3 3d c9 a6 2a 3e
       -0.21660867 0.1384206 0.11893294 0.16665186
0002b0 18 ef 86 be 9f 43 9b 3e ad 2e ad bb 1e 08 8d be
       -0.2635429 0.30325028 -0.005285105 -0.27545255
0002c0 82 a0 b5 3d 27 b7 7c 3e 44 59 ec bd bd 9b ec 3e
       0.08868505 0.24679242 -0.115404636 0.4621257
0002d0 4a 0f 07 bc 9b 29 18 3e ef 1d b4 3e 24 33 3d be
       -0.008243391 0.14859621 0.35179088 -0.1847654
0002e0 fe 1c d7 3d f8 9a 67 be 03 58 28 3e 73 c5 ef 3e
       0.10503577 -0.2261771 0.16439824 0.4683033
0002f0 d8 1a b6 3e 1f cf 1c 3c 33 66 aa be ff a8 b7 be
       0.35567355 0.009570866 -0.33281097 -0.3587112
000300 66 53 bf be 76 ea 2f 3e 13 68 a9 3e 42 64 ce ba
       -0.37368315 0.17179283 0.33087215 -0.0015746432
000310 0e f6 d4 be 6c a7 c5 be 02 b9 84 bd b6 57 a4 be
       -0.41593975 -0.38604295 -0.064806 -0.32098168
000320 0b e9 8a 3e 73 9e db bc 9d 37 bc 3d 38 f3 85 3e
       0.27130923 -0.026808953 0.09190295 0.26162124
000330 e4 09 cd bb 3b 5e c8 be fe 87 02 3e c4 d4 72 3e
       -0.0062572826 -0.39134392 0.1274719 0.23713976
000340 19 ea 80 be 73 9e 5a 3e 26 eb ed be 8d 3a 47 3e
       -0.25178602 0.21349506 -0.46468467 0.19455929
000350 5d 3e a7 3e 58 52 ae 3e 1f 17 18 be fd 0a 50 3c
       0.32664767 0.34047198 -0.1485257 0.012697932
000360 6f 2c a2 3e 3a 26 28 be 6d 72 c7 3e 80 ca 7d 3e
       0.31674525 -0.16420832 0.38954487 0.24784279
000370 ca 1c e1 bd e2 0a aa be cc 6d 27 3e c9 4a 43 3d
       -0.10991819 -0.33211428 0.16350478 0.047678743
000380 75 a7 10 be f9 5d ec be 8e 5e c6 3c 5d 86 fd bd
       -0.1412638 -0.46165445 0.024215009 -0.123791434
000390 e7 e8 82 3e bc 84 ca 3d 41 9d 62 be 02 79 e2 bc
       0.25568315 0.09888598 -0.221303 -0.027645592
0003a0 04 59 48 3d fc 93 d8 3e ca 0f b8 3e 1a 26 c4 3e
       0.048913017 0.42300403 0.35949546 0.3831032
0003b0 c0 6b 8c be 65 c8 b3 bc 34 ad 0d 3c 54 7e 7d 3e
       -0.27425957 -0.021946141 0.008647252 0.24755222
0003c0 fa aa 59 3e 68 97 82 be bb a1 af 3e 2e b1 9b be
       0.21256629 -0.2550614 0.34303078 -0.30408615
0003d0 41 14 c0 3e 96 ae ec 3d 64 57 a9 bd 8f 85 ae 3e
       0.37515453 0.11556737 -0.082686216 0.34086272
0003e0 67 77 a1 be 17 0f cc 3e a7 e1 24 3e 1c 2f ca be
       -0.3153641 0.39855263 0.16101705 -0.39489067
0003f0 9d ec 96 3c f4 a1 44 be ba 0e f8 3c 70 24 de 3d
       0.018423373 -0.19202405 0.03028046 0.10846794

fc1.bias f4 [10]
000000 29 1d f9 be f2 a7 c3 be 74 5a a7 bd 6a ff b1 3b
       -0.4865506 -0.3821407 -0.081715494 0.005432059
000010 20 8b 79 be 0e 76 86 3d 0c 71 db be 78 67 60 be
       -0.24369478 0.06565486 -0.42859685 -0.2191447
000020 18 65 d9 be 3b 6e a4 bd
       -0.4245994 -0.08028837
