sandbox/snapshots3/model-6456.pt (torch, 71725 bytes, 8 tensors)

conv1.weight f4 [16, 3, 3, 3]
00000000: 2420 143f 6dea 95bf f39e 973f 232f 97be
00000010: cbd1 443f b73a 9e3f f459 f7be 45c7 3a3e
00000020: f644 aa3f 0706 483f bfe4 e8be 1034 913f
00000030: e451 36bf fdf1 5ebe aa0b 233e 1dab 513f
00000040: a18e a8bf 30a1 2ebf 42bf 75be 1fba 91bf
00000050: 5ba9 c53e 2762 87be b51c 3d3f 8744 813f
00000060: c3fa 4bbf 4913 81bf 039e 533e a8ea 6a3f
00000070: fb10 20bf dbc9 48be 432c b5bf 481a 7d3f
00000080: a814 3bbf ebd1 53be b998 5e3e 226b a53f
00000090: fbbd 233f 5963 6e3f f425 903f 8910 603f
000000a0: 5a3d 8b3f e440 a23f b62a a53e 0a02 9abf
000000b0: 8e44 28bf baf5 c9be 9e87 88bf 0047 8a3f
000000c0: 19eb c83e 6fc8 863f 3a38 8c3f 33e9 a23e
000000d0: 6c42 8abf 681f 20bf b2c1 34bf de79 563e
000000e0: 57ee 333f 3530 0d3f a248 9f3f 860b 80be
000000f0: dc55 d03e e3d4 b4bf ff25 be3f 7612 72bf
00000100: 3e5e b1bf 446d 3fbf 30fd ab3f 2be3 4a3f
00000110: e264 573e 6a86 86bf 08d4 af3e 7d0f b1bf
00000120: 8d98 83bf 3e9f 3f3f 803e a13f d29b 3e3e
00000130: 8c5b 01bf 4816 103f 3ec9 943e aaa4 d8be
00000140: 2370 663f 2ceb 5abf f140 a73e 565a 96bf
00000150: 4ac1 7f3f ad05 893e 8b22 2cbe d603 0ebd
00000160: 3391 15be a6da 573f 1d61 2cbd 1fb6 bd3e
00000170: abcd 453f ef07 a13e 1b82 acbf 6067 43bf
00000180: 507e 1dbf 593e acbe 24e6 06bf 4297 843f
00000190: a148 e53e 5d27 66bf 3c07 1f3f a3da 5a3f
000001a0: fc85 b13f 6a17 29bf b47d 063f 9ebe cd3f
000001b0: eb92 983f 2fab f8bd 6813 533f 6a8a 3f3f
000001c0: 7820 bcbf 66cc 2abf e46a 8e3f 111c 8bbf
000001d0: 93be 38bf 8de5 143f 344e 73bf aa6d a23f
000001e0: cf96 17be 87b3 2abf 1376 59bf c1f7 a2bf
000001f0: 9c3f b1bf 5ef1 803f 1d07 0e3e 1ab0 533e
00000200: 8fa6 c23e 5166 0f3f 6f2b ad3f d5b2 c8bc
00000210: a1db 8b3a 380f 1ebf c29b e8bd 4ea8 983f
00000220: 4602 e83e ea79 aebf 98ac 533e ba7c bcbf
00000230: 4349 3d3f 1a53 143f 3ca0 79bf 7c28 89bf
00000240: 6388 88bf 16b7 023f c831 0bbe afdc 4c3e
00000250: 1de2 5d3f 4759 b23f f2ad b5bd 3fb4 77bf
00000260: e584 8fbe 69e7 2ebf f9ec 10bd 8711 bbbf
00000270: b21c b63f e3b6 ad3f c014 413f 9257 a5bf
00000280: 6bad 11bf eeaf f4be b0d8 7cbf 77f9 523f
00000290: 8e7f 843f df2c b8bf bfe5 af3f 7acf 8e3f
000002a0: 9fa4 b63f 7425 c13f 37f9 81bf 6aae 12bf
000002b0: f719 afbf 3dac 8b3f 0e9a 0cbf ed59 d2be
000002c0: 911e 9d3f cf5f 01bd e1f5 5bbf a907 8dbf
000002d0: 86cd efbd 6a0e 73bf 8827 1a3f 43bd 65bf
000002e0: ce57 a73e c659 3bbf bc9a f7be dcc5 6bbd
000002f0: 482d 6ebf 9dea b43f afbf a3bf 9b2c b23f
00000300: 4a3b 8c3f 7668 1bbf c292 c9bf e6de 17bf
00000310: 9630 a93f 2374 8e3e 7607 8bbf 3de4 91be
00000320: c1cb 8b3f f742 633f f4bd 8e3f d13e b33f
00000330: 2430 9a3f 90b6 9f3d dd75 28be 023d aa3e
00000340: ecdc c5bf 80af b2bf 6d86 af3d 5c24 c1bf
00000350: e5f6 8bbf b62f 9a3f ea7b f2be 5d94 723f
00000360: 5402 023f 6c33 a13f 0961 48bf 3f35 613f
00000370: d80e c03e c4b1 9dbf 52dc a7bf 278f b03f
00000380: c618 88bd 3f41 92bf b66e 7bbf 5e9a 90bf
00000390: 93b4 563f 8be6 6ebf e143 4fbf 88dc 983f
000003a0: 673e 9fbf 6a2a 033e fde9 8f3e 9cd6 f13d
000003b0: aa5f 84bf 93c9 2c3f ead6 9dbf 248d aa3f
000003c0: 0532 0d3f 1eef bcbe a39b ac3f 3038 93bf
000003d0: 9e70 913f f099 16bf 68cf 063f 9921 e63e
000003e0: e689 e23d ffb3 ab3f 919c 89bf 8e9e 6b3e
000003f0: 999c f5be fa39 0abf 59f4 8f3f e89d 4cbf
0.5786154 -1.1712166 1.1845382 -0.2952815 0.7688262 1.2361668 -0.48310816 0.18240078
1.3302295 0.78134197 -0.4548702 1.1344013 -0.71218705 -0.21771999 0.15922418 0.81901723
-1.3168527 -0.682147 -0.2399874 -1.1384925 0.3860577 -0.26442072 0.7387193 1.0099038
-0.79679507 -1.008401 0.20665745 0.9176431 -0.6252591 -0.19608252 -1.4154133 0.98868227
-0.73078394 -0.20685546 0.21737947 1.2923319 0.6396176 0.9312034 1.1261582 0.8752523
1.0878098 1.2676053 0.32259148 -1.2031872 -0.65729606 -0.39445287 -1.0666387 1.0802917
0.39241865 1.0529917 1.0954659 0.31818542 -1.080152 -0.6254792 -0.70608056 0.20944926
0.7028555 0.55151683 1.2444041 -0.25008792 0.40690506 -1.4127468 1.4855345 -0.9455942
-1.3856885 -0.747761 1.3436642 0.7925288 0.21034577 -1.050977 0.34341455 -1.3832852
-1.028093 0.7485236 1.2597198 0.18614128 -0.50530314 0.56284 0.29059786 -0.4231313
0.9001486 -0.85515094 0.32666734 -1.1746318 0.9990431 0.26762143 -0.16810052 -0.034671627
-0.1460617 0.84318006 -0.042084802 0.3705301 0.7726695 0.31451365 -1.3477205 -0.7632961
-0.6152086 -0.33641317 -0.52694917 1.035866 0.44781974 -0.89903814 0.62120414 0.85489863
1.3869014 -0.6605135 0.5253556 1.6073797 1.1919836 -0.12142026 0.82451487 0.7482058
-1.4697409 -0.6671814 1.112637 -1.086794 -0.72165793 0.58162767 -0.95041203 1.2689717
-0.14803623 -0.66680187 -0.8494579 -1.2731858 -1.3847537 1.007366 0.13869901 0.20672646
0.380177 0.560155 1.352888 -0.024499336 0.0010670313 -0.6174197 -0.113578334 1.1926363
0.45314234 -1.3630955 0.20671308 -1.4725564 0.73939914 0.579393 -0.97510123 -1.071548
-1.0666622 0.51060617 -0.13593209 0.20006059 0.86673146 1.3933495 -0.08871068 -0.9675941
-0.28031078 -0.68321854 -0.035382245 -1.4614724 1.4227507 1.3571438 0.75422287 -1.2917349
-0.5690524 -0.47790474 -0.9876814 0.82411903 1.0351427 -1.4388694 1.3741988 1.1157067
1.4268988 1.5089555 -1.0154179 -0.57297385 -1.3679799 1.0911938 -0.5492257 -0.41084233
1.2274953 -0.03158551 -0.85922056 -1.1017963 -0.11709122 -0.9494387 0.6021657 -0.89741915
0.32684177 -0.7318386 -0.4836024 -0.05756174 -0.93037844 1.4134098 -1.2792872 1.3919863
1.0955594 -0.6070627 -1.5747912 -0.5932449 1.3217952 0.2782298 -1.0861652 -0.28494444
1.0921556 0.88774055 1.1151719 1.4003545 1.2045941 0.07798493 -0.16451211 0.3324967
-1.5458045 -1.3959808 0.085705616 -1.5089221 -1.0934721 1.204581 -0.47360164 0.94757634
0.507848 1.2593818 -0.78273064 0.8797187 0.37511325 -1.2319875 -1.3114111 1.3793687
-0.0664535 -1.1426162 -0.98215806 -1.1297109 0.83869284 -0.9332053 -0.8096295 1.1942301
-1.2440919 0.12809148 0.28108206 0.118085116 -1.0341694 0.6749508 -1.2331212 1.3324323
0.5515445 -0.36901182 1.3484997 -1.1501522 1.1362493 -0.5882864 0.52660227 0.44947508
0.11061458 1.3414305 -1.0750905 0.23009703 -0.47971037 -0.53994715 1.1246444 -0.79928446

conv1.bias f4 [16]
00000000: a18a 9d3f 889d 84bf 9114 053f 9ac9 a5bf
00000010: 1858 d33e b609 1c3f e1a3 6bbf f609 733c
00000020: 8471 323e b070 573f e77f f13e 8df4 aa3f
00000030: 76f5 c0bf 903c 59bf e061 263f b095 3d3f
1.2307931 -1.0360575 0.51984507 -1.2952149 0.41278148 0.6095232 -0.92046934 0.014833918
0.17426115 0.8415632 0.47167894 1.3355881 -1.5074909 -0.84858036 0.64993095 0.7405653

conv2.weight f4 [32, 16, 3, 3]
00000000: 6a96 c5bd 611c 06bf f0b8 9a3e d5f3 023f
00000010: f50a f73d bd92 d13d a0a1 e7be 033c 1b3e
00000020: bc91 08be 211e 04bf 8455 833e 6732 0cbf
00000030: 20da b4be 11b1 91bd 2382 153f c001 a83e
00000040: 791f e93e 679b 9cbd cf1d d73e be8d 17bf
00000050: fcc8 be3e 4553 173f fcea ec3d a9f1 c7be
00000060: 1827 0b3f ac7a 39be beb8 a2be 3864 ffbe
00000070: f757 28bf f331 843e 5030 a93d 3367 073e
00000080: 650a d4bd 90fa 86bc a1b4 4e3e d78b 4c3d
00000090: 97ef 803d ea1c 153f 0aed 293e 9d80 31be
000000a0: 1a52 26bf 97c8 513e 8237 a13e c593 9ebe
000000b0: 84bc aabe 6a74 adbd 5a6a f6be 8f71 ac3e
000000c0: b30c e7bd d881 273f 0343 9fbe a2d8 c83d
000000d0: 45c4 03bf eeff 2e3e d110 42be 404d 86be
000000e0: b69d b43e bcf7 a63e 1a3c 013f 765a 143f
000000f0: e03b 163f ee8d 3dbe 3589 0b3f 9a2a 2bbe
00000100: d7cc e8be 0f80 463d bed4 1fbf 4711 173f
00000110: 8b0d 0c3f bb82 f5be 6659 ce3e 51d6 a4bd
00000120: a013 6bbe 12bb 1f3f cea9 e7be 8f28 a63e
00000130: e2db a7be 8e77 bc3d bc54 c13d 276c ff3e
00000140: 0c0b 053f 5078 6c3e 566a 0b3e 808f 003f
00000150: 9f24 803e cd8a 97be a83b 103d 18d6 96be
00000160: 9d33 1f3f 7716 80bc b829 2f3e ebb4 23bf
00000170: f3ba 1cbf 7206 01bf 1938 8d3e d6a2 4dbe
00000180: 55c3 a03e 3963 fc3e 0167 843e 02ff 0d3c
00000190: 6841 4abd 2132 84be 4a70 08bf 9a4c bfbe
000001a0: 5b05 083f c961 12bf d688 903c ae7c f63d
000001b0: 8e19 5fbd ba17 7f3a 10a5 e23e cfd7 0ebf
000001c0: cfe3 223f 6315 d23e 6f82 203f 2093 12bf
000001d0: b250 ee3d e10d 1f3f 92f2 763e 23bb 6d3e
000001e0: cfd5 f0be f05a b13e 758d 05bf 6020 61be
000001f0: f420 b03e c17d 03be e3c1 4bbe 922a 09bf
00000200: 376d 8dbe 6c11 283f 4b4d 0b3f d9fd 36be
00000210: 60a7 f2be 284b df3d 927b efbe 17f9 f0be
00000220: e27b 2cbe 9f2e 6cbe 8187 8bbe 2764 a93e
00000230: e856 1bbf 8507 28bf 8a3d 18bf 9de0 34bd
00000240: ae17 b93e e0dd 04bf c4a9 1f3f 1728 17bf
00000250: b979 943d ef1d 0bbf 9b8d f7be d3ff d13e
00000260: 106d 2abd a25c 9cbd 25a5 c13d cb07 9a3b
00000270: 9caf 71be dbe7 a33e 6c2e f73e eade de3d
00000280: 666b 53be 389f 0c3f 7568 183e 34b9 ac3e
00000290: 769d aabe f6f2 423e 35ff b33e 755e bcbe
000002a0: 5269 ac3e 7bf9 133f 59be 9a3b 73f2 0bbf
000002b0: f393 983d c8d8 00bf 5adb e1be f172 033e
000002c0: 21cc ac3e 17ff f03e 9191 0e3f dc7d 37be
000002d0: f393 67be 6b66 1abf 9149 f13e ae15 e7bd
000002e0: 7e20 de3e dd72 27bf c2e2 21bd d4a0 af3e
000002f0: 0cac 78be 88bf cb3e 00e4 e5be 0736 013f
00000300: e374 aebe ef5f 8ebc b0fc e33e 6a64 8fbe
00000310: 848d 22bf bba8 d13e 496a 953d a5be f6be
00000320: a2c9 e1be a329 a0be 52d9 2ebd a482 8b3e
00000330: 3cef 51bc 88fb 22bf 5d0d d53e 9be8 843e
00000340: cec4 a0be 2bec 1abd 9b1c 2f3e 39f3 0b3f
00000350: b3d8 803e 9eb5 8b3d 73fa 4abb d338 b4be
00000360: 52f3 a6be fec7 d43e af1f 7fbe ff4e 483e
00000370: feb9 1fbe 44f2 023f 49d2 04bf 73a9 df3b
00000380: 3cb8 28be 72fc 343f 28b5 b23e 09da d43e
00000390: 9a9e a7be fafd af3e 10e2 c33e 5961 093f
000003a0: a2d4 05bf dfe4 c23d 2253 f6bd 5a3e a23e
000003b0: 4bcb 823e bee2 de3e 0b88 0cbe 3946 543e
000003c0: 257e a63d bda5 07be efbb 14bf a8bd 3cbd
000003d0: cbfd 77bc 4712 2e3d 6a00 16be 4720 a93e
000003e0: eca7 313f 97e9 9bbe 1d55 8ebe f16b f43e
000003f0: cd91 61be 6bd8 003f 4967 e03c 9a40 8ebe
-0.0964783 -0.5238705 0.3021922 0.5115331 0.12062637 0.10233066 -0.45240498 0.15159611
-0.13336843 -0.51608473 0.2565118 -0.5476441 -0.35322666 -0.07113851 0.584017 0.32813835
0.45531824 -0.07646828 0.4201493 -0.59200656 0.37262714 0.59111434 0.11568257 -0.3905156
0.5435653 -0.18113202 -0.31781572 -0.49881148 -0.65759224 0.25819358 0.08261168 0.13222961
-0.10353545 -0.0164769 0.20186092 0.04993805 0.06295698 0.58247244 0.1659433 -0.17334218
-0.6496903 0.20486675 0.31487662 -0.30972114 -0.3334695 -0.0846947 -0.48128015 0.33680388
-0.11281719 0.654325 -0.31105813 0.098069444 -0.5147136 0.17089817 -0.18951727 -0.26230812
0.35276574 0.3261088 0.5048233 0.5795053 0.5868511 -0.18511173 0.54506236 -0.1671547
-0.4546878 0.04846197 -0.62433994 0.5901074 0.54708165 -0.47951302 0.4030258 -0.0804869
-0.22956705 0.6239482 -0.45246738 0.3245282 -0.32784945 0.09202491 0.0943999 0.498872
0.5196998 0.2309277 0.13614783 0.50218964 0.2502794 -0.29598084 0.035213143 -0.29460216
0.6218813 -0.015635712 0.17105758 -0.63947934 -0.6122276 -0.5040046 0.27581862 -0.20081648
0.31399027 0.4929445 0.25859836 0.008666756 -0.049378783 -0.25819495 -0.5329634 -0.3736313
0.5313317 -0.5718046 0.017643373 0.120354995 -0.05446773 0.00097310136 0.44266558 -0.5579805
0.6362886 0.41031942 0.62699026 -0.57255745 0.11636485 0.6213055 0.2411597 0.23215918
-0.47038123 0.34639692 -0.5216897 -0.21985006 0.3440014 -0.1284094 -0.1989818 -0.5358058
-0.27622387 0.65651584 0.54414815 -0.17870273 -0.47393322 0.10903007 -0.46773964 -0.4706504
-0.16844133 -0.2306466 -0.2725182 0.33084223 -0.60679483 -0.65636474 -0.594689 -0.04415952
0.3615088 -0.51901054 0.62368417 -0.5904555 0.07249779 -0.5434255 -0.48350224 0.4101549
-0.041607916 -0.07634856 0.09455327 0.004700636 -0.23602146 0.3201283 0.48277605 0.10882361
-0.20646438 0.5493045 0.14883597 0.3373505 -0.33323258 0.19037995 0.35155645 -0.36790815
0.33674103 0.5780255 0.0047223982 -0.54666823 0.07450094 -0.5033078 -0.44112664 0.12836815
0.33749488 0.47069618 0.55690867 -0.17919105 -0.22615032 -0.6031253 0.4712644 -0.11283432
0.43384165 -0.6540964 -0.039522894 0.3430239 -0.2428438 0.39794564 -0.44900513 0.50473064
-0.34073552 -0.01737973 0.44528723 -0.28006297 -0.63497186 0.40949044 0.07295663 -0.48192325
-0.44099146 -0.31281766 -0.04268772 0.27248108 -0.012813386 -0.63665056 0.41611758 0.25958714
-0.3140015 -0.037822884 0.17100756 0.54668003 0.25165328 0.0682175 -0.0030972033 -0.35199603
-0.32607514 0.41558832 -0.2491443 0.19561385 -0.15598294 0.5115092 -0.5188337 0.00682562
-0.1647653 0.706977 0.34903836 0.41572598 -0.3273819 0.34373456 0.3825841 0.53664166
-0.52277577 0.0951631 -0.12027575 0.31688195 0.25545725 0.43532366 -0.13723771 0.20729913
0.08129529 -0.13246818 -0.58099264 -0.046079308 -0.015136193 0.0424979 -0.14648595 0.33032438
0.69396853 -0.30451652 -0.2779931 0.47738603 -0.22028275 0.5033023 0.027393 -0.27783662

conv2.bias f4 [32]
00000000: 2380 28bf 3eb5 ee3e 5ae5 0ebf ec5b 15be
00000010: 5e1d 79be e2c0 153e 9331 e33e 105a d5bd
00000020: daac c2bd 724b 913d 7be4 eabe 7162 10bf
00000030: e287 dcbd 59ab 1e3e ebe3 62be 6485 cdbe
00000040: 52ca d1be 4e2f 933e 8f5b dbbe c01d 02be
00000050: 164e 873d 61ed 163f 4930 173f d557 b0be
00000060: 1618 283f 0ea6 113e d4c6 c03e aeca 1dbf
00000070: 36a6 ecbe 6d0d 813c b4a8 9dbd 1426 333f
-0.6582052 0.46622652 -0.5581871 -0.14585847 -0.24327609 0.1462436 0.4437376 -0.10417569
-0.09505625 0.07094468 -0.45877442 -0.5640021 -0.10768105 0.15495051 -0.22157256 -0.4014083
-0.4097467 0.28747028 -0.4284329 -0.12706661 0.066066906 0.5895596 0.5905805 -0.3444201
0.6566175 0.14223501 0.37651694 -0.6163739 -0.4622056 0.015753472 -0.07698193 0.6997998

conv3.weight f4 [32, 32, 3, 3]
00000000: abcf 46be c97f 5e3e 80f6 9a3d 8732 e0be
00000010: defd acbe c7ad e33e 2fb4 8cbe 850b 85be
00000020: 6305 d33e 7678 b33e 6521 953e 9976 893e
00000030: e142 7bbe 0822 dc3e b9b0 26be 20e0 90be
00000040: 24d6 9e3e ce1a 9bbe bdf4 30be bfad cebe
00000050: fbbc bb3e 0d40 d73d 6f72 acbe 5d5a ba3e
00000060: 5d6d d5be 4bdf 423e 29bf 983e 244a 3fbe
00000070: 8657 a43d 2cdf aa3e 10b3 843d bdd3 d8be
00000080: 9a5a 5fbd 0408 313e f693 673e 8413 eabd
00000090: 2950 aebd 9889 45be b6b7 f03e 97ec bdbd
000000a0: dc5c 91bd e48d e4be df06 bc3b b812 253d
000000b0: d829 81be 9c20 a53e 4fa5 343e 6383 a7be
000000c0: cfd2 b5bd ac62 af3e f88d 233d 51e3 d93d
000000d0: 4bd9 db3d 6b4e d43e b67c 8c3e 9fca 4f3e
000000e0: b764 273a 4693 903d 767c 49be 2105 ecbe
000000f0: cc05 7e3e e63c bf3e 4457 b73d b9a9 4fbe
00000100: a968 adbe 47a9 8cbe 089f ebbe 6673 893e
00000110: e0c9 903e 93ce f4bd f8a2 be3e 8864 afbd
00000120: 93c9 f9bd 73ba b93e 7aa0 09be cd25 02be
00000130: ebe4 d03e 1ef9 6bbe e57b d9be eeb8 a6be
00000140: 2d07 d8be aef6 97bd d26a 2e3e b8d8 b83e
00000150: 6bb5 b4be 2809 e63d db80 a63e aaa9 963e
00000160: 8a7c 843e 57c2 9a3d 3168 e1bd 3e13 5a3d
00000170: e70d b4be 5595 d33e 7187 debe 2475 903c
00000180: 7eea f4be e046 41be 91d7 dfbe f016 b0be
00000190: 0626 db3d efe5 843e 4f28 a5be e031 c1be
000001a0: fc8b 143e 934f 283e 15a3 813e f014 043e
000001b0: d148 ce3d 180c 5f3e beb5 62be 6d86 a53e
000001c0: 71bf 89be 24b0 c3bd 1683 10bd 68dc ae3e
000001d0: af99 fabd d82d 9abe 4094 e9bd 5196 d33e
000001e0: c5d1 713e e011 b4be 1d4e 253e edff 82be
000001f0: c0b4 c9be b7b2 a1bc 649a e9bd f671 463e
00000200: 435a c1be a281 a03e f784 f7bd 4c90 05bf
00000210: f42b b0be 652d 013d 92e4 bb3e 49c9 92be
00000220: 5574 3d3d b84e 46be 5c5c 8abe 6d6f 9dbd
00000230: e957 c1bd a501 f7be 6f8d 223e ee75 5bbe
00000240: 3407 a03d 5e5a 9ebd e5ce c4bd 2b3a 94bd
00000250: bbff 81be 7802 713d ee7c 103e f37f 6cbc
00000260: c87b 0c3c 0c4a 483e 69b1 ae3e 48f7 19be
00000270: 2dea bfbe eba0 26be e207 e13e 9ee5 1a3e
00000280: f6a8 d43d 3b68 963e 4944 9cbe 9b15 9a3d
00000290: fbd5 bc3d 37ce b83e 3ac4 1abe 5e28 17be
000002a0: 6170 1e3e 853c 423e 2ac2 803c d421 803e
000002b0: a427 4dbe e90e cb3d e4d7 afbe 0760 093e
000002c0: a09b 18be d38c bcbe 004b d5be fa39 c9be
000002d0: 5a28 99be 1155 373d df22 a6be 319e e4be
000002e0: 86fe 9b3b a6e7 18bd c9ad 163e 2c2f acbd
000002f0: da69 a43e 3f6f 943e 9e1f 933d 19b7 93bc
00000300: 3408 dabe eb68 eabc 1009 0cbe 641e 843d
00000310: 74d4 ebbd 5bc0 4d3e d9e4 fbbe ad10 d53e
00000320: a4e4 8cbe 282a d73d a808 8fbe 22b2 ba3d
00000330: 6f7a 43be afba 9d3d 734e cb3e aa64 0abe
00000340: 6f48 e43e 1744 f7be ffb4 6abd b330 9ebe
00000350: d4fc 92bd 492f 0fbd 8309 89bd 9009 00be
00000360: 6f4e fb3d 439e b23e 4afb bbbc 6c6c 4ebe
00000370: e107 3abd c818 fe3e a2f3 bf3e 2927 9bbe
00000380: 8221 d13d a957 503d 9bd6 533e 3a1c 96be
00000390: c35e 833e 936b 3ebe 62aa 7f3e 3532 25be
000003a0: 33ed e2be e2c2 94bd a052 e23e 2b3f 203e
000003b0: 041b 7dbe 2d4b 1cbe 4637 a7bd c508 613e
000003c0: cc51 b4be 9e2d 2bbe 3e03 ce3e d547 803e
000003d0: ac89 2c3e a869 be3c 1724 b13e a0fa a5bd
000003e0: a683 9d3d 1d30 5abe cd97 cd3e 9181 973e
000003f0: 37ed 91be aea3 94be c3d6 bc3e cb2c c53e
-0.19415157 0.21728434 0.075665474 -0.4378855 -0.33787435 0.4446852 -0.2748122 -0.2598535
0.41215047 0.35052842 0.2912704 0.26848295 -0.24537231 0.42994714 -0.16278352 -0.28295994
0.3102275 -0.30293888 -0.1728086 -0.40366933 0.36667618 0.105102636 -0.33681056 0.36397067
-0.41685 0.19030492 0.29833344 -0.18680626 0.08024506 0.33373392 0.06479466 -0.42349043
-0.054529764 0.17288214 0.22615036 -0.114295036 -0.08511383 -0.19290769 0.4701516 -0.092736416
-0.0709779 -0.44639504 0.005738124 0.040301055 -0.25227237 0.3225144 0.17641185 -0.32717428
-0.08878099 0.34254968 0.039930314 0.1063906 0.10734805 0.41466078 0.27438897 0.20292138
0.0006385552 0.0705934 -0.19676384 -0.46097663 0.24806899 0.3735115 0.089521915 -0.20279588
-0.33868912 -0.27472898 -0.4601977 0.26845855 0.28279018 -0.119534634 0.3723371 -0.08564097
-0.1219665 0.36275062 -0.13440123 -0.12709732 0.4079965 -0.2304425 -0.42477337 -0.32562965
-0.42192975 -0.07420097 0.17032936 0.36102843 -0.3529466 0.11232215 0.32520184 0.29426318
0.25876266 0.07556599 -0.11006201 0.053241007 -0.35166857 0.4132487 -0.4346271 0.017633982
-0.47835153 -0.18874693 -0.43719152 -0.343925 0.10700612 0.25956675 -0.32257316 -0.37733364
0.14506525 0.16436605 0.25319734 0.12898612 0.100724824 0.21781957 -0.22139642 0.3232912
-0.2690387 -0.095550805 -0.035281263 0.34152532 -0.12236344 -0.301131 -0.114052296 0.4132562
0.23615177 -0.35169888 0.16143079 -0.2558588 -0.39395714 -0.019738538 -0.11406401 0.1937941
-0.37764177 0.31348902 -0.12085908 -0.52173305 -0.34408534 0.031537432 0.36697823 -0.28669193
0.04625352 -0.19365966 -0.2702359 -0.076872684 -0.09440596 -0.48243442 0.15874265 -0.21431705
0.07813874 -0.0773208 -0.096097745 -0.07237657 -0.2539042 0.058840245 0.14110157 -0.014434802
0.008574434 0.19559497 0.34119728 -0.15035737 -0.3748335 -0.16272323 0.43951327 0.15126655
0.10383789 0.29376397 -0.30520847 0.07523652 0.09220501 0.3609483 -0.15113917 -0.14761493
0.15472557 0.18968399 0.015717585 0.2502581 -0.20034653 0.09914953 -0.343444 0.13415538
-0.14903116 -0.3682619 -0.41658783 -0.39302045 -0.29913598 0.04475886 -0.3244848 -0.4465194
0.004760566 -0.037330292 0.14714731 -0.08407435 0.32112008 0.28991124 0.07183765 -0.018031644
-0.42584383 -0.028614482 -0.13675332 0.06451109 -0.115151316 0.20092909 -0.49198034 0.41614285
-0.2751819 0.105060875 -0.27936292 0.091160074 -0.19089673 0.07701623 0.3970829 -0.13514963
0.44586512 -0.48294136 -0.057301518 -0.3089653 -0.071771294 -0.034957204 -0.06691267 -0.12503648
0.122708194 0.3488637 -0.022946972 -0.20158547 -0.04541767 0.49628282 0.37490565 -0.30303314
0.10211469 0.05086485 0.20687334 -0.2931841 0.25658235 -0.18595724 0.2496734 -0.16132434
-0.44321594 -0.072637334 0.44203663 0.15649097 -0.24717337 -0.15263052 -0.081648394 0.21976002
-0.35218656 -0.1671662 0.4023685 0.25054803 0.16849393 0.02324374 0.34597847 -0.081044436
0.076911256 -0.21307416 0.40154877 0.2959104 -0.28501293 -0.29031128 0.368826 0.38510737

conv3.bias f4 [32]
00000000: c92f 703d 5945 0c3e 952e cb3d 758b f8be
00000010: cde9 78be d8bc e3bd 07a8 803e da6e 03bf
00000020: b00b fcbd 4e2f bc3d 0fa6 3cbe a271 cbbe
00000030: f50a 9dbd a2da c63e 0d7a 81be def5 bb3d
00000040: ec82 2e3e 2f40 d7bc 7716 c63e c95d 3b3e
00000050: 82b8 543e b8bd c7be b78c b2bd 81bd fdbe
00000060: 61aa 343e 8689 143e 9440 c0be d02b 59bd
00000070: 74c9 6a3e 1690 1cbe 9edc ca3d c7cb fb3e
0.05863932 0.13698329 0.09920994 -0.48543897 -0.24307938 -0.111200035 0.25128195 -0.5134102
-0.12306917 0.0918871 -0.18422721 -0.39735132 -0.076681055 0.3883868 -0.2528843 0.09177755
0.1704213 -0.026275722 0.38689014 0.18297495 0.20773509 -0.3901193 -0.087182455 -0.49558643
0.1764312 0.14505586 -0.3754927 -0.0530203 0.22928411 -0.1528934 0.09905361 0.49178907

fc1.weight f4 [10, 288]
00000000: 34e5 dc3d 62fa 0d3d 30df 763e 688b 53be
00000010: d76a 2cbe 618a 673e fc15 5d3d 2811 183e
00000020: 4c82 a33d f522 a73e 9fae a73e db4c 71be
00000030: 2a2d debe b29a f03b b2d2 50be 7dc3 ea3e
00000040: dc48 a23d 3f93 34be 0b0d b13e 594f ce3e
00000050: 031b 81be 1c95 8a3e 48ce 5a3e 2fe6 9cbe
00000060: b18d d9be 2ede 013a 6f01 e03e e738 0ebe
00000070: 6794 c53e a53a a53e 7228 b7be 8bcd 083e
00000080: 01a8 4bbd dbdd 12bd 76ac ba3e f813 8a3e
00000090: 3353 f13d 045b da3e 18c7 a6be 438a ca3d
000000a0: a5f4 7cbd 702e 2b3e a56d 9b3e c6bc 91be
000000b0: f2fe 65bd 1f00 1a3e 423c 743e 1193 203e
000000c0: f4c1 3abd 63d2 823e c82a 14be 6cb4 95be
000000d0: d5bb ac3d 07fa 7e3e 3ebf d8be 2ce8 483d
000000e0: 7cdd 70bb e55a dcbd 4011 793e 8b6c 99be
000000f0: 0980 58be d79a 273e 7571 b7be 63d8 8dbe
00000100: 7611 c93c 876e fdbd c520 b03e d74b cc3e
00000110: 2dc3 d13e 8a54 83be a1c1 efbd 7c5f 223e
00000120: 3ebf b13e 5b89 2a3e e5f1 f63d 3389 8cbe
00000130: 9fa8 543e adb3 c4be 8639 26be 240c bfbd
00000140: 0afd eb3d 1b03 8c3e ce92 cd3e 4e55 88bd
00000150: 5a45 d83e 0916 e33e 4a74 c5bd 846d 29be
00000160: aa12 ddbd d075 cc3e 9ada f73d 9aa2 d03e
00000170: 564e 7e3e 4e53 84be 2667 09be 3da1 ae3d
00000180: 1326 3c3e 4440 813b 54ed 9dbe 3608 983e
00000190: 49d5 d93c 16b2 aa3e 206c d73e 7464 ac3e
000001a0: ed84 103e ff6b f6bc 8663 663e ae71 ea3c
000001b0: 2e9e 03bd 5e31 03be 4792 d73e 8abc 883e
000001c0: cacf d13d 102b eebe 2593 c0be 5db2 9bbe
000001d0: df90 c7bd 5b2e cc3d 5c7b bc3e 9327 903e
000001e0: 72ef 7c3e b1b0 87be a5ec a33d 7838 b03e
000001f0: ba45 81be 723a 763e 90c1 a3be 546e cf3d
00000200: 0bac 25be dab9 0abe 2307 4e3e 1c30 613e
00000210: a355 db3d 0064 d8bd abcb 183e 8605 9f3e
00000220: a268 d43e 6a06 893e 4741 bb3e 97a2 12bd
00000230: 5c3d c9be 5f51 b33e dfcc 843e 9264 7a3e
00000240: 30ab b4be ca99 733e 6c86 343e 66e3 813c
00000250: bd32 753e 0df5 773c eb1b 05bd 9528 2cbe
00000260: 8e40 ef3e 6079 4d3e 1fe0 913e a9ae 93be
00000270: 2356 cbbe ea0c 4c3d 1cb9 923e 70ab a3be
00000280: 9553 98be 2358 3e3e 3aa9 bb3d 61eb 353c
00000290: 3cd2 ae3d 0f6d 94bd b686 573e 6459 273d
000002a0: 124d 61be c358 133e 3d94 f43d 19b1 2a3e
000002b0: 88f7 86be ff4c 9b3e ed39 adbb 8e10 8dbe
000002c0: c2ab b53d 17c7 7c3e 4468 ecbd bdaa ec3e
000002d0: ba2c 06bc 922a 183e a92a b43e ce35 3dbe
000002e0: 253b d73d 43a0 67be ef64 283e e3d6 ef3e
000002f0: 7637 b63e 7fd8 1c3c 8370 aabe abac b7be
00000300: fc5d bfbe 7010 303e 6372 a93e 6271 ceba
00000310: 0000 d5be b5ae c5be dbb7 84bd 1d61 a4be
00000320: 4cf4 8a3e 5a9f dbbc c44d bc3d 9af9 853e
00000330: f3c6 ccbb 8b67 c8be 7673 023e 79e6 723e
00000340: 36f1 80be 6ab4 5a3e 26fa edbe bd46 473e
00000350: 2d4b a73e 985d ae3e 7f20 18be 8c19 503c
00000360: cd67 a13e 4764 27be 9d7e c73e 4bf6 7d3e
00000370: f677 e1bd b914 aabe b9c4 273e e104 4f3d
00000380: c9b0 10be 0870 ecbe 0485 c63c 888f fdbd
00000390: 19f7 823e f44c ca3d 72a8 62be 2475 e2bc
000003a0: e143 483d 31ab d83e 5424 b83e b437 c43e
000003b0: 8c72 8cbe c3cd b3bc 88a8 0e3c ec8e 7d3e
000003c0: 47bd 593e d89f 82be fbac af3e 6ca9 9bbe
000003d0: 12b5 c03e e8d5 ec3d ba6e a8bd 5d93 ae3e
000003e0: f5ad a1be 7020 cc3e ef14 253e 3180 cabe
000003f0: 720b 973c 9ca8 44be 81bd f73c a33e de3d
0.107859045 0.03466261 0.24108577 -0.20658648 -0.16837631 0.22611381 0.053976044 0.14850295
0.079838365 0.32643858 0.32750413 -0.23564474 -0.43393832 0.00734266 -0.20392874 0.4585227
0.07924053 -0.17634295 0.34580263 0.40294912 -0.2521592 0.27066886 0.21367753 -0.30644366
-0.42490914 0.0004954067 0.43751094 -0.13888894 0.38589785 0.32271305 -0.35773045 0.13359658
-0.049720768 -0.03585611 0.36459702 0.2696836 0.11783447 0.42647564 -0.3257377 0.098896526
-0.06175675 0.16716933 0.3035709 -0.28464335 -0.056151338 0.15039109 0.23851112 0.15681101
-0.045595124 0.25551137 -0.14469445 -0.29239213 0.084342636 0.24900065 -0.42333406 0.04904954
-0.0036753109 -0.10759524 0.24322987 -0.29965624 -0.21142592 0.1636766 -0.35828748 -0.27704152
0.024544459 -0.12374597 0.344 0.3990161 0.4096922 -0.25650436 -0.11706854 0.15856737
0.3471622 0.1665396 0.120578565 -0.27448425 0.20767449 -0.38418332 -0.16232881 -0.093284875
0.11522873 0.2734612 0.40151066 -0.066568956 0.4224041 0.4435275 -0.09641321 -0.16545683
-0.107945755 0.39933634 0.12102242 0.40749055 0.2483457 -0.25844806 -0.13418254 0.085268475
0.18373899 0.0039444286 -0.3084513 0.29693764 0.02659096 0.33338994 0.4207468 0.3367039
0.14113207 -0.030080793 0.22498903 0.02861866 -0.032133274 -0.12811801 0.42103788 0.26706344
0.10244711 -0.4651723 -0.37612262 -0.30409518 -0.09744429 0.09969779 0.36812866 0.28155193
0.24700716 -0.26501992 0.08004121 0.34418082 -0.2524851 0.24045733 -0.31983614 0.10128465
-0.1617891 -0.13547459 0.2011991 0.21991009 0.10709693 -0.105659485 0.14921443 0.31058902
0.41486079 0.26762706 0.3657324 -0.03579959 -0.39304626 0.3502302 0.25937554 0.24452427
-0.35286856 0.23789135 0.17629403 0.015855502 0.23945136 0.015134108 -0.032497328 -0.16812356
0.4672894 0.20065832 0.28491303 -0.28844193 -0.39714155 0.049817003 0.28656852 -0.31966734
-0.29751268 0.18588309 0.09163137 0.011103482 0.08536193 -0.07247364 0.21047482 0.040856734
-0.22002056 0.14389329 0.11942337 0.1666912 -0.26360726 0.3033218 -0.0052864463 -0.27551693
0.08870651 0.24685322 -0.115433246 0.46224013 -0.008189375 0.1485999 0.35188797 -0.18477556
0.10509328 -0.22619729 0.16444753 0.46843633 0.35589188 0.009573101 -0.33288965 -0.35873923
-0.37376392 0.1719377 0.33095083 -0.0015750343 -0.41601562 -0.38609853 -0.0648038 -0.32105342
0.2713951 -0.026809383 0.0919452 0.26166993 -0.0062493025 -0.39141497 0.12739357 0.23720731
-0.2518403 0.21357885 -0.4647991 0.19460578 0.32674542 0.3405578 -0.14856146 0.012701403
0.31524506 -0.16346847 0.38963786 0.24800985 -0.11009209 -0.33218935 0.16383637 0.050541762
-0.14129938 -0.46179223 0.024233349 -0.12380892 0.25579146 0.09877959 -0.2213457 -0.027643748
0.04889286 0.4231811 0.35965216 0.38323748 -0.27431142 -0.0219487 0.008707173 0.24761552
0.2126361 -0.25512576 0.3431166 -0.30402696 0.37638146 0.11564237 -0.082242444 0.34096804
-0.3157803 0.39868498 0.16121267 -0.39550927 0.018438075 -0.19204944 0.03024173 0.10851791

fc1.bias f4 [10]
00000000: 586e edbe 231e bfbe 87f4 9dbd 1bfc 28bb
00000010: d17c 84be 40ce 823d 0eab e5be 05ba 78be
00000020: 5a20 cebe 64c6 70bd
-0.46373248 -0.3732768 -0.077126555 -0.0025785032 -0.25876477 0.06386995 -0.44857067 -0.24289711
-0.40259057 -0.05878295
