sandbox/snapshots3/model-5664.pt (torch, 71725 bytes, 8 tensors)

conv1.weight f4 [16, 3, 3, 3]
00000000: aad9 133f a65d 96bf 3d25 983f dfb6 98be
00000010: 856f 443f 33d6 9e3f d9f4 f8be 1465 393e
00000020: 5fd4 aa3f 9093 473f 5acb eabe ffa8 913f
00000030: 636e 37bf 924e 62be 8040 263e f5db 503f
00000040: 2f08 a9bf fc31 2ebf 2cc3 79be 2074 92bf
00000050: 0b63 c63e c417 8abe 5411 3c3f 8888 813f
00000060: d169 4dbf bcbb 81bf 9811 543e 2bc2 6a3f
00000070: 0b99 20bf 60c2 48be 5062 b5bf 463f 7d3f
00000080: afe5 3abf a15a 55be 1437 5d3e 6ca6 a53f
00000090: b96e 233f ce20 6e3f 6647 903f f1fe 5f3f
000000a0: 4946 8b3f 5684 a23f 3159 a43e 036b 9abf
000000b0: 3863 28bf 7d0f cbbe 2ad9 88bf aa6b 8a3f
000000c0: 3669 c83e 3fc8 863f a86a 8c3f e8c8 a13e
000000d0: 56c0 8abf 4975 20bf a380 35bf a322 563e
000000e0: 3d2b 343f 48ef 0c3f 993a 9f3f f4b7 80be
000000f0: 9caa cf3e 8d71 b5bf 61f6 bd3f e0fd 72bf
00000100: e2a8 b1bf a09f 3fbf f5f0 ab3f ad8e 4a3f
00000110: 70c6 553e 8ccf 86bf a5eb ad3e 5fa2 b1bf
00000120: 3e12 84bf fc89 3f3f e561 a13f e74e 3d3e
00000130: ddcd 01bf 6df8 0f3f c810 943e c0a8 dabe
00000140: affd 653f f8fa 5bbf bb5a a53e c3fa 96bf
00000150: 8fd5 7e3f eef6 863e 29ad 2fbe 3838 29bd
00000160: 04ec 1abe 8b53 573f 6612 32bd bed2 bc3e
00000170: dc52 453f 0cf2 9f3e 56f1 acbf 1104 44bf
00000180: 11da 1ebf f41c aebe 735b 07bf 9f80 843f
00000190: c16c e43e 4d05 67bf 3885 1e3f 486a 5a3f
000001a0: 3867 b13f 027e 2abf b9a9 053f 5fa9 cd3f
000001b0: c557 983f dab9 febd 39fa 523f a749 3f3f
000001c0: 9a58 bcbf 72e4 2abf 1a77 8e3f 6b0e 8bbf
000001d0: 9a60 38bf bde8 133f 2f9a 74bf 393d a23f
000001e0: c6f5 1bbe a192 2bbf bc36 5abf c686 a3bf
000001f0: 2898 b1bf c2e2 803f 8918 093e 75b2 4e3e
00000200: c620 c13e 5977 0e3f 15ef ac3f 01f4 dabc
00000210: 6d38 92ba 315f 1ebf 9315 eabd cd7a 983f
00000220: 380b e83e 74af aebf 26b1 503e abc8 bcbf
00000230: 893e 3d3f e159 133f da84 7abf 0292 89bf
00000240: 48e5 88bf b0da 023f fda9 0bbe f2ff 493e
00000250: 66cc 5d3f 875f b23f b4f1 bdbd c289 78bf
00000260: 86cb 90be 943f 2fbf 3702 0cbd e521 bbbf
00000270: 670e b63f 68e1 ad3f 2147 413f 32cc a5bf
00000280: db15 12bf 5c60 f5be 3264 80bf ed0e 503f
00000290: 0c78 833f d626 babf 8c7e ae3f 4aab 8d3f
000002a0: 092b b53f 7dd6 bf3f 0465 83bf 697c 16bf
000002b0: f21e b0bf ec9b 8b3f 6be0 0fbf 1ea5 d5be
000002c0: 10f8 9c3f e778 29bd febc 5dbf 2faa 8dbf
000002d0: 4cb3 06be df2c 74bf 2dd6 1a3f be89 68bf
000002e0: fb95 a63e cace 3abf 0248 fbbe 28e0 74bd
000002f0: ba5a 6ebf 3b2a b53f 08be a3bf 2af8 b23f
00000300: 0eb3 8c3f a615 1bbf 9544 c9bf d20b 17bf
00000310: 8590 a93f feb0 8f3e 3543 8bbf 0c33 92be
00000320: 056a 8c3f abb4 633f 1edf 8e3f c6ac b33f
00000330: b890 9a3f 5e0c a03d 2012 28be 6b3c a83e
00000340: f586 c6bf 30cb b2bf 3a47 ac3d 4faa c1bf
00000350: 7434 8cbf d44d 9a3f f0ca f3be 4445 723f
00000360: b230 003f b11f a03f d722 4bbf 2ef5 5f3f
00000370: d0cf bc3e 72a9 9ebf 97bf a8bf 60f8 af3f
00000380: 989a 91bd adce 92bf 58d6 7cbf b05b 91bf
00000390: da41 563f e1d7 6fbf fc0d 50bf 6991 983f
000003a0: 0dbf 9fbf a4b6 013e 02c5 8f3e fa93 ee3d
000003b0: cfbc 84bf 6dfa 2c3f 0607 9ebf 62aa aa3f
000003c0: 480f 0d3f 6188 bdbe 4dc6 ac3f 1bbb 94bf
000003d0: 7751 903f b1d1 18bf 5237 053f 8b9b e23e
000003e0: 1864 d23d 0165 ab3f fb80 8abf 8e3d 643e
000003f0: 881f f9be 686a 0bbf bdb0 8f3f 8053 4dbf
0.57754004 -1.1747329 1.1886364 -0.2982702 0.76732665 1.2409118 -0.48624304 0.18104964
1.334606 0.7795954 -0.4585827 1.1379699 -0.7165281 -0.22100285 0.16235542 0.8158563
-1.3205622 -0.6804502 -0.24390858 -1.1441689 0.3874744 -0.26971257 0.7346394 1.0119791
-0.8023959 -1.0135417 0.20709836 0.91702527 -0.62733525 -0.19605398 -1.4170628 0.9892467
-0.7300672 -0.20835353 0.21603042 1.2941413 0.63840824 0.93018806 1.1271789 0.87498385
1.0880824 1.2696636 0.32099298 -1.2063907 -0.65776396 -0.39660254 -1.0691273 1.0814106
0.3914277 1.052986 1.0970049 0.31598592 -1.0839946 -0.6267896 -0.7089941 0.2091165
0.70378476 0.55052614 1.2439758 -0.25140345 0.40559852 -1.4175278 1.4840814 -0.9491863
-1.3879664 -0.74852943 1.3432909 0.79123956 0.20876479 -1.0532088 0.33968845 -1.3877677
-1.0318067 0.7481992 1.2608 0.1848713 -0.5070475 0.5623844 0.28919053 -0.4270687
0.89840215 -0.8592982 0.32295784 -1.1795276 0.99544615 0.26360267 -0.17155899 -0.04131338
-0.15129095 0.8411185 -0.043474577 0.36879534 0.7707956 0.31239355 -1.351115 -0.76568705
-0.6205149 -0.34006464 -0.52873915 1.0351752 0.44614223 -0.90242463 0.61922026 0.8531842
1.3859625 -0.6659852 0.522121 1.6067313 1.1901785 -0.12437792 0.8241306 0.7472176
-1.4714539 -0.6675483 1.1130097 -1.0863775 -0.720224 0.57777005 -0.95547765 1.2674934
-0.15230474 -0.6702061 -0.8523977 -1.2775505 -1.3874559 1.0069201 0.13388266 0.20185263
0.37720317 0.5565086 1.3510462 -0.026727678 -0.0011155732 -0.61864 -0.11429896 1.1912476
0.4532106 -1.3647294 0.20380077 -1.4748739 0.73923546 0.5755902 -0.97858965 -1.0747683
-1.0694971 0.5111494 -0.13639064 0.19726542 0.8664001 1.3935403 -0.09274617 -0.970852
-0.28280276 -0.6845639 -0.0341818 -1.4619719 1.4223145 1.3584414 0.7549916 -1.295294
-0.570646 -0.4792508 -1.0030577 0.81272775 1.027101 -1.4543102 1.3632369 1.1067898
1.4153758 1.4987332 -1.0265203 -0.58783585 -1.3759444 1.0906959 -0.5620181 -0.41727537
1.2263203 -0.041375067 -0.86616504 -1.1067561 -0.13154334 -0.9538097 0.60483056 -0.9083518
0.325363 -0.72971785 -0.49078375 -0.059784085 -0.9310719 1.4153513 -1.2792368 1.3981984
1.0992143 -0.6057991 -1.5724055 -0.5900241 1.3247229 0.28064722 -1.0879885 -0.2855457
1.0969855 0.8894755 1.116184 1.4037101 1.2075415 0.07814859 -0.16413164 0.32858595
-1.5509936 -1.3968258 0.08412023 -1.5130099 -1.0953507 1.2055001 -0.47615767 0.9463694
0.50074303 1.2509671 -0.79350036 0.8748349 0.36877298 -1.2395461 -1.3183469 1.3747673
-0.071095645 -1.1469322 -0.9876456 -1.1356106 0.8369423 -0.9368878 -0.8127134 1.1919376
-1.2480179 0.12667328 0.28079993 0.11649318 -1.037012 0.6756962 -1.2345893 1.3333247
0.5510144 -0.3701811 1.3498017 -1.16196 1.1274861 -0.59694964 0.5203754 0.44259295
0.102729976 1.3390199 -1.0820612 0.22289106 -0.4865687 -0.5445924 1.1225811 -0.80205536

conv1.bias f4 [16]
00000000: 5fdb 9d3f 973d 85bf c1b5 043f f9d7 a6bf
00000010: 0055 d53e 551d 1c3f 681f 6ebf dc3d 4f3c
00000020: 6f9f 313e f589 573f 0cda f33e 6cdc a93f
00000030: ed5e c1bf bd43 5abf 75e2 263f 223c 3d3f
1.2332572 -1.0409421 0.51839834 -1.303466 0.41666412 0.6098226 -0.9301667 0.012649026
0.17345975 0.8419488 0.47627294 1.3270392 -1.5107094 -0.8525961 0.65189296 0.7391988

conv2.weight f4 [32, 16, 3, 3]
00000000: 1911 c1bd ed42 06bf 0fe0 9b3e ac66 023f
00000010: 1d42 fa3d cae7 cf3d 12c9 e9be c767 193e
00000020: e687 0abe 624f 03bf ff81 863e c80e 0abf
00000030: 05f1 b5be d6dd 93bd f064 153f d8e5 a53e
00000040: 162d e73e 5575 a6bd d09f d83e 4131 17bf
00000050: 716e c03e 9258 173f d764 ea3d 3474 c9be
00000060: a02a 0a3f 05db 3cbe b1ad a5be ecbb febe
00000070: 92d5 26bf 8edc 853e 6f8d ab3d 2b1a 063e
00000080: 5cb8 e7bd f441 d9bb 3910 443e 1689 283d
00000090: 1ca0 853d d76c 163f 0101 233e 06e3 2bbe
000000a0: a37c 25bf 6d24 563e cfb9 a13e 9937 9ebe
000000b0: c814 a8be 09c1 b2bd b166 f4be 5cfe ac3e
000000c0: c6cd e6bd 8d25 283f 76bf 9dbe 1f03 c53d
000000d0: e2b1 05bf 1ce7 2f3e dcd8 41be 1bb5 86be
000000e0: a6e5 b53e df23 a83e 74be 013f 5619 153f
000000f0: a442 143f dac8 35be 5df1 0b3f 1d9c 2cbe
00000100: 4124 e9be 4d48 4c3d 1948 1fbf 7f47 163f
00000110: f6df 0b3f 5561 f4be c2d1 cf3e 4d39 abbd
00000120: cb39 6dbe 15b5 203f 875a e9be 1286 a73e
00000130: cb79 a9be 85ba bb3d 4358 c93d 0466 ff3e
00000140: 7c5a 053f f47d 6b3e c9ed 073e f395 003f
00000150: a038 833e a552 98be 4184 193d 6cd1 98be
00000160: 10ac 203f 326c 81bc 8071 323e 3b96 23bf
00000170: a142 1cbf d5ce 01bf b42b 8e3e e0ed 4abe
00000180: 11f5 9e3e e82f fb3e 7786 833e d516 073c
00000190: a21b 5cbd 1184 84be eece 08bf 8a42 c1be
000001a0: 03d1 073f 3596 13bf bcaf 8f3c 99a4 e93d
000001b0: f647 5fbd 524c 7f3a 78d3 e23e a7f3 0ebf
000001c0: d705 233f b340 d23e 77a4 203f 10b2 12bf
000001d0: a43f ec3d 3efd 1e3f 44e0 773e 3b03 713e
000001e0: af40 f0be d37c b13e 6e16 04bf d170 66be
000001f0: 0a6a b13e 2a05 06be 6623 48be 5d1a 09bf
00000200: 4e09 8dbe 6a87 283f b58d 0c3f d0bf 36be
00000210: 8d4e f4be 5f56 dc3d cad0 f0be 2078 f2be
00000220: 97b6 2cbe a829 6cbe 0913 8cbe ea2a a83e
00000230: ff0a 1cbf c584 26bf 4ef5 18bf 4f61 3ebd
00000240: a83b b83e 29eb 05bf 9fd7 1e3f 649b 17bf
00000250: c88c 913d 7764 0cbf ac0b fabe f503 d13e
00000260: edb2 38bd 15c4 a3bd 075b bc3d bb84 ef3a
00000270: 5711 74be 69df a33e 1cbe f63e 222c dc3d
00000280: 5256 55be ce5e 0c3f cbe5 153e 5f0b ac3e
00000290: 2d5b acbe 7337 403e 3024 b43e 3866 bebe
000002a0: 38b3 aa3e 4e48 123f e256 0fbb bdaf 0dbf
000002b0: b4fd 943d 0a54 02bf 4dcc e7be 0426 fb3d
000002c0: 4d51 ac3e 28ad ea3e ef0f 0c3f 41a2 3abe
000002d0: 427d 68be 57cb 1bbf 83a7 ef3e df73 f3bd
000002e0: d60b e03e 6394 27bf 7f8f 1abd 15ae b63e
000002f0: 3fd3 75be 12cc c93e 9f74 e8be e83b ff3e
00000300: 92c9 b1be 3ae5 9cbc 4b5c e23e 7c83 8ebe
00000310: 9540 22bf e74e d23e 2559 a33d 997b f3be
00000320: f920 e0be fc5c 9ebe dc2f 1dbd 388b 8d3e
00000330: 0389 bbbb d1aa 22bf 1bca d73e 6e74 833e
00000340: 2170 a2be 7e6b 21bd b7a4 2d3e f2ce 0b3f
00000350: b8eb 7f3e 4da4 8b3d a8f7 afbb 8a5a b6be
00000360: 45c5 a5be b072 d53e 5b71 7fbe 6145 493e
00000370: b49d 22be 922c 033f cb57 04bf 0110 0c3c
00000380: 6f39 24be e71f 353f ac97 b03e b1b2 d33e
00000390: 991c abbe a9b6 af3e ca3d c13e c5e0 0b3f
000003a0: 7323 07bf ce20 b13d 51cd febd 9756 a03e
000003b0: 2037 803e b626 de3e 7fbb 0fbe c9ea 513e
000003c0: b5a8 a33d c704 09be ce11 15bf 6b68 54bd
000003d0: bb02 a4bc a297 193d 2087 1abe 1618 a73e
000003e0: af89 303f 63ec 9cbe e9c5 91be 1f70 f23e
000003f0: 03af 5ebe ba14 013f 0ac9 ed3c ca92 8ebe
-0.09427089 -0.5244587 0.3044438 0.50937915 0.12219641 0.10151632 -0.45661217 0.14980994
-0.13528404 -0.51293004 0.26271054 -0.53928804 -0.35535446 -0.07220046 0.58357143 0.3240192
0.45151585 -0.08127848 0.42309427 -0.5905953 0.3758426 0.5911952 0.11445015 -0.39346468
0.5397129 -0.18442924 -0.3235908 -0.49752748 -0.6516963 0.26144832 0.08376586 0.1309592
-0.11314461 -0.0066301767 0.19146813 0.04114636 0.06524679 0.58759826 0.15918352 -0.16785821
-0.64643306 0.20912333 0.31587073 -0.30901793 -0.32828355 -0.08728225 -0.47734597 0.3378781
-0.11269717 0.656823 -0.30810136 0.09619736 -0.5222455 0.17178005 -0.18930382 -0.26310048
0.3552677 0.32839867 0.50681233 0.58241785 0.57914186 -0.177524 0.54665166 -0.16856427
-0.45535472 0.04987364 -0.6221939 0.58702844 0.5463861 -0.47730508 0.4058972 -0.08360539
-0.23166578 0.6277631 -0.4557688 0.32719475 -0.33100733 0.09166435 0.09831288 0.4988252
0.52091193 0.22997266 0.13274302 0.50228804 0.2562914 -0.29750553 0.037479643 -0.29847276
0.62762547 -0.015798662 0.1742611 -0.6390111 -0.6103917 -0.50706226 0.27767718 -0.19817305
0.31046346 0.49059987 0.25688526 0.00824519 -0.05373729 -0.2588201 -0.5344075 -0.37746078
0.530533 -0.5765107 0.017539851 0.11408348 -0.054511987 0.00097388506 0.44301963 -0.55840534
0.63680786 0.41064987 0.62750953 -0.5730295 0.11535576 0.62105167 0.24206644 0.23536389
-0.4692435 0.34665546 -0.51596725 -0.22503974 0.34651214 -0.13087907 -0.19544753 -0.5355585
-0.2754616 0.65831625 0.5490373 -0.17846608 -0.4771618 0.107586615 -0.47034293 -0.47357273
-0.16866527 -0.23062766 -0.27358273 0.3284524 -0.6095428 -0.6504634 -0.59749305 -0.04647952
0.35983014 -0.5231195 0.6204776 -0.5922148 0.0710693 -0.548408 -0.4883703 0.4082333
-0.045092512 -0.07996384 0.091970496 0.001827381 -0.2383474 0.32006386 0.48191917 0.10750605
-0.2083371 0.5483216 0.1463844 0.33602425 -0.33663312 0.18771152 0.3518386 -0.37187362
0.33339858 0.5714158 -0.0021871855 -0.5534628 0.072749525 -0.50909483 -0.45273057 0.1226311
0.33655778 0.45835233 0.5471181 -0.18225957 -0.22704032 -0.60857147 0.4680749 -0.11887335
0.4375903 -0.65460795 -0.037734505 0.3567969 -0.24006365 0.39413506 -0.45401475 0.49850392
-0.34724098 -0.019152272 0.4421104 -0.2783469 -0.63379794 0.41075823 0.07975987 -0.47555235
-0.43775156 -0.30930316 -0.03837572 0.27645278 -0.00572312 -0.63541895 0.42146382 0.25674766
-0.31726173 -0.039409153 0.16957365 0.5461265 0.24992263 0.06818447 -0.005370099 -0.3561595
-0.32377067 0.41689062 -0.24945585 0.19655372 -0.15880471 0.51239884 -0.5169646 0.0085487375
-0.16037534 0.70751804 0.34490716 0.41347268 -0.33420256 0.34319046 0.37742454 0.54639846
-0.52788466 0.08648835 -0.12441505 0.31316063 0.25042057 0.4338891 -0.14036368 0.2049972
0.07991163 -0.13380729 -0.5823029 -0.051857393 -0.020020833 0.037498124 -0.15090609 0.32635564
0.6896009 -0.306491 -0.28471306 0.47351167 -0.21746449 0.5042225 0.029026527 -0.27846366

conv2.bias f4 [32]
00000000: dcf2 28bf dc22 ec3e a9b1 0ebf 5633 1bbe
00000010: dd2f 7cbe b741 183e 7cf2 e33e 95e2 d5bd
00000020: f4a7 bdbd a4ed 873d 3b86 e9be 6d17 10bf
00000030: 82a5 d8bd e14b 1b3e e413 61be 3933 cebe
00000040: 27fe d1be 1145 943e fb35 dcbe 0920 febd
00000050: 50a8 853d 3de2 163f 76a6 173f f6b8 b2be
00000060: 89ea 273f 653c 113e f637 c13e 4c54 1dbf
00000070: 0ca8 f1be 6c90 713c a703 9bbd fae2 323f
-0.65995574 0.46120346 -0.5573984 -0.15156302 -0.24627633 0.14868818 0.44520938 -0.10443608
-0.0926055 0.06637123 -0.45610222 -0.56285745 -0.10578443 0.15165664 -0.21980244 -0.40273455
-0.41014215 0.28958943 -0.43009934 -0.12408454 0.06526244 0.5893896 0.59238374 -0.3490674
0.6559225 0.14183195 0.37738007 -0.6145675 -0.47198522 0.0147439055 -0.07569056 0.6987759

conv3.weight f4 [32, 32, 3, 3]
00000000: 169e 3fbe 31ae 5e3e 7015 9b3d ef60 e0be
00000010: e61f adbe 2fdc e33e 07d0 8cbe 5d27 85be
00000020: b330 d33e 1683 b33e 9e93 953e 5df8 893e
00000030: 7306 7abe 541a dd3e 56ba 25be a70c 91be
00000040: 74e6 9e3e e75f 9bbe dd19 31be 0dbe cebe
00000050: 46ea bb3e 5d6b d73d 7794 acbe 6a7f bb3e
00000060: 1ca7 d5be 8307 433e ea47 993e a5a3 3dbe
00000070: 514b ab3d 713d ac3e 6535 873d 2488 d9be
00000080: c58c 6abd 2ad7 2f3e 5b2c 673e 77bc ebbd
00000090: ea8f a8bd 9769 4abe af4a ef3e f424 a8bd
000000a0: fd5c 7ebd 0c15 e2be 0070 f93b f5df 0a3d
000000b0: 4191 79be 90ef a33e 6cfa 303e 652a a9be
000000c0: 4c08 b0bd fa8a b03e d847 0f3d e9fc cf3d
000000d0: 44da de3d 1733 d63e 1b78 8c3e eff5 4f3e
000000e0: 4a61 313a 36b2 903d 7397 49be a136 ecbe
000000f0: 643a 7e3e 4864 bf3e 417e b73d 09d5 4fbe
00000100: c98d adbe 1fc5 8cbe 88d0 ebbe 3e8f 893e
00000110: d0e8 903e 1300 f5bd 30cb be3e a889 afbd
00000120: 2bfe f9bd 93df b93e 18bc 05be a541 02be
00000130: 3b10 d13e 9e2a 6cbe 35a7 d9be 2e79 a9be
00000140: 7d32 d8be 5d02 98bd 64a8 293e 8d1a b93e
00000150: ba0b b2be 9037 e63d 8cb3 a83e 9ac8 963e
00000160: 6298 843e 47e1 9a3d 7d23 e0bd 1b9b 5d3d
00000170: ed03 b4be a74b d43e b24f debe f5e2 983c
00000180: 0f07 f5be 3e7d 40be 4a90 e0be 86fd aebe
00000190: e931 e53d d0b2 853e aeae a5be 3727 c4be
000001a0: a309 153e 95f8 263e c653 813e 2f98 043e
000001b0: d167 d13d bcaf 603e 18a3 62be 3d2d a63e
000001c0: 6e91 89be b0f8 c0bd e811 0bbd d63b af3e
000001d0: 2229 f9bd 85bf 9abe a58e ebbd ebe8 d23e
000001e0: 6386 723e 52cf b3be 40b9 263e b6b2 82be
000001f0: 7389 cabe 2141 95bc ca82 e6bd c72f 4a3e
00000200: 1c4a c0be 095e a23e cb3e f0bd e7e8 04bf
00000210: 6875 afbe 0535 0a3d 5ff3 bc3e 8993 93be
00000220: 2d5f 3e3d bcbe 43be 7db7 89be f31a 98bd
00000230: 5813 bebd 46e6 f5be 472a 243e 40a8 56be
00000240: 800d a03d 2d2f 9fbd 9a7b c5bd 70c2 92bd
00000250: a2cb 81be d6ab 723d 4f24 113e 3682 6dbc
00000260: 3dde 163c 38a1 4e3e afb3 b03e 0322 19be
00000270: 7ced bdbe 5ab2 23be bfa6 e03e 0729 203e
00000280: d22d da3d 7169 983e b65c 9bbe a6fb 9e3d
00000290: 143d c03d a56b ba3e bb57 19be 5fee 18be
000002a0: 71e9 203e 5fd6 403e d872 8c3c bd3e 7f3e
000002b0: 92a0 4abe e544 c93d 6ca8 b0be 0967 063e
000002c0: 8a6a 1abe 4eff bbbe d258 d7be 0f0b cabe
000002d0: 372f 99be 0953 383d 8043 a6be 0179 e4be
000002e0: 91e3 a13b 74cf 17bd 5d98 163e b32a acbd
000002f0: 7335 a43e 4137 953e d895 923d 1b1d a1bc
00000300: 12f3 d9be 1597 ddbc 249f 0abe 67b4 853d
00000310: 2ccb e8bd c5e2 4e3e af9b fbbe f7b4 d53e
00000320: 7e87 8bbe 3f59 d13d a7a5 8ebe a89e c33d
00000330: 9bd0 44be 5a41 a33d e689 ca3e 4d61 05be
00000340: 39d9 e43e 146a f8be 86d5 6cbd 671c a0be
00000350: af57 93bd 36fc 16bd 3fa5 88bd 262a 00be
00000360: 52f8 023e 23b3 b63e 769c f8bc 8097 4ebe
00000370: d9b8 20bd 1896 fa3e 74c8 bf3e c4e1 9abe
00000380: 4f1a dc3d 9112 523d 49a2 533e e0fa 95be
00000390: 0696 833e 02d3 3dbe 820c 803e c5a4 24be
000003a0: 24ee e2be 1fd2 93bd 2210 e33e 22ee 213e
000003b0: 6a5f 7dbe 87e3 1cbe 4368 a4bd 8884 623e
000003c0: b737 b4be 2e7b 2abe beb2 ce3e 7d69 803e
000003d0: bfbf 2c3e aae8 b13c 6c6a b13e e2cd a8bd
000003e0: de04 9f3d 1c68 59be 58b6 cd3e dba9 973e
000003f0: e0e3 92be d183 93be 04cc be3e 4283 c73e
-0.18712649 0.21746136 0.07572448 -0.43823954 -0.338134 0.44503924 -0.27502462 -0.26006594
0.41248092 0.35060948 0.29214185 0.269473 -0.24416523 0.4318415 -0.16184363 -0.28329965
0.31035197 -0.30346605 -0.17295022 -0.40379372 0.36702174 0.10518525 -0.3370702 0.36620647
-0.41729057 0.19045834 0.2993768 -0.18519457 0.08363975 0.33640626 0.06601981 -0.4248668
-0.057263155 0.17171922 0.22575514 -0.11510556 -0.082305744 -0.19766842 0.46736667 -0.08210173
-0.0621004 -0.44156682 0.0076122284 0.03390499 -0.24371816 0.3201871 0.17283028 -0.33040157
-0.085953325 0.3448103 0.034980625 0.10155661 0.108814746 0.41835853 0.27435383 0.2030866
0.00067665114 0.07065241 -0.1968668 -0.4613543 0.24826962 0.37381196 0.08959628 -0.2029611
-0.33897236 -0.2749414 -0.46057534 0.26867098 0.28302622 -0.11962905 0.37264395 -0.08571178
-0.12206682 0.36303386 -0.13060033 -0.12720354 0.40832695 -0.23063132 -0.4251038 -0.33100265
-0.4222602 -0.07422326 0.16568142 0.3615307 -0.34774572 0.112410665 0.32949483 0.29449922
0.2589751 0.075624995 -0.10944269 0.054103 -0.35159245 0.41463968 -0.43420178 0.018662909
-0.47856948 -0.18797776 -0.43860084 -0.34177798 0.1119116 0.26112986 -0.32359833 -0.3831117
0.14554457 0.16305764 0.25259227 0.12948678 0.102248795 0.21942037 -0.22132528 0.3245639
-0.26868767 -0.094224334 -0.033952624 0.3422534 -0.121660486 -0.30224243 -0.11501817 0.41193327
0.23684077 -0.3511911 0.16281605 -0.2552697 -0.3955799 -0.018219532 -0.11255415 0.19744788
-0.3755654 0.31712368 -0.11730727 -0.5191788 -0.3426926 0.03374197 0.36904427 -0.28823498
0.046477485 -0.19115728 -0.26897803 -0.07427015 -0.09281033 -0.48027247 0.16031753 -0.2096262
0.07815075 -0.0777267 -0.09642716 -0.07165992 -0.25350672 0.059245907 0.14174007 -0.014496377
0.009208259 0.20178688 0.34512088 -0.1495438 -0.3709525 -0.15986004 0.43877217 0.1564065
0.10653271 0.29767945 -0.3034417 0.07762842 0.0938665 0.3641025 -0.14974873 -0.14934681
0.15714051 0.18831776 0.017144606 0.24926277 -0.19787815 0.09827594 -0.34503496 0.13125242
-0.15079704 -0.3671822 -0.42059952 -0.39461562 -0.29918835 0.045001063 -0.32473373 -0.4462357
0.004940458 -0.037063077 0.1470656 -0.08406582 0.3207203 0.29143718 0.07157487 -0.019667199
-0.4256826 -0.02704958 -0.1353727 0.0652855 -0.11366877 0.20203693 -0.49142215 0.41739628
-0.2725181 0.102221005 -0.27860758 0.09551746 -0.19220202 0.07971449 0.39558333 -0.13025399
0.44696978 -0.4851843 -0.05782082 -0.3127167 -0.07194459 -0.03686162 -0.06672143 -0.12516078
0.12790039 0.35683545 -0.030348044 -0.2017498 -0.039238784 0.48942637 0.3745762 -0.3025037
0.107472055 0.051287238 0.20667376 -0.29292965 0.25700396 -0.18537524 0.25009543 -0.1607848
-0.44322312 -0.07217812 0.44348246 0.15813497 -0.24743429 -0.1532117 -0.08027699 0.22120869
-0.35198757 -0.16648552 0.40370744 0.2508048 0.1687002 0.021717388 0.34651506 -0.08242394
0.077646 -0.21231121 0.4017818 0.29621777 -0.2868948 -0.28811505 0.37265027 0.3896733

conv3.bias f4 [32]
00000000: a4a7 713d befe 0c3e 1101 cf3d ede1 f6be
00000010: 00d9 76be 3809 e5bd 375b 813e 8bc6 02bf
00000020: 57ca f4bd 75df ba3d 3e8d 3abe d9a3 ccbe
00000030: 2d09 9bbd 3162 c83e 24b0 80be 2674 bf3d
00000040: 0872 2f3e 8cce c8bc 5872 c53e e982 3b3e
00000050: 821f 583e 0f46 c7be 3644 b1bd 87ec fcbe
00000060: 1c0a 343e 98b1 143e 1548 c0be 7096 4ebd
00000070: 753a 703e 98b2 1bbe ca08 cc3d 674e fa3e
0.058997765 0.13769051 0.10107625 -0.48219243 -0.24106216 -0.11183399 0.25264904 -0.510842
-0.11952656 0.09124652 -0.18217942 -0.39968756 -0.075701095 0.39137414 -0.25134385 0.093483254
0.17133343 -0.024512552 0.385638 0.18311657 0.2110577 -0.38920638 -0.08655588 -0.49399206
0.17581981 0.14520872 -0.37554994 -0.050436437 0.234598 -0.15204847 0.09962614 0.4888794

fc1.weight f4 [10, 288]
00000000: 1ca0 de3d 0ed6 023d e5b2 7a3e f6d9 54be
00000010: e6f7 2abe 2832 683e 3f5e 533d 778c 153e
00000020: 5b10 a23d 1b45 a73e 7fcd a73e 837d 71be
00000030: 7e5b debe bc49 f13b 10fd 50be 51f6 ea3e
00000040: 9d54 a23d 5ab4 34be 1436 b13e 5a7d ce3e
00000050: 3237 81be f4b0 8a3e 10fe 5a3e 0c05 9dbe
00000060: 77bd d9be f554 013a 133c e03e dc47 0ebe
00000070: afec c53e 085e a53e 5851 b7be 3319 093e
00000080: a9bb 4cbd 949c 12bd 71dc ba3e 1930 8a3e
00000090: bf8e f13d f0e2 da3e 89e8 a6be 3f3b cc3d
000000a0: e1a0 7abd 8920 2c3e 4621 9b3e c22d 92be
000000b0: 9d15 66bd b1f9 193e 4bc7 793e 2936 213e
000000c0: 99bf 42bd e38e 813e 2061 1abe 43ef 96be
000000d0: fa92 ad3d 6350 803e 78eb d8be d67e 483d
000000e0: 6a8d 77bb d8cb dcbd 1a9b 793e 70ec 99be
000000f0: 2d9f 58be b1c2 273e 8f8e b7be 69ef 8dbe
00000100: 2dbf c93c cda6 fdbd 1e55 b03e f7b2 cc3e
00000110: 6612 d23e a261 83be f6a1 efbd 2ab2 223e
00000120: c9f1 b23e 4dd2 2b3e 1b4e fd3d 637d 8cbe
00000130: 8712 573e 864e c5be 490a 27be db76 bebd
00000140: 5d41 ed3d 2047 8c3e 27d0 cc3e d0d5 89bd
00000150: c1c7 d73e ac84 e33e 2a9b c7bd a46f 29be
00000160: 1911 ddbd 39b6 cc3e cfab f83d c339 d13e
00000170: 5594 7e3e 3067 84be 4a7a 09be 1644 af3d
00000180: 0e30 3c3e f728 8f3b 2ff3 9dbe a95d 993e
00000190: 6a20 e63c da42 aa3e 73fe d83e eee2 ad3e
000001a0: 7843 0f3e 9759 d5bc 799b 6c3e 81bf ec3c
000001b0: afb3 03bd c847 03be 58c6 d73e 64d7 883e
000001c0: 9c01 d23d d559 eebe a6bd c0be d5d4 9bbe
000001d0: 8fd9 c7bd ced1 cb3d 0f44 bd3e 4b73 913e
000001e0: 38b6 7d3e e9db 87be 0267 a53d c35e b03e
000001f0: 8cb3 81be a075 773e 6f17 a4be 2b7d d03d
00000200: a6b0 25be 9de6 0abe 4b1f 503e 9da2 623e
00000210: bb76 dc3d 71d4 d9bd ba4f 1a3e 6441 9f3e
00000220: 59a5 d43e bf24 893e 6770 bb3e 2f4f 13bd
00000230: 1066 c9be cb7e b33e a2e9 843e bbb4 7a3e
00000240: 6144 b4be 4acb 733e 8cab 343e d982 8b3c
00000250: 3d64 753e 8d26 783c f533 02bd 9d4a 2cbe
00000260: 0e72 ef3e 46a5 4d3e d803 923e 24d9 93be
00000270: f37f cbbe 8760 4c3d e5d7 923e 82de a3be
00000280: 8f77 98be 557a 3e3e 59f6 cf3d efdd 0f3c
00000290: 739b c63d b824 a6bd e7ee 663e 8f8d 193d
000002a0: 7f80 65be f55b 273e 1826 fe3d 21d3 2a3e
000002b0: 6013 87be ef6b 9b3e 0d5f adbb 662c 8dbe
000002c0: e2d0 b53d affb 7c3e c499 ecbd 3ddc ec3e
000002d0: cefb 03bc 0a42 183e fd60 b43e b436 3dbe
000002e0: 2ba8 d73d 11b8 67be 9a87 283e f81e f03e
000002f0: 578a b63e 9427 1f3c 8b92 aabe a7a5 b7be
00000300: 1183 bfbe bc98 303e 7a95 a93e b29c ceba
00000310: 851d d5be 19cb c5be 9abf 84bd 217f a4be
00000320: 6815 8b3e bab9 dbbc 79ab bc3d 3d05 863e
00000330: 951b ccbb 1a86 c8be f12a 023e d022 733e
00000340: 3e08 81be 400e 5b3e a62b eebe e552 473e
00000350: 7b77 a73e b882 ae3e 6f3f 18be 2257 513c
00000360: 3c1c a03e 7e87 25be d5a6 c73e 2fb4 7e3e
00000370: eae1 ddbd 8f31 aabe 7348 283e 6993 6d3d
00000380: 8bcf 10be 85af ecbe d2de c63c 43ac fdbd
00000390: 4f21 833e 5804 ca3d 19d1 62be 3a40 e2bc
000003a0: 1c4a 483d faeb d83e 4c5d b83e a46b c43e
000003b0: e385 8cbe beeb b3bc 7d8d 113c a2c4 7d3e
000003c0: 3000 5a3e b0bb 82be 1bd2 af3e 458a 9bbe
000003d0: 5ceb c23e 7fbb ed3d 3dba a4bd 05cb ae3e
000003e0: 619a a2be 0264 cc3e dc06 263e 6d47 cbbe
000003f0: aa28 973c 8aba 44be 4591 f63c aba7 de3d
0.10870382 0.03194242 0.24482305 -0.2078627 -0.16696128 0.22675383 0.051603552 0.14604364
0.07913276 0.3266991 0.3277397 -0.23583035 -0.43429178 0.007363526 -0.20409036 0.4589105
0.07926295 -0.17646924 0.3461157 0.4033001 -0.25237423 0.2708813 0.2138598 -0.30667913
-0.42527363 0.0004933619 0.43795833 -0.138946 0.38657138 0.32298303 -0.35804248 0.13388519
-0.049983654 -0.035793856 0.36496308 0.2698982 0.11794805 0.42751265 -0.32599285 0.09972238
-0.061188582 0.16809286 0.30298823 -0.28550535 -0.056172956 0.15036656 0.2439243 0.15743317
-0.047546003 0.25304326 -0.15076113 -0.29479417 0.08475299 0.2506133 -0.42367148 0.048949085
-0.0037773498 -0.107810676 0.24375573 -0.300632 -0.2115447 0.16382863 -0.3585095 -0.27721718
0.024627293 -0.1238533 0.3443994 0.3998029 0.41029662 -0.25660425 -0.117008135 0.15888277
0.34950092 0.16779442 0.12368413 -0.27439412 0.21003161 -0.3853647 -0.16312517 -0.09300014
0.11584733 0.27398014 0.40002558 -0.067302346 0.42144588 0.44437158 -0.09746392 -0.16546494
-0.10794277 0.39982775 0.12142145 0.4086438 0.24861272 -0.25859976 -0.13425556 0.08557908
0.18377706 0.004368897 -0.30849597 0.2995427 0.028091628 0.3325413 0.4238163 0.33962196
0.13990581 -0.026043696 0.23106183 0.02889991 -0.03215378 -0.12820351 0.42143512 0.2672683
0.10254213 -0.4655291 -0.3764469 -0.30435815 -0.09758293 0.099521264 0.36965987 0.28408274
0.24776542 -0.26534966 0.08076288 0.34447297 -0.25332296 0.24165964 -0.32049128 0.10180124
-0.16180667 -0.13564534 0.20324437 0.22132345 0.107648335 -0.10636223 0.15069476 0.31104577
0.415324 0.26785848 0.36609194 -0.035964187 -0.3933568 0.35057673 0.25959498 0.24483006
-0.3520842 0.23808017 0.17643565 0.017030166 0.23964019 0.01514591 -0.03178783 -0.16825338
0.46766704 0.20082578 0.28518558 -0.28876603 -0.39746055 0.049896743 0.2868034 -0.32005697
-0.29778716 0.18601353 0.10154409 0.00878094 0.09697618 -0.08112472 0.22552072 0.037488516
-0.22412299 0.16343673 0.124096096 0.16682102 -0.2638197 0.30355784 -0.005290872 -0.27572936
0.08877732 0.24705385 -0.11552766 0.46261778 -0.00805564 0.14868942 0.35230246 -0.18477899
0.10530122 -0.2262881 0.16457978 0.46898627 0.3565242 0.009714026 -0.33314928 -0.3586857
-0.37404683 0.17245764 0.33121854 -0.0015763252 -0.41624084 -0.38631514 -0.064818576 -0.32128242
0.2716477 -0.02682196 0.09212393 0.26175871 -0.006228874 -0.3916481 0.12711693 0.23743749
-0.252016 0.21392155 -0.46517676 0.19465216 0.32708344 0.34084105 -0.14867948 0.012777122
0.3127154 -0.16164967 0.3899447 0.24873422 -0.10834105 -0.33240935 0.16433887 0.05800191
-0.14141671 -0.4622766 0.02427617 -0.12386372 0.2561135 0.0986411 -0.22150077 -0.027618516
0.0488988 0.42367536 0.3600868 0.38363373 -0.27445897 -0.021962997 0.008883831 0.2478204
0.21289134 -0.2553382 0.34339985 -0.3037893 0.3807019 0.11608028 -0.08043335 0.34139267
-0.31758407 0.3992005 0.16213554 -0.3970293 0.018452007 -0.19211784 0.030098567 0.10871824

fc1.bias f4 [10]
00000000: 670b cdbe c756 c2be 2f8a 84bd 994f cdbc
00000010: c58a 9abe 93ed 8b3d 17a9 02bf 8e9e abbe
00000020: e207 a3be 2e8b b13c
-0.40047762 -0.3795683 -0.06471669 -0.02506237 -0.30183998 0.06832423 -0.5103926 -0.33519405
-0.31841952 0.021672811
