sandbox/snapshots3/model-7728.pt (torch, 71725 bytes, 8 tensors)

conv1.weight f4 [16, 3, 3, 3]
000000 9a 53 13 3f d0 bf 95 bf 86 a5 96 3f 25 c9 96 be
       0.5754944 -1.1699162 1.1769264 -0.29450336
000010 da 94 44 3f 6b 46 9d 3f 74 00 f6 be 31 4d 3b 3e
       0.7678963 1.2287115 -0.4804722 0.18291165
000020 0a 6c a9 3f ca b3 47 3f fc 78 e7 be d9 81 90 3f
       1.3236096 0.7800871 -0.4520949 1.1289626
000030 98 4a 35 bf 1b bd 5b be e7 1d 1f 3e 06 8a 52 3f
       -0.70816946 -0.21458857 0.1553875 0.8224186
000040 e2 e0 a7 bf 52 f7 2e bf d9 a2 73 be 1a fd 90 bf
       -1.3115504 -0.6834613 -0.2379259 -1.132724
000050 5a 82 c4 3e f2 c4 84 be c1 1b 3e 3f 5b e7 80 3f
       0.383807 -0.25931507 0.742611 1.0070604
000060 24 41 4a bf 5e 32 80 bf 2d 6b 53 3e 55 62 6a 3f
       -0.79005647 -1.0015371 0.20646353 0.9155629
000070 32 ad 1f bf 40 88 4a be e2 39 b5 bf 51 60 7c 3f
       -0.6237365 -0.19778538 -1.415829 0.9858447
000080 89 b5 3b bf 84 de 54 be 42 6f 5e 3e cd cb a4 3f
       -0.73323876 -0.20788008 0.21722129 1.2874695
000090 1f 5a 23 3f 2d 3b 6e 3f 4c b1 8f 3f fb 35 5f 3f
       0.6380939 0.93059045 1.1225982 0.8719174
0000a0 1f d9 8a 3f ef 99 a1 3f 6c 7b a4 3e 28 b1 99 bf
       1.084751 1.2625102 0.32125413 -1.2007189
0000b0 83 a1 28 bf a0 58 ca be a3 6c 88 bf 6c ab 89 3f
       -0.6587145 -0.3952074 -1.0658153 1.0755439
0000c0 a8 40 c7 3e 3b 4b 86 3f 64 81 8b 3f 6a 0a a2 3e
       0.38916516 1.0491709 1.0898862 0.3164857
0000d0 4d 03 8a bf 9a 8d 20 bf 94 27 32 bf af 01 5d 3e
       -1.0782257 -0.62716067 -0.6959164 0.21582673
0000e0 cc 3c 35 3f f3 b1 0e 3f cc d0 9f 3f 46 61 7a be
       0.70795894 0.5574028 1.2485595 -0.2445117
0000f0 46 16 d3 3e 93 95 b3 bf d9 c3 be 3f dc d9 6f bf
       0.4122793 -1.4030021 1.4903518 -0.936918
000100 85 80 b0 bf 74 0c 3e bf 49 51 ac 3f d4 ad 4b 3f
       -1.3789221 -0.7423775 1.3462306 0.79562116
000110 5d 34 5b 3e 68 ed 85 bf dc a2 b2 3e dc 21 b0 bf
       0.21406694 -1.0463076 0.34889877 -1.3760333
000120 d1 7f 82 bf 7f 81 40 3f 6a 87 a1 3f b0 d9 42 3e
       -1.0195256 0.75197595 1.261945 0.19028354
000130 33 4b 00 bf ae b1 10 3f 49 94 96 3e f8 7e d5 be
       -0.50114745 0.5652112 0.29410008 -0.41698432
000140 3c 49 67 3f d3 85 5c bf 74 e0 a3 3e 50 01 97 bf
       0.9034612 -0.861417 0.32007182 -1.1797276
000150 5f d0 7d 3f 96 25 86 3e ed 5e 32 be 1e 67 1e bd
       0.99146074 0.2620055 -0.17419024 -0.03867256
000160 1a 3e 1a be 3c c8 55 3f 11 4c 4f bd a2 b7 b9 3e
       -0.15062752 0.8350866 -0.050609652 0.36272913
000170 05 ae 43 3f be 0c 9d 3e 63 18 ad bf 0a f5 44 bf
       0.7643741 0.30673784 -1.3523067 -0.769364
000180 a1 87 1e bf 9c d4 ae be 77 a6 08 bf dd 91 83 3f
       -0.61925703 -0.34146583 -0.53379005 1.0278889
000190 96 2a e2 3e 0d 38 67 bf e7 6e 1d 3f da 6d 59 3f
       0.44173115 -0.903199 0.6149735 0.84933245
0001a0 8a a2 b0 3f 29 9c 29 bf 57 73 05 3f d6 cb cc 3f
       1.3799603 -0.66253906 0.5212912 1.5999706
0001b0 53 f9 98 3f c2 bd ee bd 3a 6a 53 3f 40 dc 40 3f
       1.1951088 -0.11657287 0.82583964 0.75336075
0001c0 82 39 bb bf b5 63 29 bf 14 00 8f 3f d5 53 8a bf
       -1.4626925 -0.66167766 1.1171899 -1.0806834
0001d0 b9 50 37 bf 2b dd 16 3f 92 d4 70 bf 32 07 a3 3f
       -0.7160755 0.58931226 -0.94074357 1.2736571
0001e0 6a 5a 0d be 4c 45 28 bf 12 1c 57 bf 98 9d a1 bf
       -0.13804021 -0.6573074 -0.84027207 -1.2626219
0001f0 aa 0f b0 bf d9 c3 81 3f b0 c5 15 3e 28 af 5b 3e
       -1.375478 1.0137893 0.14626193 0.21453536
000200 7c a8 c5 3e 37 2f 11 3f 12 ce ad 3f cd 7e 94 bc
       0.38605106 0.5671267 1.3578513 -0.01812687
000210 b5 9b ce 3b 19 cd 1c bf 60 82 de bd 57 b8 98 3f
       0.006305183 -0.61250454 -0.10864711 1.1931256
000220 8f 6f e7 3e 7a 1f ae bf d1 93 58 3e b2 00 bc bf
       0.452023 -1.3603356 0.21150137 -1.4687712
000230 82 75 3d 3f f6 6d 16 3f ad 7e 77 bf bb 08 88 bf
       0.7400743 0.5876154 -0.96677667 -1.0627664
000240 3d c6 87 bf e3 27 03 3f 69 ad 06 be d9 49 55 3e
       -1.0607373 0.5123274 -0.13152088 0.20828952
000250 37 18 5f 3f 4a e5 b2 3f 05 10 9c bd 7d 7e 74 bf
       0.87146324 1.3976223 -0.07620243 -0.95505506
000260 75 2a 89 be a5 29 2d bf f4 cb 00 bd 9c 05 ba bf
       -0.26790205 -0.6764167 -0.031444505 -1.4532962
000270 80 24 b7 3f 66 77 ae 3f 9a 00 43 3f 33 4a a3 bf
       1.4308014 1.3630188 0.7617279 -1.2757019
000280 45 fb 0d bf f3 e4 ec be 60 df 75 bf 2d b7 58 3f
       -0.5546153 -0.46268424 -0.9604397 0.84654504
000290 e9 c1 86 3f dd bf b4 bf 5a 81 b2 3f 95 0f 91 3f
       1.0527927 -1.4121052 1.3945725 1.133288
0002a0 d9 2d b9 3f 37 74 c3 3f 05 ba 7e bf 5a 8a 0c bf
       1.4467117 1.5269841 -0.99502593 -0.5489861
0002b0 a4 fe ac bf bd 5a 8c 3f 6c fd 06 bf ee c7 cb be
       -1.351521 1.0965191 -0.5273044 -0.39800972
0002c0 fa d4 9d 3f 1c c6 57 bc a1 74 58 bf 3d 85 8b bf
       1.233062 -0.013169792 -0.8455296 -1.0900036
0002d0 33 cc b9 bd 5c 78 6f bf c8 dc 1a 3f ae 97 5f bf
       -0.09072151 -0.9354303 0.60493135 -0.8734082
0002e0 4e a2 ab 3e 41 98 3a bf 02 76 ee be f3 74 46 bd
       0.33522266 -0.7288857 -0.46574408 -0.048451375
0002f0 dd 14 6c bf 28 08 b5 3f 1d 25 a3 bf e2 a4 b1 3f
       -0.92219335 1.4143114 -1.2745701 1.3878443
000300 95 0a 8c 3f e0 b6 1a bf f0 5e c9 bf cf e7 17 bf
       1.0940729 -0.60435295 -1.5732098 -0.59338087
000310 41 18 a9 3f fa dd 8e 3e 30 3c 8a bf f0 5b 8f be
       1.3210527 0.2790373 -1.0799618 -0.2799983
000320 6f 76 8b 3f 55 5c 63 3f 8f f5 8e 3f 2e 08 b3 3f
       1.0895518 0.8881276 1.1168689 1.3986871
000330 1a 10 9a 3f 43 dd a3 3d eb 8c 26 be 38 5a ae 3e
       1.2036164 0.08001187 -0.16264693 0.34053206
000340 b9 7f c4 bf 75 11 b2 bf 0f 57 b8 3d 52 0f c0 bf
       -1.5351478 -1.3911577 0.0900098 -1.5004675
000350 43 4b 8b bf 93 5c 9a 3f 4d bc ef be 42 61 73 3f
       -1.0882343 1.2059501 -0.4682335 0.9507028
000360 e4 a6 04 3f 6b da a2 3f 4d 1b 44 bf 69 1f 63 3f
       0.51817155 1.2722906 -0.7660416 0.88719803
000370 d7 4d c5 3e c3 22 9c bf 69 87 a6 bf d2 7a b1 3f
       0.3853595 -1.2198108 -1.3010074 1.3865607
000380 e4 59 71 bd 66 b9 91 bf 61 bd 79 bf e2 77 8f bf
       -0.058923617 -1.1384704 -0.97554594 -1.120846
000390 03 f4 56 3f 8e a4 6d bf bb fe 4d bf 5e 1f 99 3f
       0.8396608 -0.92829216 -0.8046681 1.1962698
0003a0 25 81 9e bf fc ac 05 3e 12 ce 8f 3e 06 46 f8 3d
       -1.2383162 0.1305427 0.28086907 0.12122731
0003b0 33 7e 83 bf c8 51 2c 3f 20 75 9d bf 9c 9b aa 3f
       -1.0272888 0.6731229 -1.2301369 1.3328738
0003c0 95 27 0d 3f 1d d8 bb be c8 82 ac 3f f6 49 91 bf
       0.5513852 -0.3668832 1.3477411 -1.1350696
0003d0 38 b8 92 3f 47 f6 13 bf 3b d8 08 3f 62 cb ea 3e
       1.1462469 -0.57797664 0.5345494 0.45858294
0003e0 e2 7b f7 3d 2e 5c ac 3f e3 13 88 bf 33 81 76 3e
       0.12084176 1.3465631 -1.0631069 0.24072723
0003f0 00 d2 f2 be ba b6 09 bf e4 be 8f 3f 8e 25 4c bf
       -0.47425842 -0.53794444 1.123013 -0.79744804

conv1.bias f4 [16]
000000 04 02 9d 3f 92 11 84 bf 54 c1 05 3f a7 e6 a5 bf
       1.226624 -1.0317862 0.5224812 -1.2961015
000010 8c cc d0 3e 9e 95 1e 3f 4e fa 66 bf de 05 85 3c
       0.40781057 0.6194705 -0.90225685 0.01623815
000020 e4 a0 35 3e 91 51 57 3f d9 d4 f2 3e fc ff aa 3f
       0.17737156 0.84108835 0.47428015 1.335937
000030 21 8e c0 bf 8c b0 58 bf f2 8e 24 3f fe a6 3e 3f
       -1.5043374 -0.8464439 0.6428062 0.7447356

conv2.weight f4 [32, 16, 3, 3]
000000 05 b1 ba bd bd da 04 bf 59 9b 9d 3e 01 fc 04 3f
       -0.09115795 -0.5189627 0.30782583 0.5194703
000010 70 23 ff 3d c1 9c df 3d 78 b2 e1 be af 92 21 3e
       0.12457931 0.1091857 -0.44081473 0.15778612
000020 ab 35 02 be 8c bc 03 bf da 41 83 3e bb af 0c bf
       -0.12715785 -0.51459575 0.25636178 -0.54955643
000030 35 16 b3 be 33 9e 87 bd 1a 4e 16 3f 77 81 ad 3e
       -0.3497788 -0.06621971 0.58712924 0.33887836
000040 79 58 ed 3e 9c a3 88 bd 1a c8 d7 3e 93 70 17 bf
       0.46356562 -0.06671831 0.42144853 -0.5915615
000050 40 e3 c0 3e 96 cd 17 3f 2b be f8 3d 8a 72 c3 be
       0.37673378 0.59298074 0.12145647 -0.38173324
000060 23 b4 0d 3f bb 9b 31 be 65 fc 9c be b9 d8 00 bf
       0.5535299 -0.17344563 -0.30661312 -0.5033069
000070 f6 cc 2a bf 0d c5 80 3e c0 f8 a3 3d 22 d3 08 3e
       -0.66718996 0.25150338 0.0800643 0.13361791
000080 e6 96 bd bd 0a 30 bf bc 22 16 56 3e fc 33 73 3d
       -0.09257297 -0.023338336 0.2090688 0.059375748
000090 b4 05 86 3d 5d 34 13 3f 44 17 34 3e bb 16 36 be
       0.065440565 0.57501775 0.17587 -0.17782108
0000a0 4e ad 27 bf d1 6c 4e 3e 86 9b a0 3e 0a 6a 9e be
       -0.65498817 0.20158698 0.31368655 -0.30940276
0000b0 b6 3a ae be ca 2c 9a bd 31 3c f6 be 91 c1 aa 3e
       -0.34029168 -0.07528074 -0.48092797 0.33350804
0000c0 b7 f8 e4 bd 7e 67 26 3f 6b eb 9f be 40 01 da 3d
       -0.11180251 0.65001667 -0.31234297 0.1064477
0000d0 ff 64 01 bf 16 c6 2d 3e ba 09 35 be ab 23 83 be
       -0.5054473 0.16970095 -0.17679492 -0.2561315
0000e0 ab 9b b8 3e fa 2b ab 3e e2 a2 02 3f 4d 91 14 3f
       0.36056265 0.3343199 0.5102979 0.5803421
0000f0 01 f3 19 3f 94 f1 40 be fa 57 0c 3f b4 25 24 be
       0.6013642 -0.18842155 0.5482174 -0.16030008
000100 7c 94 e4 be 9c 9a 57 3d db bd 1d bf 8b 51 19 3f
       -0.44644535 0.05263768 -0.6161782 0.5989005
000110 82 9f 0d 3f 06 2e ee be 88 96 d1 3e 0b 77 93 bd
       0.55321515 -0.46519488 0.4093516 -0.0720044
000120 17 ed 6a be 9a 54 1f 3f f5 33 e6 be 61 3f a5 3e
       -0.22942005 0.62238467 -0.44961515 0.32274917
000130 90 e9 a4 be b5 19 c8 3d 88 a0 ba 3d c5 2b 00 3f
       -0.32209444 0.09770528 0.0911265 0.50066787
000140 6c ad 04 3f 60 41 75 3e ad 92 12 3e c0 ae 02 3f
       0.5182712 0.2395072 0.14313765 0.510479
000150 05 98 7a 3e 38 c0 93 be d8 9e 07 3d 72 5c 93 be
       0.24472053 -0.2885759 0.03311047 -0.28781468
000160 a0 0f 1e 3f 3c 21 f4 bb db d5 30 3e 0c 2a 21 bf
       0.6174259 -0.007450251 0.1726908 -0.62954783
000170 01 bb 1b bf 67 bf fe be 7b b3 8e 3e 29 b6 4b be
       -0.6083222 -0.49755403 0.27871308 -0.19893707
000180 0d 10 a5 3e 77 c0 ff 3e 46 a4 87 3e a1 15 56 3c
       0.32238808 0.49951527 0.26492518 0.01306668
000190 f1 69 2d bd fe 29 81 be f1 75 07 bf f4 1b ba be
       -0.04233736 -0.2522735 -0.5291434 -0.36349452
0001a0 f6 0b 09 3f 1c c8 0f bf 04 b7 b4 3c ef cd 09 3e
       0.53533876 -0.5616472 0.022059925 0.13457464
0001b0 06 cf 5e bd 42 c3 7e 3a 88 5a e2 3e 17 ab 0e bf
       -0.05439665 0.0009718427 0.44209695 -0.5572981
0001c0 27 ad 22 3f d3 cf d1 3e c7 4b 20 3f 70 61 12 bf
       0.6354546 0.4097887 0.6261563 -0.5717993
0001d0 fc 91 f5 3d a3 aa 20 3f 29 57 7a 3e 3e 9d 6b 3e
       0.11990735 0.6276037 0.24447311 0.23009202
0001e0 c9 05 ec be e9 8d b5 3e 71 47 06 bf 8c 8c 53 be
       -0.46098164 0.3545983 -0.5245276 -0.20659083
0001f0 21 6f b2 3e 29 50 f2 bd bd a4 4c be 12 96 08 bf
       0.3485041 -0.118316956 -0.19984718 -0.5335399
000200 5c e3 8e be 16 eb 26 3f 51 51 09 3f 9a f7 37 be
       -0.27907836 0.6520246 0.53639704 -0.17965546
000210 57 28 f1 be 2c 6b e2 3d f9 fe ec be 17 dc ee be
       -0.4710109 0.11055598 -0.4628828 -0.4665229
000220 de 32 24 be fe ea 67 be 48 72 88 be e3 36 ad 3e
       -0.1603503 -0.22648236 -0.2664969 0.33830938
000230 24 fb 18 bf 05 7c 27 bf 6c e4 14 bf 9d 2f 14 bd
       -0.5975821 -0.65423614 -0.58161044 -0.03617822
000240 b3 87 b9 3e 5c b4 03 bf 5d 58 20 3f 4f 68 16 bf
       0.36236343 -0.5144708 0.6263483 -0.5875291
000250 ea 27 9a 3d 01 47 09 bf 4e 4d f4 be cb 24 d3 3e
       0.07527144 -0.5362397 -0.4771523 0.41239008
000260 72 12 1b bd 61 2c 9e bd 58 98 bc 3d c3 e2 30 3b
       -0.037859388 -0.07723308 0.09208745 0.002699063
000270 12 9a 71 be 59 7f a2 3e 24 98 f6 3e 76 64 d9 3d
       -0.2359393 0.31737784 0.4816295 0.106148645
000280 8d 00 56 be 00 88 0b 3f 06 7c 1a 3e 6a 65 ad 3e
       -0.20898648 0.54504395 0.15086374 0.33866435
000290 55 b4 a8 be 73 42 46 3e b6 3c b4 3e 68 0a b9 be
       -0.32950082 0.19361286 0.3520257 -0.36140752
0002a0 ba 2f ac 3e 5f ec 14 3f 51 52 1a 3c 8b 2f 0c bf
       0.33630162 0.58173174 0.00941904 -0.54760045
0002b0 1c a1 8b 3d 92 c0 00 bf 15 6d df be 52 21 02 3e
       0.068178385 -0.5029384 -0.4363791 0.12708023
0002c0 fd 6b aa 3e 6f c4 f1 3e e0 cd 0e 3f 17 c9 3a be
       0.33285514 0.4722018 0.5578289 -0.18240772
0002d0 99 80 6a be d0 7b 19 bf db c6 f1 3e 3b 22 cf bd
       -0.22900619 -0.5995455 0.47222027 -0.10113951
0002e0 c1 3e de 3e 9b 26 25 bf 63 34 02 bd f2 51 aa 3e
       0.43407252 -0.6451203 -0.03178824 0.33265644
0002f0 ca 51 78 be 69 f1 cd 3e d4 ae e1 be dc 76 04 3f
       -0.2424995 0.40223244 -0.44078696 0.51743865
000300 b8 b5 a8 be af e8 16 bc da 0e e9 3e 47 72 8f be
       -0.3295114 -0.0092107495 0.45519143 -0.28016874
000310 ab f1 22 bf b3 72 d0 3e 77 27 9c 3d 88 d4 f2 be
       -0.63650006 0.4071251 0.07624715 -0.47427773
000320 80 2e dd be 54 af 9c be 19 60 10 bd e8 89 8e 3e
       -0.4319954 -0.30602515 -0.035247896 0.2783959
000330 bb 06 78 bc a5 1d 21 bf d8 ad d3 3e d7 15 88 3e
       -0.015138323 -0.6293586 0.4134357 0.26579162
000340 23 32 9e be e1 a1 10 bd d7 d9 31 3e 87 0a 0c 3f
       -0.30897626 -0.03531063 0.17368256 0.54703563
000350 41 66 81 3e f2 b4 86 3d 92 2c 54 bb 4f 13 b3 be
       0.25273326 0.06577481 -0.0032375199 -0.3497567
000360 50 95 a1 be 7d 78 d9 3e 1f 3d 72 be 63 56 4e 3e
       -0.3155923 0.42474738 -0.23656128 0.20150141
000370 f6 9e 0f be ab da 04 3f 21 a7 05 bf 28 b9 9a 3b
       -0.14025483 0.5189616 -0.52208143 0.0047217794
000380 98 33 2b be 38 b7 35 3f 70 0a b9 3e f0 95 d8 3e
       -0.167189 0.70982695 0.36140776 0.42301893
000390 01 e5 a1 be 2e 5e b3 3e 30 e1 c9 3e c2 3f 07 3f
       -0.3162003 0.3503279 0.39429617 0.5283166
0003a0 c0 1a 03 bf 1c 15 e3 3d f2 32 f6 bd 0e 25 a2 3e
       -0.5121269 0.11088011 -0.12021436 0.31668895
0003b0 57 80 83 3e 00 0b df 3e ff d5 09 be b7 cc 55 3e
       0.25683853 0.4356308 -0.1346054 0.20878874
0003c0 5a 7d a8 3d fa ec 06 be f4 9b 14 bf ec 7d 31 bd
       0.08227034 -0.13176337 -0.58050466 -0.04333298
0003d0 9b 8e 52 bc 41 b5 37 3d a6 ce 14 be f4 48 a9 3e
       -0.012851383 0.04485059 -0.14531955 0.3306347
0003e0 cd f4 31 3f 4d 62 9d be e3 a0 8c be ed 9e f4 3e
       0.6951416 -0.3073906 -0.27466497 0.477775
0003f0 9f 14 64 be 83 e5 00 3f d9 3d cd 3c a4 c4 8b be
       -0.22273491 0.5035021 0.025053905 -0.27298462

conv2.bias f4 [32]
000000 95 ce 26 bf f1 e1 f0 3e 3c 2b 0f bf 62 ce 17 be
       -0.6515897 0.4704738 -0.55925345 -0.14824823
000010 74 4a 7e be a0 31 1e 3e 38 ad e2 3e 63 a0 d3 bd
       -0.24833089 0.15448618 0.4427278 -0.10333326
000020 f9 ab ca bd 2c 7b ad 3d c6 98 ef be ff 50 0f bf
       -0.098960824 0.08470759 -0.46796244 -0.55982965
000030 37 6f e1 bd b8 d8 25 3e 41 fa 63 be 0d 02 c9 be
       -0.11007541 0.16195953 -0.22263433 -0.39259377
000040 00 5c d2 be 16 6b 92 3e 08 87 d9 be c3 5e 06 be
       -0.41085815 0.28597325 -0.42485833 -0.13122086
000050 ce f7 85 3d 09 5d 17 3f 8c fa 16 3f 4b 2c b0 be
       0.065414056 0.59126335 0.58976054 -0.34408793
000060 41 01 29 3f 81 2e 0f 3e cb a9 bf 3e 3d 2d 1e bf
       0.6601754 0.13982584 0.3743423 -0.6178778
000070 eb ca ed be f3 88 38 3c 18 39 96 bd b3 ec 32 3f
       -0.46443877 0.01126312 -0.073351085 0.69892424

conv3.weight f4 [32, 32, 3, 3]
000000 b4 9e 53 be 41 35 5e 3e 96 e9 94 3d 2b 48 de be
       -0.20666009 0.21700002 0.072711155 -0.43414435
000010 36 c7 ac be 3f 63 e3 3e 77 87 8c be cd de 84 be
       -0.33745736 0.44411656 -0.274471 -0.25951234
000020 d3 bf d2 3e 91 ec b6 3e ff f3 97 3e af bd 8c 3e
       0.41161975 0.3572736 0.29678342 0.27488467
000030 17 11 75 be ab d8 de 3e 8c 85 20 be e7 cb 8d be
       -0.239323 0.4352468 -0.15675944 -0.27694628
000040 51 cd a1 3e 2a b2 97 be 1d b9 30 be 88 90 ce be
       0.31601956 -0.29628116 -0.17258115 -0.40344644
000050 5b 81 bb 3e 7d fa d6 3d c7 41 ac be 47 0c b9 3e
       0.36622128 0.104969956 -0.33643934 0.3614218
000060 c4 27 d5 be 6a e5 42 3e 43 18 99 3e 3c 10 3e be
       -0.416319 0.19032827 0.29901323 -0.1856088
000070 c9 11 a1 3d 6c df aa 3e 47 e2 8a 3d 5f 1d d6 be
       0.078647204 0.33373582 0.0678144 -0.41819283
000080 61 6b 3e bd f1 c6 34 3e 71 5b 6c 3e 26 3e e0 bd
       -0.046489123 0.17654015 0.23081757 -0.10949354
000090 eb f5 b0 bd 83 fd 3b be 99 56 f5 3e a4 9d d6 bd
       -0.08640655 -0.18358426 0.4791763 -0.10479286
0000a0 73 44 a1 bd b7 84 e7 be 9d 76 c9 3b b9 5d 36 3d
       -0.07874384 -0.4521844 0.006148173 0.044522975
0000b0 a7 cd 84 be 57 e3 a8 3e 0d 30 3a 3e 93 fd a4 be
       -0.2593815 0.32985947 0.18182392 -0.32224712
0000c0 d2 2a b2 bd 64 b1 ad 3e 01 05 29 3d 90 88 e1 3d
       -0.086995736 0.339244 0.041264538 0.11012375
0000d0 a7 85 d7 3d 14 93 d1 3e b8 82 8c 3e 0f 85 4f 3e
       0.10523539 0.40932524 0.2744348 0.20265602
0000e0 d4 78 ab 3a 96 61 90 3d de 3b 49 be 55 ae eb be
       0.0013082274 0.07049863 -0.19651744 -0.46031442
0000f0 54 b1 7d 3e 4e fc be 3e a4 1b b7 3d 29 64 4f be
       0.24774677 0.37301868 0.08940819 -0.20253052
000100 0c 2d ad be 8f 7c 8c be 88 4f eb be ae 46 89 3e
       -0.3382343 -0.2743878 -0.45959115 0.26811737
000110 30 98 90 3e 13 7f f4 bd 60 62 be 3e e8 28 af bd
       0.2824111 -0.119383 0.3718443 -0.08552724
000120 1b 75 f9 bd d3 7e b9 3e 8a 57 0d be 15 f9 01 be
       -0.12180539 0.36229572 -0.13802925 -0.12692674
000130 5b 9f d0 3e 9e a9 6b be 55 36 d9 be 4a 74 a3 be
       0.4074658 -0.23013923 -0.42424265 -0.3192466
000140 9d c1 d7 be 53 1c 9c bd 35 e7 33 3e e7 37 b7 3e
       -0.42139903 -0.0762259 0.17568667 0.35784838
000150 6d 42 bd be cf 99 eb 3d 39 45 a3 3e fa 77 96 3e
       -0.3696474 0.11503946 0.3188875 0.2938841
000160 8a d9 86 3e 92 dc ac 3d ac f0 df bd ad 50 5a 3d
       0.26337844 0.08440508 -0.109345764 0.053299595
000170 9e 39 b3 be e3 88 d3 3e f2 cb dd be 0d 1c 9b 3c
       -0.35004896 0.41315374 -0.4331966 0.018934274
000180 1a 99 f4 be 4f 9f 3f be db 77 de be 7e 58 b2 be
       -0.47773057 -0.18713115 -0.43450817 -0.3483314
000190 0d 80 c8 3d 7b b2 83 3e 2b 47 a4 be ca 1e bd be
       0.09790049 0.25722107 -0.32085547 -0.36937553
0001a0 27 0d 12 3e e8 87 28 3e 7d 42 82 3e 7e 9a 02 3e
       0.1426283 0.16458094 0.25441352 0.12754247
0001b0 7c 71 ca 3d 74 52 5e 3e 40 c9 61 be 50 4a a5 3e
       0.09884927 0.21711141 -0.22049427 0.32283258
0001c0 9c f1 88 be f3 45 c7 bd c2 b3 17 bd 78 48 ae 3e
       -0.26746833 -0.09730139 -0.037036665 0.34039664
0001d0 12 6f fe bd 4c be 96 be 45 e4 d9 bd 23 cf d7 3e
       -0.12423529 -0.2944206 -0.10639242 0.4215022
0001e0 7d 95 76 3e d8 b6 b1 be 96 23 28 3e 20 1b 80 be
       0.24080463 -0.3470981 0.16419825 -0.25020695
0001f0 3d 94 c5 be e4 0e 83 bc 5d 30 e5 bd 49 e0 44 3e
       -0.3858966 -0.015998311 -0.11190865 0.19226183
000200 10 ce c0 be 3a f2 a0 3e 60 40 f6 bd 71 91 05 bf
       -0.37657213 0.31434804 -0.12023997 -0.5217505
000210 c8 55 af be a8 ea 0b 3d c0 05 bd 3e de c0 8d be
       -0.34245133 0.034159333 0.3691845 -0.27686208
000220 6a 6d 57 3d 5b 27 40 be dd 51 88 be c5 28 96 bd
       0.05259458 -0.18765013 -0.26624957 -0.07331995
000230 b2 c7 b6 bd 89 18 f6 be b9 e6 27 3e db e3 5c be
       -0.089248076 -0.48065594 0.16396607 -0.21571295
000240 52 11 a0 3d 8e 65 9c bd fb 34 c3 bd 9d cf 95 bd
       0.078158036 -0.076365575 -0.095315896 -0.0731499
000250 d7 22 82 be e3 1e 70 3d 72 2a 10 3e b4 24 6a bc
       -0.25417206 0.058623206 0.14078692 -0.014290977
000260 18 49 09 3c 0a 9c 3e 3e 71 2a ac 3e c5 ab 1b be
       0.008379243 0.18614212 0.3362613 -0.15202244
000270 c4 7f c2 be 1b 17 2b be 43 6f e1 3e 16 b6 15 3e
       -0.37988102 -0.16708033 0.44030198 0.14620242
000280 3a 8b ca 3d 63 f3 93 3e 09 c9 9c be c0 36 97 3d
       0.098898366 0.28896627 -0.30622128 0.073834896
000290 a3 c9 bb 3d 1e 0e b7 3e 48 6c 1a be ba 01 14 be
       0.091693185 0.35752958 -0.15080369 -0.14453784
0002a0 1f 00 1a 3e ff 84 43 3e 50 eb 6e 3c 90 94 82 3e
       0.15039109 0.19093703 0.01458247 0.2550397
0002b0 aa fb 4c be b4 ca d8 3d 97 b0 ac be 03 84 0e 3e
       -0.20017877 0.105855376 -0.33728477 0.13917546
0002c0 48 48 18 be 40 5e bc be bd 26 d0 be f8 a7 c5 be
       -0.14871323 -0.36790657 -0.40654555 -0.38604712
0002d0 5c fb 98 be 8f 56 3c 3d 6d e0 a5 be f4 a5 e4 be
       -0.29879272 0.045980986 -0.32397786 -0.44657862
0002e0 3b e4 9a 3b af 4a 1d bd 02 6c 17 3e 26 a1 ac bd
       0.004726914 -0.038401302 0.14787295 -0.08429174
0002f0 48 c5 a4 3e ac 12 94 3e 58 91 9a 3d de 4e 56 bc
       0.32181764 0.28920496 0.07547253 -0.013080327
000300 c9 d9 d8 be c0 16 e9 bc f5 36 0b be 0b 93 86 3d
       -0.42353657 -0.02845323 -0.13595183 0.06571015
000310 fd 97 eb bd fa f2 4c 3e 9e 5a fb be 0e c2 d4 3e
       -0.11503599 0.20014563 -0.49092573 0.41554302
000320 c0 c0 8e be 4c 47 e0 3d 98 85 8e be 0b 63 af 3d
       -0.27881432 0.10951099 -0.278363 0.08563813
000330 58 99 41 be 98 d8 98 3d ac f4 cc 3e d0 ef 09 be
       -0.18906152 0.07463187 0.4003042 -0.13470387
000340 f4 83 e7 3e 45 34 f3 be 07 52 57 bd 0a 90 97 be
       0.4521786 -0.47500816 -0.05256846 -0.2960208
000350 f9 12 87 bd 04 19 f7 bc 4e 33 73 bd 9e 17 fa bd
       -0.065954156 -0.030163296 -0.0593751 -0.12211536
000360 44 66 ec 3d a1 c5 ad 3e 38 39 8f bc 65 d0 4d be
       0.11542943 0.3393984 -0.017483339 -0.20099027
000370 bd 20 5e bd e6 6e 00 3f ba ee c0 3e ac a0 9b be
       -0.05423044 0.5016922 0.37682134 -0.3039602
000380 81 a2 c3 3d fd 09 4f 3d c8 f9 54 3e c6 fb 95 be
       0.095524795 0.050546635 0.20798409 -0.2929365
000390 7b 8d 83 3e a0 26 3f be 2b 5b 7f 3e ae 02 25 be
       0.2569388 -0.18667078 0.24937122 -0.16114303
0003a0 7e 64 e2 be 2c 0d 94 bd d9 38 e1 3e c3 6a 1e 3e
       -0.44217294 -0.07229075 0.43988684 0.15470414
0003b0 e6 b5 7b be 85 51 1b be eb 2d ab bd c9 ba 60 3e
       -0.24581107 -0.15167816 -0.083583675 0.21946253
0003c0 13 33 b3 be 41 30 2a be 65 ed cc 3e 02 18 7f 3e
       -0.34999904 -0.1661997 0.40024868 0.24911502
0003d0 26 2a 2c 3e d8 40 d3 3c 8b ba b0 3e ef d8 a1 bd
       0.16812953 0.025787756 0.3451732 -0.07902705
0003e0 54 42 9a 3d 26 61 5b be 40 02 cd 3e c1 81 97 3e
       0.07532182 -0.21423778 0.4004078 0.29591182
0003f0 26 38 91 be e8 66 90 be bb 8a bd 3e 82 02 c2 3e
       -0.2836315 -0.2820351 0.37019905 0.37892538

conv3.bias f4 [32]
000000 41 43 81 3d f7 c1 09 3e 6e 8a c7 3d 44 94 f9 be
       0.06311656 0.13452898 0.097432 -0.4874593
000010 47 a1 7b be 0d e1 db bd ec af 7d 3e c0 c8 03 bf
       -0.24573241 -0.107362844 0.2477414 -0.51478195
000020 1a 17 02 be 0c 09 bb 3d ab fd 3f be 9d 63 c6 be
       -0.12704125 0.09132585 -0.1874911 -0.38747874
000030 82 76 a4 bd 07 a4 c3 3e a1 38 84 be 3a 4e ba 3d
       -0.08030416 0.3821108 -0.25824454 0.09096952
000040 48 8f 2e 3e 85 63 ee bc 10 a1 c2 3e 29 22 3b 3e
       0.17046845 -0.029100189 0.38013506 0.1827475
000050 c8 ac 51 3e 80 be c7 be 01 76 b4 bd 53 4f ff be
       0.20476067 -0.39012527 -0.0881157 -0.49865207
000060 53 b3 39 3e 11 e7 14 3e b6 27 c0 be ce d6 67 bd
       0.18134813 0.1454127 -0.37530297 -0.056601338
000070 58 17 66 3e 3c f2 1e be 62 81 cc 3d bc b6 f8 3e
       0.22469842 -0.15522093 0.09985615 0.48576915

fc1.weight f4 [10, 288]
000000 04 e9 df 3d 08 67 21 3d 34 36 73 3e d5 55 51 be
       0.10933116 0.0394049 0.23751146 -0.20442899
000010 a2 28 2e be aa 84 66 3e 54 92 6b 3d 65 e1 1d 3e
       -0.17007688 0.22511545 0.057512596 0.15418012
000020 bf bb aa 3d ba ea a6 3e 6d 7e a7 3e ca fe 70 be
       0.08336591 0.32600957 0.32713643 -0.23534694
000030 00 df dd be 70 4c ef 3b d3 87 50 be 61 73 ea 3e
       -0.43334198 0.007302813 -0.20364313 0.45791152
000040 fe 2c a2 3d ec 61 34 be 18 cd b0 3e 71 07 ce 3e
       0.07918738 -0.17615479 0.34531474 0.40240052
000050 a6 f0 80 be 64 68 8a 3e 08 82 5a 3e 76 b5 9c be
       -0.251836 0.2703277 0.21338665 -0.30607194
000060 49 46 d9 be 95 d8 01 3a dc a6 df 3e c9 1d 0e be
       -0.42436436 0.0004953233 0.4368199 -0.1387855
000070 14 38 c5 3e 8d 28 a5 3e 63 e4 b6 be b8 8c 08 3e
       0.38519347 0.322575 -0.3572112 0.1333493
000080 64 e1 49 bd 08 fe 12 bd 99 71 ba 3e f0 e7 89 3e
       -0.049287215 -0.035886794 0.36414793 0.26934767
000090 4b f7 f0 3d 01 c4 d9 3e f7 91 a6 be 53 b0 c9 3d
       0.117659174 0.42532352 -0.32533237 0.09848084
0000a0 a2 53 80 bd 33 71 2a 3e 1a 3d 9c 3e f0 de 90 be
       -0.06265952 0.16644745 0.30515367 -0.28295088
0000b0 bb e6 65 bd 4e 3a 1b 3e 5a 9e 6a 3e 84 a6 1f 3e
       -0.056128245 0.1515896 0.22911969 0.15590864
0000c0 44 59 25 bd 83 b5 87 3e db c4 07 be 37 87 92 be
       -0.040368333 0.2650567 -0.13258688 -0.28618786
0000d0 e5 51 b0 3d 8e c1 7d 3e 7d 7d d8 be c5 53 49 3d
       0.0860937 0.24780867 -0.4228324 0.049152154
0000e0 53 be 4b bb af de db bd 63 79 78 3e 26 47 98 be
       -0.0031088784 -0.10735833 0.24265055 -0.29741782
0000f0 63 3e 58 be c1 59 27 3e b2 45 b7 be 2e b0 8d be
       -0.21117549 0.16342832 -0.3579536 -0.27673477
000100 f3 39 c8 3c dc 24 fd bd 22 dd af 3e 66 da cb 3e
       0.024441695 -0.12360546 0.34348398 0.39815062
000110 43 5d d1 3e c5 32 83 be 34 a6 ef bd e5 08 22 3e
       0.40891466 -0.25624672 -0.117016226 0.15823705
000120 24 90 b0 3e 17 51 29 3e f4 8f f1 3d d5 b7 8c be
       0.3448497 0.1653484 0.11795035 -0.27484003
000130 7d 34 52 3e e1 6a c3 be b1 4d 25 be 90 24 be bd
       0.20527835 -0.3816748 -0.16142918 -0.092843175
000140 18 00 ed 3d 7a a3 8b 3e da 1d cf 3e c0 c7 87 bd
       0.115722835 0.2727316 0.40452462 -0.06629896
000150 d2 0f d9 3e 5c e7 e2 3e e2 9b c1 bd 84 67 29 be
       0.42394882 0.44317138 -0.094535604 -0.16543394
000160 a2 3a dd bd 0c c9 ca 3e 45 e9 f6 3d 50 fb cf 3e
       -0.10802199 0.39606512 0.120562114 0.40621424
000170 f3 14 7e 3e e1 16 84 be 81 ec 08 be fb 52 ae 3d
       0.24812679 -0.25798705 -0.13371469 0.08511921
000180 e0 62 3c 3e 64 53 6c 3b da d8 9d be 95 7a 97 3e
       0.18397093 0.0036060447 -0.30829507 0.2958571
000190 80 86 c8 3c aa 8b ad 3e 7c 1b d6 3e 39 07 aa 3e
       0.024478197 0.33895618 0.41817844 0.33208635
0001a0 c5 4b 15 3e 61 fa 15 bd d4 1e 5c 3e 48 76 f9 3c
       0.14579685 -0.036615733 0.21496135 0.030451909
0001b0 dd 7d 03 bd f6 0e 03 be c1 38 d7 3e 66 90 88 3e
       -0.032102454 -0.12798676 0.42035487 0.26672667
0001c0 12 7b d1 3d 8d de ed be cc 42 c0 be da 74 9b be
       0.10228552 -0.46458855 -0.37550962 -0.30362588
0001d0 bd c5 c6 bd e8 20 cd 3d a7 fe bb 3e f9 6e 8f 3e
       -0.09705684 0.10016042 0.36717722 0.28014353
0001e0 60 6f 7c 3e b0 60 87 be 28 dd a2 3d 3a 57 b0 3e
       0.24651861 -0.26440954 0.079523385 0.3444155
0001f0 c5 b4 80 be 26 2e 75 3e fc 19 a3 be 5d 7d ce 3d
       -0.25137916 0.23943385 -0.31855762 0.10082505
000200 2f 96 25 be cd 41 0a be 04 3a 4c 3e 45 30 60 3e
       -0.16170572 -0.13501664 0.19944006 0.21893413
000210 df 52 da 3d 2d eb d5 bd c3 f3 16 3e 50 bf 9e 3e
       0.10660338 -0.10445247 0.14741425 0.31005335
000220 ba 25 d4 3e b0 d9 88 3e 77 07 bb 3e 2f 5d 11 bd
       0.41435033 0.26728582 0.36529133 -0.035489257
000230 bb fc c8 be f7 0b b3 3e 51 a0 84 3e 92 ec 79 3e
       -0.39255318 0.34970066 0.25903562 0.2440665
000240 f1 d2 b4 be 4a 4a 73 3e cc 4a 34 3e 0d a3 69 3c
       -0.35317186 0.23758808 0.17606658 0.014260066
000250 3d e3 74 3e 8d a5 77 3c 78 4a 0a bd ed f1 2b be
       0.2391481 0.015115154 -0.033762425 -0.16791506
000260 0e f1 ee 3e 15 37 4d 3e 14 a8 91 3e 70 6e 93 be
       0.46668285 0.20040543 0.28448546 -0.28795195
000270 80 16 cb be b3 b0 4b 3d 62 84 92 3e 5a 5c a3 be
       -0.39665604 0.04972906 0.28616625 -0.31906396
000280 33 20 98 be 39 29 3e 3e a8 32 ab 3d 8a 62 d4 3c
       -0.29712066 0.18570413 0.08359271 0.025925893
000290 1f 93 97 3d af a9 2f bd dc 4d 53 3e 7a 9c 78 3d
       0.07401108 -0.042886432 0.2063517 0.060696103
0002a0 31 12 4c be 3a bd 04 3e b4 dd 01 3e 71 7a 2a 3e
       -0.19928814 0.12962809 0.1268223 0.1664827
0002b0 d0 ca 86 be 4f 1b 9b 3e 35 02 ad bb d6 e3 8c be
       -0.2632661 0.30294272 -0.005279804 -0.27517575
0002c0 22 70 b5 3d 9f 72 7c 3e c4 18 ec bd 3d 5b ec 3e
       0.08859278 0.246531 -0.11528161 0.4616336
0002d0 a5 48 08 bc 81 35 18 3e 37 dd b3 3e cc fa 3c be
       -0.008318101 0.1486416 0.3512971 -0.18455046
0002e0 1a ce d6 3d 20 78 67 be 7c 41 28 3e 06 90 ef 3e
       0.104885295 -0.22604418 0.1643123 0.4678957
0002f0 c8 ce b5 3e cf a6 1c 3c db 39 aa be 6c 9d b7 be
       0.35509324 0.009561255 -0.33247265 -0.3586229
000300 e8 1f bf be 32 6e 2f 3e bb 3b a9 3e d2 2b ce ba
       -0.3732903 0.1713188 0.33053383 -0.0015729612
000310 8f c2 d4 be 01 77 c5 be 5a 90 84 bd e6 2c a4 be
       -0.41554686 -0.38567355 -0.064728454 -0.32065505
000320 f8 c3 8a 3e 9b 88 db bc 1a e5 bb 3d ee ea 85 3e
       0.27102637 -0.026798537 0.09174557 0.261558
000330 7a 18 ce bb 0d 33 c8 be a0 dd 02 3e 34 94 72 3e
       -0.006289539 -0.3910145 0.12779856 0.23689348
000340 c2 cf 80 be a6 4d 5a 3e a6 aa ed be 6c 0a 47 3e
       -0.25158507 0.21318683 -0.46419257 0.1943757
000350 59 0e a7 3e f8 21 ae 3e cf ee 17 be 8d d2 4f 3c
       0.32628134 0.3401029 -0.14837192 0.012684477
000360 9a 44 aa 3e 35 61 28 be 05 3e c7 3e fe cf 7b 3e
       0.33255464 -0.16443332 0.38914505 0.24591061
000370 78 dd dc bd a8 e1 a9 be 12 6a 23 3e d4 19 2f 3d
       -0.10784429 -0.33179975 0.15958431 0.04274924
000380 46 d0 10 be 6a 0c ec be 98 9f c6 3c df 62 fd bd
       -0.1414195 -0.4610322 0.024246022 -0.12372374
000390 1c cb 82 3e 98 58 cb 3d aa 69 62 be d9 a7 e2 bc
       0.25545585 0.09929007 -0.2211062 -0.027667927
0003a0 a9 91 48 3d 54 53 d8 3e e6 cf b7 3e 6d e3 c3 3e
       0.048967037 0.42251074 0.359008 0.3825945
0003b0 a2 4e 8c be 82 a2 b3 bc 52 f4 0a 3c dd 38 7d 3e
       -0.27403742 -0.021928076 0.008481102 0.24728723
0003c0 de 5d 59 3e 12 73 82 be 6c 71 af 3e 32 a1 9b be
       0.21227214 -0.25478417 0.34266222 -0.3039642
0003d0 9d ce be 3e 82 4c ec 3d d4 2e ab bd b2 25 ae 3e
       0.37267008 0.1153803 -0.08358541 0.34013134
0003e0 8e c8 a0 be 59 d0 cb 3e 67 64 24 3e 88 42 c9 be
       -0.3140301 0.39807394 0.16053925 -0.39308572
0003f0 66 2e 97 3c b3 6f 44 be 27 8f f9 3c e8 e6 dd 3d
       0.018454742 -0.19183235 0.030463768 0.108350575

fc1.bias f4 [10]
000000 90 af ef be 60 2d cc be c2 ad b1 bd eb d7 8f bc
       -0.4681363 -0.39878368 -0.0867572 -0.017559012
000010 4b 05 47 be b1 e0 c1 3c f9 54 bb be 0d 5c 2a be
       -0.19435613 0.023666712 -0.36588266 -0.16636677
000020 e1 42 cd be f3 4f 48 be
       -0.40090087 -0.19561748
