sandbox/snapshots3/model-2448.pt (torch, 71725 bytes, 8 tensors)

conv1.weight f4 [16, 3, 3, 3]
00000000: ba88 113f 68b9 96bf 9259 9e3f b0a4 9fbe
00000010: fffb 463f c0cd a53f abde fcbe f13c 413e
00000020: f98b b03f 8968 453f b1d4 ecbe 6843 973f
00000030: 8eb8 3cbf 8e12 65be 951b 513e bebd 4d3f
00000040: b358 aabf e5ce 27bf e50a 85be d00c 94bf
00000050: 7d0d d83e 4c88 97be 1fec 393f 5424 863f
00000060: af50 54bf 8f47 84bf 56a1 653e f133 6e3f
00000070: c310 1dbf 5b5d 31be 4f36 b5bf 8422 813f
00000080: d131 35bf 5ec2 58be d5d3 5c3e e29d a73f
00000090: dc62 293f 0a88 753f 4bbe 943f b2c2 643f
000000a0: 57db 8e3f 75f1 a63f c576 a73e 6e58 9abf
000000b0: 613f 25bf 3bd0 bdbe f24f 85bf 726a 8f3f
000000c0: c161 d43e 26fb 8a3f 9b3a 913f ac1c a83e
000000d0: eaf4 89bf 4253 1cbf 30fc 3ebf 4fb4 3a3e
000000e0: dc1a 303f e81d 073f 20cd 9c3f dece 8abe
000000f0: 1122 c53e bd47 b9bf 2183 bc3f 94a0 7cbf
00000100: 3895 b5bf 0a78 43bf 7cca a93f 5c43 463f
00000110: 20e7 493e 8560 89bf 4200 a43e be7d b3bf
00000120: 6013 88bf e483 3b3f 0967 a13f 7e39 323e
00000130: 145d 04bf 3c76 103f 1543 923e 74fe debe
00000140: 8df8 673f e41c 65bf cd31 963e abd0 9bbf
00000150: a7c6 753f c811 6f3e 06e1 4bbe 9d99 b9bd
00000160: 9e2c 40be 852a 523f 14d2 91bd 26d6 b03e
00000170: add3 3e3f 67e7 8f3e 2293 b0bf b3a6 49bf
00000180: bfa3 2abf 99c5 bdbe 71d3 0bbf 8ebf 813f
00000190: be6e da3e b720 6ebf f1c1 173f 742c 563f
000001a0: 7d02 b03f e50d 35bf 87c8 ff3e 4ef0 cc3f
000001b0: 6b75 993f cea7 fbbd bc20 573f 3a12 403f
000001c0: 16a0 bdbf 7e3d 2abf a6f0 8e3f ee15 8bbf
000001d0: f670 35bf dd5d 133f e013 77bf 01a8 a33f
000001e0: fc01 27be 6d67 2fbf 5b1f 5bbf 5145 a5bf
000001f0: b385 b2bf ff7b 823f 8a7e fb3d 1d0d 413e
00000200: 76b9 c03e 9ea4 0a3f 5b33 ab3f 20a2 0ebd
00000210: dd5c 65bc e579 20bf a19e e5bd d1d7 9a3f
00000220: 0fbe f03e 2a5c aebf a52a 5f3e 91bc bbbf
00000230: 4b08 403f 4774 163f 19b2 79bf 3ede 89bf
00000240: 3283 87bf 8f93 073f 6854 02be f655 593e
00000250: ed7e 623f 056e b43f c585 a5bd 19ca 76bf
00000260: 2082 8ebe ab3d 2cbf 6dbe 90bc 2d77 babf
00000270: d27f b83f 0d6b b03f abc9 443f 22d4 a4bf
00000280: 1328 10bf 1acd f3be 1aba 84bf ed5d 4b3f
00000290: 914e 823f 5bc8 bebf d7ce ab3f de57 8b3f
000002a0: 49c1 b13f 02d2 bc3f ecb3 87bf 85f7 1dbf
000002b0: f8f4 b0bf 400b 8d3f 9b47 17bf cd2e dabe
000002c0: 9610 9d3f a1a1 8bbd 076c 62bf 1868 90bf
000002d0: e537 2ebe 3257 74bf 69b2 1e3f 97af 71bf
000002e0: 8d7e a53e 18e4 3abf 1e90 05bf 5a11 96bd
000002f0: ae26 73bf 76c2 b83f 334c a2bf 158d b73f
00000300: 8565 913f 5734 17bf 74d1 c7bf a82d 0ebf
00000310: 1fbc ac3f c595 943e f684 89bf c50a 8ebe
00000320: d64b 903f 1f36 6c3f 0646 913f 2940 b63f
00000330: bdc1 9f3f ee68 cc3d 4ff3 1dbe c005 ad3e
00000340: c65c c7bf 183c b1bf 97f4 df3d 0d4d c1bf
00000350: 739f 8bbf 9f92 9f3f 0aa0 e9be dc84 753f
00000360: b609 003f 1aa4 9f3f aef1 4fbf 84c8 613f
00000370: 0d48 bb3e 5092 9fbf 801e a8bf 595e b13f
00000380: 9585 77bd 72e2 92bf c7ef 7cbf 9a0e 92bf
00000390: 9dc1 593f 48df 6ebf 52d6 4dbf ee41 9b3f
000003a0: 212e 9ebf d97f 183e 0798 953e 6c6e 023e
000003b0: 302e 84bf ce37 323f 279d 9cbf 45c7 ad3f
000003c0: 819e 133f 1408 b2be e90f b13f 33c2 9abf
000003d0: ad2d 8e3f 7ea5 1cbf 0c52 013f 8f7a de3e
000003e0: 48ac ba3d 0399 ab3f 6df1 8bbf b083 553e
000003f0: 2a33 09bf 8461 10bf ef3e 8f3f c440 53bf
0.56849253 -1.1775331 1.2371085 -0.31180334 0.77728266 1.2953415 -0.49388632 0.18870904
1.3792716 0.77112633 -0.4625602 1.1817446 -0.7371911 -0.2237036 0.20420678 0.8036765
-1.3308319 -0.6555007 -0.25984874 -1.156641 0.4219779 -0.29596174 0.7262592 1.0479836
-0.82935613 -1.0334338 0.22424826 0.93048006 -0.613537 -0.17320769 -1.4157199 1.0088658
-0.7077914 -0.21167895 0.21565183 1.3095057 0.6616647 0.95910704 1.1620573 0.8935958
1.1160687 1.3042437 0.327078 -1.2058237 -0.64549834 -0.3707293 -1.0415022 1.120436
0.4148083 1.0857894 1.134601 0.32834375 -1.0777867 -0.6106454 -0.7460356 0.18232845
0.68790984 0.5278001 1.2250099 -0.27110952 0.38502553 -1.4475018 1.4727517 -0.9868252
-1.4186163 -0.7635504 1.3264918 0.7744653 0.19717073 -1.073258 0.32031447 -1.4022748
-1.0630913 0.73248124 1.2609569 0.17404744 -0.51704526 0.5643041 0.28566805 -0.43553507
0.90613633 -0.8949721 0.2933487 -1.2173055 0.96006244 0.23346627 -0.19910058 -0.090625025
-0.1876702 0.8209613 -0.07120147 0.34538382 0.7454174 0.28106233 -1.3794901 -0.7876999
-0.66656107 -0.37064818 -0.5461951 1.0136583 0.42662615 -0.9301867 0.59280306 0.8366158
1.3750759 -0.70724326 0.49957678 1.6010835 1.1988958 -0.122878656 0.84034324 0.7502781
-1.4814479 -0.6650008 1.116719 -1.0866067 -0.7087549 0.575651 -0.965147 1.2785646
-0.1630935 -0.6851719 -0.8559472 -1.2911779 -1.3947052 1.0194091 0.12279995 0.18852659
0.37641495 0.54157436 1.3375047 -0.034822583 -0.013999191 -0.62685996 -0.11211897 1.2097112
0.47020003 -1.3621876 0.21793611 -1.4666921 0.75012654 0.58771175 -0.9753738 -1.0770948
-1.0586913 0.5295953 -0.12727511 0.21224198 0.88474923 1.4096075 -0.08082155 -0.96402127
-0.27833652 -0.672816 -0.017668927 -1.456762 1.4414008 1.3782669 0.7687022 -1.2877238
-0.5631115 -0.47617418 -1.0369294 0.79440194 1.0180227 -1.4904894 1.3422498 1.088619
1.3887111 1.4751589 -1.0601783 -0.6170581 -1.3824759 1.1019058 -0.59093636 -0.4261383
1.2270687 -0.06817938 -0.88446087 -1.1281767 -0.1701351 -0.9544555 0.6199098 -0.94408554
0.32323113 -0.73004293 -0.5217303 -0.07327528 -0.94980896 1.4434345 -1.2679504 1.433993
1.1359106 -0.5906424 -1.5610795 -0.55538416 1.349491 0.29020515 -1.0743701 -0.27742592
1.1273143 0.9227008 1.1349494 1.423833 1.2480999 0.09980951 -0.15424846 0.3379345
-1.5575187 -1.3846464 0.10935324 -1.5101639 -1.0908035 1.246662 -0.45629913 0.9590585
0.5001482 1.2471955 -0.8122815 0.8819659 0.36578408 -1.2466526 -1.3134308 1.3856918
-0.060430128 -1.1475356 -0.9880337 -1.1410706 0.85061055 -0.9330945 -0.8040515 1.2129495
-1.2357827 0.1489252 0.2921755 0.12737435 -1.0326595 0.696164 -1.2235459 1.3576437
0.5766373 -0.34771788 1.383298 -1.2090515 1.1107689 -0.6119002 0.5051582 0.4345288
0.09114891 1.340607 -1.0933052 0.20851016 -0.53593695 -0.563988 1.1191081 -0.825207

conv1.bias f4 [16]
00000000: c65b a23f 4224 87bf 33b9 f53e 325f abbf
00000010: ca74 e03e e898 203f 39b1 72bf f836 bc3c
00000020: 7ca0 4b3e 40fe 513f fa5d e73e 353e a83f
00000030: aea5 c0bf cd45 55bf 4116 343f 2de5 353f
1.2684257 -1.055794 0.47992858 -1.3388426 0.43839103 0.62733316 -0.9480167 0.02297543
0.19885439 0.8202858 0.45188886 1.3143984 -1.5050561 -0.8330963 0.70346457 0.7105282

conv2.weight f4 [32, 16, 3, 3]
00000000: 874d b6bd cc10 06bf a003 9d3e f9f1 033f
00000010: b023 e93d a610 b23d 4ad0 efbe 9fbb 143e
00000020: 7218 22be b29a 03bf 6f57 883e 41a5 06bf
00000030: 79b4 b9be 8d1b afbd 43c2 0e3f 8657 973e
00000040: 61e3 e13e a3f9 debd 8268 d93e ed07 13bf
00000050: bc4f c73e 3ac5 173f fe6c cf3d 14a7 d6be
00000060: 2950 073f 67a0 3fbe cd56 a9be fc15 fcbe
00000070: 28a7 28bf 04f4 813e 3afd 793d eedc 103e
00000080: 761d f1bd 0cfe 20bc ae3a 3c3e edee 143c
00000090: 1502 103d 0ea1 103f 6607 183e 2208 19be
000000a0: 5b02 26bf 0af1 753e 07bc 9e3e 18b8 abbe
000000b0: 5653 abbe 27e9 d4bd 7b09 f7be 48e2 b33e
000000c0: 616f f4bd debb 243f 35b8 9abe f3d6 883d
000000d0: 3092 09bf bd7b 223e 9684 26be a100 65be
000000e0: ace6 bb3e bfba b23e 5d32 023f be57 163f
000000f0: 55c3 113f afd0 4abe 0b3a 0d3f fbb8 40be
00000100: 1505 e3be ea8f 473d 1e02 24bf 1f43 133f
00000110: 8da4 083f 6b3f f5be ea60 ca3e 556a a0bd
00000120: 695e 7bbe c976 223f 6dc9 edbe b2f0 9f3e
00000130: c3fe aebe 123c d93d 5ec6 d63d 9eb2 063f
00000140: b7a4 083f cf63 5a3e 37c2 083e 2243 023f
00000150: 38f4 8b3e bee6 97be b9f3 2c3d c1c8 93be
00000160: 0b68 1a3f b812 5c3c 6ce6 3c3e 61d2 26bf
00000170: 417b 1bbf 9a7d 02bf 2cca 923e 364e 50be
00000180: fecb 993e f3d8 f63e f21e 6c3e 2a52 acbb
00000190: d388 78bd 47a1 8abe 6571 0abf c1a2 c9be
000001a0: d55a 043f 25d5 16bf ca72 f43b ac12 c93d
000001b0: 6604 60bd f011 803a e88f e33e 3c6e 0fbf
000001c0: 0790 233f 93f0 d23e a72e 213f b02f 13bf
000001d0: ab87 eb3d 4583 203f 6378 893e 807e 763e
000001e0: e128 e4be edbe b73e 8488 01bf 28df 6fbe
000001f0: ed93 a73e 39be 15be dc84 50be 4a92 0dbf
00000200: da73 8fbe 439b 253f 340c 113f 34c9 3abe
00000210: 1b96 fdbe 0f2d bd3d 3560 fbbe 3f0d f5be
00000220: d0bf 25be b7a8 72be df51 94be f99d a43e
00000230: 4652 20bf 351f 2bbf 036c 17bf bc91 23bd
00000240: 5864 b33e 69a8 08bf edc8 183f ac72 1bbf
00000250: 601b 733d 2816 16bf 12b9 05bf 0f2c c73e
00000260: abbe 97bd 3469 9bbd 7c0d e53d 2197 b73c
00000270: 8609 69be 5d30 ae3e 9ad3 fe3e 3a9c f83d
00000280: 365b 46be 3846 103f fe98 113e 0e31 af3e
00000290: 97c0 babe 16d6 303e 7165 b73e 474d d0be
000002a0: 1954 a63e 0246 0b3f b2d2 2cbd bdea 1ebf
000002b0: b906 113d d113 0cbf 239c 03bf ef8a a93d
000002c0: dbd1 9d3e 0ce5 dd3e 4c83 013f 2731 5abe
000002d0: 0b1c 95be ee46 29bf 3619 e03e e4fa 42be
000002e0: 5d7b eb3e 4d9f 24bf 887b aabd a617 d03e
000002f0: 1b93 68be 79f4 aa3e 9ff5 03bf b8e3 eb3e
00000300: ad6a d2be f665 73bd 96d7 d83e 1e90 9fbe
00000310: 54c3 25bf b662 d63e 00fb 133e 0169 dfbe
00000320: 8590 d2be ab09 8cbe 6141 88bb 073e 8e3e
00000330: 14fa 2a3d 215b 22bf 9f4b e83e da08 873e
00000340: 9876 a6be 9575 2ebd d0a5 313e ce21 0e3f
00000350: 496e 793e dcb5 a03d 2ed1 99bc 0e9d c5be
00000360: 726c aebe bb14 d73e a24b 86be 2c11 3c3e
00000370: 93be 37be 080c 0a3f 496c 0bbf bb79 3dbc
00000380: 0477 3fbe a61f 283f d852 8b3e 1c14 b83e
00000390: 0758 e1be 6048 8e3e e582 9a3e e7d3 083f
000003a0: a87d 1abf 5ab6 493c 4ef7 12be 6f3e a03e
000003b0: 814e 7a3e e6dd db3e 88e8 15be dc96 503e
000003c0: f0d9 8e3d 80d4 0ebe 1291 17bf 925c a8bd
000003d0: cb5a 1fbd 0060 313c 6e20 35be be71 9d3e
000003e0: 5f83 2a3f 14b3 a3be 513c a2be d127 e23e
000003f0: 334c 45be 3342 053f 4265 633d 83de 87be
-0.08901506 -0.5236938 0.30666828 0.51541096 0.1138376 0.08694582 -0.468386 0.14524697
-0.15829638 -0.5140792 0.26629207 -0.5259591 -0.36270502 -0.08550177 0.5576517 0.29558963
0.4411879 -0.10887458 0.42462546 -0.5743397 0.3892802 0.5928532 0.101282105 -0.41924345
0.5285669 -0.18713532 -0.33074036 -0.49235523 -0.6588006 0.25381482 0.06103251 0.14146778
-0.11773197 -0.0098261945 0.1838176 0.0090901675 0.035158236 0.5649575 0.14846572 -0.14944509
-0.64847344 0.2401773 0.31002828 -0.3353889 -0.33462018 -0.10396033 -0.4824942 0.35133576
-0.11935306 0.6434916 -0.30218664 0.06681623 -0.5373869 0.15867515 -0.16261515 -0.22363521
0.36699426 0.349081 0.508581 0.58727634 0.5693868 -0.19806169 0.5516669 -0.18820564
-0.44339815 0.04872123 -0.6406573 0.57524294 0.53376085 -0.47899947 0.39527065 -0.07832781
-0.24547733 0.634625 -0.46442738 0.31238323 -0.34178743 0.10607161 0.10487054 0.526163
0.53376335 0.21327136 0.13355337 0.50883687 0.27334762 -0.2966823 0.04222462 -0.288641
0.60315007 0.013432197 0.18447274 -0.6516476 -0.60734946 -0.509729 0.2866987 -0.20342335
0.30038446 0.48212394 0.2305868 -0.005258818 -0.06067736 -0.2707617 -0.54079276 -0.39381984
0.517011 -0.5891898 0.007459973 0.098180145 -0.054691695 0.0009770971 0.4444573 -0.5602758
0.63891643 0.4119917 0.6296181 -0.5749464 0.11500486 0.627003 0.2684966 0.24071693
-0.44562438 0.35887852 -0.5059893 -0.23424971 0.32730046 -0.14623345 -0.20363182 -0.55301344
-0.28018075 0.64690036 0.56659245 -0.18240815 -0.49528584 0.0923711 -0.49096838 -0.47861668
-0.16186452 -0.23697172 -0.28968713 0.32151774 -0.6262554 -0.66844493 -0.5914919 -0.039933905
0.35037494 -0.53381974 0.5968159 -0.6072185 0.05935228 -0.5862756 -0.5223552 0.38900802
-0.07409414 -0.07588425 0.111842126 0.022410931 -0.22757539 0.34021273 0.49770814 0.12139173
-0.19370732 0.56357145 0.14218518 0.34217113 -0.3647506 0.17269167 0.3581958 -0.40683958
0.32486036 0.544037 -0.042193122 -0.6207693 0.0354068 -0.5471774 -0.5141012 0.082784526
0.3082417 0.4333881 0.5059097 -0.21307813 -0.29122958 -0.66123855 0.43769234 -0.1904102
0.45992556 -0.64305574 -0.08324343 0.40643042 -0.22712366 0.33389643 -0.51546663 0.46072173
-0.41097012 -0.05942341 0.4235198 -0.3116464 -0.6475117 0.41872185 0.14451218 -0.436348
-0.41125885 -0.27351126 -0.0041581844 0.27781698 0.0417424 -0.634203 0.45370194 0.2637394
-0.32512355 -0.042592604 0.17348409 0.5552033 0.24358477 0.07847187 -0.018776502 -0.38596386
-0.34067112 0.42008004 -0.26229578 0.18365926 -0.17943792 0.5392461 -0.54462105 -0.011564667
-0.18697745 0.6567329 0.27211642 0.35952842 -0.44012472 0.27789593 0.3017799 0.5344834
-0.60347986 0.012311542 -0.14352152 0.31297633 0.2444401 0.42942733 -0.14639485 0.20370048
0.06975162 -0.1394825 -0.59205735 -0.082207814 -0.038904946 0.010826111 -0.17688152 0.3075084
0.66606706 -0.31972563 -0.31686643 0.44171003 -0.19267349 0.52054137 0.05551649 -0.2653695

conv2.bias f4 [32]
00000000: a5c4 2bbf 91b3 d73e dc74 0cbf e147 12be
00000010: be86 88be 6315 053e 3b54 ea3e da46 e2bd
00000020: ca25 aabd 8d17 8e3d 6ba8 dcbe beb0 0ebf
00000030: 55d5 bbbd 807c 0f3e 1ed5 5fbe fa8e ecbe
00000040: 18f4 c7be 8b6c a23e 6cbe ddbe 9c3c efbd
00000050: d8b1 a43d d0cb 193f d27f 1c3f 38b4 babe
00000060: 9b50 283f 3d36 393e c7e2 d13e bfd3 15bf
00000070: f58b f5be 4365 79bb dc17 90bd 3bd1 333f
-0.6709693 0.42129186 -0.54865813 -0.14285232 -0.266653 0.1299644 0.45767388 -0.1104867
-0.08307989 0.06938086 -0.43097243 -0.5573844 -0.09171549 0.14012337 -0.21858642 -0.46202832
-0.39053416 0.31723437 -0.43309343 -0.11681482 0.080417335 0.6007662 0.6113254 -0.3646562
0.65747994 0.18087097 0.4099333 -0.58526224 -0.4795834 -0.0038054741 -0.07035801 0.70241135

conv3.weight f4 [32, 32, 3, 3]
00000000: e450 1abe a16a 5f3e 1093 9b3d 5f1d e1be
00000010: 0679 b1be 9f98 e43e 8bca 90be 6d98 85be
00000020: 93e0 d33e f6f8 b73e 366c 9a3e 8d32 8f3e
00000030: e1bb 70be 0bd8 e13e ee5e 25be e709 88be
00000040: 9013 a63e aaf4 9bbe dca6 32be f140 d0be
00000050: 3645 bd3e 9e45 ce3d 5a8c aabe eb42 c13e
00000060: 44ec d5be 9649 403e 3719 9b3e b0b2 2dbe
00000070: b0e4 d03d ca8f b23e b32a 9a3d 2e02 d9be
00000080: af2b 80bd aba4 313e 5b29 693e b867 f7bd
00000090: 1099 b7bd 25d9 32be ae76 e63e 73ff 58bd
000000a0: 4c56 cbbb e18b eabe 1921 053b 92ae 873c
000000b0: e0f2 6abe ca75 a83e 6a59 353e 4edd aabe
000000c0: c645 ddbd 6dbf b63e f784 b63c 0fa9 c73d
000000d0: 26ff d03d 399f e43e 4147 8e3e 9438 583e
000000e0: d3cd 0cba 0092 933d 4f59 4abe cede ecbe
000000f0: 0856 7e3e a9e5 bf3e c6fd b63d e984 50be
00000100: 8924 aebe 2f36 8dbe 8899 ecbe 4e00 8a3e
00000110: 7066 913e 13c9 f5bd 806e bf3e 6820 b0bd
00000120: 9413 ffbd 135f ba3e a317 fdbd bfe0 01be
00000130: 2ebf d13e 59a3 6cbe bade d7be 9118 aabe
00000140: 80ec dbbe b77d 98bd a55f 253e 1082 c33e
00000150: f28d b0be 58f4 e63d 4d16 ab3e 02d7 963e
00000160: 1de9 843e 694c 993d 0600 ccbd a6a3 883d
00000170: a72f b1be 8fd6 d93e 3058 debe 513e db3c
00000180: 147c f0be 78e8 39be 3203 e0be f0a5 aebe
00000190: a3f9 f23d 620f 843e 31e0 a8be d385 c6be
000001a0: b3fb 123e 25ad 293e fcf9 833e 0bb8 0b3e
000001b0: 1998 e53d 1237 6e3e 2e2c 5dbe e700 a73e
000001c0: 6efb 86be 0118 b7bd 54c1 fabc 202a b23e
000001d0: f84f f0bd 4d39 9bbe 198a f2bd 5a83 d23e
000001e0: bd3c 7f3e 7276 b1be deae 2e3e c21b 80be
000001f0: 9197 cabe 28ca 1abc a470 c2bd 3596 5e3e
00000200: 78cb bbbe e2ca ab3e 25dd c2bd a238 01bf
00000210: d74a a5be b577 473d 2024 c03e 971a 92be
00000220: 1e39 633d b717 3abe b1c9 83be 20ef 8ebd
00000230: 4f9c b1bd 4761 f2be 51e4 263e ce8b 4dbe
00000240: 17d8 983d 0b6a a1bd 55b8 bcbd 1ce2 8abd
00000250: d91d 81be 8f3e 793d e3ac 153e 9dfd 26bc
00000260: 1b0c 6b3c a5e8 563e 4295 b63e 781e 17be
00000270: 919e b9be 3ccf 1abe fb25 df3e e1c2 273e
00000280: 3338 e23d fba6 9b3e 878d 9abe 2fb5 b53d
00000290: 6fe4 d23d 1459 ba3e 29ff 0ebe a7b8 17be
000002a0: b626 243e 8c96 3f3e 0234 6a3c 0c54 7c3e
000002b0: f938 44be d134 be3d 1188 b3be cf2c 0c3e
000002c0: f9a6 1bbe b027 c4be 0b01 debe a068 cfbe
000002d0: 491a 99be 80dc 383d ff9c a6be 973b e4be
000002e0: fdfb c83b a3c7 13bd 5125 183e 94c6 aebd
000002f0: 0f08 a73e a9d3 973e 7d3b 933d 2e0b b6bc
00000300: b160 d7be e465 77bc 1885 02be 0393 883d
00000310: e19a d7bd 8a09 5c3e b1d0 f7be 69b5 d93e
00000320: 9437 87be eed8 c73d 96ac 88be 7430 e03d
00000330: 6da0 44be 3d8a bc3d 39db cc3e a68e 02be
00000340: 8bf9 e83e fde7 f0be 783a 88bd 87eb a8be
00000350: a600 b7bd 6f7e ecbc a3a1 7fbd 0d84 fbbd
00000360: 4bfe 083e c625 c13e 2f71 02bd f610 4fbe
00000370: e4fc 05bd 6ec2 ed3e 2577 bf3e 740c a1be
00000380: db38 fe3d 5cab 663d 8d93 563e c49a 94be
00000390: 7629 873e d384 39be d6e0 833e 6692 1ebe
000003a0: 99e7 e1be e89b 83bd 297d e33e e10c 263e
000003b0: 3cad 7bbe 182a 1dbe 6012 9cbd 4636 643e
000003c0: 68e5 b6be e8b8 28be 0154 d23e f113 7d3e
000003d0: 060a 283e 9a47 553c aac3 b03e a47d aebd
000003e0: 7de7 ae3d ff95 56be 290b cc3e 2956 963e
000003f0: 2274 93be 1b9a 97be 543b c13e 4d04 c93e
-0.1506992 0.2181802 0.07596409 -0.4396772 -0.34662646 0.4464769 -0.28279528 -0.26092854
0.41382274 0.3593213 0.30160683 0.27968255 -0.2350917 0.4411014 -0.16149494 -0.26570055
0.324368 -0.304601 -0.17446464 -0.40674546 0.36966866 0.10071872 -0.33310205 0.37746367
-0.4178182 0.18778071 0.30292675 -0.16962695 0.10199869 0.34875327 0.075276755 -0.42384475
-0.06258332 0.17347972 0.22769682 -0.1208033 -0.08964741 -0.17465647 0.4501242 -0.05297799
-0.0062053557 -0.45809844 0.0020313917 0.016562734 -0.22944212 0.32902366 0.1770989 -0.33371967
-0.10804324 0.3569292 0.0222802 0.09749042 0.10204916 0.44652727 0.27788737 0.21115333
-0.00053712464 0.07205582 -0.19760631 -0.46263736 0.24837506 0.37479904 0.08935122 -0.20363201
-0.3401225 -0.275804 -0.46210885 0.26953357 0.28398466 -0.120012425 0.37388992 -0.08599931
-0.12454906 0.3640066 -0.12358024 -0.1268339 0.4096617 -0.23109187 -0.42162114 -0.33221868
-0.42953873 -0.07445853 0.16149767 0.38185167 -0.34483296 0.112770736 0.33415452 0.29460913
0.259591 0.07485277 -0.09960942 0.066718385 -0.34606668 0.42546508 -0.43426657 0.026763113
-0.46969664 -0.18155086 -0.43752438 -0.34110975 0.11864021 0.25792986 -0.32983544 -0.38773975
0.14353828 0.16569956 0.2577666 0.13644426 0.11210651 0.23263195 -0.21598884 0.32617876
-0.263637 -0.08940125 -0.030609764 0.34797764 -0.11734003 -0.30317155 -0.11842746 0.41115838
0.24925514 -0.3466068 0.17058894 -0.25021178 -0.3956876 -0.009447612 -0.09494141 0.21736987
-0.36678672 0.33553225 -0.09514836 -0.5047704 -0.3228366 0.048698146 0.3752756 -0.2853591
0.055474393 -0.18173109 -0.25739816 -0.06979203 -0.086723916 -0.47339842 0.16298033 -0.20072863
0.07463091 -0.07881554 -0.09214846 -0.06781408 -0.25218084 0.060850676 0.14616732 -0.010192302
0.014346148 0.20987184 0.3566075 -0.14757717 -0.3625379 -0.15118116 0.43583664 0.16382934
0.110458754 0.30400833 -0.30186102 0.08872449 0.102974765 0.36396086 -0.13964523 -0.14816533
0.16030392 0.18709773 0.014294626 0.24641436 -0.19162358 0.09287418 -0.35064748 0.13688968
-0.15200414 -0.3831153 -0.4336017 -0.4050951 -0.29902866 0.04513216 -0.32541654 -0.44576713
0.006133555 -0.03607906 0.14857985 -0.085339695 0.32623336 0.2965367 0.07189081 -0.022222128
-0.42065957 -0.015099976 -0.12746084 0.06668665 -0.10527588 0.21488014 -0.48401406 0.42521217
-0.2640959 0.09758173 -0.26694173 0.10946742 -0.19201823 0.09206054 0.40011004 -0.12749729
0.45502886 -0.47051993 -0.06651777 -0.32992193 -0.089356706 -0.028868882 -0.06241001 -0.12281046
0.13378255 0.3772413 -0.03184622 -0.20221314 -0.03271188 0.464374 0.37395588 -0.31454813
0.12413188 0.056315765 0.20954724 -0.29024327 0.2639882 -0.18117075 0.25757474 -0.15485534
-0.44122007 -0.06426221 0.44431427 0.1621585 -0.24577802 -0.15348089 -0.07620692 0.22286329
-0.35721898 -0.16476786 0.41079715 0.24714638 0.16410074 0.013017559 0.3452428 -0.08520058
0.08540247 -0.20955656 0.39852265 0.2936261 -0.2879954 -0.2960976 0.37740576 0.39261094

conv3.bias f4 [32]
00000000: c79f 863d c73e 2a3e 2bd9 0b3e 6bbb e2be
00000010: 1ba0 6bbe 494f b0bd eb19 8d3e f0f7 f9be
00000020: 74c6 c0bd 6586 e13d 3b97 18be 0899 cdbe
00000030: 900c 33bd 249c df3e e17e 63be 329e eb3d
00000040: ca06 333e 5c21 833b 1e37 d63e 3f3f 3f3e
00000050: 541c 873e 9278 c4be 5c5c 9dbd 19f9 efbe
00000060: bfe0 283e 96ec 2e3e c8d4 bfbe 871c 883b
00000070: db40 ac3e 8098 12be 297d d83d f9b3 f43e
0.06573444 0.1662551 0.13657062 -0.44283614 -0.23010294 -0.086088724 0.27558836 -0.48821974
-0.09412852 0.11011962 -0.1490144 -0.40155816 -0.043713152 0.43673813 -0.22216369 0.11504783
0.17483059 0.0040017795 0.41838926 0.1867647 0.263888 -0.38373238 -0.07683632 -0.46869734
0.16491984 0.17082438 -0.37467027 0.0041537913 0.3364323 -0.14315987 0.105707474 0.47793558

fc1.weight f4 [10, 288]
00000000: 6837 e63d 0872 0f3d ae50 853e afde 57be
00000010: ad8a 1abe 3b87 743e 3afb 2c3d 2c3f 143e
00000020: 78cb 963d 9aec a73e 149b a83e 0945 72be
00000030: cc21 dfbe 5f64 f33b 86b8 51be 063e ec3e
00000040: 1862 a23d e266 35be 1152 b23e af53 d03e
00000050: c358 81be f639 8b3e 07ce 5b3e 0c56 9dbe
00000060: 4a57 dbbe e4d5 01ba df89 e13e e478 0ebe
00000070: 58fe c93e 4857 a73e ef39 b8be 42c0 0c3e
00000080: cd73 64bd 4c7d 0ebd 8a2e bb3e e281 893e
00000090: 44a9 fe3d ead1 dd3e 203d a7be 81b7 c03d
000000a0: aa24 86bd 890b 2f3e dd64 9c3e 27dc 96be
000000b0: 3536 6cbd 9d1a 223e 69d7 8b3e 5ba3 333e
000000c0: e838 95bd 2bd8 7b3e 6efa 4bbe 3b3a 99be
000000d0: ec31 673d b7af 873e 6688 dabe bc02 4f3d
000000e0: 887e 63bb 1ce2 dbbd aab4 7c3e a9f8 9abe
000000f0: 8707 58be 74ee 283e b6b5 b7be 24f8 8dbe
00000100: 4d91 cd3c 5d84 febd 768a b03e 6d69 cf3e
00000110: b234 d43e 36cf 83be 410e f0bd 613c 243e
00000120: cada bc3e e840 403e ffa1 183e 0a74 8ebe
00000130: cc63 743e 8a4b c6be 8624 2dbe 702b b1bd
00000140: f051 043e 9514 873e f127 cf3e 6d94 93bd
00000150: 9d4c d83e 6b01 e73e 2ea6 ccbd 79bf 2dbe
00000160: ed81 dcbd 0c02 d13e 4c7b 073e b99e e23e
00000170: 4027 793e 5980 8abe 5135 26be 4760 933d
00000180: a23f 3f3e 3184 c03b 5f76 a5be 277c 9c3e
00000190: ce85 f53c 8128 ac3e 7b2a da3e 9b61 b53e
000001a0: 4791 0d3e 8441 d9bc ddde 7c3e b68d ea3c
000001b0: ee6d 03bd 8482 03be 73e5 d83e 614c 893e
000001c0: 36ad d43d 7047 efbe 8391 c1be 0596 9cbe
000001d0: a0ef c7bd 5a35 b03d 3469 bc3e feaf 9c3e
000001e0: 9638 823e bbbe 8ebe b5e4 af3d c47e b13e
000001f0: a496 87be a494 873e 5985 a5be fe38 df3d
00000200: 6758 25be 36e3 09be 87d1 563e 36a5 683e
00000210: 4f15 e33d 69a5 e7bd 979e 223e 509c a13e
00000220: d519 d63e c1f9 893e cbc2 bc3e a942 12bd
00000230: 9b6a cabe c4ef b43e bca5 853e cc69 7d3e
00000240: 5276 b2be 7a72 743e 506b 353e bebf a13c
00000250: 8f29 763e 5045 803c 8fe8 f4bc e6d5 2cbe
00000260: cd83 f03e bf24 4e3e 5d23 933e 52f8 94be
00000270: 6736 cdbe 2ecd 4d3d b3db 933e 77f4 a4be
00000280: 2e88 98be dc47 403e ca0b 1e3e 6a86 883a
00000290: 09e2 323e 1545 cdbd a34b 803e bf2f 643d
000002a0: 2483 74be 4dba 8b3e 53b8 213e 6e5c 2b3e
000002b0: c98a 87be 4bea 9b3e dea5 afbb cd99 8dbe
000002c0: 5d5e b63d 8fe6 7d3e d092 edbd 08ac ed3e
000002d0: 3a9f a5bb 4ddf 1a3e cc92 b63e 43b4 3cbe
000002e0: 6fc3 dd3d a5ed 6abe cbb9 2c3e 96e2 f33e
000002f0: 56ff b83e c15e f23b fb46 a9be be97 b7be
00000300: f266 c6be d477 3b3e 85f5 ae3e 51b9 28bb
00000310: 5b59 d9be 3e24 c5be 255d 84bd 9f15 a5be
00000320: 6971 8b3e fe5d d2bc d211 bf3d 4b75 863e
00000330: 6387 c2bb d366 c9be 8a54 013e 9f61 793e
00000340: 0dd9 80be 8f89 613e 11cb eebe 4164 4f3e
00000350: 5fc6 ab3e 2af2 ae3e 742d 15be 5a74 803c
00000360: 933a 993e 4567 19be 254a c83e fe05 823e
00000370: d530 e0bd 6c2e aabe d093 283e e9f1 a23d
00000380: 4b33 11be 9285 edbe a66c c83c a657 fdbd
00000390: 1285 843e 4567 ca3d 9898 62be 5a14 eabc
000003a0: b2cc 503d 20c7 db3e 3525 b93e 5475 c53e
000003b0: 69c2 8cbe bb64 b2bc 976a 293c 57a5 7e3e
000003c0: bb23 5b3e 8e21 83be 022f b03e b4ab 95be
000003d0: b332 d63e b658 ef3d a737 9cbd 3b7f b83e
000003e0: c621 abbe 4f1b d33e 38b8 2d3e 9fe6 c7be
000003f0: ea68 c23c ea38 45be 724f 803c ca46 e13d
0.11241037 0.035020858 0.26038116 -0.21081041 -0.15091963 0.23879711 0.042231776 0.14477223
0.07363027 0.327977 0.32930815 -0.23659147 -0.43580472 0.0074277367 -0.20480546 0.4614107
0.07928866 -0.17715028 0.34828237 0.40688846 -0.25263032 0.27192658 0.21465312 -0.3072971
-0.42840034 -0.00049528317 0.440505 -0.13913304 0.3945186 0.32683778 -0.359817 0.13745216
-0.0557745 -0.03478746 0.36558944 0.26856905 0.124346286 0.43324214 -0.32663822 0.094100006
-0.06549962 0.17094244 0.30545703 -0.29464838 -0.057668883 0.15830465 0.27312782 0.17542784
-0.07286245 0.2459418 -0.1991975 -0.2992724 0.056444094 0.26501247 -0.4268219 0.050539717
-0.003471287 -0.10736486 0.24678293 -0.30267838 -0.21096621 0.16497213 -0.35880822 -0.2772838
0.025093699 -0.1242759 0.34480637 0.4051012 0.41446453 -0.25744027 -0.11721469 0.16038658
0.36885673 0.1877476 0.14905547 -0.27822906 0.23866194 -0.38729507 -0.16908464 -0.08650863
0.12921882 0.2638289 0.4046016 -0.07206044 0.4224595 0.4511827 -0.09992634 -0.16967572
-0.10766969 0.40821874 0.13230628 0.4426172 0.24331379 -0.27051046 -0.16231276 0.07196098
0.18676618 0.0058751334 -0.32316872 0.3056347 0.02997103 0.33624652 0.42610535 0.3542603
0.1382495 -0.026520498 0.2469439 0.028632026 -0.03208726 -0.12842757 0.42362556 0.26816085
0.103846 -0.4673419 -0.3780633 -0.30583206 -0.09762502 0.08603926 0.36799014 0.3060302
0.25433797 -0.2787989 0.08588544 0.34667027 -0.26482117 0.2648059 -0.323283 0.10899542
-0.16147004 -0.1346558 0.20978366 0.22719273 0.11088049 -0.11310846 0.1588081 0.3156457
0.41816583 0.2694836 0.36867365 -0.035708103 -0.3953446 0.35339177 0.26103008 0.2474739
-0.34855896 0.23871794 0.17716718 0.01974475 0.24039291 0.01565805 -0.029896049 -0.16878471
0.46975556 0.20131205 0.28737918 -0.29095703 -0.40080568 0.050244503 0.28878555 -0.32217762
-0.29791397 0.18777412 0.15434185 0.0010416035 0.17469038 -0.10022942 0.25057706 0.055709597
-0.23878151 0.27290574 0.1579297 0.16734478 -0.26473072 0.3045219 -0.005360349 -0.27656403
0.08904717 0.24794982 -0.11600268 0.46420312 -0.0050543817 0.15124245 0.35658872 -0.1842814
0.108282916 -0.22942217 0.1686775 0.4763381 0.36132306 0.0073965495 -0.33061966 -0.35857958
-0.38750416 0.1830743 0.34171692 -0.0025745223 -0.42450985 -0.38504213 -0.064630784 -0.32243058
0.27234963 -0.025679585 0.09329571 0.26261362 -0.0059365495 -0.3933626 0.12629905 0.24353646
-0.25165597 0.2202513 -0.46639302 0.20253088 0.33549783 0.34169132 -0.1456812 0.01568048
0.299275 -0.149808 0.39119068 0.25395197 -0.10946814 -0.33238542 0.16462636 0.07956297
-0.14179723 -0.4639097 0.02446587 -0.12370233 0.25882775 0.09882978 -0.22128522 -0.028574158
0.050976463 0.42925358 0.361612 0.38566077 -0.27492073 -0.021776548 0.010340354 0.2486776
0.21400349 -0.25611538 0.34410864 -0.29232562 0.41835555 0.11686842 -0.07627802 0.3603457
-0.33424205 0.41231772 0.16964805 -0.39043137 0.023731668 -0.19259992 0.015662882 0.1099983

fc1.bias f4 [10]
00000000: cc3f 94be 3790 c6be 3071 34be 92f8 62be
00000010: a789 fbbe 440b c9bd a3b2 f3be 5c12 b53d
00000020: 694d 293e 0589 d43e
-0.28954923 -0.38781902 -0.17621303 -0.22165135 -0.49128458 -0.09816602 -0.47597227 0.088413924
0.16533436 0.41510788
