sandbox/snapshots3/model-5184.pt (torch, 71725 bytes, 8 tensors)

conv1.weight f4 [16, 3, 3, 3]
00000000: e053 133f e2bd 96bf eb62 983f 7a4a 9abe
00000010: d704 443f fd27 9f3f 5266 fabe cbf2 373e
00000020: 5c1b ab3f 28f2 463f f059 ecbe c7da 913f
00000030: 8984 38bf 016b 65be 7282 273e 91fd 4f3f
00000040: ba79 a9bf 4d31 2ebf 3608 7ebe 520b 93bf
00000050: 755d c63e 40d6 8cbe e90e 3b3f 7293 813f
00000060: e8d3 4ebf c057 82bf f0f0 523e 6502 6b3f
00000070: 4ba1 20bf 2cfa 47be f061 b5bf ee96 7d3f
00000080: 8d99 3abf 9c74 55be 3b14 5d3e 9fd6 a53f
00000090: da9c 233f 7f43 6e3f 9e6e 903f 313d 603f
000000a0: 5d6c 8b3f efbf a23f af4d a43e 5593 9abf
000000b0: ae63 28bf e220 cbbe 8eed 88bf a18c 8a3f
000000c0: 40a0 c83e dfe5 863f 9599 8c3f f892 a13e
000000d0: 07f4 8abf bf92 20bf 2c20 36bf 5039 553e
000000e0: 5832 343f 24cb 0c3f e538 9f3f 293c 81be
000000f0: bd4e cf3e 48c6 b5bf eed7 bd3f 7eb7 73bf
00000100: 2deb b1bf 64cc 3fbf b7ec ab3f 1371 4a3f
00000110: 92d6 543e 69f7 86bf 0100 ad3e 70f7 b1bf
00000120: bb65 84bf f561 3f3f cf74 a13f c210 3d3e
00000130: a5f2 01bf 69ed 0f3f 4af6 933e d780 dbbe
00000140: 69ca 653f 64b6 5bbf 3818 a63e 07f1 96bf
00000150: e71f 7f3f a698 873e e92c 2ebe 905f 2ebd
00000160: 73c6 1abe 6de6 573f c543 28bd ee0a be3e
00000170: 89d3 453f 53e7 a03e 40c2 acbf 9280 43bf
00000180: 0ffb 1ebf 1f8f adbe 31b8 06bf 47d0 843f
00000190: 3c79 e53e 84d9 66bf d2f4 1e3f f7f8 5a3f
000001a0: 4fbd b13f b4a8 2abf 7afa 053f 3e10 ce3f
000001b0: 7173 983f 80c8 febd f36a 533f cd92 3f3f
000001c0: 8a47 bcbf 5178 2abf 1fc5 8e3f 1ac1 8abf
000001d0: c780 37bf 1dfe 133f 39c6 74bf 4175 a23f
000001e0: 0c2e 1cbe 8f85 2bbf 5201 5abf 6986 a3bf
000001f0: 9475 b1bf 1d44 813f ac78 083e 1ac3 4d3e
00000200: 3f5b c13e 9951 0e3f 61fd ac3f 0a8a d6bc
00000210: 9845 7eba ac27 1ebf f786 e6bd 4875 983f
00000220: 7c44 e83e 6fc8 aebf 51ad 4f3e 9de4 bcbf
00000230: a248 3d3f 7ef2 123f e8ed 7abf 69d0 89bf
00000240: 7d15 89bf d4e8 023f a828 0cbe d4b6 483e
00000250: 30c7 5d3f ce5f b23f 82f9 c1bd b603 79bf
00000260: 60ba 91be 0081 2fbf c613 0bbd 463d bbbf
00000270: f504 b63f 8eef ad3f f741 413f f415 a6bf
00000280: 8f73 12bf 7c34 f6be 8621 81bf d04f 4f3f
00000290: 0f65 833f 8fdd babf 621e ae3f a074 8d3f
000002a0: 37c3 b43f 047e bf3f 32db 83bf 45a4 17bf
000002b0: 9a33 b0bf bf0e 8c3f d6bd 10bf 65c1 d5be
000002c0: 8b47 9d3f 564d 33bd 1e0d 5ebf edc5 8dbf
000002d0: eb77 0bbe 11db 73bf aa20 1c3f f335 69bf
000002e0: 47cc a73e f6cb 39bf ee00 fcbe e9b0 6fbd
000002f0: 6eeb 6dbf 4f46 b53f 60c2 a3bf 5e6d b33f
00000300: 80fa 8c3f b0de 1abf 5121 c9bf eb95 16bf
00000310: e1c5 a93f 7e26 903e c864 8bbf ba43 92be
00000320: dbd3 8c3f 6b20 643f 6a0b 8f3f 29fc b33f
00000330: ddde 9a3f dda2 a13d e486 27be 0137 a73e
00000340: c0db c6bf 86c7 b2bf 2022 ac3d e6d9 c1bf
00000350: 8343 8cbf fe80 9a3f fa05 f4be 1d44 723f
00000360: 6b8b fe3e ef9d 9f3f ea6f 4cbf 5162 5f3f
00000370: 3254 bb3e 410b 9fbf dd13 a9bf aad3 af3f
00000380: e6c3 93bd bc12 93bf 3e71 7dbf aaa0 91bf
00000390: 502b 563f dd33 70bf ef21 50bf 799d 983f
000003a0: 5ad9 9fbf 9e8d 023e 49e9 8f3e 5567 ee3d
000003b0: a9c7 84bf 0846 2d3f 2e03 9ebf 87f7 aa3f
000003c0: 246b 0d3f 01fe bcbe e722 ad3f 0c7c 95bf
000003d0: 8cda 8f3f 84cc 19bf c288 043f 0e63 e13e
000003e0: 7130 cc3d c13f ab3f 81d9 8abf c9e4 613e
000003f0: bc6d fbbe 9519 0cbf cd8c 8f3f 36d9 4dbf
0.5754986 -1.1776698 1.1905187 -0.30134946 0.76569885 1.2434078 -0.4890619 0.17963712
1.3367724 0.7771325 -0.46162367 1.139489 -0.7207723 -0.224041 0.16358355 0.81246287
-1.3240273 -0.6804398 -0.2480782 -1.148783 0.38743177 -0.2750721 0.73069626 1.0123122
-0.80792093 -1.0183029 0.20599723 0.9180053 -0.62746114 -0.19529027 -1.4170513 0.99058425
-0.7289055 -0.20845264 0.21589749 1.2956122 0.6391121 0.9307174 1.1283758 0.8759337
1.0892445 1.2714823 0.32090518 -1.2076212 -0.657771 -0.39673525 -1.0697496 1.0824167
0.3918476 1.0538901 1.098437 0.3155744 -1.0855721 -0.62723917 -0.7114284 0.20822644
0.7038932 0.5499747 1.2439238 -0.2524121 0.4048976 -1.4201136 1.4831522 -0.9520186
-1.3899895 -0.7492125 1.3431615 0.7907879 0.20784977 -1.0544254 0.33789065 -1.3903637
-1.0343546 0.74758846 1.2613772 0.18463424 -0.5076087 0.56221634 0.2889884 -0.42871734
0.8976198 -0.8582518 0.32440352 -1.1792306 0.99658054 0.2648365 -0.1700932 -0.042571604
-0.15114765 0.84335977 -0.041080255 0.37117714 0.772759 0.31426486 -1.349678 -0.7636806
-0.62101835 -0.33898255 -0.52624804 1.0376061 0.44819057 -0.9017565 0.62092316 0.8553614
1.3885897 -0.6666367 0.5233532 1.6098707 1.191023 -0.12440586 0.82585067 0.74833375
-1.4709332 -0.6658984 1.1153907 -1.084018 -0.71680874 0.5780962 -0.95614964 1.2692033
-0.1525194 -0.6700067 -0.85158265 -1.2775394 -1.3864007 1.0098912 0.13327283 0.20093957
0.37764928 0.5559326 1.3514825 -0.026188869 -0.00096997013 -0.61779284 -0.11256211 1.1910791
0.4536475 -1.3654917 0.20280959 -1.4757267 0.73938954 0.57401264 -0.98019266 -1.0766727
-1.0709683 0.5113652 -0.13687384 0.19600993 0.8663206 1.3935487 -0.09471418 -0.9727129
-0.28462505 -0.68556213 -0.033954404 -1.4628074 1.4220263 1.3588731 0.7549128 -1.297545
-0.5720758 -0.48086917 -1.0088356 0.8098116 1.0265216 -1.4598864 1.3603022 1.1051216
1.4122075 1.4960332 -1.0301268 -0.5923503 -1.3765748 1.0942 -0.56539667 -0.4174911
1.2287458 -0.043774925 -0.86738765 -1.1076027 -0.13619964 -0.95256144 0.6098734 -0.91097945
0.3277304 -0.72576845 -0.4921946 -0.058518324 -0.9293736 1.4162081 -1.2793694 1.4017751
1.1013947 -0.60496044 -1.5713292 -0.58822507 1.3263513 0.28154367 -1.0890131 -0.28567296
1.1002153 0.89111966 1.1175358 1.4061328 1.2099262 0.07892392 -0.1636005 0.32659152
-1.5535812 -1.396714 0.08404946 -1.5144622 -1.0958103 1.2070615 -0.4766081 0.9463518
0.49715742 1.2470073 -0.7985827 0.87259394 0.36587673 -1.242531 -1.3209187 1.373647
-0.07215099 -1.1490092 -0.9900092 -1.1377156 0.8365984 -0.9382914 -0.8130178 1.1923057
-1.2488205 0.12749335 0.2810767 0.11640803 -1.0373431 0.67684984 -1.234472 1.3356789
0.5524161 -0.3691254 1.3526276 -1.1678481 1.123857 -0.6007769 0.51771176 0.44020885
0.09970177 1.3378831 -1.0847627 0.22059931 -0.49107158 -0.54726535 1.1214844 -0.8040956

conv1.bias f4 [16]
00000000: 0ff3 9d3f 6779 85bf ec5f 043f 14ef a6bf
00000010: 837a d83e d316 1c3f 7e8a 6ebf 58ed 3a3c
00000020: 3046 323e 5999 573f 80d1 f33e 500b a93f
00000030: 2e5b c1bf 1511 5abf 18a5 273f 52f6 3c3f
1.2339801 -1.0427674 0.51708865 -1.3041711 0.4228097 0.60972327 -0.9318007 0.011409126
0.17409587 0.84218365 0.47620773 1.3206577 -1.5105951 -0.85182315 0.6548629 0.73813355

conv2.weight f4 [32, 16, 3, 3]
00000000: 441a bfbd 7932 06bf 4edc 9c3e 1f7b 023f
00000010: 4df3 fb3d ad19 cf3d 74cd eabe a3af 193e
00000020: 502d 0cbe 5801 03bf 4983 873e ea98 08bf
00000030: 204f b5be a36f 94bd 1089 153f 99a7 a43e
00000040: fad0 e63e 5846 abbd c1d5 d83e ae12 17bf
00000050: ce89 c13e 8c9d 173f 9b0d ea3d 3a21 cabe
00000060: f5b5 093f 27ca 3dbe 98fa a6be 8689 fdbe
00000070: 4a4f 26bf 9fc7 863e 9dd3 ab3d f61d 093e
00000080: adad e8bd b62c 65bb 0f50 413e e2e4 1c3d
00000090: ca0e 853d a9e9 163f 8971 203e 45c4 27be
000000a0: 6f6b 25bf 06f7 583e 4e8f a23e a41a 9ebe
000000b0: 32a1 a6be 3eec b7bd da99 f2be a278 ae3e
000000c0: 8101 e2bd 8263 283f 3db1 9cbe 3b70 c13d
000000d0: e852 06bf 57a2 303e ce98 41be 5fbd 86be
000000e0: c2ba b63e c7d7 a83e 36fd 013f 55a4 153f
000000f0: f549 133f cc19 34be b2ff 0b3f 55b6 2cbe
00000100: 8bc2 e8be ba61 503d b746 1fbf 5244 163f
00000110: 08e4 0b3f 6874 f2be d08f cf3e f263 aabd
00000120: 1153 6ebe 4b13 213f 36dd e9be 222e a73e
00000130: 2383 a9be d273 be3d 4064 cf3d 248e ff3e
00000140: 68f5 053f ff43 6a3e 76aa 073e 9fbf 003f
00000150: c58b 843e 4689 98be b3ff 213d 9f85 98be
00000160: 398c 203f 2fe9 6dbc 3c9e 353e 5e6a 23bf
00000170: 01aa 1bbf c69e 01bf cbd2 8e3e 8b30 48be
00000180: fa4d 9e3e 9c4a fb3e dc15 833e 3a9e 103c
00000190: 1de1 5ebd cd24 84be f8af 08bf eb0d c2be
000001a0: dbf8 073f 62e8 13bf 9aeb 963c 1304 e63d
000001b0: 1664 5fbd 326c 7f3a 98ef e23e 8704 0fbf
000001c0: 771a 233f f35a d23e 17b9 203f d0c4 12bf
000001d0: 28cc f03d 8c23 1f3f 7ddd 783e 8cc1 723e
000001e0: d54f efbe 9faf b13e ae31 03bf 2c9b 67be
000001f0: 8ea4 b13e 30d2 07be ebc5 46be 1f34 09bf
00000200: bd84 8cbe 03db 283f 0956 0d3f 1961 36be
00000210: 8714 f5be e64d dc3d 1bfc f0be e478 f2be
00000220: 433d 2cbe 3fc1 6bbe 5465 8cbe 5117 a83e
00000230: c658 1cbf 141a 26bf b44e 19bf d092 3ebd
00000240: f411 b83e 486b 06bf 9470 1e3f 1eb4 17bf
00000250: 62db 8f3d 742d 0dbf 7e74 fbbe 9c82 d03e
00000260: 05a7 40bd 66d8 a7bd 5df0 b93d 4e06 7d39
00000270: 5fe5 74be 2eac a33e ff16 f63e 1d92 db3d
00000280: 3ce8 55be 4424 0c3f d9f6 143e 705a ab3e
00000290: 7be9 adbe 6150 3f3e b5ca b33e 19f9 bfbe
000002a0: 7739 aa3e 3b63 113f 6b8c dabb 8be3 0fbf
000002b0: 97fc 873d d382 04bf 5024 edbe bef5 ec3d
000002c0: a0b2 a83e d100 e63e 9dbc 093f 5ed1 41be
000002d0: 4f3e 6cbe 09de 1cbf 77cb ee3e 77cc ffbd
000002e0: d2e1 e03e 4cf1 27bf 0c1e 2cbd 4302 ba3e
000002f0: c47c 73be 9d36 c73e b2aa eabe c497 fd3e
00000300: cda9 b4be 10fe b1bc e8dd e03e eae2 8fbe
00000310: ed4d 22bf 8dc7 d23e 55d4 a93d 1b71 f2be
00000320: 1aca dfbe 2750 9dbe a8c9 18bd 0573 8d3e
00000330: d84b 2dbb 14d5 22bf f9c9 d83e 1b5e 833e
00000340: 01b5 a2be 49b8 22bd e105 2e3e 1341 0c3f
00000350: 7301 803e be47 903d 2e7b a9bb 4f38 b7be
00000360: 51d8 a5be 6624 d63e d66a 7fbe 4002 483e
00000370: 8593 25be cda7 033f 6aa5 04bf 23c5 f03b
00000380: 9031 23be 22b8 343f 010d af3e d736 d23e
00000390: ec74 aebe 22de ad3e a24c bf3e 1fde 0c3f
000003a0: 660a 08bf 3fbf a33d 0dc4 01be f77c 9f3e
000003b0: 6d0b 7e3e 3b0b de3e aa7d 11be 9c8e 503e
000003c0: 03a8 a13d 6cdf 09be 7d58 15bf 5fdc 60bd
000003d0: 5d18 babc f963 0c3d efd4 1cbe 23ba a53e
000003e0: b3e7 2f3f cb1a 9dbe cca9 93be 40fc f03e
000003f0: 96ed 5bbe 25ac 013f 0758 013d 4e86 8dbe
-0.09331182 -0.52420765 0.3063683 0.5096912 0.12302265 0.10112319 -0.45859873 0.15008406
-0.1368916 -0.51173925 0.2646735 -0.5335833 -0.3541193 -0.072478555 0.58412266 0.32159117
0.4508131 -0.083630264 0.4235058 -0.5901288 0.3780045 0.5922477 0.11428376 -0.39478475
0.5379327 -0.18534146 -0.32613063 -0.49518985 -0.64964736 0.26324174 0.083899714 0.13390335
-0.11361251 -0.0034969277 0.18878196 0.038304217 0.064969614 0.5895029 0.1566831 -0.16383465
-0.64617056 0.21187982 0.31749958 -0.308797 -0.32544857 -0.089806065 -0.47383004 0.3407641
-0.11035443 0.65776837 -0.30603972 0.094452344 -0.52470255 0.17249428 -0.18905947 -0.26316354
0.3568936 0.32977125 0.50776994 0.58453876 0.57534724 -0.17587966 0.54687035 -0.16866429
-0.45460925 0.05087445 -0.6221728 0.58698 0.54644823 -0.47354436 0.40539408 -0.08319844
-0.23273875 0.62920064 -0.45676583 0.32652384 -0.33107862 0.09299435 0.10126543 0.49913132
0.52327585 0.22877501 0.1324862 0.5029239 0.25887886 -0.2979223 0.039550494 -0.29789445
0.6271396 -0.014520927 0.17736143 -0.6383418 -0.6080628 -0.50632894 0.27895197 -0.19549768
0.30918866 0.4908036 0.25602615 0.008826787 -0.054413904 -0.25809327 -0.53393507 -0.37901244
0.531141 -0.57776463 0.01842289 0.11231246 -0.05453881 0.00097436004 0.4432342 -0.55866283
0.6371226 0.41085014 0.62782425 -0.5733156 0.1175769 0.62163615 0.24303241 0.23706645
-0.46740595 0.347043 -0.5124768 -0.22617787 0.34695858 -0.13263774 -0.19411437 -0.53595155
-0.2744502 0.65959185 0.55209404 -0.17810477 -0.47867224 0.107570454 -0.4706734 -0.47357857
-0.16820244 -0.23022936 -0.27421057 0.3283029 -0.6107296 -0.6488354 -0.59885716 -0.04652673
0.35951197 -0.5250745 0.6189053 -0.5925921 0.07024266 -0.5514748 -0.49112314 0.40724647
-0.047034282 -0.081955716 0.09079049 0.00024130309 -0.23915623 0.319673 0.4806442 0.10721228
-0.20889372 0.54742837 0.1454729 0.33467436 -0.33967194 0.18683006 0.3511559 -0.37494734
0.33246967 0.5679204 -0.006669571 -0.5620658 0.066399746 -0.5176212 -0.46316767 0.11570309
0.3294878 0.44922498 0.53803426 -0.18927523 -0.23070644 -0.612763 0.46639606 -0.124901704
0.43922287 -0.65602565 -0.042020842 0.3632985 -0.23778063 0.38908854 -0.45833355 0.4952985
-0.35285798 -0.021727592 0.439193 -0.2810281 -0.63400155 0.4116787 0.08292452 -0.47351918
-0.4370888 -0.30725214 -0.03730169 0.27626815 -0.0026442911 -0.6360638 0.42341593 0.25657734
-0.3177872 -0.03972653 0.1699443 0.54786795 0.25001106 0.07044934 -0.005172155 -0.35785148
-0.323916 0.41824645 -0.24943098 0.19532108 -0.16169555 0.5142792 -0.518149 0.0073477193
-0.15936875 0.70593464 0.3418961 0.41057464 -0.3407358 0.33958536 0.37363154 0.5502643
-0.53140867 0.07995462 -0.12672444 0.31150028 0.24809046 0.43367943 -0.14208093 0.20366901
0.07893374 -0.13464135 -0.5833815 -0.054897662 -0.022716695 0.03427503 -0.15315603 0.32368574
0.6871292 -0.30684504 -0.28840482 0.4706745 -0.2147735 0.50653297 0.03157809 -0.2764153

conv2.bias f4 [32]
00000000: bf03 29bf a7a9 ea3e 03a3 0ebf 69bb 1ebe
00000010: ff0c 7dbe eecf 173e 1d63 e43e 711d d6bd
00000020: 6258 babd 0ac1 863d 89cb e7be 5d21 10bf
00000030: ff63 d6bd c0dc 183e baeb 5fbe 5a44 d1be
00000040: 579b d1be 8e40 953e a3e2 dcbe a40e fabd
00000050: 9678 863d 1de0 163f 8805 183f 193a b2be
00000060: 110b 283f 5f00 133e 0871 c13e c9fa 1cbf
00000070: b0e6 f2be e96d 733c dc28 98bd 9549 323f
-0.6602134 0.4583256 -0.55717486 -0.15501179 -0.24711989 0.14825413 0.44606867 -0.10454834
-0.09098889 0.06579788 -0.45272473 -0.5630091 -0.104682915 0.1492796 -0.21867266 -0.4087246
-0.40938827 0.29150814 -0.4314166 -0.12209824 0.06565969 0.5893572 0.5938344 -0.3480995
0.65641886 0.1435561 0.37781549 -0.6132017 -0.47441626 0.014857748 -0.07429668 0.6964353

conv3.weight f4 [32, 32, 3, 3]
00000000: f005 3abe 51ca 5e3e 3028 9b3d 0f7d e0be
00000010: 3235 adbe 4ff8 e33e e7e0 8cbe 3d38 85be
00000020: f34a d33e 5a79 b43e 56b8 963e 6a3a 8b3e
00000030: b270 78be d41c de3e 8969 24be 0612 90be
00000040: 3fe4 9f3e aa4b 9bbe 5d30 31be 19d5 cebe
00000050: b0f1 bb3e 5810 d73d 17a9 acbe a988 bc3e
00000060: 91d5 d5be 1b01 433e d6dd 993e 40f0 3abe
00000070: fb4e b33d a049 ad3e 2076 8a3d 3d87 d9be
00000080: ebd5 6abd edc6 2f3e 7732 683e b777 eebd
00000090: c5ca a3bd 829c 44be 965c f03e 21a9 94bd
000000a0: 1cc4 61bd 4751 e0be 0fe8 353c 63f1 fc3c
000000b0: 8983 72be b59a a33e 5e7d 2d3e b526 abbe
000000c0: b21d b2bd a624 b13e 1ae5 083d 2553 c93d
000000d0: 65cc de3d bddd d73e 296f 8c3e ff66 503e
000000e0: e2e3 4d3a f6c4 903d 64f5 49be a45b ecbe
000000f0: 445a 7e3e c478 bf3e ada5 b73d 49ef 4fbe
00000100: 49a4 adbe ffd5 8cbe 88ee ebbe 1ea0 893e
00000110: 90fb 903e 131e f5bd 90e3 be3e 28a0 afbd
00000120: 0b1e fabd 13f6 b93e 0706 03be 8552 02be
00000130: 7b2a d13e 9e48 6cbe 75c1 d9be ad42 aabe
00000140: bd4c d8be 1d15 98bd 768c 283e 53e1 b93e
00000150: 1671 b1be b053 e63d 882a a93e 5adb 963e
00000160: 42a9 843e 07f4 9a3d 4530 debd c11b 653d
00000170: 84c5 b3be d727 d53e 200d debe ba81 a63c
00000180: d29a f4be 9378 3fbe 07d0 e0be 878a aebe
00000190: 24ce e93d 1f1f 863e 4406 a6be 1a80 c5be
000001a0: ca5e 143e f96e 263e 4973 813e 65e4 043e
000001b0: a580 d53d 1646 633e b504 61be 4892 a63e
000001c0: 271f 89be 87a1 bebd 219b 06bd cbb9 af3e
000001d0: 69ee f8bd 26ff 9abe e4db ecbd 3fa3 d23e
000001e0: cb9b 733e 9aab b3be 41df 273e af32 82be
000001f0: f0ea cabe 76dc 8cbc 7478 e1bd e416 4e3e
00000200: 1483 bfbe 860e a43e 49cf e9bd 6cf9 03bf
00000210: 2f79 aebe c6de 133d 0598 bd3e 5b7d 93be
00000220: f6de 443d 549f 41be 62c8 88be 8dbb 94bd
00000230: 5e7a b9bd 2c72 f4be 0419 263e 0b9c 52be
00000240: 6766 9f3d a20a a0bd a011 c5bd 1f6c 91bd
00000250: ffb5 81be 285b 733d d1a5 113e 51d8 68bc
00000260: 17f6 193c ad9e 503e 007a b13e 9948 19be
00000270: 4495 bdbe f9cb 22be 6d63 e03e a8fc 213e
00000280: db02 da3d c0d3 983e 499a 99be 897b a73d
00000290: bcb2 c73d 8eba bb3e dcc7 15be f610 17be
000002a0: fbeb 223e d09d 413e c367 8b3c 9bad 7d3e
000002b0: 506b 4abe 3873 c53d b1e7 b0be 722a 083e
000002c0: b828 1abe 3428 bcbe 6017 d9be e595 cabe
000002d0: c12a 99be 425c 3a3d 4056 a6be d05f e4be
000002e0: de46 943b 8b78 16bd c983 163e ae4c acbd
000002f0: 3e53 a43e e053 963e ead1 943d 30f3 9cbc
00000300: f78d d9be 214d c8bc eff3 08be 650b 873d
00000310: 0e47 e6bd 7dac 503e 2d09 fbbe 40ff d53e
00000320: a294 8abe cc0a cf3d c85d 8dbe 999a c83d
00000330: 0d10 46be 084b a63d 3fad ca3e c9eb 01be
00000340: 1595 e53e 629d f7be 6291 6ebd b718 a2be
00000350: 9052 95bd ef06 17bd 0154 85bd ad5c febd
00000360: f3e1 053e 3b7e b93e a10f 15bd dab1 4ebe
00000370: 0305 0fbd a2e0 f73e b560 bf3e 18e8 9abe
00000380: 80e0 e33d 1663 543d ed13 543e fbce 95be
00000390: 12eb 833e 005e 3dbe 3e4e 803e 8a3d 24be
000003a0: cffe e2be b2c5 92bd e062 e33e 24d4 223e
000003b0: f44e 7dbe d5dc 1dbe 9e88 a3bd b0e6 623e
000003c0: 3f98 b4be f19d 2abe 531a cf3e 8646 803e
000003d0: 7b79 2c3e d821 a73c 235e b13e 417a aabd
000003e0: 308e 9f3d 9066 59be bd7a cd3e 3777 973e
000003f0: bb2c 92be 0ea9 92be 6c40 bf3e 9877 c93e
-0.18166327 0.21756865 0.075760245 -0.43845412 -0.33829647 0.44525382 -0.27515337 -0.2601947
0.4126812 0.35248834 0.29437512 0.27193004 -0.2426174 0.4338137 -0.16055883 -0.2813875
0.31228825 -0.30331165 -0.17303605 -0.40396956 0.3670783 0.10501164 -0.33722755 0.36823013
-0.417645 0.1904339 0.3005206 -0.1825571 0.08755299 0.33845234 0.06760812 -0.4248599
-0.057332914 0.17165728 0.22675501 -0.116439275 -0.079976596 -0.19200328 0.46945637 -0.07258821
-0.055118665 -0.4381201 0.01110269 0.03087682 -0.23682989 0.3195397 0.16942355 -0.3342797
-0.0869707 0.34598273 0.033421613 0.09830312 0.10878829 0.4216136 0.27428558 0.2035179
0.00078540866 0.07068817 -0.19722515 -0.46163666 0.24839121 0.37396824 0.08967147 -0.20306124
-0.33914402 -0.27507016 -0.46080422 0.26879972 0.28316927 -0.11968627 0.3728299 -0.08575469
-0.122127615 0.36320552 -0.12795268 -0.12726791 0.40852723 -0.23074576 -0.42530409 -0.33253995
-0.42246047 -0.07425902 0.16459832 0.3630472 -0.3465659 0.11246431 0.3304026 0.29464227
0.25910383 0.07566076 -0.108490504 0.05593467 -0.3511163 0.41631958 -0.4336939 0.02032553
-0.4777437 -0.18698339 -0.43908712 -0.34090063 0.11416271 0.2619562 -0.32426655 -0.38574296
0.14489284 0.1625327 0.25283268 0.1297775 0.104249276 0.22194704 -0.21974452 0.3253348
-0.2678158 -0.09308153 -0.032862786 0.34321436 -0.12154848 -0.30272788 -0.11565378 0.41140172
0.23789899 -0.3509186 0.16393758 -0.25429294 -0.39632368 -0.017194968 -0.11009303 0.2012592
-0.37404692 0.3204233 -0.1141649 -0.5155246 -0.3407683 0.036101125 0.37030044 -0.28806576
0.048064195 -0.18908435 -0.2671538 -0.07262335 -0.09056543 -0.47743356 0.1622048 -0.20567338
0.077832036 -0.07814528 -0.09622502 -0.071007006 -0.25334165 0.059413105 0.1422341 -0.01421173
0.009397051 0.2037303 0.3466339 -0.149691 -0.37027943 -0.15898122 0.43825856 0.15819037
0.10645076 0.29849052 -0.30000523 0.08177859 0.09750888 0.36665767 -0.14627022 -0.14752564
0.15910332 0.18907857 0.01701725 0.24773256 -0.19767499 0.09641117 -0.34551767 0.13297442
-0.15054595 -0.36749423 -0.42400646 -0.39567485 -0.2991543 0.04549814 -0.3248768 -0.4460435
0.0045250496 -0.036736052 0.1469871 -0.08413063 0.3209476 0.29360867 0.072666004 -0.01915893
-0.42491123 -0.02445084 -0.13374303 0.0659397 -0.11244021 0.20378299 -0.49030438 0.41796303
-0.27066523 0.10109481 -0.27610612 0.09795112 -0.1934206 0.0811978 0.395853 -0.12687601
0.44840303 -0.4836226 -0.058244117 -0.3165948 -0.07291138 -0.036871847 -0.06510163 -0.1242002
0.13074474 0.3622912 -0.036391858 -0.20185032 -0.03491689 0.4841357 0.3737847 -0.30255198
0.11126804 0.05185231 0.20710726 -0.29259476 0.25765282 -0.1849289 0.25059694 -0.160391
-0.4433503 -0.07166614 0.44411373 0.15901238 -0.2473715 -0.15416272 -0.07985042 0.22158313
-0.35272405 -0.16661812 0.4044977 0.25053805 0.16843216 0.02040188 0.34642133 -0.08324099
0.07790792 -0.2123053 0.40132704 0.2958314 -0.28549752 -0.28644603 0.37353837 0.39349055

conv3.bias f4 [32]
00000000: 8ee8 743d ffe6 0d3e d576 d13d d425 f6be
00000010: 543c 75be 4af7 e2bd f2e3 813e bf6f 02bf
00000020: 7bf8 f2bd 96b8 bc3d aa70 37be 4940 cebe
00000030: 02a4 99bd a350 ca3e 2d70 7fbe d769 c13d
00000040: 75f1 2f3e 1a47 bbbc 4668 c83e 6999 3b3e
00000050: a0b2 5b3e 4e8c c6be 6f11 b0bd 56d5 fcbe
00000060: 4f98 313e 3ae6 153e 9a4a c0be ee62 47bd
00000070: 4cf7 743e 630d 1bbe 4cf1 cc3d 94bd f93e
0.059792094 0.1385765 0.102277435 -0.48075736 -0.23948795 -0.11082323 0.2536922 -0.5095176
-0.118638 0.092148945 -0.17914072 -0.4028342 -0.07501985 0.39514646 -0.24945135 0.094440155
0.17181952 -0.022861052 0.39142054 0.1832024 0.21454859 -0.3877892 -0.08597075 -0.49381512
0.17343257 0.14638606 -0.37556916 -0.04867833 0.23922461 -0.15141825 0.10006961 0.4877745

fc1.weight f4 [10, 288]
00000000: 34c4 e03d a6c7 fb3c 1b31 7d3e e813 56be
00000010: 6c3a 2abe 423d 693e ce48 4c3d 33f4 143e
00000020: 0b78 a03d e559 a73e 57e0 a73e 259b 71be
00000030: 9d77 debe 0bb2 f13b 6f16 51be e115 eb3e
00000040: a25f a23d a5c9 34be 8d51 b13e f49d ce3e
00000050: 1547 81be 04c1 8a3e 7418 5b3e 0c17 9dbe
00000060: 51e3 d9be d90d 023a aa63 e03e 6351 0ebe
00000070: f730 c63e e07d a53e 276a b7be 2e48 093e
00000080: 868f 4dbd 784e 12bd 26fa ba3e 0a42 8a3e
00000090: e524 f23d 3436 db3e 90f6 a6be 7552 cd3d
000000a0: 1da0 79bd 7107 2d3e b3d5 9a3e 85ad 92be
000000b0: 8c9e 66bd be33 1a3e 3bbb 7c3e a25f 213e
000000c0: af47 45bd ec2d 813e c442 1ebe 247e 97be
000000d0: 3c02 ad3d 80f6 803e af09 d9be 7424 483d
000000e0: 091d 79bb b821 ddbd a7df 793e 7231 9abe
000000f0: 75a4 58be b0e4 273e 869f b7be 3ffa 8dbe
00000100: f2be ca3c acc1 fdbd e576 b03e b114 cd3e
00000110: cc5d d23e fe62 83be e150 efbd 5df4 223e
00000120: e7e7 b33e 520f 2d3e 3424 013e 1f9d 8cbe
00000130: b19c 593e 499a c5be bdb1 27be e07d bdbd
00000140: ebf9 ee3d 2532 8c3e d94f cc3e dcc5 8bbd
00000150: f388 d73e a8cb e33e 03c4 c8bd 2e5f 29be
00000160: c842 ddbd acdd cc3e 2db5 f93d 85d5 d13e
00000170: 4aed 7e3e c27b 84be 57b0 09be acb8 af3d
00000180: dd4e 3c3e de58 9d3b b1e8 9dbe 4bb7 993e
00000190: f223 ee3c e688 aa3e 9a4d d93e 64c9 ae3e
000001a0: dedc 0e3e 343c ccbc a632 6f3e b167 ea3c
000001b0: 4cbd 03bd bd54 03be 89e5 d73e 82e6 883e
000001c0: 931e d23d 6475 eebe 50d8 c0be 5ce7 9bbe
000001d0: 8403 c8bd f5c9 ca3d 97e3 bd3e 7bf4 923e
000001e0: eac0 7e3e b13f 88be a8ff a63d b399 b03e
000001f0: 521f 82be f24b 793e 5c4a a4be ad44 d13d
00000200: 8ac3 25be 2ef9 0abe 3eeb 503e c95e 633e
00000210: 4c2c dd3d c4e2 dabd 6b31 1b3e e569 9f3e
00000220: fbcc d43e 4f3a 893e b193 bb3e df9d 13bd
00000230: 677f c9be 829c b33e cbfc 843e 1bec 7a3e
00000240: 101d b4be 4ae9 733e 0cc2 343e 8dfc 933c
00000250: 3d82 753e 8d44 783c ffb6 ffbc 3d5f 2cbe
00000260: 0e90 ef3e 37c2 4d3e ad19 923e 5ff6 93be
00000270: 189a cbbe 36a4 4c3d 30e7 923e b1ff a3be
00000280: 018e 98be 3c89 3e3e 0302 e83d 9fc9 0d3c
00000290: fa46 ec3d d2e2 b4bd cd02 703e 26b6 0b3d
000002a0: 15b5 6cbe db1f 3d3e eb1a 053e c1e7 2a3e
000002b0: 4024 87be af7e 9b3e 8d75 adbb 463d 8dbe
000002c0: 62e7 b53d 8f1b 7d3e c4b7 ecbd 3dfa ec3e
000002d0: d268 01bc 0c5f 183e f288 b43e a908 3dbe
000002e0: 270e d83d ced7 67be 72b7 283e a55e f03e
000002f0: d3be b63e e66f 233c 69a0 aabe f6a6 b7be
00000300: 3ab5 bfbe 9328 313e 004c a93e 0557 c3ba
00000310: 9e38 d5be babf c5be e2cb 84bd f78e a4be
00000320: 6b29 8b3e 0ec5 dbbc 4ef0 bc3d 6e04 863e
00000330: 86f2 cabb b796 c8be e4fb 013e 9f63 733e
00000340: 401e 81be 1f41 5b3e a649 eebe 8e83 473e
00000350: 2b9a a73e 3899 ae3e 2f52 18be 23b0 563c
00000360: eafc 9f3e 1efd 22be 35bf c73e 16eb 7e3e
00000370: 8dc7 ddbd 2e60 aabe a772 283e f67a 833d
00000380: 34e2 10be 35d6 ecbe f313 c73c a5b0 fdbd
00000390: d143 833e 35fd c93d e9e8 62be aa2e e2bc
000003a0: dc7f 483d 691e d93e 6a79 b83e fa8e c43e
000003b0: 1191 8cbe 0220 b4bc 1c0e 143c 35e3 7d3e
000003c0: f82a 5a3e c7ca 82be 84e8 af3e 783b 9bbe
000003d0: 4c15 c43e b326 ee3d 3338 a3bd b80b af3e
000003e0: 6c5f a3be 9093 cc3e fde2 263e eea0 cbbe
000003f0: fa2d 983c 2ab2 44be b754 f63c bb28 df3d
0.10974923 0.030734848 0.24725763 -0.20906031 -0.16623849 0.22777274 0.04987412 0.1454628
0.078353964 0.32685772 0.32788345 -0.23594339 -0.43450633 0.0073759607 -0.20418714 0.4591513
0.07928397 -0.17655046 0.3463253 0.40354884 -0.25249544 0.27100384 0.21396047 -0.30681646
-0.4255624 0.000496117 0.43826038 -0.13898234 0.38709232 0.32322598 -0.35823175 0.1340644
-0.050185703 -0.035719365 0.36518973 0.2700351 0.11823443 0.4281479 -0.32609987 0.10025493
-0.06094371 0.1689737 0.30241165 -0.2864801 -0.056303546 0.150588 0.24680798 0.15759137
-0.048164066 0.25230348 -0.15455157 -0.29588425 0.08447692 0.25188065 -0.423902 0.04886289
-0.003801169 -0.10797447 0.24401723 -0.3011585 -0.21156485 0.16395831 -0.35863894 -0.27729985
0.024749253 -0.123904556 0.3446571 0.4005485 0.41087186 -0.25661463 -0.11685348 0.1591353
0.35137865 0.16900375 0.12611467 -0.27463624 0.2125118 -0.38594273 -0.16376396 -0.092525244
0.11668762 0.27382007 0.3990467 -0.06824848 0.4209667 0.44491315 -0.09803011 -0.16540214
-0.10803753 0.40012872 0.1219276 0.40983215 0.24895206 -0.2587567 -0.13446175 0.08580145
0.18389459 0.0048018536 -0.30841592 0.30022654 0.029069874 0.3330757 0.42442018 0.34138024
0.13951442 -0.02493105 0.23359165 0.028613897 -0.03216295 -0.12825294 0.4216731 0.26738364
0.10259738 -0.46573937 -0.37665033 -0.3044995 -0.097662956 0.099018015 0.370877 0.2870215
0.24878278 -0.26611093 0.08154231 0.34492263 -0.2541452 0.24345377 -0.32087982 0.10218177
-0.16187873 -0.13571617 0.20402238 0.22204126 0.107994646 -0.10687783 0.1515557 0.3113548
0.41562638 0.26802298 0.36636117 -0.03603923 -0.39355013 0.35080343 0.25974116 0.2450413
-0.35178423 0.23819461 0.17652148 0.018064762 0.23975463 0.0151530625 -0.031215189 -0.16833206
0.46789593 0.20093618 0.28535214 -0.28898904 -0.39766002 0.04996129 0.28692007 -0.32031015
-0.2979584 0.18607038 0.11328509 0.008654027 0.11536975 -0.08832325 0.23438568 0.034109257
-0.23115952 0.18469183 0.1299855 0.1668997 -0.26394844 0.3037009 -0.005293554 -0.2758581
0.088820234 0.24717544 -0.11558488 0.46284667 -0.007898526 0.14880008 0.3526073 -0.18460335
0.10549574 -0.22640917 0.16476229 0.46947208 0.35692462 0.009975409 -0.33325508 -0.3586957
-0.37442952 0.17300634 0.33065796 -0.0014903253 -0.41644758 -0.38622838 -0.064842 -0.32140324
0.27180037 -0.026827361 0.09225522 0.26175255 -0.006193462 -0.39177486 0.12693745 0.23768471
-0.2521839 0.2141156 -0.46540564 0.19483778 0.32734808 0.34101272 -0.148751 0.013103518
0.31247646 -0.15916869 0.39013067 0.24894366 -0.10829077 -0.33276504 0.16449986 0.06419937
-0.1414879 -0.46257177 0.024301505 -0.12387208 0.25637677 0.098627485 -0.2215916 -0.027610142
0.04895006 0.42406014 0.36030132 0.38390332 -0.27454427 -0.021987919 0.009036567 0.24793704
0.21305454 -0.25545332 0.34357083 -0.3031881 0.38297498 0.11628475 -0.079697035 0.34188628
-0.3190874 0.3995633 0.16297527 -0.39771217 0.01857661 -0.19208589 0.030069692 0.108964406

fc1.bias f4 [10]
00000000: 7fec b7be bd2a bcbe fe01 96bd 7806 5bbd
00000010: 6d75 aabe 9b8f 683d afc6 0ebf 4b7f a8be
00000020: 02b2 8abe bab0 863d
-0.3592262 -0.36751357 -0.07324599 -0.053472966 -0.33292714 0.056777578 -0.5577192 -0.32909617
-0.27088934 0.06576677
