sandbox/snapshots3/model-8016.pt (torch, 71725 bytes, 8 tensors)

conv1.weight f4 [16, 3, 3, 3]
000000 ac f6 12 3f b5 c2 95 bf 99 70 96 3f 6d 25 97 be
       0.5740764 -1.1700045 1.1753112 -0.2952074
000010 99 7c 44 3f b2 17 9d 3f b2 11 f6 be 09 81 3b 3e
       0.7675262 1.2272856 -0.48060375 0.18310942
000020 03 4a a9 3f 46 7d 47 3f 5d 3d e7 be 77 63 90 3f
       1.3225712 0.7792553 -0.45164004 1.1280354
000030 e5 32 35 bf fc ca 5a be 80 e4 1e 3e 80 a3 52 3f
       -0.70780784 -0.21366495 0.15516853 0.8228073
000040 cb a8 a7 bf 85 cf 2e bf 86 ca 73 be e8 da 90 bf
       -1.3098387 -0.682854 -0.23807725 -1.1316805
000050 9f 5c c4 3e 8f 7e 84 be 11 5f 3e 3f d7 e5 80 3f
       0.38351914 -0.25877807 0.7436381 1.0070142
000060 06 f2 49 bf 49 e1 7f bf 06 2d 54 3e 1b 71 6a 3f
       -0.78884923 -0.9995313 0.207203 0.91578835
000070 81 6a 1f bf 63 54 4a be 81 26 b5 bf 9b 6e 7c 3f
       -0.6227189 -0.19758753 -1.4152375 0.9860627
000080 27 9e 3b bf d6 b6 54 be 88 0e 5f 3e 79 bd a4 3f
       -0.73288196 -0.20772871 0.21782887 1.2870322
000090 ad 4a 23 3f 00 3a 6e 3f 4c 98 8f 3f 0b 08 5f 3f
       0.6378582 0.9305725 1.1218352 0.8712165
0000a0 9d cd 8a 3f 9e 83 a1 3f 61 37 a4 3e 84 98 99 bf
       1.0843998 1.2618291 0.320735 -1.1999669
0000b0 7a a1 28 bf d8 98 ca be 0a 71 88 bf 9d 7c 89 3f
       -0.65871394 -0.39569736 -1.0659497 1.0741154
0000c0 b4 ab c6 3e ea 2a 86 3f bd 59 8b 3f 1a 7a a1 3e
       0.38802874 1.0481846 1.0886761 0.3153847
0000d0 0b 02 8a bf 26 b6 20 bf 2d 9e 31 bf 6d e4 5e 3e
       -1.0781873 -0.62777936 -0.6938198 0.21766825
0000e0 57 b6 35 3f 1b 0d 0f 3f 02 f3 9f 3f 2d c0 78 be
       0.70981354 0.5587937 1.2496035 -0.24292059
0000f0 99 bb d3 3e 86 58 b3 bf 84 e5 be 3f c8 5c 6f bf
       0.41354063 -1.401139 1.4913793 -0.9350095
000100 2b 3f b0 bf dd 8f 3d bf bc 68 ac 3f 1c de 4b 3f
       -1.3769277 -0.7404764 1.3469462 0.79635787
000110 ae 35 5c 3e cf c6 85 bf 64 07 b3 3e c1 f6 af bf
       0.21504852 -1.0451297 0.34966576 -1.3747178
000120 74 3c 82 bf 48 de 40 3f 58 ae a1 3f 1d 33 44 3e
       -1.0174699 0.75339174 1.263133 0.19160123
000130 dc f6 ff be 97 e4 10 3f ac 16 97 3e 87 fb d4 be
       -0.49993026 0.565988 0.29509485 -0.4159815
000140 f1 67 67 3f f1 53 5c bf c0 33 a4 3e 5f e4 96 bf
       0.90392977 -0.86065584 0.32070732 -1.1788443
000150 a9 de 7d 3f 20 89 86 3e c5 aa 31 be 88 31 1c bd
       0.9916788 0.26276493 -0.173503 -0.038133174
000160 38 90 19 be bb d7 55 3f d7 b9 4d bd bf e7 b9 3e
       -0.14996421 0.83532304 -0.05022606 0.3630962
000170 02 b3 43 3f b9 3a 9d 3e d4 f5 ac bf 01 c6 44 bf
       0.7644502 0.30708864 -1.3512521 -0.7686463
000180 6e 55 1e bf dd 76 ae be 2d 7c 08 bf fe a8 83 3f
       -0.61849105 -0.3407506 -0.5331448 1.0285947
000190 55 a8 e2 3e 35 e8 66 bf 51 ac 1d 3f 17 b5 59 3f
       0.44269052 -0.9019807 0.6159106 0.85041946
0001a0 6e bb b0 3f 85 39 29 bf ad c1 05 3f 84 e4 cc 3f
       1.3807199 -0.6610339 0.5224865 1.6007237
0001b0 c2 c9 98 3f 17 e4 f0 bd 83 07 53 3f 4a 97 40 3f
       1.1936572 -0.11762255 0.82433337 0.7523085
0001c0 ae 4c bb bf 04 95 29 bf ff da 8e 3f 44 69 8a bf
       -1.4632776 -0.66243005 1.1160582 -1.0813375
0001d0 07 7d 37 bf 8f e4 16 3f b7 aa 70 bf a9 02 a3 3f
       -0.7167515 0.589425 -0.9401049 1.2735187
0001e0 7d f4 0c be a4 28 28 bf fa f7 56 bf dd 8d a1 bf
       -0.1376514 -0.6568701 -0.8397213 -1.2621418
0001f0 da ff af bf e4 bf 81 3f 70 01 16 3e 0a 18 5c 3e
       -1.3749955 1.0136685 0.14648986 0.21493545
000200 f9 d3 c5 3e 12 2a 11 3f 2f c3 ad 3f 75 c0 92 bc
       0.38638285 0.5670482 1.357519 -0.017914036
000210 c6 5c c0 3b 89 d8 1c bf 60 b0 de bd f6 97 98 3f
       0.0058704345 -0.61267906 -0.108734846 1.1921375
000220 27 c7 e6 3e 4f 27 ae bf b9 2c 59 3e 1e 00 bc bf
       0.45073816 -1.3605746 0.21208467 -1.4687536
000230 1f 47 3d 3f 7f c3 16 3f aa 2f 77 bf 6e d6 87 bf
       0.7393665 0.58892053 -0.96557105 -1.0612314
000240 fa a0 87 bf f7 3c 03 3f d4 89 05 be 9f 86 57 3e
       -1.0596001 0.512649 -0.13040859 0.21047448
000250 46 62 5f 3f 02 08 b3 3f 14 b3 95 bd fd ae 73 bf
       0.8725933 1.3986819 -0.07309547 -0.95188886
000260 9d 60 87 be ee a3 2c bf e7 a1 f5 bc 7e b1 b9 bf
       -0.26440898 -0.67437637 -0.029984428 -1.4507291
000270 47 84 b7 3f 64 bd ae 3f a8 a5 43 3f 3a b0 a2 bf
       1.4337243 1.3651547 0.76424646 -1.271003
000280 02 de 0c bf 57 65 ea be 1b 80 75 bf f2 cf 58 3f
       -0.5502626 -0.4578044 -0.958986 0.846923
000290 f3 ad 86 3f f9 9a b4 bf f3 70 b2 3f b0 e8 90 3f
       1.0521835 -1.4109794 1.3940719 1.132101
0002a0 ce 21 b9 3f 75 53 c3 3f 99 fe 7e bf 50 6c 0c bf
       1.4463441 1.5259844 -0.99607235 -0.5485277
0002b0 2f 14 ad bf d5 06 8c 3f 4e 05 07 bf b5 a5 cc be
       -1.3521785 1.0939585 -0.5274247 -0.39970174
0002c0 49 6c 9d 3f 34 7f 5b bc 91 dc 58 bf 4b e6 8b bf
       1.2298671 -0.013397027 -0.8471156 -1.0929655
0002d0 b3 31 b6 bd 5f 8a 6f bf e9 55 1a 3f 67 36 5f bf
       -0.08896198 -0.9357051 0.6028734 -0.87192386
0002e0 bb e0 aa 3e a0 3c 3b bf 9c 22 ee be 9c 0d 4c bd
       0.3337458 -0.7313938 -0.4651078 -0.049817666
0002f0 40 b3 6c bf b7 09 b5 3f 4f ff a2 bf e1 98 b1 3f
       -0.92461014 1.414359 -1.2734164 1.387478
000300 ea 09 8c 3f b3 78 1a bf f6 41 c9 bf 26 ce 17 bf
       1.0940526 -0.6034042 -1.5723255 -0.5929893
000310 e7 19 a9 3f 75 29 8f 3e 05 19 8a bf 16 cc 8e be
       1.321103 0.27961317 -1.0788885 -0.2789008
000320 b3 70 8b 3f 46 68 63 3f ec 04 8f 3f b9 00 b3 3f
       1.0893768 0.88830984 1.1173377 1.3984596
000330 49 11 9a 3f 1e ce a4 3d 51 24 26 be e3 e4 ae 3e
       1.2036525 0.08047126 -0.16224791 0.34159002
000340 5e 41 c4 bf a1 f1 b1 bf 25 a1 b9 3d fe dd bf bf
       -1.5332448 -1.3901864 0.09063939 -1.4989622
000350 b1 30 8b bf 14 66 9a 3f 2f 50 ef be 7b 6c 73 3f
       -1.0874234 1.2062402 -0.46740863 0.95087403
000360 a9 90 04 3f 61 d6 a2 3f 1b 0f 44 bf 0f eb 62 3f
       0.51783234 1.2721673 -0.7658555 0.8863992
000370 de 26 c5 3e a7 29 9c bf 9f 88 a6 bf a8 5c b1 3f
       0.38506216 -1.2200211 -1.3010443 1.3856401
000380 f1 f4 74 bd bd d3 91 bf 7d e9 79 bf cb 8a 8f bf
       -0.059803907 -1.1392742 -0.976219 -1.1214231
000390 c9 91 56 3f 87 d4 6d bf 61 3f 4e bf 06 fa 98 3f
       0.838162 -0.92902416 -0.8056546 1.1951301
0003a0 f4 8f 9e bf 46 36 04 3e de f4 8e 3e 92 2a f6 3d
       -1.2387681 0.12911329 0.27921194 0.120198384
0003b0 91 89 83 bf f4 cc 2b 3f 03 93 9d bf 10 60 aa 3f
       -1.0276357 0.6710961 -1.231049 1.3310566
0003c0 da be 0c 3f 8c 6b bc be c1 3d ac 3f 78 2b 91 bf
       0.54978716 -0.36800802 1.3456346 -1.1341391
0003d0 63 bb 92 3f 81 d6 13 bf e2 bc 08 3f f2 de ea 3e
       1.1463436 -0.5774918 0.5341321 0.4587322
0003e0 a4 c9 f8 3d b2 47 ac 3f 9c e8 87 bf 37 50 77 3e
       0.12147835 1.345938 -1.0617862 0.24151693
0003f0 9d 32 f3 be 1f f9 09 bf 06 92 8f 3f 34 76 4c bf
       -0.47499552 -0.53895754 1.1216438 -0.79867864

conv1.bias f4 [16]
000000 66 eb 9c 3f b5 ed 83 bf d3 e6 05 3f 48 c0 a5 bf
       1.2259338 -1.0306917 0.52305335 -1.2949305
000010 c1 25 d0 3e 42 1d 1f 3f 0b 2e 67 bf ec d6 86 3c
       0.40653804 0.6215402 -0.9030463 0.016459905
000020 ee ff 34 3e a5 de 56 3f fe b2 f2 3e ec 00 ab 3f
       0.17675754 0.8393348 0.47402185 1.3359656
000030 0a 8f c0 bf 3d 46 59 bf 9c 56 24 3f 7a a9 3e 3f
       -1.5043652 -0.848728 0.64194655 0.7447735

conv2.weight f4 [32, 16, 3, 3]
000000 f8 c4 ba bd 10 7a 04 bf c8 fe 9d 3e a7 48 05 3f
       -0.091196 -0.5174875 0.30858445 0.52063984
000010 02 d2 fe 3d df db df 3d fe 01 e0 be e2 a5 22 3e
       0.124423996 0.10930609 -0.4375152 0.15883592
000020 1e 9f 01 be 9b 80 04 bf e7 0c 82 3e 91 61 0d bf
       -0.12658355 -0.51758736 0.2540047 -0.55227
000030 ca 4e b3 be 1a 8d 8a bd d5 9f 16 3f 82 25 af 3e
       -0.3502105 -0.06765194 0.58837634 0.34208304
000040 b2 f1 ee 3e 23 d8 80 bd a3 5e d7 3e 90 b6 17 bf
       0.46668774 -0.06291225 0.4206439 -0.59262943
000050 2d 82 c0 3e 34 ba 17 3f d7 40 fa 3d c4 a1 c2 be
       0.37599316 0.592685 0.122193985 -0.38014042
000060 fe 92 0e 3f 68 16 30 be de 5a 9c be 5d a0 00 bf
       0.5569304 -0.17196047 -0.30538076 -0.50244695
000070 e1 18 2c bf 98 5a 7c 3e 35 58 a4 3d cf d6 06 3e
       -0.6722546 0.24643934 0.08024637 0.1316788
000080 44 de bb bd de ac b5 bc b6 44 56 3e 24 6d 78 3d
       -0.09173253 -0.022177156 0.20924649 0.06065096
000090 34 98 8b 3d 7e 61 12 3f c9 1a 35 3e a2 0c 37 be
       0.0681614 0.5718001 0.17685999 -0.17875913
0000a0 d1 4c 28 bf 59 83 4b 3e 34 42 a0 3e 73 5d 9e be
       -0.6574221 0.19874324 0.3130051 -0.3093067
0000b0 be b5 ae be ff 01 8d bd e3 52 f5 be 05 9c aa 3e
       -0.34123033 -0.06885146 -0.479148 0.33322158
0000c0 92 fd e3 bd 86 fe 26 3f 9d 85 9e be 5a ba e0 3d
       -0.11132349 0.6523212 -0.30961314 0.10973044
0000d0 7c c3 00 bf 00 c2 2f 3e cb 23 34 be 2d 73 82 be
       -0.50298285 0.17163849 -0.17591779 -0.25478497
0000e0 af 5c b8 3e 45 e8 a9 3e 70 a9 02 3f bc 1f 14 3f
       0.36008212 0.3318502 0.5103979 0.5786092
0000f0 f6 6b 1a 3f 16 9a 43 be 2f 7e 0c 3f 83 7d 23 be
       0.60320985 -0.19101748 0.5488004 -0.15965848
000100 e6 fd e3 be 66 c9 58 3d c1 cf 1d bf 24 e8 19 3f
       -0.44529647 0.052926444 -0.6164513 0.60119843
000110 0f 7f 0e 3f 46 a2 eb be b9 74 d3 3e 77 ac 8e bd
       0.55662626 -0.46022242 0.4129999 -0.06966489
000120 02 02 69 be 10 be 1e 3f b5 a1 e4 be f4 bb a5 3e
       -0.22754672 0.6200876 -0.44654623 0.3236996
000130 8b 92 a4 be 4a 6a ce 3d bf eb b6 3d af 30 ff 3e
       -0.32143053 0.10078867 0.08931684 0.4984183
000140 53 60 04 3f 53 50 78 3e 62 9c 14 3e 5f 53 03 3f
       0.5170948 0.24249391 0.1451278 0.5129909
000150 7c 30 77 3e b0 1c 94 be a1 ab 07 3d 3d 07 93 be
       0.24139589 -0.28928137 0.033122662 -0.2871646
000160 84 cb 1d 3f e4 14 ed bb 00 77 2f 3e ec a1 20 bf
       0.61638665 -0.0072351564 0.17135239 -0.62747073
000170 1e 62 1b bf b2 4b ff be 12 b0 8d 3e a1 36 4c be
       -0.6069659 -0.49862438 0.27673393 -0.19942714
000180 af 15 a6 3e b9 66 00 3f b8 1c 89 3e 36 ad 5c 3c
       0.32438418 0.5015674 0.26779723 0.013469031
000190 50 08 27 bd 19 72 80 be c7 3e 07 bf 29 16 b8 be
       -0.04077941 -0.2508705 -0.52830166 -0.35954407
0001a0 90 b2 09 3f 31 e5 0e bf 68 62 c9 3c 79 c4 0d 3e
       0.5378809 -0.5581847 0.024583057 0.1384448
0001b0 26 be 5e bd 22 b0 7e 3a a8 49 e2 3e f7 a0 0e bf
       -0.05438056 0.0009715577 0.4419682 -0.5571436
0001c0 c7 a0 22 3f 13 c0 d1 3e 67 3f 20 3f 86 86 11 bf
       0.63526577 0.40966853 0.62596744 -0.5684589
0001d0 fc 7f f5 3d 0e 64 20 3f a5 15 7a 3e 53 ba 6a 3e
       0.11987302 0.6265267 0.24422319 0.2292264
0001e0 62 66 ed be 65 36 b5 3e ed a3 06 bf 37 b7 51 be
       -0.46367174 0.35393062 -0.5259388 -0.20480047
0001f0 6e 2b b3 3e 5c d7 ed bd b9 93 49 be 33 27 08 bf
       0.34994072 -0.11613342 -0.19685258 -0.53184813
000200 d1 3f 90 be f2 4d 26 3f 34 54 09 3f 51 c6 38 be
       -0.28173688 0.64962685 0.5364411 -0.18044402
000210 b0 23 f1 be d1 01 e3 3d 6d eb eb be 67 17 ef be
       -0.4709754 0.11084331 -0.46078053 -0.46697542
000220 d8 50 24 be e3 ec 66 be 0d 92 87 be 93 1f ae 3e
       -0.16046464 -0.22551303 -0.26478615 0.34008464
000230 7c 3b 18 bf c1 db 26 bf a9 14 14 bf 76 2d 0d bd
       -0.59465766 -0.6517907 -0.57844025 -0.034467183
000240 5f bb b9 3e bb 4e 03 bf ff a8 20 3f 58 14 16 bf
       0.36275765 -0.5129201 0.6275787 -0.5862479
000250 10 10 9d 3d 6c ca 08 bf 62 4c f3 be 36 fe d3 3e
       0.07669079 -0.5343387 -0.47519213 0.41404885
000260 2b be 14 bd 52 ec a0 bd d4 c2 b9 3d 85 84 06 3b
       -0.03631417 -0.078575745 0.09070364 0.0020525765
000270 5b 29 72 be fc 1b a2 3e d7 92 f6 3e f5 98 d8 3d
       -0.23648588 0.31661975 0.48158905 0.10576049
000280 b7 ec 55 be ce 72 0b 3f a0 c7 1a 3e 79 bf ad 3e
       -0.20891081 0.54472053 0.15115213 0.33935145
000290 51 d6 a7 be a3 21 47 3e 7e e4 b4 3e cf d7 b7 be
       -0.32780698 0.19446425 0.35330576 -0.35906836
0002a0 c0 3d ac 3e 7f 49 15 3f a3 95 2d 3c 47 d3 0c bf
       0.33640862 0.5831527 0.010594758 -0.55009884
0002b0 10 65 85 3d 54 0a 01 bf 90 dc df be a7 08 01 3e
       0.06513417 -0.50406384 -0.43722963 0.12600957
0002c0 68 ca a9 3e 45 d7 f0 3e 76 91 0e 3f 80 e7 3a be
       0.33162236 0.47039238 0.55690706 -0.18252373
0002d0 69 95 6a be 08 49 19 bf 79 1f f2 3e f0 49 cb bd
       -0.22908558 -0.5987706 0.47289637 -0.09926212
0002e0 87 8e dd 3e f0 b1 24 bf 61 00 f8 bc ef 97 a9 3e
       0.43272802 -0.6433401 -0.030273618 0.3312373
0002f0 1e 1a 78 be d0 7d ce 3e 4d 64 e0 be 7d 96 05 3f
       -0.24228713 0.40330362 -0.43826523 0.5218275
000300 d2 82 a7 be e7 db fb bb e2 66 ea 3e 99 e8 8e be
       -0.32716995 -0.0076861265 0.45781618 -0.27911833
000310 ac 04 23 bf 77 bc d0 3e bc c3 a2 3d 5d c4 f0 be
       -0.63679004 0.40768787 0.079474896 -0.47024813
000320 df 95 db be 5e 18 9b be 4b 07 ff bc 7c 4f 90 3e
       -0.4288778 -0.30292028 -0.031131407 0.28185642
000330 a5 2f 6f bc 64 6f 20 bf a2 fc d3 3e fb 31 89 3e
       -0.014598762 -0.6266997 0.4140368 0.26795945
000340 7c 8b 9d be e7 5b 0d bd 5f 97 33 3e 9e 51 0c 3f
       -0.3077048 -0.034511473 0.17538212 0.5481204
000350 32 18 82 3e 7f 0a 88 3d 14 5b 5b bb 7e 94 b2 be
       0.25409085 0.06642627 -0.0033471035 -0.34878916
000360 30 38 9f be a7 8e da 3e 0a 2b 6f be cd e1 50 3e
       -0.31097555 0.4268696 -0.23356262 0.20398636
000370 84 49 0a be 92 9c 05 3f 00 dc 05 bf 7c 5b 62 3b
       -0.13504606 0.5219203 -0.5228882 0.0034539392
000380 f6 9b 2b be db 80 36 3f 9e 38 bb 3e a5 ec d9 3e
       -0.16758713 0.7129037 0.36566633 0.42563358
000390 e4 5b a0 be fc 2f b4 3e 19 ed cb 3e d6 46 07 3f
       -0.31320107 0.3519286 0.3982933 0.5284246
0003a0 39 20 02 bf 77 1e e8 3d 1f 16 f7 bd ae f8 a1 3e
       -0.5083042 0.11333936 -0.12064766 0.3163504
0003b0 12 ac 83 3e b2 15 df 3e 02 60 09 be 64 1d 56 3e
       0.25717217 0.4357124 -0.1341553 0.20909649
0003c0 fa f7 a9 3d 7b 9b 05 be ca 63 14 bf 7c 0c 30 bd
       0.08299251 -0.13047592 -0.57964766 -0.042980656
0003d0 24 02 4a bc 85 03 3b 3d d2 99 14 be 1a 76 a9 3e
       -0.012329612 0.045657653 -0.14511803 0.33097917
0003e0 fe 1f 32 3f fd 96 9d be e8 28 8c be e4 aa f4 3e
       0.69580066 -0.30779257 -0.2737496 0.4778663
0003f0 69 1e 64 be 07 db 00 3f 49 59 c8 3c ac 73 8b be
       -0.22277226 0.5033421 0.024456637 -0.27236688

conv2.bias f4 [32]
000000 e3 51 26 bf db 7e f1 3e 16 5d 0f bf 69 e2 17 be
       -0.649687 0.47167096 -0.5600141 -0.14832462
000010 ce d8 7d be 61 c6 1d 3e 6b 9f e2 3e 69 4c d5 bd
       -0.24789736 0.15407707 0.4426225 -0.10414965
000020 7f 9d cb bd b3 0b b2 3d 6f ac ef be e5 79 0f bf
       -0.09942149 0.08693638 -0.46811244 -0.5604537
000030 4d 68 e2 bd fe 36 26 3e 5d 35 65 be f5 b0 c8 be
       -0.1105505 0.16231915 -0.22383638 -0.39197508
000040 c4 62 d2 be ac 49 92 3e 38 13 d9 be 05 d8 07 be
       -0.41090977 0.28571832 -0.42397475 -0.13265999
000050 dd 44 86 3d 80 4d 17 3f 1e 10 17 3f 1d f0 af be
       0.065561034 0.5910263 0.5900897 -0.3436288
000060 ad 20 29 3f fc 2c 0f 3e d9 a2 bf 3e dc 09 1e bf
       0.66065484 0.13982004 0.3742893 -0.61733794
000070 67 61 ed be f2 e4 22 3c 46 30 95 bd 8e e3 32 3f
       -0.46363375 0.00994228 -0.07284598 0.6987847

conv3.weight f4 [32, 32, 3, 3]
000000 2f 93 55 be 61 24 5e 3e c0 1d 8e 3d 65 c0 da be
       -0.20856927 0.21693565 0.06939268 -0.4272491
000010 d6 ba ac be 5f 52 e3 3e 57 7d 8c be ad d4 84 be
       -0.33736295 0.44398782 -0.27439377 -0.2594351
000020 13 b0 d2 3e a0 65 b8 3e ca f1 98 3e 31 bc 8d 3e
       0.4114996 0.36015034 0.2987197 0.2768264
000030 c0 c6 71 be 73 c8 df 3e 78 d5 1e be 13 04 8d be
       -0.23610973 0.43707618 -0.1551112 -0.2754217
000040 e0 1b a3 3e 07 80 96 be 9d ab 30 be c5 9d ce be
       0.31857204 -0.29394552 -0.17252965 -0.40354744
000050 db 73 bb 3e bd ea d6 3d 12 3a ac be 84 bc b8 3e
       0.36611828 0.104939915 -0.33638054 0.36081326
000060 04 18 d5 be 6f d4 43 3e 6d e2 98 3e 67 6b 3d be
       -0.41619885 0.19124006 0.2986025 -0.18498002
000070 a5 2e a0 3d 9c 3c ab 3e 55 a1 8f 3d 18 00 d5 be
       0.07821397 0.3344468 0.070131935 -0.41601634
000080 b7 2a 35 bd 3d 4e 36 3e 27 29 6d 3e d7 19 de bd
       -0.04423019 0.17803283 0.2316023 -0.10844772
000090 7e 2e b4 bd c0 46 3b be f7 7e f6 3e ab 52 df bd
       -0.0879793 -0.18288708 0.4814374 -0.109044395
0000a0 8f 86 a6 bd 5e b2 e8 be 76 a6 3f 3b 5a c5 34 3d
       -0.08131134 -0.45448583 0.0029243506 0.04413352
0000b0 93 a9 85 be 6c 5b aa 3e 61 aa 39 3e 33 2c a3 be
       -0.26105937 0.33272874 0.181314 -0.3186966
0000c0 70 b5 a8 bd dc c1 ad 3e ad cf 1c 3d 5a 91 e6 3d
       -0.082377315 0.33936965 0.038283993 0.11258192
0000d0 b5 2b dc 3d 5a 0e cf 3e 2a 8d 8c 3e 4f 75 4f 3e
       0.10750524 0.40440637 0.2745145 0.20259593
0000e0 1c 9b b8 3a 56 56 90 3d 3e 2d 49 be 47 8a eb be
       0.0014084312 0.07047717 -0.19646165 -0.46003935
0000f0 34 9e 7d 3e ae ed be 3e 24 0e b7 3d 69 54 4f be
       0.24767381 0.3729071 0.08938244 -0.20247044
000100 ac 20 ad be 6f 72 8c be 88 3d eb be 8e 3c 89 3e
       -0.3381399 -0.27431056 -0.45945382 0.26804012
000110 f0 8c 90 3e 13 6d f4 bd c0 53 be 3e 68 1b af bd
       0.28232527 -0.11934867 0.3717327 -0.08550149
000120 fb 61 f9 bd 53 71 b9 3e 6a 4d 0d be f5 ee 01 be
       -0.121768914 0.36219272 -0.13799062 -0.12688811
000130 9b 8f d0 3e 9e 97 6b be 95 26 d9 be ee ee a2 be
       0.40734562 -0.23007056 -0.42412248 -0.31822914
000140 dd b1 d7 be 42 26 9f bd 02 4d 32 3e 1a a6 b4 3e
       -0.42127886 -0.07770969 0.17412189 0.35282975
000150 7d 25 c0 be e4 c4 f8 3d e0 3b a2 3e ba 6c 96 3e
       -0.375286 0.12146929 0.31686306 0.29379827
000160 fc 07 89 3e e5 98 b4 3d 55 34 df bd da 30 54 3d
       0.26763904 0.08818225 -0.108986534 0.0518044
000170 86 9d b3 be 88 9c d3 3e 83 22 de be 4b 31 96 3c
       -0.35081118 0.4133036 -0.43385705 0.018334052
000180 20 73 f4 be b6 4a 40 be 3e f4 dd be 49 38 b2 be
       -0.47744083 -0.187785 -0.43350405 -0.34808567
000190 f9 dc c2 3d 84 4b 84 3e 96 b0 a3 be 51 d8 ba be
       0.095148034 0.25838864 -0.31970662 -0.3649316
0001a0 cf 58 10 3e 44 70 27 3e 8b 44 81 3e 87 f7 00 3e
       0.14096378 0.1635142 0.25247607 0.12594424
0001b0 d5 23 c9 3d 79 55 5e 3e 65 85 61 be b8 61 a5 3e
       0.098212875 0.21712293 -0.22023542 0.32301116
0001c0 06 dd 88 be 25 7f c9 bd 0c f7 19 bd 8a 47 ae 3e
       -0.26731128 -0.09838704 -0.037589118 0.34038955
0001d0 8e f8 ff bd 18 ee 95 be 92 5a d5 bd b4 2a d9 3e
       -0.1249858 -0.29283214 -0.104176655 0.42415392
0001e0 f3 33 77 3e 61 fd b0 be 62 ea 28 3e 13 89 7e be
       0.24140911 -0.34568313 0.1649566 -0.24856977
0001f0 3f 0e c4 be 49 ac 64 bc 13 06 e5 bd 37 60 43 3e
       -0.3829212 -0.013957092 -0.11182799 0.19079672
000200 25 46 c1 be f9 c0 a1 3e 33 57 f4 bd af e7 05 bf
       -0.3774883 0.3159254 -0.119306944 -0.52306646
000210 98 9e ae be b6 97 0d 3d 9f 6c bd 3e 6b c5 8b be
       -0.34105372 0.03456851 0.36996934 -0.27299055
000220 e7 59 5e 3d 3f 73 3e be ca 09 87 be 02 3e 92 bd
       0.054284956 -0.1859865 -0.26374656 -0.07140733
000230 73 67 b6 bd 2e b2 f4 be 63 cf 29 3e 1c f6 5c be
       -0.0890645 -0.4779219 0.16583018 -0.21578258
000240 b1 ad a1 3d 5b 61 9b bd 2d 8e c2 bd 8d 35 96 bd
       0.07894457 -0.075869285 -0.09499774 -0.07334433
000250 10 3a 82 be c6 8f 72 3d 4c 1e 10 3e e4 d1 67 bc
       -0.25434923 0.059219144 0.14074057 -0.014149163
000260 e6 1e 0a 3c 0e 76 3b 3e 3b a9 ab 3e 29 63 1b be
       0.008430218 0.18306753 0.3352755 -0.15174545
000270 53 d9 c3 be 2b c9 2b be b5 7b e1 3e 1f 5d 12 3e
       -0.38251743 -0.16775958 0.44039693 0.14293335
000280 b7 f7 c4 3d fc 1c 93 3e 00 32 9d be 3c 56 96 3d
       0.0961756 0.2873305 -0.3070221 0.07340667
000290 74 09 be 3d 93 24 b7 3e 03 2b 19 be bc 2a 11 be
       0.09279147 0.3577009 -0.14957814 -0.14176458
0002a0 b9 0b 19 3e e6 92 44 3e 33 6e 66 3c f6 6a 83 3e
       0.14945878 0.19196662 0.0140643595 0.25667542
0002b0 b7 16 4d be 1c 18 da 3d 4d 23 ab be c6 39 0f 3e
       -0.20028196 0.1064913 -0.3342537 0.13986883
0002c0 08 0f 1a be 48 5b bc be 33 92 cd be d1 5b c4 be
       -0.15044796 -0.36788392 -0.40150604 -0.383513
0002d0 0d de 98 be f9 6b 38 3d 2a 00 a6 be 08 de e4 be
       -0.2985691 0.045024846 -0.32422 -0.44700646
0002e0 43 e6 a3 3b 27 2f 1e bd c4 6d 17 3e 25 b8 ac bd
       0.0050018146 -0.038619187 0.14787966 -0.0843356
0002f0 55 10 a5 3e 6d 83 93 3e 26 27 9c 3d 50 7e 46 bc
       0.32239023 0.28811207 0.076246545 -0.012115076
000300 1a cd d8 be 20 41 f1 bc fe 86 0b be d2 00 85 3d
       -0.4234398 -0.02945 -0.13625714 0.06494297
000310 c8 46 ec bd 79 83 4e 3e ba a1 fb be 73 be d4 3e
       -0.11536938 0.2016734 -0.49146825 0.4155155
000320 cc 61 8f be 44 21 e4 3d 3b 8d 8e be 6d 2c ae 3d
       -0.280043 0.111391574 -0.27842125 0.08504567
000330 39 25 41 be 73 91 96 3d cf fd cd 3e bd b3 06 be
       -0.18861856 0.07351961 0.40232703 -0.13154502
000340 87 24 e9 3e f7 0d f2 be 66 1f 49 bd de ed 95 be
       0.4553568 -0.4727628 -0.04910221 -0.2928304
000350 07 9c 84 bd 65 53 f6 bc ad ff 75 bd 9e bb f4 bd
       -0.06475072 -0.030069062 -0.060058285 -0.11949848
000360 66 c4 e4 3d 9f 79 ab 3e 55 bb 56 bc d5 a1 4d be
       0.111702725 0.33491227 -0.013106187 -0.20081265
000370 9c e4 6f bd e5 86 01 3f ee 27 c2 3e 5d 45 9c be
       -0.05856763 0.5059646 0.3792109 -0.3052167
000380 0c e8 bc 3d 12 fd 4c 3d 05 10 54 3e ba 20 96 be
       0.09223947 0.050046034 0.20709236 -0.29321843
000390 1a 6b 83 3e 5c b9 3f be 52 54 7f 3e ea f8 24 be
       0.2566765 -0.18723053 0.2493451 -0.16110578
0003a0 5d 5d e2 be 28 c2 92 bd e2 32 e0 3e 68 38 1d 3e
       -0.44211856 -0.071659386 0.4378882 0.15353549
0003b0 08 92 7a be ea c1 1c be 3d d6 ad bd ac bc 5f 3e
       -0.24469769 -0.15308347 -0.08488128 0.21849316
0003c0 b7 c1 b2 be b1 d7 2a be 3f a7 cc 3e e3 1c 7e 3e
       -0.34913418 -0.16683842 0.3997135 0.24815707
0003d0 28 58 2c 3e 0c bb d8 3c fe ab b0 3e 5e 98 a0 bd
       0.16830504 0.026456378 0.3450622 -0.07841562
0003e0 ec 6a 9a 3d 8c a6 5b be a1 fe cc 3e dd a4 97 3e
       0.07539925 -0.21450251 0.40038016 0.29617968
0003f0 c4 19 91 be 1c 7f 8f be 05 8c bd 3e 04 d7 c1 3e
       -0.2833997 -0.28026664 0.3702089 0.37859356

conv3.bias f4 [32]
000000 3b 0f 85 3d bd a8 09 3e d0 a3 c7 3d b2 cc f9 be
       0.064970456 0.13443275 0.09748042 -0.48788983
000010 e1 0c 7b be 9b 95 d9 bd f5 29 7d 3e 7d d5 03 bf
       -0.24516632 -0.10624238 0.24723037 -0.5149763
000020 8e ff 02 be 41 2a ba 3d 87 6a 40 be 8c 8c c6 be
       -0.12792799 0.090900905 -0.18790637 -0.38779104
000030 05 7b a5 bd fe 02 c3 3e be c8 84 be 1b fb ba 3d
       -0.08080105 0.3808822 -0.25934404 0.09129926
000040 d7 ec 2e 3e c7 59 f3 bc 20 77 c2 3e a9 14 3b 3e
       0.17082535 -0.029705895 0.3798151 0.182696
000050 84 b5 50 3e e0 af c7 be 4a f0 b3 bd 84 ac ff be
       0.20381743 -0.3900137 -0.08786066 -0.49936306
000060 af 57 3b 3e ff 72 15 3e a8 19 c0 be 31 a9 69 bd
       0.18295167 0.14594649 -0.37519574 -0.05704612
000070 62 8f 65 3e dc e5 1e be 5e c5 ce 3d af 7b f8 3e
       0.22417977 -0.15517372 0.100962386 0.48531863

fc1.weight f4 [10, 288]
000000 4e f8 e3 3d db b9 30 3d 8b 33 73 3e c7 85 4f be
       0.11131345 0.043145996 0.23750131 -0.20265876
000010 5f 3a 2f be 4c 72 66 3e 91 72 7c 3d 40 20 22 3e
       -0.1711211 0.22504538 0.061632697 0.15832615
000020 c1 d2 b2 3d 49 de a6 3e 91 73 a7 3e 08 ed 70 be
       0.08731604 0.32591465 0.32705358 -0.2352792
000030 b0 cd dd be c1 fb ee 3b ad 78 50 be 52 61 ea 3e
       -0.4332099 0.007293195 -0.20358534 0.45777375
000040 be 1e a2 3d a2 54 34 be 98 bf b0 3e b1 f7 cd 3e
       0.0791602 -0.1761041 0.34521174 0.40228036
000050 86 e6 80 be 44 5e 8a 3e 28 71 5a 3e 36 aa 9c be
       -0.25175875 0.27025044 0.21332228 -0.3059861
000060 25 37 d9 be 75 ce 01 3a 55 93 df 3e 62 14 0e be
       -0.42424884 0.0004951724 0.43667093 -0.13874963
000070 e9 26 c5 3e 4e 2c a5 3e 9c d4 b6 be a8 89 08 3e
       0.3850625 0.32260364 -0.35709083 0.13333762
000080 18 63 49 bd fe f2 12 bd 94 64 ba 3e d0 dd 89 3e
       -0.04916677 -0.035876267 0.3640486 0.26927042
000090 4b e5 f0 3d ef a6 d9 3e 97 85 a6 be ec 35 c9 3d
       0.11762484 0.42510173 -0.32523796 0.09824738
0000a0 fd 90 80 bd ed 63 2a 3e 8a 96 9c 3e 9b be 90 be
       -0.06277654 0.16639681 0.30583602 -0.2827042
0000b0 06 d9 65 bd 9e af 1a 3e 85 f6 67 3e 8c bf 1f 3e
       -0.056115173 0.15106055 0.22652633 0.15600413
0000c0 c1 a6 20 bd 8a eb 88 3e 55 1b 05 be 13 73 91 be
       -0.03922153 0.26742202 -0.12998708 -0.28408107
0000d0 70 8d b1 3d 71 d6 7d 3e 39 6e d8 be 25 45 49 3d
       0.08669555 0.24788834 -0.42271593 0.049138207
0000e0 7e 5e 3d bb bd cf db bd 0f 66 78 3e 8f 0a 98 be
       -0.0028895433 -0.10732982 0.24257682 -0.29695556
0000f0 db 30 58 be 74 4b 27 3e 7c 39 b7 be c0 a6 8d be
       -0.21112387 0.16337377 -0.35786045 -0.27666283
000100 86 24 c8 3c 13 14 fd bd 9e cf af 3e ba c7 cb 3e
       0.024431478 -0.123573445 0.34338087 0.39800817
000110 18 4b d1 3e ee 29 83 be 7f 95 ef bd bc fa 21 3e
       0.40877604 -0.25617927 -0.11698436 0.15818304
000120 e9 5f b0 3e 91 2d 29 3e 04 1c f1 3d dc b5 8c be
       0.34448174 0.16521288 0.11772922 -0.27482498
000130 ac 13 52 3e 08 3a c3 be 54 18 25 be e3 8d bd bd
       0.20515317 -0.38130212 -0.16122562 -0.09255578
000140 6f df ed 3d c4 54 8b 3e e9 64 cf 3e 67 b4 88 bd
       0.11614882 0.2721311 0.40506676 -0.06675034
000150 3a b4 d9 3e 42 2a e3 3e cb c3 bf bd a3 61 29 be
       0.42520314 0.44368178 -0.093635164 -0.16541152
000160 64 2b dd bd 52 16 ca 3e 7d c0 f6 3d b8 eb cf 3e
       -0.10799292 0.39470154 0.12048433 0.40609527
000170 83 0a 7e 3e 10 09 84 be 8b d7 08 be d3 3f ae 3d
       0.24808697 -0.25788164 -0.13363473 0.08508267
000180 2c 7f 3c 3e 52 1f 6e 3b 9f cd 9d be 9c 01 98 3e
       0.18407887 0.0036334586 -0.3082094 0.29688728
000190 5c fa d0 3c a6 f3 ad 3e 39 e1 d6 3e a3 d3 a9 3e
       0.025510006 0.33974952 0.41968706 0.33169279
0001a0 95 4c 16 3e 47 42 20 bd ae a9 5a 3e c7 59 05 3d
       0.14677651 -0.039125707 0.2135379 0.03255632
0001b0 bd 73 03 bd ff 06 03 be 95 26 d7 3e 02 86 88 3e
       -0.0320928 -0.12795638 0.42021623 0.2666474
0001c0 01 68 d1 3d 8a cd ed be 80 33 c0 be 5f 6a 9b be
       0.10224915 -0.46445876 -0.3753929 -0.30354592
0001d0 df 9e c6 bd 76 41 cd 3d 0f ff bb 3e b2 6c 8f 3e
       -0.09698271 0.10022251 0.36718032 0.28012615
0001e0 6f 6b 7c 3e a5 55 87 be 93 d6 a2 3d 41 5f b0 3e
       0.24650358 -0.2643253 0.07951083 0.34447673
0001f0 02 9f 80 be c8 15 75 3e de fa a2 be 35 95 ce 3d
       -0.25121313 0.2393409 -0.3183202 0.10087053
000200 30 91 25 be e1 1a 0a be 08 42 4c 3e 62 a2 60 3e
       -0.16168666 -0.13486816 0.19947064 0.21936944
000210 23 48 da 3d ac 64 d5 bd 94 b5 16 3e 76 b3 9e 3e
       0.1065829 -0.10419592 0.14717704 0.30996293
000220 24 19 d4 3e 3b d0 88 3e 22 fa ba 3e ee 3e 11 bd
       0.4142543 0.26721367 0.3651896 -0.035460405
000230 29 ee c8 be e0 fd b2 3e 31 96 84 3e 12 d6 79 3e
       -0.39244202 0.34959316 0.25895837 0.24398068
000240 71 c5 b4 be 4a 38 73 3e 4c 3d 34 3e 25 49 67 3c
       -0.35306886 0.23751941 0.17601508 0.01411656
000250 3d d1 74 3e 8d 93 77 3c 58 40 0a bd 8d e5 2b be
       0.23907943 0.015110862 -0.03375277 -0.16786785
000260 0e df ee 3e 5f 28 4d 3e 90 99 91 3e f1 64 93 be
       0.46654552 0.20034932 0.2843747 -0.2878795
000270 e4 07 cb be 3e a0 4b 3d 10 75 92 3e 42 42 a3 be
       -0.39654458 0.049713366 0.28604937 -0.31886488
000280 fe 14 98 be a8 21 3e 3e 34 16 aa 3d 30 43 e2 3c
       -0.29703516 0.18567526 0.08305016 0.027619928
000290 e2 68 92 3d 57 71 f1 bc 2b e4 59 3e 6d f5 8a 3d
       0.07148911 -0.02947299 0.21278445 0.067850925
0002a0 e8 3f 46 be cd d5 03 3e 5f 42 05 3e 11 6e 2a 3e
       -0.19360316 0.12874527 0.130136 0.1664355
0002b0 b0 c0 86 be 0f 10 9b 3e d5 f5 ac bb b6 d9 8c be
       -0.26318884 0.3028569 -0.005278329 -0.2750985
0002c0 a2 62 b5 3d 7f 5f 7c 3e c4 06 ec bd 3d 49 ec 3e
       0.08856703 0.24645804 -0.11524728 0.46149626
0002d0 02 53 08 bc b2 4e 18 3e f6 cc b3 3e 50 ea 3c be
       -0.008320572 0.1487377 0.3511731 -0.18448758
0002e0 07 b7 d6 3d e6 69 67 be 9b 39 28 3e 2f 83 ef 3e
       0.104841284 -0.22598991 0.16428225 0.46779773
0002f0 55 bc b5 3e 8f 9b 1c 3c 7b 2d aa be ec 8f b7 be
       0.35495248 0.009558572 -0.33237824 -0.3585199
000300 48 11 bf be b2 60 2f 3e 5b 2f a9 3e 12 1c ce ba
       -0.37317872 0.1712673 0.33043942 -0.0015724918
000310 cf b2 d4 be 61 68 c5 be ef 81 84 bd 86 20 a4 be
       -0.4154267 -0.38556197 -0.06470095 -0.32056063
000320 d8 b9 8a 3e d3 77 db bc 12 d6 bb 3d f1 e3 85 3e
       0.27094913 -0.026790535 0.0917169 0.26150468
000330 ba 08 ce bb 6d 24 c8 be 0d d7 02 3e 34 82 72 3e
       -0.0062876614 -0.3909029 0.12777348 0.23682481
000340 90 cb 80 be e6 3d 5a 3e a6 98 ed be cc fb 46 3e
       -0.25155306 0.21312675 -0.46405524 0.1943199
000350 f9 01 a7 3e 78 14 ae 3e 8f e3 17 be cd c2 4f 3c
       0.32618693 0.3399999 -0.148329 0.0126807215
000360 7b e9 ab 3e d5 54 28 be 65 2f c7 3e 14 9c 7b 3e
       0.3357657 -0.16438611 0.38903347 0.24571258
000370 52 58 da bd 58 d5 a9 be 36 88 22 3e 56 96 2a 3d
       -0.10661377 -0.3317058 0.15872273 0.041647278
000380 33 c5 10 be 4b f6 eb be c6 a1 c6 3c 55 5b fd bd
       -0.14137726 -0.46086344 0.024247061 -0.12370936
000390 7c c4 82 3e 07 9c cb 3d 7b 5c 62 be 92 9f e2 bc
       0.2554053 0.09941869 -0.22105591 -0.02766398
0003a0 b7 9d 48 3d f9 4e d8 3e 55 c1 b7 3e cd d4 c3 3e
       0.048978534 0.4224775 0.35889688 0.38248292
0003b0 82 44 8c be 02 95 b3 bc 32 ea 0a 3c bd 25 7d 3e
       -0.27396017 -0.021921638 0.008478688 0.24721427
0003c0 1e 4e 59 3e f2 68 82 be ec 63 af 3e da 9a 9b be
       0.21221206 -0.25470692 0.34255922 -0.3039158
0003d0 28 85 be 3e 82 3a ec 3d 0b 60 ab bd ed 0b ae 3e
       0.37210965 0.11534597 -0.08367928 0.33993474
0003e0 5e ad a0 be 99 c0 cb 3e f9 51 24 3e c2 f2 c8 be
       -0.3138227 0.39795378 0.16046895 -0.3924771
0003f0 e1 1a 97 3c e4 5f 44 be 1e 1d fa 3c d7 d1 dd 3d
       0.018445434 -0.19177204 0.030531462 0.108310394

fc1.bias f4 [10]
000000 93 b5 e3 be b9 a7 ce be 5a 3f af bd 4f 44 fa bc
       -0.44474468 -0.40362337 -0.08557005 -0.03055015
000010 9c 43 3c be 2c 61 ee 3b e8 fc b3 be 22 d5 21 be
       -0.18385166 0.0072747674 -0.3515389 -0.1580396
000020 5b ad c0 be c8 e4 67 be
       -0.3763226 -0.22645867
