sandbox/snapshots/mnist/model-5328.pt (torch, 26159 bytes, 6 tensors)

conv1.weight f4 [8, 1, 5, 5]
000000 1d 91 8b 3c ea 7e 0d be 8e 92 fc 3d 5c 88 9a bd
       0.017036969 -0.13817945 0.123326406 -0.0754554
000010 00 0c 6e bd f0 3e 0d 3e 10 84 55 bd 03 3c 5b bc
       -0.058116913 0.1379354 -0.052127898 -0.013381007
000020 d4 39 01 3c 4d 54 8d 3d d3 d8 24 be ee a9 80 3d
       0.007887322 0.06900845 -0.16098337 0.062824115
000030 92 a7 91 bd 0a 50 b2 bd 0e 4b e3 bd 61 54 84 bd
       -0.071120396 -0.087066725 -0.110983 -0.064614065
000040 da 49 bf bd da 20 08 3c 9e 98 3f bc 98 82 52 bd
       -0.09340258 0.008308614 -0.011694102 -0.051394075
000050 15 21 fd bd ab dd a7 bd 1a c6 e3 3d 30 48 1a 3e
       -0.123598255 -0.08196577 0.11121769 0.150666
000060 d0 7a e5 3d a5 b6 13 be 6f f2 61 3d bf d3 62 3e
       0.11205065 -0.14425142 0.055162843 0.22151087
000070 ea 75 57 3e 63 d8 b1 3e 77 e5 15 3d d2 9a ff bc
       0.21041074 0.34735402 0.036595788 -0.031201754
000080 f9 06 28 3e f7 04 f0 3d 92 33 b8 3d 81 7f db bd
       0.1640891 0.11719697 0.08994211 -0.10717679
000090 c9 60 6d be ab 39 54 be 8e 3f 84 be d7 98 d5 bd
       -0.23181452 -0.20725124 -0.25829738 -0.104295425
0000a0 c6 aa 40 3e 57 33 12 be d6 62 99 3d 10 6b f7 bd
       0.18815145 -0.14277397 0.074895546 -0.120809674
0000b0 c1 05 1a be 2d f3 82 3d bb c2 7d 3e 6e 0f 44 bd
       -0.15041257 0.06394038 0.24781315 -0.047866277
0000c0 6c b4 ee 3d e1 24 87 3c 1f d4 39 3d 2a a8 7b 3e
       0.116555065 0.016497077 0.04536831 0.24575868
0000d0 7a 8d 21 3e 4e 87 2f bd 80 0b a7 3d 95 3d c6 bd
       0.15776625 -0.042853646 0.0815649 -0.096797146
0000e0 d5 90 80 3e b4 3f ca 3d b2 64 4a be e6 f2 df bd
       0.25110498 0.09875432 -0.19764975 -0.10935001
0000f0 0f 3b 95 bb f5 83 c8 3c 29 43 89 3d b7 cb 29 bd
       -0.0045541595 0.024476985 0.06702263 -0.041454043
000100 cc ad 29 bd 1b 41 1c 3e 9f c9 26 3e 83 c4 c8 bd
       -0.04142551 0.15259211 0.1628785 -0.09803107
000110 7f d3 75 bd 79 f3 19 be d9 38 bd 3d db 93 02 3e
       -0.06001615 -0.15034284 0.092393585 0.12751715
000120 33 d5 a1 bd 34 b1 89 3d e7 3a 2d be 5c 24 29 be
       -0.07901993 0.06723252 -0.16917 -0.16517776
000130 d5 cd 6d bd ed 0f 3e be 88 b2 0d 3e 47 81 32 3d
       -0.058057625 -0.18560763 0.13837636 0.04358032
000140 36 9a 55 be ee 5a 42 3d bc e3 10 be ce c6 0f 3e
       -0.20859608 0.04745 -0.14149374 0.14040682
000150 4b b3 41 bb 5f 43 09 be 58 f3 de bd b7 79 0c be
       -0.002955633 -0.13404606 -0.10886258 -0.13718306
000160 03 20 83 3e e3 66 8b 3e d9 3c 53 3d 1c 19 c4 bd
       0.2561036 0.27226934 0.0515717 -0.09575102
000170 6c fe 82 3e dc fd 41 bc 75 16 59 3e ec 12 7a be
       0.25584733 -0.01184031 0.21199973 -0.2442128
000180 d2 83 22 bd 7b ee 96 3e 35 44 78 3e 0b a7 34 bd
       -0.039676495 0.2947882 0.24244769 -0.044104617
000190 ea cb 5b bd 0b 20 ae bc c6 b8 4a be 56 2e 5d bc
       -0.053661264 -0.021255514 -0.19797048 -0.013499817
0001a0 c4 35 6f bd 99 23 e3 bd 1b 87 e8 3d 22 33 ac bd
       -0.058400884 -0.11090774 0.11353894 -0.0840819
0001b0 f2 49 4a bd 2a f5 cc bd 02 09 10 be 6f dc 85 3a
       -0.049386926 -0.10007699 -0.14065936 0.0010212789
0001c0 cc 18 05 3e 88 37 df 3d 28 2b 91 3b 06 ab 4b 3d
       0.1299774 0.108992636 0.0044301935 0.049723648
0001d0 58 06 30 3e 43 cf 58 be 47 16 c8 bc 9e fa a0 3b
       0.1718992 -0.21172814 -0.024424685 0.0049126884
0001e0 fc 88 11 be 31 65 24 3e 96 42 2d be 71 a0 17 3e
       -0.14212412 0.16054226 -0.16919932 0.14807297
0001f0 5b 54 82 bd 34 f8 0e be 62 02 a8 3d 10 19 5e bc
       -0.06363746 -0.1396187 0.082035795 -0.01355578
000200 40 18 55 be a6 c4 eb bd 4d 46 59 bd b1 d6 33 bd
       -0.20810032 -0.11512117 -0.05304556 -0.043905918
000210 56 f2 ec bd 91 15 b2 bd 67 ab 95 be 02 08 b2 3e
       -0.115696594 -0.0869552 -0.29232332 0.34771734
000220 41 da 97 3c e1 4f 2d be 36 18 59 be 81 ae 35 bd
       0.018536689 -0.16925003 -0.21200642 -0.044355873
000230 d6 a8 85 3e 39 e3 e0 3e b4 1d ac 3e 2e f8 45 3e
       0.26105374 0.43923357 0.33616412 0.19332954
000240 8b d9 72 3e 90 0e cb 3e a0 82 d5 3e 38 1c ed 3d
       0.23715799 0.39659548 0.4170122 0.11577648
000250 55 4f a5 3e 7b 4a 5e 3e 72 27 5d be f2 42 5b be
       0.32287088 0.217081 -0.21597078 -0.21412256
000260 7d f5 fa bd 3d 13 f2 3d b6 0e 6e 3e ca 8e 3e be
       -0.122538544 0.11820076 0.232478 -0.18609157
000270 4a af 00 3b d5 ef 33 bd 2c fd 01 3e 96 0a 03 3e
       0.001963573 -0.043929894 0.12694234 0.12797007
000280 f8 d0 6a be a8 88 0c be 65 c0 e5 bd d1 6c 97 3e
       -0.22931278 -0.13724005 -0.11218337 0.29575208
000290 1d c1 66 3e 35 6d 73 be 81 9b bb bd 71 aa 6e 3e
       0.22534604 -0.23772128 -0.091605194 0.23307206
0002a0 76 03 79 3e 60 a4 b4 3d 47 2c 94 3c 56 16 13 3e
       0.24317726 0.088204145 0.01808752 0.14363989
0002b0 16 f6 74 3d d3 eb 6d 3e 81 5b 7c bc 0c 8f 25 3e
       0.059805 0.23234491 -0.015402676 0.1616785
0002c0 a7 f6 2f 3e 38 f5 30 3e 91 41 19 3e 92 a6 11 be
       0.17183934 0.17281044 0.14966418 -0.14223698
0002d0 64 57 6c 3e 32 2f f7 3e 27 0e 27 3f eb 66 a1 3e
       0.23080212 0.48278195 0.6525597 0.31523833
0002e0 db 28 8a 3e df ae 82 3e c6 1a d4 3e c9 c6 0b 3f
       0.26984295 0.2552404 0.41426677 0.546002
0002f0 c7 51 1f 3f cb e1 ea bc 67 56 8f 3e 0e 16 37 3f
       0.6223416 -0.02867212 0.27995607 0.7151803
000300 d5 e0 41 3f 64 de fa 3e f2 ed 57 3e ff 52 6a 3e
       0.7573369 0.48997796 0.21086863 0.22883223
000310 86 07 d7 3e b5 71 25 3f b8 f2 da 3e fa 2e 54 bc
       0.41997927 0.6462663 0.42763305 -0.012950653

conv1.bias f4 [8]
000000 3f eb 50 bd 61 68 13 3d d5 f0 3e bd 32 05 99 bd
       -0.0510056 0.035988215 -0.046616394 -0.07471694
000010 6a 03 fd bd 61 b1 36 3d 9d 83 b7 3d 5e ea fa 38
       -0.12354167 0.044602755 0.0896065 0.00011964583

conv2.weight f4 [16, 8, 5, 5]
000000 26 29 f2 ba be 33 55 bc 2d a0 6f bd a6 e1 2d bb
       -0.0018475398 -0.013012825 -0.058502365 -0.0026532202
000010 2b 19 9c bc 7d 2e 65 3d f7 e6 85 bd b4 3c d6 bc
       -0.01905497 0.055952538 -0.06538194 -0.026151992
000020 17 c5 c5 bc 11 4f e9 bb d5 bf 7c bd fc 28 52 bd
       -0.024141831 -0.007120021 -0.061706383 -0.051308617
000030 7e 3e 06 bc 97 69 b2 bc d0 f8 33 3d bd b4 f8 bc
       -0.00819361 -0.021778865 0.043938458 -0.03035962
000040 97 c3 7c 3c 85 3a 84 3d 50 b4 8a bc 7f 14 5f 3d
       0.015427492 0.06456474 -0.016931683 0.054462906
000050 cd 25 43 bd 05 38 d0 3c e7 ed 13 3c 6c ad 1f bb
       -0.04764347 0.025417337 0.009028888 -0.0024364842
000060 62 ec a3 bc c2 94 9b 3d 51 23 1e bd 0c 9b 61 3d
       -0.020010177 0.07596733 -0.0386079 0.055079505
000070 a7 b3 1a bd db e3 25 bb 6b 7d 78 3d 37 b9 ba 3b
       -0.037768986 -0.0025312814 0.060666483 0.005698349
000080 b7 f8 2a bd e8 88 3d 3c c8 08 b0 3a ce 09 7e bd
       -0.0417411 0.0115682855 0.0013430351 -0.06202107
000090 90 46 80 3d d1 16 47 3d 6b 18 a5 3d 7c 17 cf 3c
       0.06263459 0.048605744 0.08061298 0.025279753
0000a0 91 bf 4d 3d 4a ae 3f 3d 16 58 92 3c 96 d9 81 3d
       0.05023152 0.046797074 0.017864268 0.06340329
0000b0 5e 99 57 bd 49 66 c8 3d db e4 d1 ba 97 76 83 3d
       -0.052636497 0.09785134 -0.0016013639 0.064191036
0000c0 12 a2 8f 3c 8c b4 55 bb 3d 84 41 bc e4 eb 33 3c
       0.017533336 -0.0032608835 -0.011811313 0.010981534
0000d0 88 35 4e bd 1f b5 44 3d 51 41 5f bd fb ab d6 bc
       -0.05034402 0.048024293 -0.05450565 -0.026205054
0000e0 6a 02 da 3c 47 f2 0a 3d ce 5b 91 ba b2 4e 6c 3d
       0.02661248 0.03392246 -0.0011089982 0.057692237
0000f0 9f 37 52 bd be ff 5b bd bf 5e 31 3d 9a 22 88 3d
       -0.051322576 -0.05371069 0.043303248 0.06647225
000100 77 d9 94 3d 78 9f 0c 3d 24 e3 25 3a 80 c5 8e 3d
       0.072680406 0.03433177 0.0006328097 0.06971264
000110 0b 36 83 3d 1e 4b 8b 3d 86 04 1f 3d b5 83 68 3d
       0.06406792 0.06801437 0.038822673 0.05676623
000120 88 7d 9f 3d fc 7c 05 bc 70 40 d9 bc 45 02 53 bd
       0.07787615 -0.008147474 -0.026519984 -0.051515836
000130 aa 81 d9 bd b0 a6 4a bd df d0 9a 3d 89 75 2a 3d
       -0.106204346 -0.04947537 0.0755937 0.041615997
000140 67 ba 03 bc c1 6e d3 3b 79 4e d4 bc 08 9f f5 3d
       -0.008040047 0.006452412 -0.025916325 0.119932234
000150 66 4b 8f 3d 47 cb 67 bd 6e 5c 84 bb 20 96 b2 bb
       0.06996803 -0.056590345 -0.004039339 -0.005450025
000160 30 6c 35 bc 47 36 40 3d 84 24 fe 3c 5a 27 9c 3d
       -0.011073157 0.046926763 0.031023271 0.07624693
000170 cb a5 8a bd c1 3f 26 3c 16 1e 80 bd 10 98 d6 3c
       -0.06769904 0.010147036 -0.062557384 0.026195556
000180 0a 0a 5c bd 25 af 55 bd 2d 4a 8c bc 35 ec 99 bd
       -0.05372051 -0.052168984 -0.017125214 -0.07515756
000190 1e a2 4f 3d 9f 88 5b 3d 87 49 19 bd ed 56 61 bd
       0.050691716 0.05359709 -0.037423637 -0.05501454
0001a0 19 c4 5f bd ce 35 b0 3b 30 dd 4f 3d 9b 4d a5 bc
       -0.054630373 0.005377508 0.05074805 -0.020178607
0001b0 ec 09 a2 bc f7 3a 4e 3d c3 75 cb 3c cf be 5b 3d
       -0.019780122 0.050349202 0.024836427 0.053648766
0001c0 f3 d7 0f bc 74 7b 94 3c 00 66 95 3c 1c 44 68 bd
       -0.008779514 0.018125273 0.018237114 -0.05670558
0001d0 49 27 35 bc 95 8e 57 bd fa ca 87 bd f3 23 8e bd
       -0.01105673 -0.05262621 -0.066305116 -0.069404505
0001e0 66 02 ce 3c d3 78 6c bd 83 ef 69 bd 07 cd 88 3d
       0.025147628 -0.057732414 -0.05711318 0.06679731
0001f0 67 27 ab ba 16 08 83 bc fe 0a 10 3d bb 15 9a 3c
       -0.0013058007 -0.015995067 0.035166733 0.01880919
000200 1b a0 6e bd 82 82 be 3d 08 2c b8 3c 6f 4a 10 3c
       -0.058258157 0.09302236 0.022481933 0.008806809
000210 a4 e1 77 3c 1f 4d dd bc e9 89 11 3d 9f c8 fd bb
       0.0151294805 -0.027014313 0.035531912 -0.007744863
000220 b1 b1 ce 3a 6b 73 ab 3d c8 8d 18 3d b3 e1 4d 3d
       0.0015769509 0.083716236 0.037244588 0.05026407
000230 81 ec ad 3d 9c 74 c5 bc 13 a7 72 bd 2e dd 92 bb
       0.08492375 -0.024103455 -0.059241366 -0.004481933
000240 83 6e 5c 3c fc ad 8d bd e9 56 ab bd 1e 41 c6 bd
       0.013454082 -0.069179505 -0.08366186 -0.09680389
000250 48 f2 2e bd 41 ea 09 bb 79 bf 84 3d 3b b1 a8 bc
       -0.042711526 -0.0021044167 0.06481833 -0.020592323
000260 77 92 a5 bd 2f 97 70 bd d4 b4 f1 3b 59 30 60 bd
       -0.080845766 -0.05873793 0.0073762927 -0.054733608
000270 6c 8d 96 3c 5a 42 c7 3d 42 a8 ef 3d 08 db 1b 3c
       0.018377982 0.097294524 0.117020145 0.00951267
000280 60 05 c1 bc 3a da 22 bc fd 4d f8 3d 73 30 3c 3d
       -0.023562133 -0.009939725 0.1212425 0.045944642
000290 42 04 1e bc 8b 81 57 3d 67 33 60 3d 52 9d 12 3b
       -0.00964457 0.052613776 0.05473652 0.0022371602
0002a0 cf d9 1e 3d 90 8e 03 be 6f 0e 6b bc 28 8b 8d 3c
       0.038781937 -0.12847352 -0.014346703 0.017278269
0002b0 8a 49 59 bd 11 90 55 bc ab 44 c4 bd 28 76 8f 3d
       -0.053048648 -0.013034836 -0.0958341 0.070049584
0002c0 29 62 b2 3c 18 99 0f be 0e 96 0b 3b 71 81 73 bd
       0.021775322 -0.14023244 0.0021299156 -0.059449617
0002d0 8f ae 8a bc b9 71 ea bd 82 1d 82 3c 13 35 26 3e
       -0.01692894 -0.11447472 0.015883211 0.16231184
0002e0 78 d3 3a 3e 22 e4 0d be 3d ba b3 3d ff 4d 0e 3e
       0.18244731 -0.13856557 0.087757565 0.1389694
0002f0 75 28 81 3e 81 e7 a5 3d f5 51 77 3d fd 7b 8a 3e
       0.2522618 0.081007965 0.060380895 0.2704772
000300 02 1a 1e 3e ef 81 05 3d c1 47 ac bd a4 29 65 3e
       0.15439609 0.032594617 -0.084121235 0.22379166
000310 c2 92 a3 3d cb 5f ff bc 9a ee 16 be 57 fb 44 be
       0.07986976 -0.031173607 -0.14739457 -0.19236504
000320 7c ad 06 bd bd 21 92 3d 29 4d 2f 3d b4 88 88 bb
       -0.03288029 0.07135341 0.042798195 -0.004166687
000330 8c 1f ba 3b f0 0d 4e bd ad 8b 41 3d 9e dc ad 3d
       0.00568003 -0.05030626 0.047252346 0.08489345
000340 29 8a 42 3d e2 ec 8d 3c 90 5b 87 bd 8e d8 57 bd
       0.04749504 0.017324869 -0.06609261 -0.052696757
000350 03 15 1e bc 6a 45 f3 3a d1 e5 14 bd c1 7c 8a bd
       -0.009648564 0.0018560116 -0.036351983 -0.06762076
000360 d1 3e e4 bc 44 36 7e 3d 71 76 4c bd e3 bd 7f 3c
       -0.027861984 0.06206347 -0.049917642 0.015609237
000370 4d f7 1f 3c a6 07 63 bd cc 38 a6 3b 46 0a 3b 3c
       0.009763551 -0.055427216 0.0050726887 0.011416024
000380 44 6e 2b 3c 4c 57 69 3d d5 7b e9 bc 8f 1b a8 3d
       0.010463301 0.05696802 -0.02850143 0.082083814
000390 7e 8c db 3c 0e 2a 13 bc 4b b0 04 bc 99 55 9c bc
       0.02680039 -0.008982195 -0.008098672 -0.019083785
0003a0 70 38 cc 3a ec 26 8c 3d af 38 ac 3d 44 fc 4b 3d
       0.0015580785 0.06843361 0.08409249 0.049801126
0003b0 37 34 61 bd cf b7 3b bc fd a1 0b 3c 9b 71 05 b9
       -0.054981437 -0.011457398 0.008522508 -0.0001272619
0003c0 ff 2d 06 3d ac f5 fd 3d 0b 3c cd 3d 40 93 07 3e
       0.03275871 0.12400374 0.10021218 0.13239765
0003d0 9c 96 cf 3d a3 87 09 3d bd b2 54 3d f8 10 93 3d
       0.10136148 0.03357662 0.05192827 0.07180971
0003e0 d2 fa d5 3c c5 c8 25 3d f7 6d c1 bc 41 62 aa 3c
       0.026120577 0.040474672 -0.023612006 0.020798804
0003f0 f4 30 50 3d eb 22 85 3c 00 92 90 bd 14 23 04 bc
       0.050827935 0.016252002 -0.07059097 -0.008065004

conv2.bias f4 [16]
000000 fb 41 1a bd 15 cf dc 3d 04 4f 7e 3d c9 41 5d bd
       -0.03766058 0.10781685 0.062087074 -0.054017816
000010 68 40 50 bd 88 a7 17 bd 9b 6d ad 3c b5 f0 41 ba
       -0.050842673 -0.037025005 0.021170428 -0.0007398234
000020 07 54 77 3d 3d 24 4d 3d 5d 48 b1 3b 43 63 50 3d
       0.06038287 0.050083388 0.0054102377 0.050875913
000030 aa 0a 63 3d 76 08 f0 3c a6 38 67 3c 8e 57 b9 3d
       0.055430092 0.02930091 0.014112627 0.09049903

fc1.weight f4 [10, 256]
000000 96 ed 15 3d 19 ff ce 3b fb 1c 24 3a f0 b7 01 3d
       0.036603533 0.006317031 0.0006260422 0.031669557
000010 7f e8 af 3d 08 5b 07 3b d9 d6 4e be 21 12 03 3e
       0.08589267 0.0020653624 -0.20199145 0.12799884
000020 53 a7 4b bb 00 82 26 be 8c 80 a0 bd 8a f1 75 3e
       -0.0031075075 -0.16260529 -0.07837018 0.24017921
000030 ee 37 9b bc a9 38 24 bc 4f a3 3b 3d 49 41 4c be
       -0.018947568 -0.010023274 0.04581004 -0.1994678
000040 fd 0c a3 bd 5b 28 ad 3d 59 d0 4e 3e 05 9a 86 3d
       -0.07961462 0.08454963 0.20196666 0.06572346
000050 38 2e 37 be b1 e2 fb bd 46 81 b1 bd d8 6b 9f 3b
       -0.17888725 -0.12299097 -0.08667235 0.004865151
000060 06 7a e0 bd f3 a0 ff bd d6 13 d8 bd ce d3 74 bd
       -0.10960774 -0.124818705 -0.105506584 -0.059772305
000070 c1 cb 05 bd d6 0d b5 3d f8 8f 28 bd 72 7a 0d bd
       -0.032665018 0.088405296 -0.041152924 -0.0345406
000080 61 28 56 3d 9f cf 24 3b c5 97 2e 3d 01 d4 25 bd
       0.052284602 0.0025148166 0.042625207 -0.040485386
000090 1f 32 1f 3e c2 91 ca b8 e8 c2 e6 bd c9 45 1e 3e
       0.15546463 -9.65926e-05 -0.11267644 0.15456308
0000a0 75 d9 e6 3d f2 e3 0e be 72 53 34 3c 9c 2d b5 3d
       0.112719454 -0.13954142 0.011006223 0.0884659
0000b0 60 66 f7 3c a2 aa 90 3b 14 b5 5b 3c ce 94 3d bd
       0.030200183 0.0044148723 0.013409872 -0.04628449
0000c0 e2 ad 1a 3d c7 53 87 bd fd 72 82 bd c6 33 74 bd
       0.037763484 -0.06607776 -0.063695885 -0.059619687
0000d0 29 29 c8 3c e6 e5 be ba d7 4b 78 3d 37 0f dc 3d
       0.02443369 -0.0014564365 0.0606192 0.107450895
0000e0 31 52 3c bc ae fe 88 bc 08 3e 0c bd c0 09 3e 3d
       -0.011494205 -0.016723003 -0.034238845 0.046396017
0000f0 e3 b4 56 3d 65 35 27 bd 08 ec 99 bd 7b ab 36 bd
       0.0524186 -0.040822405 -0.075157225 -0.04459713
000100 2d 77 52 bd d3 5a 30 bd 3c 01 11 3d 25 b7 b3 3d
       -0.051383186 -0.043055367 0.035401568 0.087751664
000110 4a 01 05 bc 46 b3 3f bd 29 b6 aa 3d 6f 2c a9 3d
       -0.008117983 -0.046801828 0.083355255 0.08260428
000120 94 79 c3 bc 84 79 a8 bd 18 ae 46 3a df 65 22 3d
       -0.023861684 -0.08226302 0.00075790426 0.039647933
000130 80 e1 8d 3d 83 91 3b bd 4c 59 e5 bd c4 1a 96 bd
       0.06927776 -0.045793068 -0.11198673 -0.07329324
000140 0a 35 78 bd 5a a0 ae bc b7 22 01 3d a5 36 de 3d
       -0.060597457 -0.021316696 0.031527247 0.10850266
000150 99 24 09 bd 40 ee 14 bd 86 6d e4 3d 72 55 4b 3e
       -0.033482168 -0.036360025 0.111537024 0.19856814
000160 43 a6 db 3d 93 35 9a bc 3b d1 17 be 38 84 94 bd
       0.10725071 -0.018824374 -0.14825909 -0.07251781
000170 31 e7 b5 3d 7c 3e ce 3b b9 2c 08 be 29 57 04 be
       0.08881987 0.00629407 -0.1329831 -0.12923874
000180 82 8d 54 3d d9 06 cc 3c c1 92 8c bc d0 84 a1 bc
       0.051892765 0.024905609 -0.017159821 -0.01971665
000190 c0 2b 0d 3e 05 62 05 bd 9d 84 e5 3c 58 70 db 3d
       0.1378622 -0.03256418 0.028017337 0.10714787
0001a0 30 9c f0 3d e5 57 61 3d cb 7a 52 3c 98 8f 60 3a
       0.117485404 0.055015463 0.012846659 0.0008566319
0001b0 45 09 36 3d 86 b9 08 3c cf 0f ee bd 88 01 e7 bc
       0.044442434 0.0083450135 -0.11624109 -0.028198972
0001c0 11 31 a3 bc 70 0f 96 3d 0c 9b 15 3c 85 52 a3 bd
       -0.019920858 0.07327163 0.009131204 -0.07974724
0001d0 d2 33 81 bc 75 49 23 3d d8 b6 11 3c 1a dc af 3d
       -0.01577178 0.039864976 0.008893691 0.08586903
0001e0 37 6e c9 3d 0f 9a c7 3d 51 cf e1 bc 64 85 ad 3d
       0.09835475 0.09746181 -0.027564676 0.08472708
0001f0 0a 1c af 3d 8e 19 e9 bc 12 a8 ee bd 6e 03 5b bc
       0.0855027 -0.028454568 -0.116531506 -0.013367517
000200 82 3d 1d 3d b9 0e f4 3d be ae c9 3d 27 b5 07 3e
       0.038388737 0.119168706 0.098477826 0.13252698
000210 ab 08 0b 3e 6d 9d 5c bd 85 05 17 be b2 0b ae 3d
       0.13577525 -0.05386107 -0.147482 0.084983245
000220 1a d7 04 bd c9 80 21 be 1a 0c 99 bc b1 71 9b 3d
       -0.0324317 -0.15771784 -0.018682528 0.07590044
000230 2f 84 11 be 64 7a ae bd 59 1b 4a bb ea d9 ac bd
       -0.1421058 -0.08519438 -0.0030839054 -0.08440001
000240 d2 7d ef bd 4d db 41 3d ae a4 1e bd 3f 8c 28 bd
       -0.1169392 0.047328282 -0.03873127 -0.041149374
000250 69 b8 69 be f0 3b 10 be bb eb ca bd bc 49 0d bc
       -0.22824253 -0.14085364 -0.09908243 -0.008623537
000260 a3 0e 26 bd e5 54 df bc 36 1b b9 3c 86 37 02 bd
       -0.040541302 -0.02726216 0.022595983 -0.031791233
000270 0b 81 a8 3d 46 d1 3c bc 7d e7 55 bb 9a e8 09 3d
       0.08227738 -0.011524504 -0.0032639198 0.03366909
000280 89 72 e7 bd 4a 07 d7 bd c4 6e 26 3d e8 60 a5 3d
       -0.11301143 -0.10499437 0.040632978 0.08075124
000290 d6 84 fa bd 97 28 26 bc 76 a3 81 bc 57 98 b1 bd
       -0.12232368 -0.010141513 -0.015825015 -0.08671635
0002a0 cb d4 4b bd 1e 5e 95 3d 68 6c e6 bd a1 7f 69 bc
       -0.049763482 0.07293342 -0.112511456 -0.0142516205
0002b0 4f 16 09 bd ce ff 55 3c 99 9d dd bd bc 5e a9 3d
       -0.03346854 0.013061477 -0.10821075 0.08270022
0002c0 c2 46 c6 bd 27 43 6d bd 5e a0 6f 3d 1b 52 4c bc
       -0.09681465 -0.05792537 0.058502547 -0.012470747
0002d0 a3 ca 9e 3d 88 41 6a bb 7e 5d da 3d d1 e3 16 3e
       0.07753494 -0.0035744626 0.106623635 0.14735343
0002e0 cd 34 af 3d 97 b0 1c be 2b 73 ce bb b9 a6 27 bd
       0.08554993 -0.15301739 -0.00630035 -0.040930483
0002f0 23 57 e8 3d 22 02 19 be 1a 5d 58 bd cf 4e 8b bd
       0.11344745 -0.1494222 -0.052823164 -0.06802141
000300 d9 fc 66 bd ed dc ba bd 0e a7 68 bd 86 a1 d3 3d
       -0.056393478 -0.091241695 -0.05679994 0.103335425
000310 2b 00 bf 3d 51 8a 39 3d 3f 3e 69 bd 80 da 16 bd
       0.09326204 0.045297924 -0.056944128 -0.03682947
000320 8b 6d e3 3d 5c e7 8a 3d db 67 bd bc d1 c2 26 bd
       0.11104878 0.067824095 -0.023120811 -0.040713135
000330 64 0a 20 bd 7d 47 dc 3d 44 a1 11 bc f5 79 6e 3c
       -0.03907241 0.10755823 -0.008888546 0.014555444
000340 fc ce 9f 3d 77 82 09 bd 87 a2 1b bb f9 e7 e7 3d
       0.07803151 -0.033571687 -0.0023747997 0.11323542
000350 5a 1e c8 3d 55 24 05 be a7 3a 05 3d 01 11 08 3e
       0.09771414 -0.13002141 0.03252664 0.13287736
000360 c4 69 b3 3d 64 4f 59 3c 61 06 71 bd 6c 10 22 3d
       0.087604076 0.013263557 -0.058843974 0.039566442
000370 ab 36 31 3c a7 1c 27 3e 78 98 ba bd 0d 37 d8 bd
       0.0108162565 0.16319524 -0.09111112 -0.10557375
000380 70 e1 8f bc 1c a0 ad 3c e2 40 37 bd 65 d7 81 bd
       -0.017563552 0.02119451 -0.04473961 -0.06339911
000390 30 75 0e 3d 3c 25 fa bc 7a 69 22 3d ef 69 91 3d
       0.034779727 -0.030535333 0.03965137 0.07100283
0003a0 f3 d4 fa bc 95 b2 02 be 41 9f 04 3a 7b 53 a7 bd
       -0.03061912 -0.12763436 0.0005059131 -0.081702195
0003b0 0d b1 01 bd 40 04 a3 bb c2 94 85 bd a3 df ca bd
       -0.03166299 -0.004974872 -0.06522514 -0.099059366
0003c0 22 48 c5 3c 07 8d 80 3d 3e 13 1a 3d 4f 56 84 3c
       0.024082247 0.06276899 0.037616007 0.016154436
0003d0 fa 87 80 bd 1f 10 34 bd 56 ab 52 bd c4 6e 5c bd
       -0.062759355 -0.043960687 -0.05143293 -0.05381657
0003e0 e1 05 16 be 2a f1 44 bd 19 76 57 bc 99 46 18 3d
       -0.1465068 -0.048081554 -0.013150715 0.037176702
0003f0 99 c0 52 bd 01 9c f1 bc a7 ca 5f 3d 92 8b ca bc
       -0.051453207 -0.029493334 0.054636624 -0.024724755

fc1.bias f4 [10]
000000 ee 59 f4 3d 8f ad 71 b7 55 87 23 3d 67 76 f4 bc
       0.11931215 -1.4405129e-05 0.039923985 -0.029841615
000010 5f b8 b9 bd 5d ec fd 3c 4e 85 7e bc cd ce a7 bb
       -0.09068369 0.030996496 -0.015534712 -0.005121088
000020 a2 f9 aa bc 8f 01 9f ba
       -0.020870987 -0.0012131202
