sandbox/snapshots/mnist/model-5208.pt (torch, 26159 bytes, 6 tensors)

conv1.weight f4 [8, 1, 5, 5]
0.017318178 -0.13810733 0.12322732 -0.07564729 -0.058162317 0.13816686 -0.051988233 -0.013405813
0.008065231 0.069476865 -0.16079791 0.06304376 -0.0709018 -0.086698756 -0.110601455 -0.064594135
-0.09329881 0.008377038 -0.011736625 -0.051839445 -0.12386331 -0.08245826 0.11026781 0.14955269
0.11081633 -0.14490795 0.053241808 0.21918693 0.20684639 0.34419176 0.03638042 -0.032438666
0.16343153 0.11621015 0.08951437 -0.10527345 -0.23003949 -0.20372817 -0.2545034 -0.10090855
0.18911883 -0.14175728 0.07764243 -0.1177142 -0.14810602 0.06310924 0.24626724 -0.048301905
0.11590085 0.015665062 0.044085894 0.24414924 0.1569907 -0.042593554 0.08239553 -0.09799416
0.24900474 0.097646624 -0.19748752 -0.108606346 -0.00693021 0.021349235 0.065997705 -0.04073633
-0.04021328 0.1514186 0.16100511 -0.09826378 -0.059099555 -0.14921501 0.0917822 0.12635444
-0.07868349 0.06849976 -0.16780631 -0.16426936 -0.056454457 -0.18416946 0.13789828 0.04184769
-0.20747916 0.04892513 -0.14080329 0.13881055 -0.0049573667 -0.13253884 -0.10728785 -0.13708542
0.25432754 0.2710385 0.0533024 -0.09403605 0.25568822 -0.013396414 0.21141005 -0.243106
-0.038923126 0.29414383 0.24107446 -0.044680633 -0.05364666 -0.021248356 -0.19796562 -0.01350242
-0.05839807 -0.11091844 0.11352835 -0.08411309 -0.049378652 -0.100045584 -0.14063366 0.0011254397
0.13012889 0.109151505 0.0045791594 0.049902834 0.17205447 -0.21162 -0.024349092 0.004987271
-0.1419956 0.16064699 -0.16916396 0.1480925 -0.06360871 -0.14020984 0.08349627 -0.009558584
-0.20404576 -0.11161552 -0.05402464 -0.042024456 -0.110572964 -0.08161521 -0.28776082 0.34531417
0.01792376 -0.16691817 -0.21039824 -0.04348659 0.25567204 0.43384066 0.33188692 0.1884136
0.2328772 0.39250034 0.4120052 0.11069344 0.31857917 0.21389961 -0.21467161 -0.21223842
-0.12142573 0.11591702 0.22848803 -0.18415023 0.0041013593 -0.042967826 0.12403494 0.12399506
-0.22793922 -0.1361156 -0.11248127 0.29262275 0.22276558 -0.23681124 -0.091340505 0.2318567
0.2406158 0.08649302 0.01892747 0.14344837 0.05789195 0.23001982 -0.016667299 0.15826198
0.1658951 0.16680554 0.14717801 -0.14016029 0.22856866 0.47712412 0.64533097 0.31267858
0.2721286 0.2542012 0.40727922 0.53535795 0.61646634 -0.02921146 0.27854526 0.70725816
0.74653125 0.48318723 0.20890163 0.22957516 0.4163998 0.6397535 0.42340025 -0.014079176
00000000: dade 8d3c 026c 0dbe 9b5e fc3d f7ec 9abd
00000010: 9c3b 6ebd 9d7b 0d3e 9df1 54bd 0ea4 5bbc
00000020: 0824 043c e349 8e3d 35a8 24be 161d 813d
00000030: f734 91bd 1e8f b1bd 0483 e2bd ee49 84bd
00000040: 7213 bfbd d83f 093c f94a 40bc 9955 54bd
00000050: 0cac fdbd e0df a8bd 17d4 e13d 5724 193e
00000060: acf3 e23d c062 14be 1514 5a3d 8a72 603e
00000070: 8acf 533e e739 b03e a303 153d 68de 04bd
00000080: 985a 273e 96ff ed3d 4f53 b73d 9b99 d7bd
00000090: 798f 6bbe 1e9e 50be 454e 82be 24a9 cebd
000000a0: 5ea8 413e d228 11be ff02 9f3d 2414 f1bd
000000b0: 1ba9 17be 6b3f 813d 7b2d 7c3e 38d8 45bd
000000c0: 6d5d ed3d 0454 803c 6993 343d 4202 7a3e
000000d0: 2cc2 203e 9476 2ebd fdbe a83d 2ab1 c8bd
000000e0: 19fb 7e3e f4fa c73d 2b3a 4abe 016d debd
000000f0: d116 e3bb 97e4 ae3c ce29 873d 23db 26bd
00000100: aeb6 24bd 7a0d 1b3e 86de 243e 853e c9bd
00000110: 6012 72bd d2cb 18be 4ef8 bb3d 0f63 013e
00000120: cf24 a1bd 9a49 8c3d 6bd5 2bbe 3a36 28be
00000130: ca3c 67bd eb96 3cbe 3535 0d3e 7c68 2b3d
00000140: 6b75 54be b865 483d bd2e 10be 5a24 0e3e
00000150: 6871 a2bb 43b8 07be bbb9 dbbd 1f60 0cbe
00000160: 3837 823e 8fc5 8a3e 9e53 5a3d f995 c0bd
00000170: 91e9 823e a27c 5bbc e07b 583e c7f0 78be
00000180: db6d 1fbd 059a 963e 39dc 763e 0a03 37bd
00000190: 9abc 5bbd 0811 aebc 80b7 4abe 4139 5dbc
000001a0: d132 6fbd 3529 e3bd 8d81 e83d 7c43 acbd
000001b0: 4541 4abd b3e4 ccbd 4502 10be 7d83 933a
000001c0: 8240 053e d38a df3d c60c 963b ea66 4c3d
000001d0: 0c2f 303e eab2 58be bf77 c7bc 436c a33b
000001e0: 4b67 11be a580 243e 5139 2dbe 8fa5 173e
000001f0: 4945 82bd 2b93 0fbe 1800 ab3d 9b9b 1cbc
00000200: 5ff1 50be ae96 e4bd f148 5dbd d621 2cbd
00000210: 1474 e2bd e025 a7bd 6355 93be 05cd b03e
00000220: d9d4 923c 99ec 2abe a372 57be ff1e 32bd
00000230: 72e7 823e 5d20 de3e 15ed a93e 7fef 403e
00000240: 5c77 6e3e cef5 c83e 58f2 d23e 3eb3 e23d
00000250: cf1c a33e 8008 5b3e e0d2 5bbe 0755 59be
00000260: 0eae f8bd e765 ed3d c4f8 693e e191 3cbe
00000270: b264 863b 08ff 2fbd 0806 fe3d 1ff1 fd3d
00000280: e668 69be e361 0bbe 955c e6bd a6d2 953e
00000290: a91c 643e a57e 72be bb10 bbbd d86b 6d3e
000002a0: fd63 763e 4123 b13d c80d 9b3c 21e4 123e
000002b0: 1c20 6d3d 518a 6b3e dc89 88bc 6e0f 223e
000002c0: 68e0 293e 12cf 2a3e d5b5 163e 2e86 0fbe
000002d0: e70d 6a3e 9d49 f43e 6934 253f 6817 a03e
000002e0: 7154 8b3e a926 823e e786 d03e 380d 093f
000002f0: bdd0 1d3f df4c efbc 7c9d 8e3e df0e 353f
00000300: ac1c 3f3f 5164 f73e 4fea 553e c015 6b3e
00000310: 5b32 d53e e3c6 233f ebc7 d83e 58ac 66bc

conv1.bias f4 [8]
-0.05212306 0.034457393 -0.04521942 -0.07349493 -0.12333793 0.04150634 0.090037376 0.00021864635
00000000: fd7e 55bd 3223 0d3d 0038 39bd 8384 96bd
00000010: 9998 fcbd 8d02 2a3d 8465 b83d 6f44 6539

conv2.weight f4 [16, 8, 5, 5]
-0.0019770332 -0.013139573 -0.058558818 -0.0026776923 -0.018946681 0.05584151 -0.065699756 -0.026361506
-0.024170104 -0.0070586232 -0.06193441 -0.051691726 -0.008372991 -0.021890799 0.04390657 -0.030578898
0.015358094 0.06451636 -0.0170439 0.054403868 -0.047603086 0.025421534 0.008956135 -0.0025385162
-0.020036643 0.07572844 -0.038919378 0.05482006 -0.03808519 -0.002399051 0.05987872 0.005513501
-0.04193128 0.011727209 0.0016888557 -0.06249737 0.0631114 0.048233226 0.08059434 0.025624821
0.050307486 0.04666791 0.017711168 0.06358009 -0.052600123 0.097436056 -0.002440273 0.06417182
0.017813997 -0.0027002913 -0.012292908 0.010672486 -0.049253568 0.048419926 -0.054473568 -0.027260246
0.026899137 0.03487709 -0.0010444701 0.05702944 -0.05154313 -0.053099856 0.043656398 0.06597124
0.072177395 0.0352863 0.00083620904 0.069719546 0.064124115 0.06813155 0.039317325 0.05623271
0.07821544 -0.007391604 -0.026584256 -0.052535307 -0.10578911 -0.049397964 0.075453 0.041670486
-0.007647658 0.0065898313 -0.026642352 0.11906913 0.06988696 -0.055977464 -0.0047281594 -0.006211988
-0.011158134 0.047330182 0.030348007 0.075912654 -0.06704985 0.010660807 -0.061701827 0.02620679
-0.052787367 -0.051479325 -0.016941728 -0.074289635 0.050708044 0.05360148 -0.037429042 -0.05501898
-0.05462261 0.0053763357 0.05073994 -0.02019961 -0.019781835 0.05035709 0.024836311 0.05362614
-0.008806265 0.018115645 0.018244581 -0.05670878 -0.011065967 -0.05262769 -0.06631189 -0.06940384
0.025167044 -0.057733264 -0.057105813 0.06679364 -0.0013134313 -0.017523002 0.03417977 0.019774977
-0.058020078 0.09243202 0.022598092 0.008977012 0.015867362 -0.026060745 0.03600863 -0.007000204
0.0020454538 0.08415472 0.039213944 0.05207586 0.084496535 -0.023950927 -0.05903596 -0.0034643866
0.014243128 -0.06877856 -0.08232172 -0.095922254 -0.042412303 -0.0027405445 0.06325176 -0.020247437
-0.080565386 -0.058997273 0.0074842405 -0.054344196 0.019158175 0.096227154 0.115889125 0.0091107795
-0.022605091 -0.010603225 0.119829565 0.0451246 -0.009289981 0.051722296 0.053888958 0.0026450215
0.03952722 -0.12740739 -0.0145355845 0.0180064 -0.051617198 -0.012801333 -0.09453352 0.06623534
0.022484785 -0.13661699 0.0015507337 -0.061391473 -0.017638253 -0.11189417 0.019019399 0.15984547
0.1807497 -0.13265422 0.090252146 0.13962649 0.25172997 0.08182857 0.06448207 0.2704901
0.1555769 0.035938036 -0.08016247 0.22649002 0.08286212 -0.027179603 -0.1451057 -0.19067055
-0.032815807 0.071292005 0.042757563 -0.00417046 0.0058033266 -0.050447132 0.0466706 0.08434091
0.04716239 0.017177403 -0.06612045 -0.052685186 -0.009777585 0.0017317986 -0.036407847 -0.067497976
-0.02777655 0.062038086 -0.050034802 0.015554423 0.009696976 -0.055560503 0.0048823273 0.011259793
0.010518736 0.056870904 -0.028835213 0.080892265 0.025732262 -0.00954654 -0.008602943 -0.020039354
-0.00012411282 0.06603305 0.08237072 0.049479026 -0.05535305 -0.011748261 0.007596584 -0.0011808027
0.031158326 0.121055506 0.09697502 0.13006678 0.10011003 0.032530002 0.050134934 0.06996088
0.025060546 0.03985209 -0.023980247 0.021026965 0.050954532 0.016655974 -0.070420176 -0.008341249
00000000: 1d91 01bb 5d47 57bc 5fdb 6fbd 397c 2fbb
00000010: 1236 9bbc 11ba 643d 988d 86bd 16f4 d7bc
00000020: 6200 c6bc 064c e7bb f0ae 7dbd b4ba 53bd
00000030: df2e 09bc 5554 b3bc 60d7 333d 9980 fabc
00000040: 84a0 7b3c 2721 843d a69f 8bbc 97d6 5e3d
00000050: 74fb 42bd d240 d03c c1bc 123c 3c5d 26bb
00000060: e323 a4bc 8317 9b3d ed69 1fbd 008b 603d
00000070: 37ff 1bbd 6639 1dbb 6443 753d 99aa b43b
00000080: 22c0 2bbd 7b23 403c 985c dd3a 3efd 7fbd
00000090: 8d40 813d 3490 453d a50e a53d 25eb d13c
000000a0: 390f 4e3d da26 3f3d 0317 913c 4736 823d
000000b0: 3a73 57bd 8e8c c73d fdec 1fbb 846c 833d
000000c0: a9ee 913c 5ff7 30bb 3168 49bc a7db 2e3c
000000d0: 1cbe 49bd f953 463d ad1f 5fbd e150 dfbc
000000e0: 945b dc3c 48db 0e3d 9ae6 88ba b497 693d
000000f0: e41e 53bd 3c7f 59bd 0dd1 323d ee1b 873d
00000100: bed1 933d 5e88 103d 0a35 5b3a 1fc9 8e3d
00000110: 8153 833d 8e88 8b3d 340b 213d 4554 663d
00000120: 6b2f a03d 4535 f2bb 3ac7 d9bc 432f 57bd
00000130: f6a7 d8bd 8555 4abd 1a87 9a3d acae 2a3d
00000140: 3599 fabb 83ef d73b 1041 dabc 84da f33d
00000150: e520 8f3d a048 65bd adee 9abb ef8d cbbb
00000160: 9bd0 36bc 4bdd 413d 629c f83c 1878 9b3d
00000170: 6f51 89bd aaaa 2e3c 0ebb 7cbd 9faf d63c
00000180: 9137 58bd fcdb 52bd 61c9 8abc 2a25 98bd
00000190: 3db3 4f3d 3a8d 5b3d 324f 19bd 955b 61bd
000001a0: f5bb 5fbd f92b b03b afd4 4f3d a779 a5bc
000001b0: 840d a2bc 3c43 4e3d 8575 cb3c 15a7 5b3d
000001c0: 2748 10bc 4367 943c a975 953c 7747 68bd
000001d0: 084e 35bc 2290 57bd 87ce 87bd 9a23 8ebd
000001e0: 1e2b ce3c b779 6cbd c9e7 69bd 1bcb 883d
000001f0: 7127 acba 668c 8fbc 1600 0c3d 22ff a13c
00000200: 76a6 6dbd 004d bd3d a21f b93c 5114 133c
00000210: 45fc 813c 587d d5bc c97d 133d f861 e5bb
00000220: 050d 063b 4f59 ac3d cd9e 203d 7f4d 553d
00000230: 850c ad3d bc34 c4bc b1cf 71bd c30a 63bb
00000240: 025c 693c c6db 8cbd 4a98 a8bd e372 c4bd
00000250: 86b8 2dbd b59a 33bb 248a 813d f4dd a5bc
00000260: 77ff a4bd 20a7 71bd 5c3e f53b 0598 5ebd
00000270: 9bf1 9c3c be12 c53d 4757 ed3d 6145 153c
00000280: 502e b9bc 26b9 2dbc 3469 f53d 93d4 383d
00000290: 0135 18bc c2da 533d abba 5c3d 1958 2d3b
000002a0: 4be7 213d 1577 02be a926 6ebc 2882 933c
000002b0: 8e6c 53bd afbc 51bc ca9a c1bd 65a6 873d
000002c0: 0332 b83c 53e5 0bbe fd41 cb3a a075 7bbd
000002d0: 197e 90bc c528 e5bd 92ce 9b3c 88ae 233e
000002e0: 7316 393e 82d6 07be 1ed6 b83d 3ffa 0e3e
000002f0: c0e2 803e bd95 a73d 2d0f 843d ae7d 8a3e
00000300: 8d4f 1f3e c333 133d 392c a4bd 00ed 673e
00000310: 9db3 a93d c2a7 debc 9796 14be 243f 43be
00000320: de69 06bd 8b01 923d 8e22 2f3d 5ba8 88bb
00000330: d529 be3b a7a1 4ebd ac29 3f3d edba ac3d
00000340: 5a2d 413d a0b7 8c3c 296a 87bd 6ccc 57bd
00000350: 2a32 20bc 85fd e23a 6520 15bd 613c 8abd
00000360: a68b e3bc a61b 7e3d 4bf1 4cbd fbd7 7e3c
00000370: 11e0 1e3c 6993 63bd eefb 9f3b ff7a 383c
00000380: c756 2c3c 77f1 683d d337 ecbc d8aa a53d
00000390: 77cc d23c 1769 1cbc 5cf3 0cbc 9229 a4bc
000003a0: 4824 02b9 563c 873d fbb1 a83d 85aa 4a3d
000003b0: e1b9 62bd c77b 40bc c4ec f83b 2ac5 9aba
000003c0: bf3f ff3c f3eb f73d d79a c63d 3a30 053e
000003d0: 7d06 cd3d 2e3e 053d 4a5a 4d3d a647 8f3d
000003e0: c64b cd3c f23b 233d 3972 c4bc be40 ac3c
000003f0: b3b5 503d 1c72 883c 7438 90bd bca9 08bc

conv2.bias f4 [16]
-0.037120074 0.10661854 0.06334237 -0.053974196 -0.0504152 -0.036288958 0.022073004 -0.0004081323
0.060164116 0.049197588 0.005548677 0.050687145 0.055379033 0.02944371 0.013759871 0.08975236
00000000: 380b 18bd d25a da3d a5b9 813d 0c14 5dbd
00000010: 2b80 4ebd bba3 14bd 72d2 b43c 97fa d5b9
00000020: a66e 763d 6983 493d add1 b53b 539d 4f3d
00000030: 20d5 623d ef33 f13c 1571 613c 16d0 b73d

fc1.weight f4 [10, 256]
0.03652405 0.0106626125 0.006627046 0.033807535 0.085230775 0.0022182462 -0.20096901 0.1279432
-0.0023045274 -0.16213036 -0.079551816 0.24004811 -0.018545348 -0.007891666 0.0489376 -0.19523363
-0.082330294 0.07988143 0.20005102 0.06950311 -0.18046467 -0.12751059 -0.08368019 0.0121960705
-0.11092998 -0.12860996 -0.10762018 -0.058165465 -0.031933725 0.08764362 -0.04067842 -0.036204197
0.056221664 0.005833079 0.043135952 -0.041874886 0.15758719 0.0018942922 -0.116093375 0.15218502
0.11522984 -0.13621229 0.008558099 0.08839573 0.031881995 0.0073957676 0.011426099 -0.047195494
0.03772662 -0.06485154 -0.062156793 -0.060928382 0.02330529 -0.00082248653 0.060625643 0.10423346
-0.011859216 -0.016068177 -0.033580363 0.04570396 0.0516067 -0.040750064 -0.07415381 -0.04395243
-0.050538648 -0.044372536 0.031503707 0.08480959 -0.0074458215 -0.047307316 0.08066156 0.0814798
-0.022852948 -0.08242947 0.0031165471 0.039667208 0.06913908 -0.045551006 -0.112143435 -0.07387179
-0.059910942 -0.024546532 0.023239773 0.103865586 -0.03357125 -0.039654464 0.11001525 0.19967362
0.10643426 -0.020342195 -0.14561318 -0.07081947 0.09195971 0.0077484027 -0.132387 -0.12826464
0.054643456 0.02680141 -0.015618476 -0.02241894 0.14072402 -0.030244904 0.024230767 0.10516175
0.118580356 0.05563663 0.0114852 0.00012562897 0.046686564 0.0101824915 -0.11537505 -0.0292851
-0.018908273 0.07635773 0.010986179 -0.07929518 -0.015584076 0.042145476 0.008916086 0.08100212
0.09694409 0.09920855 -0.027988173 0.07926671 0.084320486 -0.027844738 -0.11594371 -0.013788517
0.03810608 0.119469866 0.09888149 0.12972604 0.13535094 -0.054260574 -0.14731744 0.08848067
-0.029869748 -0.15533409 -0.018393312 0.07889602 -0.14080136 -0.08176284 -0.00020005081 -0.08323345
-0.11740832 0.0461102 -0.038111776 -0.039873358 -0.22806937 -0.140989 -0.09744183 -0.0071344096
-0.042041894 -0.030479237 0.02053017 -0.033154752 0.08326802 -0.010055968 -0.0026419829 0.03321332
-0.1120087 -0.105297334 0.041868284 0.08193662 -0.12050459 -0.00835873 -0.014155906 -0.08918468
-0.049459614 0.07256214 -0.112319976 -0.016717568 -0.03021961 0.014855491 -0.106856436 0.081059344
-0.09681737 -0.06012035 0.05554316 -0.011445798 0.07685212 -0.0041228835 0.1045836 0.1496343
0.08443968 -0.15343075 -0.004709033 -0.03724281 0.11327252 -0.14892626 -0.053319804 -0.068620436
-0.055913616 -0.08965356 -0.05354031 0.102452055 0.09205816 0.046174794 -0.05403498 -0.039314847
0.108892605 0.06805614 -0.02142245 -0.043606848 -0.039659806 0.108780794 -0.0068864073 0.014500852
0.079263054 -0.0339792 -0.006045891 0.11003939 0.09748382 -0.13059928 0.03108334 0.13403971
0.08819733 0.013514283 -0.055408437 0.039311543 0.0133697055 0.16357787 -0.09067049 -0.10574494
-0.0171429 0.02103629 -0.04514157 -0.061629344 0.034320246 -0.030827403 0.039781645 0.072648935
-0.030577617 -0.12619148 0.002561339 -0.0806028 -0.031516936 -0.004056597 -0.06503886 -0.09885954
0.024169642 0.06344025 0.038358808 0.019504698 -0.060929433 -0.044332005 -0.049502917 -0.052370094
-0.14455903 -0.046857264 -0.01159224 0.037103936 -0.050491508 -0.028932946 0.054859824 -0.024806503
00000000: 3e9a 153d 3db2 2e3c b127 d93b c579 0a3d
00000010: 798d ae3d ff5f 113b d2ca 4dbe 8b03 033e
00000020: 8e07 17bb 8005 26be 10ec a2bd 2ccf 753e
00000030: 6aec 97bc 0c4c 01bc cb72 483d 53eb 47be
00000040: c99c a8bd e098 a33d 2dda 4c3e a657 8e3d
00000050: bbcb 38be 2392 02be 8560 abbd 07d2 473c
00000060: 422f e3bd 54b2 03be f867 dcbd e93e 6ebd
00000070: f0cc 02bd 807e b33d 6a9e 26bd da4a 14bd
00000080: b048 663d 6a23 bf3b 53af 303d 0085 2bbd
00000090: 895e 213e e649 f83a 5dc2 edbd 64d6 1b3e
000000a0: 9ffd eb3d 3c7b 0bbe 4537 0c3c d208 b53d
000000b0: b296 023d 3258 f23b 8834 3b3c 1050 41bd
000000c0: 3a87 1a3d e2d0 84bd 1f98 7ebd 0a90 79bd
000000d0: bcea be3c 239c 57ba 9852 783d 5a78 d53d
000000e0: 284d 42bc 69a1 83bc 908b 09bd 1334 3b3d
000000f0: 8c61 533d 8ae9 26bd f4dd 97bd 7707 34bd
00000100: 9d01 4fbd fabf 35bd 080a 013d a6b0 ad3d
00000110: 14fc f3bb 51c5 41bd e331 a53d e2de a63d
00000120: 1b36 bbbc c8d0 a8bd fc3e 4c3b 157a 223d
00000130: ca98 8d3d b193 3abd 75ab e5bd 184a 97bd
00000140: 2d65 75bd cf15 c9bc 5661 be3c 7bb7 d43d
00000150: 0282 09bd b86c 22bd ad4f e13d 3e77 4c3e
00000160: 35fa d93d ada4 a6bc 9f1b 15be cc09 91bd
00000170: 5f55 bc3d 50e6 fd3b 7590 07be ce57 03be
00000180: d1d1 5f3d a18e db3c a3e4 7fbc eda7 b7bc
00000190: f519 103e 29c4 f7bc 9a7f c63c 0b5f d73d
000001a0: 42da f23d 3ce3 633d 6c2c 3c3c 45bb 0339
000001b0: 693a 3f3d 77d4 263c c149 ecbd 4ee7 efbc
000001c0: 86e5 9abc 7161 9c3d 60ff 333c 8365 a2bd
000001d0: 5a54 7fbc bca0 2c3d c614 123c 71e4 a53d
000001e0: a08a c63d da2d cb3d 7447 e5bc 9656 a23d
000001f0: 38b0 ac3d a61a e4bc e573 edbd 3be9 61bc
00000200: 1f15 1c3d 9eac f43d 6182 ca3d e7d6 043e
00000210: 7099 0a3e 5640 5ebd 62da 16be 5a35 b53d
00000220: 67b1 f4bc e60f 1fbe 92ad 96bc 3d94 a13d
00000230: 3b2e 10be 4773 a7bd bbc4 51b9 4d76 aabd
00000240: c673 f0bd 0dde 3c3d 181b 1cbd 3f52 23bd
00000250: 048b 69be 6c5f 10be 958f c7bd c4c7 e9bb
00000260: 1f34 2cbd 98af f9bc e32e a83c 47cd 07bd
00000270: 6c88 aa3d c9c1 24bc 1e25 2dbb b10a 083d
00000280: d164 e5bd 21a6 d7bd 147e 2b3d 63ce a73d
00000290: 1ccb f6bd 0ef3 08bc 2cee 67bc 75a6 b6bd
000002a0: 2a96 4abd 769b 943d 0408 e6bd 48f3 88bc
000002b0: 1e8f f7bc 7264 733c 8cd7 dabd 7102 a63d
000002c0: 2f48 c6bd c240 76bd 3981 633d 2887 3bbc
000002d0: a564 9d3d 4119 87bb ed2f d63d bc39 193e
000002e0: b6ee ac3d f31c 1dbe 3b4e 9abb eb8b 18bd
000002f0: 6cfb e73d 2080 18be de65 5abd df88 8cbd
00000300: ad05 65bd 499c b7bd 164d 5bbd 62d2 d13d
00000310: fd88 bc3d c821 3d3d c853 5dbd 9b08 21bd
00000320: 1603 df3d 0461 8b3d 227e afbc 189d 32bd
00000330: 5272 22bd 77c8 de3d 5fa7 e1bb fb94 6d3c
00000340: ab54 a23d c62d 0bbd 9c1c c6bb 555c e13d
00000350: 99a5 c73d d1bb 05be 7da2 fe3c b541 093e
00000360: cda0 b43d 036b 5d3c f5f3 62bd 2405 213d
00000370: 9c0c 5b3c f580 273e 73b1 b9bd ce90 d8bd
00000380: 446f 8cbc 4c54 ac3c 5ee6 38bd 0d6f 7cbd
00000390: 6393 0c3d c089 fcbc 14f2 223d f7c8 943d
000003a0: e97d fabc 5738 01be 23dc 273b 1513 a5bd
000003b0: e717 01bd 34ed 84bb 1833 85bd df76 cabd
000003c0: 6aff c53c f6ec 813d 201e 1d3d 51c8 9f3c
000003d0: 2491 79bd 7a95 35bd 92c3 4abd 0682 56bd
000003e0: 4807 14be 67ed 3fbd 61ed 3dbc 4cfa 173d
000003f0: 2fd0 4ebd c904 edbc b2b4 603d 0237 cbbc

fc1.bias f4 [10]
0.119739205 -2.9070678e-05 0.039765578 -0.029902006 -0.09029527 0.030153481 -0.015315585 -0.0051056514
-0.020853112 -0.0012044912
00000000: d439 f53d cedc f3b7 3be1 223d 0df5 f4bc
00000010: baec b8bd 6f04 f73c 38ee 7abc 4f4d a7bb
00000020: 25d4 aabc 05e0 9dba
