sandbox/snapshots/mnist/model-4392.pt (torch, 26159 bytes, 6 tensors)

conv1.weight f4 [8, 1, 5, 5]
0	0x3c9422c0	0.018082976
1	0xbe0d64fa	-0.13808051
2	0x3dfca26e	0.123356685
3	0xbd9bebdb	-0.07613345
4	0xbd737ab4	-0.05944319
5	0x3e0dbeb1	0.13842274
6	0xbd55703a	-0.05210898
7	0xbc5e8733	-0.013582039
8	0x3c15d53e	0.009145079
9	0x3d92d5ea	0.07169707
10	0xbe2453d3	-0.16047601
11	0x3d81e0c6	0.063417
12	0xbd8f6c0f	-0.070030324
13	0xbdadeb87	-0.08492189
14	0xbdde2990	-0.10847771
15	0xbd840159	-0.064455695
16	0xbdbe3bb5	-0.09288732
17	0x3c05b0da	0.0081598405
18	0xbc520dcc	-0.012820672
19	0xbd627fbd	-0.055297602
20	0xbdff6e32	-0.1247219
21	0xbdaf6646	-0.08564429
22	0x3dd3f780	0.10349941
23	0x3e10a176	0.14124092
24	0x3dd05def	0.101741664
25	0xbe189649	-0.14901079
26	0x3d2cdbde	0.04220187
27	0x3e534f83	0.206358
28	0x3e3c7e76	0.18407616
29	0x3ea4c3bb	0.3218058
30	0x3d05e13b	0.0326855
31	0xbd3201b8	-0.04345867
32	0x3e22a8b8	0.15884674
33	0x3de3bd0f	0.111200444
34	0x3db55c7a	0.08855529
35	0xbdc49443	-0.09598591
36	0xbe616fa0	-0.22015238
37	0xbe381fb4	-0.17980844
38	0xbe674670	-0.22585464
39	0xbd973c40	-0.07384539
40	0x3e475673	0.19466572
41	0xbe0905e1	-0.13381149
42	0x3dcd1d04	0.100153
43	0xbdbd446e	-0.092415676
44	0xbe01aafc	-0.12662882
45	0x3d6b85ad	0.05750053
46	0x3e739852	0.23788574
47	0xbd46fd58	-0.04858145
48	0x3defadf1	0.117030986
49	0x3c7473af	0.014920159
50	0x3d20e11f	0.039277192
51	0x3e715914	0.23569137
52	0x3e1c13b2	0.15241888
53	0xbd23d059	-0.039993618
54	0x3db56d84	0.08858779
55	0xbdd6a29b	-0.10480233
56	0x3e70b1c9	0.2350532
57	0x3db6cc31	0.08925665
58	0xbe495eb6	-0.19665036
59	0xbdd523f3	-0.104072474
60	0xbcad8f8a	-0.021186609
61	0x3b02dcec	0.0019968105
62	0x3d6e875c	0.058234558
63	0xbd12577a	-0.035727955
64	0xbd01282b	-0.031532448
65	0x3e153fa1	0.14575054
66	0x3e1b9395	0.15193017
67	0xbdc9c07f	-0.09851169
68	0xbd59bb7f	-0.053157326
69	0xbe11f1fa	-0.14252463
70	0x3db859b4	0.090014845
71	0x3dfa1abf	0.12212133
72	0xbd99c5d1	-0.075084336
73	0x3d9c2c6f	0.076256625
74	0xbe243f9e	-0.16039893
75	0xbe248d4a	-0.16069523
76	0xbd434d4a	-0.04768113
77	0xbe354f3a	-0.17706004
78	0x3e06c873	0.13162403
79	0x3cd85994	0.026409902
80	0xbe4f5054	-0.20245486
81	0x3d69c44f	0.05707198
82	0xbe0d0c56	-0.13774237
83	0x3dffe279	0.12494368
84	0xbca9fe4a	-0.020751137
85	0xbe000dd7	-0.1250528
86	0xbdca011e	-0.09863494
87	0xbe0e598f	-0.13901351
88	0x3e75a4ed	0.23988695
89	0x3e85c04b	0.2612327
90	0x3d80609e	0.06268428
91	0xbdadf075	-0.08493129
92	0x3e801314	0.25014555
93	0xbce96ef7	-0.028495295
94	0x3e5242a5	0.20533235
95	0xbe74493b	-0.2385606
96	0xbd1767ce	-0.03696423
97	0x3e91a80b	0.2844852
98	0x3e67f616	0.22652468
99	0xbd582cf0	-0.05277723
100	0xbd5b511a	-0.05354414
101	0xbcaf3110	-0.0213857
102	0xbe4ac04b	-0.19799916
103	0xbc5c083a	-0.013429696
104	0xbd6eaae5	-0.058268446
105	0xbde35050	-0.11099303
106	0x3de8195e	0.113329634
107	0xbdac4827	-0.084121995
108	0xbd48ea0f	-0.04905134
109	0xbdcc6215	-0.09979645
110	0xbe0fb02c	-0.14032048
111	0x3afd2003	0.0019311908
112	0x3e0644f7	0.13112246
113	0x3de18b99	0.11012954
114	0x3baeb8a7	0.005332071
115	0x3d502e70	0.050825536
116	0x3e30ea9a	0.17276993
117	0xbe584daf	-0.21123384
118	0xbcc7403e	-0.024322625
119	0x3ba75a6b	0.005107214
120	0xbe10beef	-0.14135335
121	0x3e249d02	0.16075519
122	0xbe2db533	-0.16963653
123	0x3e172645	0.14760692
124	0xbd82dc33	-0.06389656
125	0xbe11b7bf	-0.1423025
126	0x3dbd0355	0.09229151
127	0x3c2ae19a	0.010429764
128	0xbe3c582d	-0.18393011
129	0xbdb9f886	-0.09080605
130	0xbd798c95	-0.060925085
131	0xbd05b27b	-0.032640915
132	0xbdaba2e5	-0.08380679
133	0xbd5fa19c	-0.054597482
134	0xbe85b14c	-0.2611183
135	0x3ea89195	0.3292357
136	0x3c500764	0.012697075
137	0xbe22176e	-0.1582925
138	0xbe51225f	-0.20423268
139	0xbd14eeee	-0.036360674
140	0x3e643113	0.22284345
141	0x3ecbbd44	0.39792836
142	0x3e982fcf	0.29723975
143	0x3e1c6e83	0.15276532
144	0x3e557fab	0.20849483
145	0x3ebb82fa	0.36623365
146	0x3ec1c89a	0.3784836
147	0x3d946527	0.07245856
148	0x3e92de0b	0.2868503
149	0x3e4354a7	0.19075261
150	0xbe560188	-0.20899022
151	0xbe4d82e8	-0.20069468
152	0xbde9b845	-0.114121
153	0x3dd1caba	0.10243745
154	0x3e5395cf	0.20662616
155	0xbe30b168	-0.17255175
156	0x3cac900e	0.021064784
157	0xbd098c5d	-0.033581126
158	0x3ddaea92	0.10689272
159	0x3dcdf00f	0.10055553
160	0xbe60ebfc	-0.21965021
161	0xbe024b62	-0.12724069
162	0xbde9a933	-0.11409225
163	0x3e8a5f04	0.27025616
164	0x3e51cda7	0.20488606
165	0xbe6e84de	-0.23292872
166	0xbdbb82c8	-0.09155804
167	0x3e6023ca	0.21888652
168	0x3e600bf2	0.21879557
169	0x3d990c46	0.07473044
170	0x3cc4fd38	0.024046525
171	0x3e0da1d3	0.13831262
172	0x3d22ae74	0.039717153
173	0x3e57bdfe	0.2106857
174	0xbcdf8589	-0.027285354
175	0x3e107b9a	0.1410965
176	0x3e100e8c	0.14068049
177	0x3e126952	0.14297989
178	0x3e1033c9	0.14082254
179	0xbe02bd59	-0.12767543
180	0x3e5ca94f	0.21548961
181	0x3ee6d48f	0.45084044
182	0x3f1b4af3	0.6066124
183	0x3e970f95	0.29504076
184	0x3e8fb363	0.2806655
185	0x3e7f5b77	0.24937235
186	0x3ebda371	0.37038758
187	0x3ef12427	0.47097895
188	0x3f130a8d	0.57437974
189	0xbd305fe3	-0.043060195
190	0x3e8a6e29	0.2703717
191	0x3f2ad4a7	0.6673073
192	0x3f2fa572	0.68611825
193	0x3ee2df71	0.44311097
194	0x3e44ef60	0.1923194
195	0x3e6e5ec1	0.23278333
196	0x3ecee8d3	0.40412006
197	0x3f1ceb45	0.6129649
198	0x3ece50df	0.40296075
199	0xbc9e8ef2	-0.019355271

conv1.bias f4 [8]
0	0xbd79e3b6	-0.061008178
1	0x3cff220c	0.031144165
2	0xbd05d0b3	-0.032669734
3	0xbd902d37	-0.07039874
4	0xbdfaef3a	-0.1225266
5	0x3cf491bd	0.02985465
6	0x3db69d3b	0.08916708
7	0x365a0193	3.2485448e-06

conv2.weight f4 [16, 8, 5, 5]
0	0xbb3e8d39	-0.0029075874
1	0xbc5c83e1	-0.013459177
2	0xbd6b9913	-0.05751903
3	0xbb0376f1	-0.0020059908
4	0xbc957471	-0.018244
5	0x3d5e06b3	0.054205608
6	0xbd8ace63	-0.067776464
7	0xbcdda816	-0.027057689
8	0xbcc7f132	-0.024407003
9	0xbbe3de2e	-0.006953976
10	0xbd83e342	-0.0643983
11	0xbd5dfa93	-0.054194044
12	0xbc1b6257	-0.009483895
13	0xbcba8e20	-0.022772849
14	0x3d328db7	0.04359218
15	0xbd0406bc	-0.032232985
16	0x3c723ad6	0.014784535
17	0x3d8371c7	0.06418186
18	0xbc90f75d	-0.017696077
19	0x3d5dcf9c	0.05415307
20	0xbd42cab8	-0.04755661
21	0x3ccdd934	0.025127985
22	0x3c0a2999	0.008432769
23	0xbb3f83d0	-0.0029222853
24	0xbca2fb55	-0.019895235
25	0x3d99e948	0.07515198
26	0xbd349e11	-0.044096056
27	0x3d4d5684	0.050131336
28	0xbd23d4d3	-0.039997887
29	0xba550b42	-0.0008126983
30	0x3d5dd478	0.054157704
31	0x3b55a30f	0.0032598411
32	0xbd2c51ee	-0.04207032
33	0x3c7de03f	0.015495359
34	0x3c10a59c	0.008828547
35	0xbd8505f2	-0.064952746
36	0x3d86db9b	0.06584855
37	0x3d46826d	0.048464227
38	0x3daa1125	0.08304051
39	0x3cf4e86e	0.029895987
40	0x3d411e22	0.047147878
41	0x3d3833cc	0.044971272
42	0x3c85dec9	0.016341584
43	0x3d856851	0.065140374
44	0xbd54c27d	-0.05194329
45	0x3db984df	0.09058546
46	0xbc0d526b	-0.008625607
47	0x3d7b4009	0.061340366
48	0x3c912e24	0.017722197
49	0xba7f84df	-0.00097472774
50	0xbc22592f	-0.009908958
51	0x3c3133d2	0.010815578
52	0xbd2eafbd	-0.042648066
53	0x3d472214	0.048616484
54	0xbd6b6d84	-0.05747749
55	0xbcef396b	-0.029202184
56	0x3cf218de	0.029552873
57	0x3d2ce4e2	0.042210467
58	0xba334c23	-0.00068396534
59	0x3d55057b	0.05200718
60	0xbd4d2375	-0.050082643
61	0xbd4905db	-0.04907785
62	0x3d47d18e	0.04878383
63	0x3d81625d	0.063175894
64	0x3d89b8b4	0.067246825
65	0x3d2052db	0.039141517
66	0x39edba1c	0.00045342825
67	0x3d917a7a	0.07103439
68	0x3d8467ca	0.06465109
69	0x3d8aeb21	0.067831285
70	0x3d1add44	0.03780867
71	0x3d50dcef	0.05099195
72	0x3da52491	0.08063615
73	0xbb5dd97a	-0.003385155
74	0xbcdc8121	-0.026917042
75	0xbd709d27	-0.058743622
76	0xbdd12d89	-0.10213763
77	0xbd36d0e6	-0.044632815
78	0x3da38329	0.07984001
79	0x3d3353f2	0.04378123
80	0xbbdc2c5e	-0.006719156
81	0x3c2a5efd	0.0103986235
82	0xbcf1beb5	-0.029509882
83	0x3de6ea57	0.112751655
84	0x3d860577	0.06544011
85	0xbd670c97	-0.05640849
86	0xbbb83ada	-0.00562225
87	0xbc21e1e9	-0.009880521
88	0xbc83bc0c	-0.016080879
89	0x3d3d1e16	0.04617127
90	0x3cc08a10	0.023503333
91	0x3da13f34	0.07873383
92	0xbd8073cd	-0.06272087
93	0x3c2e91a8	0.010654844
94	0xbd6fb857	-0.05852541
95	0x3cdcfbf3	0.026975607
96	0xbd2e41f6	-0.042543374
97	0xbd442f7b	-0.047896843
98	0xbc8d1ce7	-0.017225696
99	0xbd8bac2b	-0.06819948
100	0x3d505288	0.050859958
101	0x3d5ba41b	0.0536233
102	0xbd1925b3	-0.03738947
103	0xbd613f5f	-0.054992076
104	0xbd5f7666	-0.054556273
105	0x3bb003d7	0.0053715515
106	0x3d4f9b09	0.050684962
107	0xbca63e16	-0.020293277
108	0xbca23bbe	-0.019803878
109	0x3d4e9b09	0.05044082
110	0x3ccb3280	0.024804354
111	0x3d5afbb2	0.05346269
112	0xbc1273f6	-0.00893878
113	0x3c947451	0.01812187
114	0x3c95e1fd	0.018296236
115	0xbd684fcb	-0.05671672
116	0xbc3679ff	-0.011137485
117	0xbd57b47d	-0.05266236
118	0xbd87ed92	-0.0663711
119	0xbd8e31c9	-0.069430895
120	0x3ccf1fef	0.025283782
121	0xbd6c5c08	-0.057704955
122	0xbd69cf40	-0.057082415
123	0x3d88ba4c	0.06676158
124	0xbaadfecd	-0.0013274789
125	0xbccd364e	-0.025050309
126	0x3d1109ba	0.035409667
127	0x3d0701fe	0.032960884
128	0xbd46b675	-0.04851385
129	0x3db9d7cc	0.09074363
130	0x3c688e5a	0.0141940955
131	0x3b7d2ab7	0.0038630196
132	0x3c9a47cc	0.018833064
133	0xbcaa8dfb	-0.020819655
134	0x3d102b43	0.035197508
135	0xbc5c8992	-0.013460534
136	0xbbe9cfa6	-0.0071353493
137	0x3da8bcc7	0.082391314
138	0x3d41af75	0.04728647
139	0x3d66d464	0.056354895
140	0x3d9fb7a9	0.07798702
141	0xbcd48cd6	-0.025946062
142	0xbd5a2257	-0.053255405
143	0x3b81b2b2	0.0039580697
144	0x3c68f9f6	0.014219752
145	0xbd8d7229	-0.0690654
146	0xbd998d88	-0.07497698
147	0xbdb04251	-0.08606399
148	0xbd14c6ce	-0.036322407
149	0xbb05e26e	-0.0020429152
150	0x3d5593a0	0.05214274
151	0xbc9ff40a	-0.019525547
152	0xbd9b9670	-0.07597053
153	0xbd5f9252	-0.0545829
154	0x3c40f93c	0.011778172
155	0xbd5c8aa5	-0.05384316
156	0x3cd42a51	0.025899084
157	0x3dba654a	0.091013506
158	0x3dd9c84b	0.10633906
159	0x3b12d381	0.0022403898
160	0xbca2ae9c	-0.01985865
161	0xbc352276	-0.011055579
162	0x3de36e2c	0.11104998
163	0x3d0e4841	0.034736875
164	0xbc4220b9	-0.011848622
165	0x3d2fc9df	0.04291713
166	0x3d6519d0	0.05593282
167	0x3bc04ca9	0.0058685136
168	0x3d2706dd	0.04077803
169	0xbdfb13f1	-0.12259663
170	0xbc821a41	-0.01588166
171	0x3cfc1822	0.030773226
172	0xbd3492fb	-0.044085484
173	0xbc5c00a3	-0.013427886
174	0xbdaf9c0f	-0.08574688
175	0x3d6e3539	0.058156226
176	0x3cfd13e7	0.03089328
177	0xbded1f37	-0.115782194
178	0x3b2afc14	0.0026090192
179	0xbd8620f8	-0.06549257
180	0xbcf97e54	-0.030455746
181	0xbdc44197	-0.09582823
182	0x3d3b44ce	0.045719914
183	0x3e170a8d	0.14750119
184	0x3e2aff14	0.16698867
185	0xbe00aec4	-0.12566668
186	0x3db8fdf8	0.09032816
187	0x3e0fb002	0.14031985
188	0x3e72ee44	0.23723704
189	0x3d96975d	0.07353089
190	0x3d5b0962	0.053475745
191	0x3e8401db	0.25782666
192	0x3e29b3f9	0.1657256
193	0x3d3be133	0.045869064
194	0xbd9464af	-0.07245766
195	0x3e60a57c	0.21938127
196	0x3dcb8ce8	0.09938985
197	0x3bb15b22	0.005412475
198	0xbe06e8b1	-0.13174702
199	0xbe3f993c	-0.18710798
200	0xbd04f7ec	-0.032463
201	0x3d920686	0.071301505
202	0x3d2e4c51	0.04255325
203	0xbba538e5	-0.0050421827
204	0x3ba5591b	0.0050460226
205	0xbd51aade	-0.051188342
206	0x3d328208	0.04358104
207	0x3da4d9bb	0.08049341
208	0x3d356865	0.04428901
209	0x3c816dbf	0.015799401
210	0xbd875b39	-0.06609196
211	0xbd5a5796	-0.053306185
212	0xbc3f63ce	-0.01168151
213	0x3a0b1f41	0.00053070864
214	0xbd174811	-0.036933962
215	0xbd87fb6e	-0.06639753
216	0xbce087aa	-0.02740844
217	0x3d7d2160	0.061799407
218	0xbd502f45	-0.05082633
219	0x3c73a3f5	0.014870633
220	0x3c1983d8	0.009369813
221	0xbd670ae1	-0.05640686
222	0x3b63a29a	0.003473437
223	0x3c1cd612	0.009572523
224	0x3c24a3de	0.010048835
225	0x3d6514f5	0.05592819
226	0xbd0258b2	-0.031822868
227	0x3d9b77ec	0.07591233
228	0x3caf802f	0.021423427
229	0xbc54a733	-0.0129793165
230	0xbc1dd73d	-0.009633836
231	0xbcc54da0	-0.024084866
232	0xbc0603a8	-0.008179583
233	0x3d5fc3a7	0.054629948
234	0x3d91c58f	0.071177594
235	0x3d4d1513	0.050068926
236	0xbd5ddb75	-0.05416437
237	0xbc3b00d7	-0.011413774
238	0x3a93a778	0.001126512
239	0xbc35785f	-0.011076062
240	0x3caf4699	0.021395968
241	0x3dd488f9	0.10377688
242	0x3d9beba2	0.07613303
243	0x3de4e9ca	0.11177404
244	0x3db4d136	0.08828966
245	0x3cdf2d4a	0.027243275
246	0x3d1f0d48	0.038831025
247	0x3d621138	0.055192202
248	0x3c689fb6	0.014198234
249	0x3d0581a7	0.03259435
250	0xbcc9f730	-0.024654001
251	0x3ca9fab5	0.02074943
252	0x3d55c481	0.052189354
253	0x3c9de7ba	0.019275535
254	0xbd8a1e94	-0.067441136
255	0xbc32d276	-0.010914436

conv2.bias f4 [16]
0	0xbd04a065	-0.032379527
1	0x3dc829da	0.097736076
2	0x3d94ccea	0.07265647
3	0xbd5a278b	-0.053260367
4	0xbd4501b8	-0.048097342
5	0xbce80503	-0.028322702
6	0x3ce434c6	0.027857196
7	0xb9c4382f	-0.00037425893
8	0x3d75b2f8	0.05998513
9	0x3d2f5c91	0.042812888
10	0x3bc54b15	0.0060209134
11	0x3d5bd294	0.05366762
12	0x3d5f33b2	0.05449266
13	0x3cf5f139	0.03002225
14	0x3c736946	0.014856642
15	0x3dad3bac	0.08458647

fc1.weight f4 [10, 256]
0	0x3d135ea1	0.035978917
1	0x3cf7a17a	0.030228365
2	0x3ca55a6b	0.020184716
3	0x3d170a94	0.036875322
4	0x3db899b9	0.09013695
5	0xba0de694	-0.0005413082
6	0xbe5a1782	-0.2129803
7	0x3e09cf6c	0.13458031
8	0x3b1aee56	0.0023640594
9	0xbe1f3dbc	-0.15550894
10	0xbd926228	-0.07147628
11	0x3e75aeed	0.2399251
12	0xbc3a37fa	-0.011365885
13	0x3b48cd9f	0.0030640138
14	0x3d75b439	0.059986327
15	0xbe3cbe24	-0.18431908
16	0xbdc19dfd	-0.09453962
17	0x3d51b2c5	0.05119588
18	0x3e2b52b4	0.16730767
19	0x3d6c6a91	0.057718817
20	0xbe24a6d5	-0.16079266
21	0xbe093e08	-0.1340257
22	0xbda1fec5	-0.079099216
23	0x3ce8f995	0.028439322
24	0xbdb9d6bb	-0.0907416
25	0xbe05ab22	-0.13053563
26	0xbdec3137	-0.115328245
27	0xbd30d146	-0.04316833
28	0xbc9ca47a	-0.019121397
29	0x3dac0d41	0.084009655
30	0xbd17088e	-0.036873393
31	0xbd29da32	-0.041467853
32	0x3d947621	0.07249094
33	0x3ce16671	0.027514668
34	0x3d3dfb85	0.046382446
35	0xbd0d298e	-0.034463458
36	0x3e29005e	0.16504046
37	0xbbd1bb16	-0.006400476
38	0xbde33fe2	-0.11096169
39	0x3e1be059	0.152223
40	0x3df9d65b	0.12199088
41	0xbe0337da	-0.12814274
42	0x3bd8f19e	0.0066206
43	0x3dad2965	0.08455161
44	0x3d110de2	0.03541363
45	0x3cd2c9e1	0.025731029
46	0x3bfff478	0.0078111254
47	0xbd54a755	-0.051917393
48	0x3d11b2ec	0.035571024
49	0xbd7973a6	-0.060901307
50	0xbd6e01d7	-0.058107223
51	0xbd85ffea	-0.06542952
52	0x3c6aeeda	0.014339173
53	0x3a59ecf8	0.0008313204
54	0x3d6e1230	0.058122814
55	0x3db4066f	0.087902896
56	0xbc89e284	-0.016831644
57	0xbc786e8c	-0.015163075
58	0xbcfa6f68	-0.0305707
59	0x3d24e401	0.040256504
60	0x3d44bb67	0.048030283
61	0xbd202f89	-0.039107833
62	0xbd899461	-0.06717754
63	0xbd302c76	-0.04301115
64	0xbd4a55c1	-0.049398188
65	0xbd53b010	-0.05168158
66	0x3cc14b82	0.023595575
67	0x3d9149a9	0.07094128
68	0x3aaf6042	0.0013380127
69	0xbd4a4763	-0.049384486
70	0x3d9b9546	0.07596831
71	0x3d9647cc	0.07337913
72	0xbc721984	-0.014776591
73	0xbdb2567f	-0.08707904
74	0x3c8c4c3b	0.017126193
75	0x3d25b663	0.04045714
76	0x3d95142f	0.0727924
77	0xbd2bf1a3	-0.04197849
78	0xbddac43d	-0.10681961
79	0xbd960f31	-0.07327116
80	0xbd7f7398	-0.0623661
81	0xbd63e1ec	-0.055635378
82	0xbc9296a4	-0.017894097
83	0x3da70619	0.0815546
84	0xbcd7bfd4	-0.026336588
85	0xbd5bfac6	-0.053705953
86	0x3dcad655	0.09904162
87	0x3e4a766b	0.19771735
88	0x3df5e158	0.120058715
89	0xbca38d67	-0.019964887
90	0xbe142c39	-0.14469995
91	0xbd61594b	-0.055016797
92	0x3de052d8	0.10953301
93	0x3cbe0333	0.023194885
94	0xbe0205f9	-0.12697591
95	0xbded3dbb	-0.1158404
96	0x3d7db42c	0.061939403
97	0x3d26c145	0.04071166
98	0xbbf49b9c	-0.007464839
99	0xbcd0b332	-0.025476072
100	0x3e1d0eda	0.15337697
101	0xbcecd26a	-0.028908927
102	0x3c6510a9	0.013981023
103	0x3ddbe259	0.10736532
104	0x3df6f5a4	0.12058571
105	0x3d4380dc	0.04773031
106	0x3c457952	0.012052851
107	0x3baf4cc4	0.0053497273
108	0x3d5458bb	0.051842432
109	0x3c879fad	0.016555632
110	0xbddf9864	-0.10917738
111	0xbd05306b	-0.032516878
112	0xbc69c1b0	-0.01426737
113	0x3da1272c	0.078687996
114	0x3cb3b703	0.021937853
115	0xbd8ef786	-0.06980805
116	0xbcab591e	-0.020916518
117	0x3d46b175	0.04850908
118	0x3c5d25f9	0.013497823
119	0x3d6b7276	0.057482205
120	0x3d9fcb05	0.07802395
121	0x3dd0a8ff	0.101884834
122	0xbcf4c3c2	-0.0298785
123	0x3d440c7d	0.047863472
124	0x3d90f64e	0.07078229
125	0xbce54744	-0.027988084
126	0xbddbe747	-0.10737472
127	0xbcac73ab	-0.021051249
128	0x3d2a5120	0.041581273
129	0x3df762c6	0.120793864
130	0x3db3ec2a	0.08785279
131	0x3dd9898a	0.106219366
132	0x3e0e9f4d	0.13927956
133	0xbd5cfec6	-0.05395391
134	0xbe22f17e	-0.15912434
135	0x3dd8f2cb	0.10593184
136	0xbc4c028a	-0.012451777
137	0xbe061d73	-0.13097171
138	0xbbde8bae	-0.0067915535
139	0x3dba0c43	0.0908437
140	0xbe00b5a3	-0.12569289
141	0xbd700ed2	-0.058607884
142	0x3c72ba01	0.014814855
143	0xbda84316	-0.082159206
144	0xbdf12c56	-0.117760345
145	0x3d18f320	0.037341237
146	0xbd333bb6	-0.043758117
147	0xbd3441eb	-0.044008177
148	0xbe59de10	-0.21276116
149	0xbe08d0fb	-0.1336097
150	0xbdab2749	-0.083571024
151	0x3a9b8996	0.0011866565
152	0xbd034f4f	-0.032058056
153	0xbd10d400	-0.03535843
154	0x3c8555db	0.01627629
155	0xbd08a694	-0.033361986
156	0x3daf2754	0.08552423
157	0xbbc4bd08	-0.0060039796
158	0xb9e7babd	-0.00044198884
159	0x3d0c5b67	0.034266856
160	0xbddc01ec	-0.10742554
161	0xbddb689e	-0.107133135
162	0x3d5891d6	0.052873455
163	0x3dad82bb	0.084722005
164	0xbde005f3	-0.10938635
165	0x3be2391e	0.0069037816
166	0xbb151ef3	-0.0022754043
167	0xbdbf52b5	-0.09341947
168	0xbd201a3f	-0.03908753
169	0x3d94ab3f	0.07259225
170	0xbdee6f20	-0.11642289
171	0xbc9afc41	-0.018919112
172	0xbcbbc063	-0.022918886
173	0x3c67243a	0.014107758
174	0xbddb0c0c	-0.10695657
175	0x3d9d1d11	0.076715596
176	0xbdc9f4af	-0.09861123
177	0xbd8cca66	-0.06874542
178	0x3d40ad2a	0.047040142
179	0xbc1829e0	-0.0092873275
180	0x3da74c71	0.08168877
181	0xbc148b02	-0.009066345
182	0x3dc02ff5	0.09384147
183	0x3e180c42	0.14848426
184	0x3db87772	0.090071574
185	0xbe1e56e2	-0.1546283
186	0x3b660eb2	0.0035103974
187	0xbc811cfb	-0.01576089
188	0x3df0541e	0.11734794
189	0xbe0b7a7f	-0.13620947
190	0xbd33e04e	-0.043915085
191	0xbd84afe5	-0.06478862
192	0xbd61049b	-0.054936033
193	0xbdabf43b	-0.08396193
194	0xbd387b67	-0.04503956
195	0x3dcee59a	0.10102387
196	0x3dac9334	0.08426514
197	0x3d6422d3	0.055697273
198	0xbd3d92f3	-0.04628272
199	0xbd336956	-0.043801628
200	0x3dbe8841	0.09303332
201	0x3d8c3393	0.068457745
202	0xbc82ff23	-0.0159908
203	0xbd627567	-0.055287745
204	0xbd574068	-0.052551657
205	0x3dd77c36	0.10521738
206	0x3b96e40d	0.0046048225
207	0x3c6fb872	0.0146313775
208	0x3daba6f5	0.08381454
209	0xbd19450f	-0.037419375
210	0xbcc19c0b	-0.023633977
211	0x3dc31ce3	0.09526994
212	0x3dc8185d	0.09770272
213	0xbe0dd53b	-0.13850872
214	0x3ce287b7	0.027652605
215	0x3e10646c	0.14100808
216	0x3dbe48b6	0.09291212
217	0x3c187909	0.009306201
218	0xbd29ccb1	-0.041454975
219	0x3d2e1726	0.042502545
220	0x3cd1be32	0.025603388
221	0x3e28ec75	0.16496451
222	0xbdb3916d	-0.08767972
223	0xbdd2a13c	-0.10284659
224	0xbc8c7cec	-0.017149411
225	0x3c82cbbf	0.015966294
226	0xbd49198a	-0.04909662
227	0xbd59194f	-0.05300265
228	0x3d150f4a	0.036391534
229	0xbce9e6e2	-0.028552476
230	0x3d27e2a4	0.040987626
231	0x3d9f2ae7	0.07771855
232	0xbcc18db0	-0.023627132
233	0xbdf37c4c	-0.11888942
234	0x3c1e0144	0.009643856
235	0xbd982baf	-0.07430207
236	0xbcba1e2a	-0.022719461
237	0x3c0468f5	0.008081664
238	0xbd724a47	-0.059152868
239	0xbdc63f8d	-0.0968009
240	0x3cefd798	0.029277608
241	0x3d74d450	0.05977279
242	0x3cfc79f8	0.030819878
243	0x3d009645	0.03139331
244	0xbd587390	-0.052844584
245	0xbd44be6c	-0.048033163
246	0xbd296c5e	-0.041363113
247	0xbd2e4683	-0.042547714
248	0xbe086b76	-0.13322243
249	0xbd2c3197	-0.04203948
250	0xbba61741	-0.00506869
251	0x3d14b975	0.036309678
252	0xbd271be1	-0.04079807
253	0xbcc5c888	-0.024143472
254	0x3d634b58	0.055491775
255	0xbccf1897	-0.02528028

fc1.bias f4 [10]
0	0x3df9b4bc	0.121926755
1	0x3ab06767	0.0013458551
2	0x3d2360d8	0.03988728
3	0xbcf3ff55	-0.029784838
4	0xbdb2c11b	-0.08728238
5	0x3ce9dc98	0.02854757
6	0xbcaa6cc4	-0.020803817
7	0xbba3e3dd	-0.0050015287
8	0xbca9e2b5	-0.020737985
9	0xba95dddb	-0.0011433916
