sandbox/snapshots/mnist/model-2664.pt (torch, 26159 bytes, 6 tensors)

conv1.weight f4 [8, 1, 5, 5]
00000000: 887d 873c df66 0ebe c438 fa3d 82a7 9fbd
00000010: e31e 7dbd 9253 0c3e 515d 58bd f472 71bc
00000020: 23e3 223c 3d76 9e3d 93bd 24be 8f45 7f3d
00000030: f7cc 91bd ad44 a8bd 0360 cebd 0b3a 84bd
00000040: 0c46 bfbd 7610 bb3b 814a 6abc 0f21 75bd
00000050: a034 02be b429 bebd a752 b53d b65d fa3d
00000060: 45c7 a33d 079d 2abe 7805 203c 6a3e 2e3e
00000070: 7b31 003e 3652 843e 91fd c23c a9d0 7abd
00000080: 996a 1d3e 8b27 c53d 80d0 963d efd6 94bd
00000090: 5d67 44be 47f7 fcbd 4632 2abe 2602 d4bc
000000a0: 2d29 543e 5381 ecbd d328 153e b5c4 24bd
000000b0: 8916 aebd 1aca 333d 7f9f 633e e665 31bd
000000c0: eabe 073e 9399 d73c 30ef ac3c 7510 5d3e
000000d0: 49aa 143e 3ee9 e8bc 16f1 e33d 9fea ffbd
000000e0: de41 503e 7d05 8e3d eadf 46be 2784 bbbd
000000f0: 8635 6cbd cb73 29bd 0b60 193d 9974 e4bc
00000100: 5895 46bc c836 023e d26b 043e d358 cfbd
00000110: c174 2abd 96c9 00be 756d a03d cedd df3d
00000120: 3d8a 8dbd 326a bc3d c35a 15be 320c 19be
00000130: 1602 d4bc ee1c 2bbe bf12 cd3d 8965 03bd
00000140: ff4d 41be b549 9c3d 6418 0fbe 99c1 993d
00000150: 719b 98bd a053 d0bd efbf 92bd 1134 17be
00000160: 3b87 4a3e 604c 713e 409b cc3d fec6 3dbd
00000170: 9edf 753e 9712 8dbd e2ce 3f3e 7f53 55be
00000180: 9b5b 6cbc a926 883e d6a8 433e 8218 93bd
00000190: 2ec6 5abd 4ab7 b5bc 1506 4bbe 4725 58bc
000001a0: 615a 6dbd 2dce e3bd 0f24 e73d ca90 abbd
000001b0: 39f5 42bd 5dd0 c9bd 96b2 0ebe 620e 8f3b
000001c0: 16a6 0a3e a2e4 ea3d 605c 0b3c 4936 623d
000001d0: f53d 353e 07df 55be 155f bdbc ad81 d73b
000001e0: eab8 0cbe 35f4 253e 0772 2ebe ef2f 163e
000001f0: 7f5d 83bd 3ba3 0abe 4686 f43d d2b3 763d
00000200: 0a94 04be 99eb fbbc 95f6 84bd d864 c4bb
00000210: 8dde a9bc 0ba1 253c 8299 47be ccc6 983e
00000220: f486 c83b 7f0a 0ebe c7cf 43be bda1 76bc
00000230: 4bd3 143e a09b 9f3e dfa8 553e f7a8 7e3d
00000240: 20bc 1d3e e4d6 973e 82e7 943e 2462 0bbd
00000250: ced6 443e 7718 fe3d 75ca 40be e53f 2cbe
00000260: 614c c4bd 7714 903d 9167 1c3e 5215 12be
00000270: a88a 833d f116 8bbc 08f2 723d 49c1 313d
00000280: 509d 49be 2fbe d2bd cdc1 fabd 111e 633e
00000290: adea 2d3e 827a 57be 278f a3bd c1c1 443e
000002a0: a61f 323e 9316 643d c68d 6b3d 6d45 0f3e
000002b0: bb1f 683b 33c8 2d3e 6748 37bd 6a21 0a3e
000002c0: 4cab fd3d 2de1 f93d ecda 1d3e d347 8cbd
000002d0: 00ad 2d3e d505 c53e ead2 063f 118d 8a3e
000002e0: 3ca9 a33e 9f6b 453e 38e1 813e 36d9 9e3e
000002f0: 091e f43e aa01 98bd 7bde 663e 10b6 0c3f
00000300: a5ba 053f 7bb3 a33e dfed ed3d 22ac 723e
00000310: 26ac c13e d894 0a3f d0b5 a13e 8b7f abbd
0.01653935 -0.1390643 0.122178584 -0.077956215 -0.061797034 0.13703755 -0.05282337 -0.01473688
0.009941849 0.07737396 -0.16087942 0.062322196 -0.07119172 -0.08216224 -0.100769065 -0.06456383
-0.09339532 0.0057087494 -0.01429999 -0.05984598 -0.12715387 -0.09285298 0.08853655 0.12224905
0.07996992 -0.16661464 0.009766929 0.17015997 0.12518875 0.25843972 0.02380255 -0.06123415
0.15372695 0.09626683 0.07363987 -0.07267558 -0.19180055 -0.12351852 -0.1662074 -0.02587993
0.20718832 -0.11548104 0.14566354 -0.040226657 -0.08500392 0.04389391 0.22228812 -0.04331007
0.13256422 0.026318347 0.021110147 0.21588309 0.14518084 -0.028431531 0.11129968 -0.12495922
0.20337626 0.069346406 -0.19421354 -0.091560654 -0.05766823 -0.041370194 0.03744511 -0.02788763
-0.012120567 0.1271621 0.12931755 -0.10124364 -0.04161525 -0.12576899 0.07833377 0.10930978
-0.069111325 0.09199943 -0.14585404 -0.14946058 -0.0258799 -0.16710255 0.10013341 -0.032079253
-0.1887741 0.07631246 -0.13974148 0.07507629 -0.07451523 -0.101722 -0.07165515 -0.14765956
0.19778149 0.23564291 0.09990549 -0.046332352 0.24011084 -0.06888311 0.18731263 -0.20832632
-0.014426137 0.26591995 0.19107375 -0.07182409 -0.053411655 -0.022182126 -0.19826539 -0.013192481
-0.05794752 -0.11123309 0.112861745 -0.08377226 -0.047597144 -0.09854195 -0.13935313 0.0043657282
0.1353992 0.114693895 0.008505911 0.05522755 0.17699416 -0.2088586 -0.023116628 0.006576738
-0.13742414 0.16206439 -0.17035685 0.14666723 -0.06414317 -0.1353883 0.11939673 0.060230084
-0.12947097 -0.03075199 -0.06492344 -0.005993467 -0.020736003 0.010109196 -0.19492152 0.2983917
0.0061196033 -0.13871191 -0.1912223 -0.01505321 0.14533727 0.3117342 0.208652 0.062172856
0.15403795 0.29656136 0.29082876 -0.03402914 0.19222566 0.1240701 -0.18827231 -0.16821249
-0.095848806 0.07035153 0.15273882 -0.14265946 0.06422931 -0.016978713 0.05931285 0.04339722
-0.19688916 -0.10290181 -0.12243996 0.22179438 0.16984053 -0.21042827 -0.079862885 0.19214536
0.17394885 0.05568559 0.057508253 0.13991328 0.0035419303 0.16970901 -0.044746783 0.13489309
0.12386188 0.12201152 0.15415543 -0.06849637 0.16960526 0.38481012 0.5266558 0.2706075
0.31965053 0.19279335 0.2536714 0.31025094 0.47679165 -0.074221924 0.22545807 0.54965305
0.5223792 0.3197287 0.11617636 0.23698476 0.3782665 0.5413337 0.31584024 -0.08373936

conv1.bias f4 [8]
00000000: 8183 abbd 276d 4139 e2ad f2bb fd5d 9abd
00000010: 254a f0bd 0794 bd3b 05fd ca3d 30b9 7039
-0.08374692 0.00018446577 -0.0074059824 -0.07537458 -0.11732892 0.0057854685 0.09911541 0.00022957171

conv2.weight f4 [16, 8, 5, 5]
00000000: e30a 66bb 794e 62bc 6105 62bd 4224 acb8
00000010: 20ba 8bbc 7666 523d 1720 8fbd 8e7c cbbc
00000020: 508e c1bc b0d4 e9bb 2981 8bbd 85fd 66bd
00000030: f9d6 24bc de38 c6bc bce7 303d 3398 0cbd
00000040: bc4d 663c 9ace 823d c528 94bc 2865 5f3d
00000050: 223b 45bd 5034 c63c 1e56 0c3c ea1d 1cbb
00000060: 2ccd 9fbc 385f 963d 1e96 58bd fcc5 403d
00000070: 689b 0bbd 6570 003b 1843 443d 4110 bdba
00000080: 03e4 36bd 446d ad3c 4d9b a63c 6861 86bd
00000090: 4cf0 8b3d b8e7 343d f630 b03d a702 113d
000000a0: 5287 2e3d a2eb 3f3d 963c a43c fd7d 843d
000000b0: 4771 51bd 9b77 993d 4705 1abc c237 813d
000000c0: e88d 7a3c 7232 3c3b 406a ddb9 6670 833c
000000d0: f52f f7bc 78e1 323d acbf 84bd c419 d4bc
000000e0: f89c 0f3d 95a9 593d 6820 97bb 6b4f 1c3d
000000f0: 59be 25bd 08c9 32bd 7ef0 6c3d 3ae7 743d
00000100: ea21 593d a1c6 413d 47ad 3bbc 9e63 933d
00000110: 4366 8a3d 2e2e 7e3d e847 e33c 228f f23c
00000120: 66f7 a63d dfa0 363b d254 ddbc d28e 67bd
00000130: 6b76 b8bd 3963 0ebd ae9e be3d 6f43 5c3d
00000140: 0f99 e7b9 7e24 683c 01aa fdbc a12c d23d
00000150: 545e 653d 03dd 87bd 06e5 bebb 8f76 1ebc
00000160: 9728 05bd 910e 1e3d 5ec2 b5bb 91df b13d
00000170: 8997 5bbd faea a53b 9768 41bd a8c3 b33c
00000180: f64e adbc fd37 11bd fde7 41bc 439e 57bd
00000190: 687f 523d 2fbe 5b3d fa7d 19bd 54b3 61bd
000001a0: 95c9 5fbd 1eaa ab3b 101d 4f3d 181e acbc
000001b0: 0faa a4bc 06f8 4d3d 2425 ca3c 1126 593d
000001c0: cbfc 1cbc 3ae9 923c ceb7 953c 3b9e 68bd
000001d0: 58d3 3abc 49a8 58bd 4c82 88bd de12 8ebd
000001e0: 6b08 d13c 9012 6cbd df6d 69bd 3bc0 883d
000001f0: a23f a7ba 02fd 06bd 50fb 373d d499 5d3d
00000200: 8f6d 2fbd 6321 a43d 5903 bbbb bded a6bb
00000210: c24c ec3c 6aa4 37bc aee1 753c 16cd 14bd
00000220: a3f5 e1bc 1000 ae3d 30ea 8e3d 6647 3d3d
00000230: f5e0 553d 608d 30bd 8b50 21bd d6b0 373d
00000240: f7ff ea3c f21d 77bd be19 81bd 9156 72bd
00000250: c0b4 d8bb 7798 303c db10 493d ac88 3ebc
00000260: 5044 83bd da73 12bd a567 eb3c fb66 36bd
00000270: 8a89 193d e102 aa3d b65e c03d 20c6 d8bb
00000280: e20b a5bc 7cc3 12bc 0fe5 cf3d f960 e23b
00000290: 4180 b9bc 0bd0 373c 6dbd 893d 13b9 823c
000002a0: 0d3e 0c3d 3ac3 dbbd 5d86 d6bc a209 873d
000002b0: cbf5 bbbc be56 53bc 3d0c 83bd 082a 753d
000002c0: c9e6 523d c8c4 cabd 2e0e 69b9 fe69 23bd
000002d0: 7b87 fcbc 5385 80bd 0263 d33d cde6 053e
000002e0: 41d9 183e b067 15be 7054 933d 1bde 313e
000002f0: a81e 623e d04d 353d c927 1bbd c771 4a3e
00000300: 4667 5c3e 6f85 c33d 3c2d 16bd 9176 1a3e
00000310: 3cf6 c73d 8043 c53d 3212 16bd e352 ffbd
00000320: 24eb 08bd 461b 903d 7158 283d 4fed e3bb
00000330: cbc6 4d3b 5f37 60bd 79f8 113d 169b 933d
00000340: f6c2 1d3d 3643 563c f8e7 8abd 0c3d 66bd
00000350: c670 78bc b023 f2ba 62a1 1abd 4c2b 87bd
00000360: 8ce2 e0bc 90be 7a3d 7295 54bd ca6d 5e3c
00000370: ab15 f03b 1158 71bd 6208 073a d1cd cc3b
00000380: 4327 093c 0dea 573d f6e1 25bd 3780 863d
00000390: e0c5 863c 4b0c 80bc 78a1 31bc 5715 04bd
000003a0: a611 cbbc ce83 e73c eac9 2e3d eb40 3b3d
000003b0: baec 5cbd 4811 2bbc b2ac 52bc 9893 02bd
000003c0: 5a80 213a 9a35 8e3d a342 093d dccc 8e3d
000003d0: d877 833d 38e7 b1b9 df00 8f3b e1e0 8a3c
000003e0: 0cc5 6ebc 8acf 843c bc8a c2bc 9a77 9c3c
000003f0: 8d1f 5c3d caaa d83c 9edc 69bd 5e9c 44bc
-0.0035101704 -0.013812655 -0.05518091 -8.208353e-05 -0.017056525 0.051367246 -0.069885425 -0.024839666
-0.02362743 -0.00713595 -0.06811745 -0.05639412 -0.010061019 -0.024197038 0.04318975 -0.034324836
0.014056619 0.06387062 -0.018085847 0.05453983 -0.048152097 0.024194866 0.008565454 -0.002382154
-0.019507013 0.0734238 -0.052877538 0.047063813 -0.034083754 0.0019598242 0.047915548 -0.00144244
-0.044651043 0.021170266 0.020337725 -0.065615475 0.06832942 0.044166297 0.086030886 0.03540292
0.04260952 0.046855576 0.02004842 0.06469343 -0.05113342 0.07493516 -0.009400672 0.06309463
0.015292622 0.0028716591 -0.00042231567 0.016044807 -0.030174235 0.043672055 -0.06481871 -0.025891192
0.035061806 0.05314024 -0.0046120174 0.038161676 -0.040464733 -0.04364875 0.05784654 0.059790827
0.05301086 0.047308568 -0.011454887 0.07196735 0.06757786 0.06205576 0.027744249 0.029609267
0.08152656 0.0027866883 -0.027017985 -0.05653269 -0.090069614 -0.034762595 0.093076095 0.053775247
-0.0004417379 0.014168857 -0.030964853 0.102624185 0.05599816 -0.066339515 -0.0058256416 -0.009671821
-0.032509413 0.03858811 -0.005546852 0.0868522 -0.053611312 0.005063412 -0.047218885 0.021943882
-0.021155816 -0.035453785 -0.0118350955 -0.052641165 0.051391035 0.05364817 -0.037473656 -0.05510266
-0.054635603 0.0052387854 0.050564826 -0.021010444 -0.020100622 0.05028536 0.024675913 0.05301482
-0.009581755 0.017933477 0.018276121 -0.056791525 -0.011402927 -0.052894864 -0.06665477 -0.069371924
0.02551671 -0.05763489 -0.056989547 0.0667729 -0.0012760053 -0.03295613 0.044917405 0.05410178
-0.042829093 0.080141805 -0.005707186 -0.0050942586 0.028845195 -0.011208633 0.0150074195 -0.036328398
-0.027582949 0.08496106 0.069782615 0.04621067 0.05221649 -0.043103576 -0.039383452 0.04484638
0.028686507 -0.060331292 -0.06303738 -0.059164587 -0.006613344 0.010778538 0.04908834 -0.011629265
-0.06409514 -0.035755016 0.028735945 -0.044531804 0.037484683 0.0830133 0.09393065 -0.006615415
-0.020147268 -0.00895774 0.10151111 0.0069085327 -0.022644164 0.011219035 0.06725583 0.01595739
0.034238864 -0.10730596 -0.026187116 0.06593634 -0.022944352 -0.012899099 -0.06398819 0.059854537
0.051489625 -0.09900814 -0.00022225894 -0.039896004 -0.03082632 -0.062754296 0.103216186 0.13076325
0.14926626 -0.14590335 0.071938396 0.17369883 0.22082007 0.04426366 -0.03787974 0.19769965
0.2152377 0.09546935 -0.036664233 0.15084292 0.09763762 0.09632015 -0.036638446 -0.12466981
-0.033427373 0.07036452 0.04109997 -0.0069557796 0.0031399007 -0.054740306 0.035637353 0.07207315
0.038516007 0.013077548 -0.06782526 -0.056210563 -0.015163606 -0.001847377 -0.037751563 -0.06600055
-0.027451776 0.06121689 -0.051900335 0.01357598 0.007326802 -0.058921877 0.00051510904 0.006250121
0.008371177 0.052713443 -0.040498696 0.06567424 0.016451776 -0.015630862 -0.01084172 -0.032246914
-0.024788689 0.028261092 0.04267303 0.045716207 -0.053936698 -0.010441132 -0.012858557 -0.031879038
0.00061607885 0.069438174 0.033510815 0.069726676 0.06419343 -0.00033932342 0.0043641175 0.016952934
-0.014573347 0.016212244 -0.023747794 0.0191 0.053741027 0.026448626 -0.057095163 -0.0120001715

conv2.bias f4 [16]
00000000: d33b cdbc f347 913d e137 cf3d ff57 6ebd
00000010: 8050 02bd e93c 07bc a0c9 323d 41be 12bb
00000020: acf8 783d 0bde 953c 84a9 4d3a 421a 463d
00000030: af0b 553d 85bb 0c3d 7ef5 083c ed90 9e3d
-0.02505294 0.07093801 0.1011808 -0.05818939 -0.031815052 -0.008254268 0.043649316 -0.0022391232
0.060784027 0.018294355 0.0007845389 0.048364885 0.052013095 0.03435852 0.008359311 0.07742486

fc1.weight f4 [10, 256]
00000000: b106 b03c b9d6 823d 581e 1b3d d377 8d3d
00000010: 5287 e23d 86b6 8f3c cb08 80be 91bc d63d
00000020: 3348 f9bb da82 3dbe 3d2c adbd 2cfd 233e
00000030: 9388 89bb 46a8 ac3c a039 993d 1e4d 37be
00000040: 5732 acbd 35d4 123d d365 103e d4cb 693d
00000050: 99b8 1cbd fbf8 70bd f1cc c1bc bc52 563d
00000060: 36e6 94bc c672 b4bd c25b f0bd 5fd9 93bc
00000070: 9b2f 5bbc ceec 8e3d a73b 3dbd 37a3 19bd
00000080: b84a ba3d a927 843d a4dd 193d d3d8 96bb
00000090: 6ae1 2c3e 9fab 8bbd 388e b1bd 81a2 0a3e
000000a0: be9c 093e e59e 06be 370f ea3c 1bc2 733d
000000b0: 8445 553d 0b0b ab3d dbc2 213d 8aed 54bd
000000c0: 6690 f53c 8fcc 6cbd d1c6 5cbd b161 73bd
000000d0: 1b66 03bc 8189 fa3b 249d 5d3d 2359 963d
000000e0: 0d4d 09bd 2c83 8cbc 3f22 d7bc 6152 0e3d
000000f0: a1fa 233d 1d78 30bd 97ac 70bd 8312 1fbd
00000100: 8de8 10bd 63af 60bd 3ab3 dc3c c44f 1b3d
00000110: 0d7b 073d 5b9b 41bd 3043 a33d 6a9d 203d
00000120: 3098 293c fb95 b9bd 07e8 4e3d b32d 393d
00000130: 8991 963d 7e0a f1bc cd64 bebd ddb1 99bd
00000140: aa83 2dbd c550 b1bd 43d5 2fbd 1e15 553d
00000150: 4a66 cc3c e982 66bd 82c3 d83d c06e 403e
00000160: 9271 0d3e 72c9 6b3c eaf6 03be d25a 54bc
00000170: 0576 e83d 7d3d 943d d602 febd 4969 d0bd
00000180: b84c 9d3d 9b95 753d da6b 31bc 03f4 81bc
00000190: 1c29 293e 0ecc 5bbd 9455 1d3c 10e8 d03d
000001a0: 05ec ee3d 79b9 08bc 3a8b 273d 0d29 293c
000001b0: b478 7f3d 1023 043d d1a6 6dbd a932 d1bc
000001c0: 401f 35bc b4b7 823d c33c 0b3d 4647 5bbd
000001d0: 4265 0abd 650a 2a3d 2bab cf3c 3cb5 b53c
000001e0: 551a f73c 9906 d33d 9850 a6bc 49f5 6e3c
000001f0: 9d1a 203d bb59 b0bc 1273 97bd adf7 71bc
00000200: 8e61 273d 42a0 063e d095 913d ac3e cb3d
00000210: 63bf 163e 55b1 1bbd 729c 40be 0486 c73d
00000220: 72fc 7839 7e50 e0bd 0134 363c 9b30 8b3d
00000230: 69fa a0bd f191 ebbb bd1a 893d c65a 48bd
00000240: df0b c5bd f7d9 2f3d 6c72 05bd 412a 1fbd
00000250: 65d4 0abe 4682 acbd 5c42 00bd 5a89 403c
00000260: fa9f 213b 6ad2 cdbc d4c1 643c 528d 0fbd
00000270: 75a4 933d fc0b f9bb 133b d4bb f0d0 0a3d
00000280: 87d0 babd 59a8 c3bd 30c5 9a3d 9ecf c33d
00000290: b46d 9cbd 6967 563d d738 9d3c cc8a 87bd
000002a0: baaa 05bd 5c3f b33d d8a2 1cbe 0af1 45bc
000002b0: 6b0e 17bd 39d1 7c3c 770f eebd d179 8a3d
000002c0: ffea a3bd c23e 98bd 0c0d 4f3d ecb6 34bc
000002d0: 2840 003e ba44 afbc aee3 d13d 1967 013e
000002e0: 7ae9 013e c511 19be e767 673c 20d5 8dbc
000002f0: 3df1 eb3d 7030 ecbd f6ec 21bd 999d b3bd
00000300: be5f 5cbd 1b02 98bd 976e 45bd d1f6 d13d
00000310: d914 533d b2fa a33d a302 21bd abac 93bc
00000320: 413d 053d 9edf a33d 3790 f4bb 6374 37bd
00000330: e12f d5bd 12e5 c13d 5df2 f93c 8620 e43c
00000340: 1676 ca3d ff2b 21bd a106 1cbd 0f91 933d
00000350: ae7c cd3d 3c7b 2cbe f34f ed3c 5969 063e
00000360: c131 a63d 72ad 5c3c 345c a7bc ec28 713d
00000370: 3f38 203d a859 483e a1fd 95bd 4d55 afbd
00000380: 0dc2 e3ba f8de 1d3c e81f 41bd e1aa 1abd
00000390: 1ad7 7b3d 5cfa a2bc 2756 803d b70c b03d
000003a0: b2e7 5bbc 2ecc debd aa69 8d3c 3d7e aebd
000003b0: 03a3 bebc 5d87 783c 1acc 8bbd be4e eabd
000003c0: e4b1 173d 9954 453d e4cf 8c3c 83ee 223d
000003d0: b189 04bd dda2 69bd b773 1bbd 35ff 0ebd
000003e0: 0bea c6bd 7355 04bd b6f6 013c 8707 163d
000003f0: 8c14 09b9 9d3a 4abc 1980 753d 3233 bcbc
0.021487566 0.06388611 0.037870735 0.0690762 0.110609666 0.017543089 -0.25006709 0.10485185
-0.007607484 -0.18506947 -0.084557034 0.16014546 -0.004197189 0.021076333 0.07481694 -0.17900512
-0.08408039 0.035846908 0.14101343 0.05707915 -0.038261984 -0.058831196 -0.023657294 0.052324995
-0.01817618 -0.08810954 -0.117362514 -0.018047987 -0.013378049 0.06978761 -0.046199467 -0.03750917
0.09096283 0.06452877 0.03756489 -0.004603484 0.16882864 -0.068198435 -0.08669704 0.13538553
0.13438699 -0.13146551 0.028571708 0.059511285 0.05206825 0.08351716 0.03949247 -0.051984347
0.029976081 -0.05781227 -0.053900544 -0.059419338 -0.008019949 0.0076457863 0.05410494 0.0734122
-0.033520747 -0.017152391 -0.026261447 0.03474653 0.04003394 -0.0430833 -0.058758345 -0.038836014
-0.035378028 -0.05485476 0.02694093 0.037917867 0.033076335 -0.0472673 0.079717994 0.03921262
0.010351226 -0.0906181 0.050514247 0.045209598 0.073519774 -0.029423948 -0.0929657 -0.07504628
-0.042361893 -0.08657984 -0.04292799 0.052022092 0.024951119 -0.05627719 0.10584165 0.18792248
0.13812855 0.01439129 -0.12887159 -0.012961106 0.113506354 0.072382905 -0.12402885 -0.101763315
0.076806486 0.059957128 -0.0108289365 -0.015863424 0.16519588 -0.0536614 0.009602923 0.102005124
0.11666111 -0.008345001 0.04090426 0.010324729 0.06237097 0.03226 -0.058020417 -0.025536852
-0.011054814 0.06382695 0.033993494 -0.05353477 -0.033787973 0.04151382 0.025350174 0.022181146
0.030163923 0.10303993 -0.020302102 0.014584848 0.03908788 -0.021527162 -0.07394995 -0.014768523
0.04086452 0.13147071 0.071086526 0.09924063 0.14721446 -0.038010914 -0.18809679 0.09742358
0.00023745166 -0.10952853 0.011120797 0.0679638 -0.07860262 -0.0071890284 0.06694553 -0.048914693
-0.09621405 0.042932477 -0.032579824 -0.038858656 -0.13557585 -0.08423285 -0.031313285 0.011751497
0.0024662004 -0.025124747 0.013962228 -0.035046883 0.07209102 -0.0076003056 -0.0064767688 0.033890665
-0.09121805 -0.09553594 0.07557142 0.09561084 -0.07638112 0.052344713 0.019192142 -0.0661827
-0.03263352 0.08752319 -0.15296495 -0.012081394 -0.036878984 0.015430742 -0.116240434 0.06761516
-0.08003806 -0.07433845 0.05054955 -0.01102994 0.12524474 -0.021395076 0.102485046 0.12636985
0.1268672 -0.14948185 0.014123893 -0.01731354 0.11520622 -0.11532676 -0.039532624 -0.08770294
-0.053802244 -0.074222766 -0.04820117 0.102521546 0.051533554 0.08006801 -0.039309155 -0.01802667
0.03252912 0.08001636 -0.007463481 -0.04478873 -0.10409523 0.0946752 0.030511076 0.02784754
0.09885804 -0.0393486 -0.03809226 0.07205402 0.100335464 -0.16843885 0.028968787 0.13126124
0.081149586 0.013469087 -0.020429708 0.058876917 0.03911614 0.19565451 -0.073237665 -0.08561192
-0.0017376557 0.009635679 -0.04714957 -0.03776062 0.061484434 -0.019894771 0.06266432 0.08596175
-0.01342194 -0.10878788 0.017262299 -0.08520172 -0.02327109 0.015168992 -0.06826039 -0.114408
0.037034884 0.04817638 0.017188974 0.039778244 -0.032357875 -0.057040084 -0.03795215 -0.034911353
-0.09712609 -0.032308053 0.007932356 0.036628272 -0.00013072992 -0.012343076 0.059936617 -0.02297363

fc1.bias f4 [10]
00000000: c202 0a3e dd92 3b3c 3711 d43c f94b 8dbc
00000010: a0cc a1bd eb15 4cbb 2f55 a4bc c369 94bb
00000020: 8259 a6bc 82ed 6aba
0.13477615 0.011448589 0.025887115 -0.01724814 -0.07900357 -0.0031140994 -0.02006015 -0.0045292093
-0.020306353 -0.0008961783
