sandbox/snapshots/mnist/model-2112.pt (torch, 26159 bytes, 6 tensors)

conv1.weight f4 [8, 1, 5, 5]
00000000: 951c 813c 58fb 0dbe fccc fa3d d175 9fbd
00000010: 2c86 7dbd 3ee1 0b3e 15d0 57bd a1fb 73bc
00000020: ae1b 263c 1abe a13d 90ea 24be fcfe 7c3d
00000030: e995 93bd 32c3 a7bd fb0b cabd 1a33 84bd
00000040: 52fb bfbd acc0 853b 3d73 79bc 8eac 76bd
00000050: 6ea9 02be eb49 c1bd 694d ad3d 9018 f13d
00000060: b2dd 993d 02c7 2dbe f359 213b 2e36 253e
00000070: c0fd de3d 27e6 743e 2875 c33c 3baf 83bd
00000080: 865b 1c3e 8971 b93d e212 8b3d a7e8 88bd
00000090: f251 3ebe 44c8 e2bd d674 1dbe d6f5 88bc
000000a0: b9ad 543e 9366 e8bd a571 1d3e 3b4b f1bc
000000b0: 03ac 9dbd 5f33 1b3d e7fd 5e3e 91c7 2cbd
000000c0: 1883 0d3e 328c fa3c d8da 6f3c d1f0 563e
000000d0: aa1a 143e 801d bcbc 19f0 f63d fbd9 06be
000000e0: 468d 473e ada7 863d a528 43be 4e86 aebd
000000f0: 60cf 85bd 9dba 4dbd ecfb 0a3d 575d c0bc
00000100: 2a8e 8dbb 3d30 003e dca8 013e a42f ccbd
00000110: 5ba8 10bd 4dbd f0bd e1e7 a23d 71f3 e03d
00000120: a35a 84bd adb7 cd3d 36ca 0cbe e588 14be
00000130: b679 98bc 0894 27be cf9e b63d 602a 63bd
00000140: d7ff 3bbe 7091 a93d 6fd3 10be c82f 693d
00000150: c992 c9bd 6c78 bbbd d37f 7dbd ed41 1bbe
00000160: e11b 383e 520d 633e 123f ed3d 0200 04bd
00000170: f48a 6f3e f125 b3bd ba6b 373e 1e27 48be
00000180: 9996 f6bb 787f 823e 918c 333e 5b57 9dbd
00000190: 9b5c 5abd b963 b7bc e511 4bbe 7212 55bc
000001a0: b64e 6cbd cbd9 e3bd 50f9 e63d 0656 abbd
000001b0: 7a99 3fbd 49d5 c7bd 324f 0ebe ab93 b13b
000001c0: 9385 0c3e 4da6 ee3d b215 233c 5d3e 6a3d
000001d0: a57d 373e 65d2 54be d106 babc f249 e43b
000001e0: 41d3 0abe f4f2 263e f5d1 2ebe aa85 153e
000001f0: 9e6d 84bd 50ca 09be ef1f fe3d 12f5 8b3d
00000200: 083f f6bd 7c99 96bc ab7a 94bd 2d36 0ebc
00000210: 815a 48bc a6d7 a63c 08af 3dbe 02bd 8f3e
00000220: 2a11 9cbb a36d 0dbe 996c 42be 3028 7fbc
00000230: 5126 f23d 3ebd 913e e2f5 3f3e 4128 2d3d
00000240: 0fe4 0d3e 3a57 8b3e 1f3f 873e 2aa2 75bd
00000250: 206d 2c3e 7503 d83d ba2f 33be bc09 1cbe
00000260: 12c3 aabd f8c2 8c3d 3f01 103e b02a 03be
00000270: 536a aa3d 80c0 c4bb df5f 4b3d bbcb de3c
00000280: 576c 3dbe 8ce8 b7bd 94bb f7bd 86ad 563e
00000290: 0a58 243e bd4e 4bbe 28a2 93bd 0e3e 3d3e
000002a0: 6e74 243e 6cec 5c3d b494 8e3d 0e9f 103e
000002b0: e334 0ebc 7054 213e e96f 36bd 4286 0b3e
000002c0: 1b35 093e 1ec8 073e f0f5 2b3e 51ef 61bd
000002d0: 5061 1f3e eba9 bb3e a77d 013f 6737 873e
000002e0: 2cf4 a83e 0352 363e f8bc 5d3e 4a2a 833e
000002f0: 3262 e53e 211b 9dbd f0d4 5d3e 608a 013f
00000300: f505 ed3e 5d20 903e e8f2 cd3d 27ad 783e
00000310: d7c3 bb3e 10b7 023f f793 903e aa0b d6bd
0.0157607 -0.13865411 0.12246129 -0.077861436 -0.061895534 0.13660142 -0.052688677 -0.014891536
0.010138435 0.07897587 -0.16105103 0.06176661 -0.072063275 -0.081915274 -0.09865566 -0.06455059
-0.093741074 0.004081806 -0.015225229 -0.060223155 -0.12759945 -0.09437927 0.084620304 0.11772263
0.07512988 -0.16970447 0.0024620264 0.16133949 0.10888243 0.23915921 0.023859575 -0.06429907
0.15269288 0.09054858 0.06790711 -0.06685 -0.18585947 -0.11073354 -0.153766 -0.016718786
0.20769395 -0.113476895 0.15375383 -0.029454818 -0.07698824 0.03789079 0.21776544 -0.04218251
0.1381954 0.030584428 0.014639579 0.20990302 0.14463297 -0.022963285 0.12057514 -0.1316909
0.19487485 0.0657495 -0.19058473 -0.0852171 -0.06533694 -0.050226796 0.033931658 -0.023482008
-0.004319926 0.12518401 0.12662071 -0.09970024 -0.035316806 -0.11754856 0.07954384 0.10983933
-0.064626 0.10044799 -0.13749012 -0.14505346 -0.018612724 -0.16365063 0.08917009 -0.055460334
-0.18359314 0.08279693 -0.14143156 0.056930333 -0.0984245 -0.09153828 -0.06188948 -0.15161867
0.17979385 0.2217305 0.11584295 -0.03222657 0.2339285 -0.08747471 0.17912188 -0.19546172
-0.007525277 0.25487876 0.1753409 -0.07682677 -0.05331097 -0.022386419 -0.19831045 -0.013004886
-0.057692252 -0.11125525 0.11278021 -0.08366017 -0.046777226 -0.09757478 -0.13897398 0.0054192147
0.1372283 0.11652813 0.009953903 0.05718838 0.17919023 -0.20783384 -0.022708328 0.006966823
-0.1355715 0.16303617 -0.1707228 0.1460177 -0.0646622 -0.13456082 0.124084346 0.06833853
-0.12023741 -0.018383734 -0.072499596 -0.008679909 -0.012228609 0.020366501 -0.185238 0.2807389
-0.0047627883 -0.13811354 -0.18986739 -0.015573546 0.118237145 0.28464693 0.1874614 0.042274717
0.13856529 0.27214986 0.26415345 -0.059969105 0.16838503 0.105475344 -0.17498675 -0.15238088
-0.08337988 0.06873125 0.14062975 -0.12809253 0.08321061 -0.006004393 0.049651977 0.027196756
-0.1849836 -0.08979902 -0.120963246 0.20964631 0.16049209 -0.19854255 -0.07208663 0.18480703
0.1606004 0.053936407 0.069619566 0.14123175 -0.008679601 0.15754867 -0.04454032 0.13625434
0.13399164 0.13259932 0.16793036 -0.05515987 0.15564466 0.36653075 0.50582355 0.26409456
0.32998788 0.17804722 0.21654117 0.25618201 0.4480148 -0.0767119 0.2166326 0.5060177
0.46293607 0.2814969 0.10056096 0.24284802 0.3667285 0.5106058 0.28237888 -0.104514435

conv1.bias f4 [8]
00000000: 6e1f b7bd 5d7c 7abc e6f4 6fbb 1b19 afbd
00000010: 61dc eabd 30d7 55bc fc79 da3d 078b 5e37
-0.089415416 -0.01528844 -0.0036614477 -0.0854971 -0.11467815 -0.013051793 0.10667798 1.3264601e-05

conv2.weight f4 [16, 8, 5, 5]
00000000: 76ce 80bb 81cc 61bc 97df 60bd e197 81b9
00000010: 6076 8bbc 11ce 513d 254f 8ebd e095 c5bc
00000020: f360 bfbc c696 ecbb e3a3 8bbd 0671 66bd
00000030: a590 21bc 1214 c8bc 7769 303d 875d 0dbd
00000040: 1698 6c3c 041d 833d 3a63 94bc 6180 5f3d
00000050: 4d80 44bd 206f c73c f364 0f3c f196 11bb
00000060: 480f 9fbc 7f29 8a3d 61d7 70bd 1b77 423d
00000070: a81d f7bc d611 4f3b 1367 423d 0392 adba
00000080: 09f9 31bd e7af b93c a9f9 b23c a42f 88bd
00000090: cf19 903d cc17 373d 699a b03d 4144 163d
000000a0: db57 243d a3b2 3f3d 4bbb ba3c dd1b 833d
000000b0: 05c6 45bd 578a 903d 5f49 02bc ca79 8b3d
000000c0: d871 923c 7d37 b43b 3dfb 8f3b 6c4a 863c
000000d0: be32 f4bc bf61 363d 6e37 85bd 753d a5bc
000000e0: 5eb6 133d d5fb 5c3d a670 34bb 84b6 0c3d
000000f0: 019a 11bd bc01 34bd 18c8 6a3d 4dfa 753d
00000100: 0796 433d 8d8b 4a3d 8cc8 92bc 2262 8a3d
00000110: 836a 8b3d 3060 783d be1c d53c b018 ba3c
00000120: e373 a33d e91f e73b 1c34 cebc e2fc 64bd
00000130: 270f abbd bcca e6bc 31e1 c03d f74f 543d
00000140: a51f c6ba 183e 5b3c 008b 09bd 0c25 c03d
00000150: 704f 4a3d fa17 8abd 358d c5bb bde3 0abc
00000160: f30d 1fbd e93a 193d f840 6ebc 7f62 b03d
00000170: 7e3f 54bd 2463 0a3b dae1 31bd 1006 a33c
00000180: cf67 8bbc 6e97 01bd 9da3 3abc 9117 51bd
00000190: f9b7 533d 3fd5 5b3d 41ea 19bd c4bb 62bd
000001a0: bb60 60bd ef13 a53b f9c5 4e3d c552 afbc
000001b0: 8bdf a7bc 0055 4d3d 5fd0 c93c 84b8 583d
000001c0: 94c6 20bc 729a 913c 8c2b 963c 5d6b 68bd
000001d0: 7018 3bbc 0ddb 58bd 2bc1 88bd 8ee2 8dbd
000001e0: 5fa2 d13c 986c 6bbd 4bd1 68bd 7fc3 883d
000001f0: 04a6 a0ba 770c 09bd f070 433d 5a78 6c3d
00000200: 36b4 24bd 127c 9b3d 53de 93bc 4ed1 75bc
00000210: 719a cf3c a2f6 0cbc 83da 133c 83c1 1dbd
00000220: e8be e4bc 3619 af3d bb1f a93d a96b 4d3d
00000230: fc5b 553d ff59 30bd 6cc7 17bd 798d 813d
00000240: d126 1f3d 556c 52bd ab49 62bd e96e 52bd
00000250: f76e 303b 92c2 503c 21af 413d dcea e0bb
00000260: 4ad6 5ebd 1b1f 03bd b5b1 e33c d5b2 31bd
00000270: fa51 333d 599d a93d badc ae3d fa23 6bbc
00000280: 8b14 7fbc 68a5 a7bb 5111 d23d 8520 a9bb
00000290: 3e3b cdbc c002 773b bb8c 8f3d 2ab8 a53c
000002a0: c261 013d 63e2 d3bd f02b fabc 4748 993d
000002b0: 471f 75bc bcf7 69bc ca5b 7abd b164 933d
000002c0: 7ce1 673d 8c07 acbd 0c00 803c b455 00bd
000002d0: 80f4 e5bc 33c8 6dbd bd04 fe3d 6439 063e
000002e0: ed81 0d3e f40a 1ebe 9cee 7c3d f842 3b3e
000002f0: 4f0e 663e a05a 213d a6ae 54bd 877e 393e
00000300: 3427 703e 5bd7 023e 4d9c fdbb 37c1 163e
00000310: 50c8 d73d 5dad 083e 6ea1 403c 4f82 cdbd
00000320: adc8 0abd 5c48 8e3d 161f 243d 4335 fdbb
00000330: 9f89 293b c33f 63bd 8f4b 0b3d 2485 903d
00000340: 24ff 183d c136 4b3c be59 8bbd ea42 68bd
00000350: 7778 80bc f5c7 18bb 6ea3 1bbd 0755 87bd
00000360: 9320 e1bc 2f67 7a3d d65f 55bd d19c 5a3c
00000370: d290 d93b 27fc 73bd 13e1 53b9 922e b93b
00000380: c576 043c e588 543d 4796 26bd dab5 873d
00000390: 2df5 903c d575 6bbc 86c4 1abc a82a 01bd
000003a0: 57f4 d4bc 017a be3c 89e1 113d ae99 393d
000003b0: f084 59bd dd8e 09bc dcfc 6cbc 8f0a 18bd
000003c0: e865 39bb 5d22 813d dbde dc3c abf4 7e3d
000003d0: 0977 733d c379 bebb e9a6 35bb 71ab 1c3c
000003e0: b58a b4bc f791 2f3c c367 d5bc 58b3 823c
000003f0: 454d 563d b501 f33c 7935 55bd cda7 60bc
-0.003930862 -0.013781668 -0.054900732 -0.00024717956 -0.017024219 0.05122191 -0.06948689 -0.024119318
-0.023361659 -0.007220122 -0.06818368 -0.05626013 -0.009861146 -0.024423633 0.04306933 -0.034513023
0.014440557 0.06402019 -0.018113721 0.05456579 -0.04797392 0.02434498 0.0087520955 -0.0022215212
-0.019416466 0.06746196 -0.05879915 0.04747687 -0.030165508 0.0031596324 0.04746158 -0.0013242367
-0.04345039 0.022666885 0.021847563 -0.06649712 0.070361726 0.04470043 0.086232014 0.036686186
0.040122848 0.04680122 0.022794386 0.06401799 -0.04828455 0.07057636 -0.007952063 0.06810339
0.01787655 0.005499779 0.0043939636 0.016392909 -0.029809352 0.04452681 -0.06504713 -0.020170907
0.03606259 0.053951103 -0.0027532964 0.034353748 -0.03554726 -0.043946967 0.05731973 0.06005316
0.0477505 0.049449492 -0.017917894 0.067569986 0.06807425 0.060638607 0.026014682 0.02271685
0.07981088 0.0070533645 -0.025171332 -0.05590523 -0.083524995 -0.028172843 0.09417952 0.051834073
-0.0015115632 0.0133815035 -0.033579826 0.09382066 0.049392164 -0.067428544 -0.006028796 -0.008477149
-0.038831662 0.037409697 -0.014541857 0.08612537 -0.051818363 0.0021116221 -0.04342828 0.019900352
-0.017017273 -0.031638555 -0.0113915475 -0.051047865 0.051689122 0.053670164 -0.037576918 -0.05535485
-0.05477975 0.0050377767 0.05048177 -0.021401772 -0.020492336 0.05012989 0.024635492 0.052910343
-0.00981297 0.01777384 0.018331312 -0.056743015 -0.011419401 -0.052943278 -0.06677469 -0.069279775
0.02559012 -0.05747661 -0.056840222 0.06677913 -0.0012256508 -0.033459153 0.047715127 0.057731964
-0.040210925 0.07592024 -0.018050348 -0.015003515 0.025342198 -0.008603724 0.009024265 -0.038514625
-0.027923062 0.085497305 0.08258005 0.0501515 0.052089676 -0.043054577 -0.037055418 0.06325812
0.038855378 -0.051372845 -0.055246036 -0.051375303 0.002692161 0.012741702 0.047286157 -0.006863935
-0.05440358 -0.032012086 0.027794698 -0.04338344 0.04377935 0.08281965 0.08538194 -0.014351839
-0.015568863 -0.0051161535 0.10257209 -0.0051613473 -0.025052663 0.0037690848 0.07009264 0.020229418
0.03158737 -0.10345914 -0.03053853 0.07484489 -0.01496107 -0.014280256 -0.061122693 0.0719694
0.056611523 -0.08399877 0.015625022 -0.031331733 -0.028070688 -0.058052253 0.124032475 0.1310783
0.13819094 -0.15433866 0.061750993 0.18287265 0.22466396 0.039393067 -0.05192437 0.18114673
0.23452455 0.12777464 -0.00773958 0.14722143 0.105362535 0.13347383 0.011757238 -0.1003462
-0.033882786 0.06947395 0.04006871 -0.0077272966 0.0025869382 -0.05548073 0.034007605 0.070566446
0.037352696 0.012403191 -0.06804226 -0.05670444 -0.015682442 -0.0023312543 -0.037997656 -0.066080146
-0.027481353 0.06113356 -0.05209335 0.013343052 0.0066395784 -0.059566643 -0.00020206375 0.0056513036
0.0080849575 0.051888365 -0.04067066 0.06626482 0.017695034 -0.014371355 -0.009446269 -0.03153482
-0.025995417 0.023251535 0.035615478 0.045312576 -0.053105295 -0.008395878 -0.014464583 -0.037119444
-0.00282895 0.063053824 0.026961735 0.062245052 0.059439693 -0.005812855 -0.0027717894 0.009562359
-0.022038797 0.010715953 -0.026050454 0.015954658 0.052319784 0.0296639 -0.05205295 -0.013711882

conv2.bias f4 [16]
00000000: e3cb b0bc 9e07 903d ccce db3d 3cf0 78bd
00000010: 2e9d d7bc 55f5 77ba e209 3e3d d21d fcbb
00000020: c30c 773d 0986 843c cd65 82bb df03 3e3d
00000030: 940d 613d 32b1 293d 5bfc c03b 6d1b 973d
-0.021581596 0.07032703 0.10732803 -0.06077598 -0.026320066 -0.00094588596 0.046396144 -0.0076939845
0.060314905 0.016177194 -0.0039794208 0.04639041 0.05494459 0.041428752 0.005889458 0.07378278

fc1.weight f4 [10, 256]
00000000: 8a45 243d 02c9 7c3d 74c7 853c 2390 b53d
00000010: feb3 123e 2336 ab3c b9a0 76be 8f2f ec3d
00000020: e039 1e3c 7502 3cbe e27a 83bd beb3 213e
00000030: d28e e7bb aa5a 8e3c 028d a33d df9e 2cbe
00000040: 54db 96bd c33a ca3c 684c f33d 5fa9 4a3d
00000050: 4fd9 06bb 67c1 07bd 6a93 c4bc b59b 433d
00000060: 2a87 393c 74fa 6fbd 2d8a c9bd 1385 7abb
00000070: 725a 51bc f6db 8e3d 4fda 0bbd 0de6 cebc
00000080: 2fe3 cf3d 8725 683d d70b 0b3d 8a07 1b3d
00000090: cb47 323e 41e6 cdbd 1261 8dbd 905f 193e
000000a0: d1ee 0a3e 2406 00be 1147 323d a8d4 613d
000000b0: 64cf 1d3d c549 cb3d baf2 5d3d 712d 5cbd
000000c0: c2b7 f13c 32c3 67bd 74f3 50bd de83 78bd
000000d0: 3836 1ebc 1b5d 013c 27ce 603d 1928 8a3d
000000e0: 5311 0cbd 8556 8dbc a29a cebc 609b fc3c
000000f0: cf9b 233d 3894 31bd 6364 73bd d84d 1dbd
00000100: 9633 04bd c2de 83bd 7508 8b3c b7a4 143d
00000110: 3243 233d 5847 64bd e4b4 7f3d ed58 ef3c
00000120: da62 883c c0eb b5bd 61b0 613d f878 2e3d
00000130: 3eb3 8c3d 2bf6 8bbc 978b 94bd 0d4a 93bd
00000140: 1f9e d9bc e764 cfbd d943 83bd fe39 433d
00000150: 53bf 2d3d 0271 6abd 74b8 a63d f3e9 223e
00000160: 23ac 153e ffe7 193d 2fdc e2bd eca8 6dbc
00000170: a20d e33d 0feb b33d a20a c2bd 8830 a7bd
00000180: 6f77 ae3d 0df0 4c3d 021e 8ebc cfa9 243c
00000190: e4df 2c3e 22be 90bd 7e4e 613c edb4 f93d
000001a0: 45e6 ea3d 76bf e5bc ca37 653d 9035 753c
000001b0: 08c0 493d 17a1 043d 9798 21bd 24c1 cebc
000001c0: d027 50bc 9e78 6d3d da50 363d f590 42bd
000001d0: feec 24bd 42ae 2e3d 704d 1d3d 9703 9e3c
000001e0: 0824 913c 49d1 da3d a8fb 9ebc fa06 2b3c
000001f0: 0153 083d 6a60 94bc a62c 95bd 3ec9 87bc
00000200: 7179 773d a64f 083e 3dd2 623d 68e3 da3d
00000210: 1236 2d3e ab67 02bd 7e7a 2cbe 3aad e83d
00000220: c9c3 773c 86bc d3bd e55a f23c 39e6 a13d
00000230: c5c0 a0bd 26c8 69bc d5a9 943d dc42 1ebd
00000240: b974 b2bd 5840 2a3d 937b 05bd e157 22bd
00000250: d6fb e9bd ecdf 93bd bf1f c7bc 8d14 2e3c
00000260: ff54 a23c f808 73bc a5ea a43c c113 08bd
00000270: 18d2 833d ccb8 ebbb 7b07 c9ba aa64 0e3d
00000280: 7d31 b2bd a01a c0bd 034d 7e3d 9b2e ba3d
00000290: 72da 81bd f1fd 813d c236 113c 4d5c 5fbd
000002a0: d5c7 31bc a7f9 cc3d 8c41 22be 5b12 8cbb
000002b0: 2200 e8bc 216f 353c b7dc e3bd 00e0 833d
000002c0: 0ee9 90bd 1e20 d0bd 96ec 1a3d 432b bfbb
000002d0: 019c 0c3e 7f73 27bd c49d b23d 43d9 eb3d
000002e0: c39c 143e 01ba 00be d7b1 bf3c 3c48 85bc
000002f0: 6404 e93d 6d97 afbd 1e50 17bc c958 a5bd
00000300: 8626 5bbd 0ade 80bd c960 39bd b88a b93d
00000310: 9360 333d 4c70 b33d 8db8 13bd 3195 acbc
00000320: 3804 b93c 08af a03d e434 1fbc 540c 26bd
00000330: e1b8 e6bd 962f af3d 97af 063d e6f4 0e3d
00000340: d3e4 d73d a91d 4ebd 2739 30bd f3a5 ad3d
00000350: c364 d63d bddb 39be 4ba5 dd3c 7bf4 fd3d
00000360: fb0d 983d 12ad a43c 0738 e5bb 2a27 653d
00000370: 5721 083d 5b49 4f3e b809 6abd 3bad 9cbd
00000380: 189b b53b 6f20 abbb 9d96 5dbd 74d8 11bd
00000390: 2d9d 8c3d ad1c d9bc 0dfc 6e3d 3b92 a13d
000003a0: 6f65 efbb db66 c3bd c1fe da3c 4a64 b3bd
000003b0: 426f c2bc af7b e13c 9f3f 66bd 975b dfbd
000003c0: 0cc6 213d 39da 253d 4921 a73c 8204 483d
000003d0: 26cf cabc fc70 71bd 529e 00bd fbcf fdbc
000003e0: 6868 b7bd cf14 00bd d3ac 2e3c 3fe4 183d
000003f0: 56b6 0b3c 3df2 79bc bc89 6e3d 2b81 b8bc
0.04010538 0.061715133 0.016330458 0.088653825 0.14326474 0.020899838 -0.24084748 0.115325086
0.009657353 -0.18360312 -0.064199224 0.15791222 -0.007066586 0.017377216 0.079858795 -0.1685748
-0.07366052 0.024686223 0.11879808 0.04947793 -0.0020576303 -0.033143427 -0.023996074 0.047755916
0.0113237295 -0.05858846 -0.09840808 -0.003822629 -0.0127779115 0.06975548 -0.034143742 -0.025256181
0.10150754 0.056676414 0.03394684 0.037848987 0.174102 -0.10053683 -0.0690328 0.1497786
0.13567664 -0.12502342 0.043524805 0.055134445 0.03852786 0.0992618 0.05418656 -0.053754274
0.029506568 -0.056582637 -0.051013425 -0.060672633 -0.009656481 0.007895733 0.054884102 0.06745929
-0.03419621 -0.01725317 -0.025220219 0.030835807 0.039943513 -0.043354243 -0.059421908 -0.038404316
-0.03227576 -0.06438972 0.016971806 0.036289897 0.039859004 -0.0557321 0.06242837 0.029217208
0.016648699 -0.08882856 0.05509985 0.042595834 0.06870125 -0.017085155 -0.07253187 -0.071918584
-0.026564656 -0.101266675 -0.06409425 0.047662728 0.04241879 -0.05723668 0.081406504 0.15909557
0.14616446 0.037574764 -0.11077153 -0.014505606 0.11086585 0.08785068 -0.09474684 -0.081635535
0.08518874 0.050033618 -0.017348293 0.010050251 0.16882282 -0.07067515 0.013751624 0.12192712
0.11469702 -0.028045397 0.055961408 0.014966384 0.0492554 0.03238019 -0.03945216 -0.025238581
-0.012704805 0.057976358 0.0445107 -0.047501523 -0.040265076 0.042646654 0.03840393 0.019288821
0.017717376 0.10684449 -0.019407108 0.010438675 0.033282284 -0.01811238 -0.07283907 -0.016575452
0.06041855 0.13311633 0.05537628 0.106879056 0.16915157 -0.031837147 -0.16843602 0.11361165
0.015122362 -0.10338692 0.029584358 0.079052396 -0.07849268 -0.0142689105 0.072589554 -0.03863798
-0.08713669 0.04156527 -0.032588553 -0.03963459 -0.11424987 -0.07220444 -0.02430713 0.010625017
0.01981592 -0.014833681 0.020131418 -0.033221964 0.064365566 -0.0071936604 -0.0015337312 0.03476397
-0.087008454 -0.09380078 0.062085163 0.090909205 -0.06340493 0.063472636 0.008863153 -0.054531384
-0.010850866 0.10008555 -0.15845317 -0.004274649 -0.028320376 0.0110738585 -0.111260824 0.06439209
-0.07075702 -0.10162376 0.037823282 -0.0058340146 0.13731386 -0.04088163 0.08721498 0.11516049
0.14512925 -0.12570955 0.02340023 -0.016269796 0.113777906 -0.08573804 -0.00923541 -0.08073575
-0.053503536 -0.062923506 -0.045258317 0.090596616 0.043793272 0.08761653 -0.036064673 -0.021067234
0.02258502 0.078458846 -0.0097172 -0.0405391 -0.112657316 0.08553998 0.0328823 0.034901522
0.10541692 -0.050321255 -0.043023255 0.08478918 0.104684375 -0.1815023 0.027056357 0.124001466
0.074245416 0.020102058 -0.0069952044 0.055945553 0.03323492 0.20242827 -0.057138175 -0.076502286
0.0055421703 -0.0052223722 -0.054098714 -0.035606816 0.068659164 -0.026502931 0.058345843 0.078892194
-0.007305793 -0.095411025 0.026732804 -0.08759363 -0.023734692 0.027524797 -0.056213018 -0.10906141
0.039495513 0.040491316 0.020401614 0.048832424 -0.02475698 -0.05894564 -0.031400986 -0.030982962
-0.08955461 -0.031269845 0.010661322 0.037327047 0.008527359 -0.015255508 0.058236822 -0.02252253

fc1.bias f4 [10]
00000000: 7aec 0f3e 98a4 743c bc91 a43c 4bf0 46bc
00000010: eb56 b5bd 9bf1 3cbb 27c1 a1bc dc97 8dbb
00000020: 3042 a5bc c19c 53ba
0.14055052 0.01493182 0.020089023 -0.012142251 -0.08854469 -0.0028830532 -0.019745423 -0.0043210816
-0.020173162 -0.00080723694
