sandbox/snapshots/mnist/model-6192.pt (torch, 26159 bytes, 6 tensors)

conv1.weight f4 [8, 1, 5, 5]
0	0x3c827670	0.015925616
1	0xbe0e5288	-0.1389867
2	0x3dfb9ece	0.12286149
3	0xbd9a4424	-0.07532528
4	0xbd6e29c6	-0.058145307
5	0x3e0c2ae7	0.13688241
6	0xbd597860	-0.053093314
7	0xbc5ea0ef	-0.013588174
8	0x3bd6e0cd	0.00655756
9	0x3d872cd5	0.06600348
10	0xbe25cde1	-0.16191818
11	0x3d7b323f	0.061327215
12	0xbd94dfc5	-0.07269243
13	0xbdb6ba45	-0.08922247
14	0xbde8c4ec	-0.11365685
15	0xbd851ad0	-0.06499255
16	0xbdc1beda	-0.0946023
17	0x3beb88a9	0.007187922
18	0xbc4c06d8	-0.012452804
19	0xbd4f5b24	-0.050624028
20	0xbdfcfba4	-0.12352684
21	0xbda4e0e9	-0.08050711
22	0x3debd9a8	0.11516124
23	0x3e1ef08d	0.1552145
24	0x3def9932	0.116991416
25	0xbe0deab1	-0.13859059
26	0x3d8b8da8	0.06814128
27	0x3e714711	0.23562266
28	0x3e6b5eaf	0.22985338
29	0x3eba952c	0.36441934
30	0x3d28cfed	0.04121392
31	0xbc9f4bd2	-0.019445334
32	0x3e2f466a	0.17116705
33	0x3dfcc100	0.12341499
34	0x3dc09f8d	0.09405432
35	0xbdeb025a	-0.11475058
36	0xbe755ce8	-0.23961222
37	0xbe68245d	-0.22670121
38	0xbe8ef7b7	-0.27923366
39	0xbdfac347	-0.122442774
40	0x3e3d8217	0.18506657
41	0xbe17a5b1	-0.148093
42	0x3d6ee2d2	0.05832178
43	0xbe0d60a1	-0.13806392
44	0xbe273fff	-0.16333006
45	0x3d91514e	0.07095586
46	0x3e83351b	0.25626454
47	0xbd375617	-0.044759836
48	0x3df9ce85	0.121975936
49	0x3cbe6921	0.023243489
50	0x3d4e2772	0.050330587
51	0x3e81c5b5	0.2534615
52	0x3e2705fe	0.1631088
53	0xbd337372	-0.04381127
54	0x3d9eaafd	0.07747457
55	0xbdbae6cc	-0.09126052
56	0x3e86fb63	0.26363668
57	0x3dda170f	0.10648929
58	0xbe4b1bc6	-0.19834813
59	0xbde75fde	-0.11297582
60	0x3bf28e16	0.007402192
61	0x3d2c7c97	0.042111006
62	0x3d95a77c	0.07307336
63	0xbd3e490b	-0.046456378
64	0xbd46aa6c	-0.04850237
65	0x3e229198	0.15875852
66	0x3e31ae28	0.17351592
67	0xbdc6cb36	-0.09706728
68	0xbd870209	-0.06592185
69	0xbe1fc151	-0.15601088
70	0x3dc43261	0.095799215
71	0x3e089ecc	0.13341826
72	0xbda630d7	-0.08114784
73	0x3d762fdb	0.060104232
74	0xbe347cc6	-0.17625722
75	0xbe2bf23c	-0.16791624
76	0xbd857924	-0.06517246
77	0xbe46a00e	-0.19396994
78	0x3e0e9b9c	0.13926548
79	0x3d58d910	0.052941382
80	0xbe5a6cb7	-0.21330534
81	0x3d240ba8	0.04005018
82	0xbe162428	-0.1466223
83	0x3e1879a6	0.14890155
84	0x3c134761	0.008989186
85	0xbe10de65	-0.14147337
86	0xbded6128	-0.11590797
87	0xbe0c854d	-0.13722725
88	0x3e88fcce	0.26755375
89	0x3e8fdd25	0.28098407
90	0x3d31e42f	0.043430503
91	0xbdd181ec	-0.10229859
92	0x3e8548b7	0.2603204
93	0x3a82b141	0.0009971039
94	0x3e5e4e75	0.21709616
95	0xbe7e1a30	-0.24814677
96	0xbd26d730	-0.040732563
97	0x3e9ad241	0.30238536
98	0x3e81fafd	0.253868
99	0xbd216695	-0.03940447
100	0xbd5c2b88	-0.053752452
101	0xbcadfc98	-0.02123861
102	0xbe4ab4e3	-0.19795565
103	0xbc5e1f78	-0.013557307
104	0xbd6f9981	-0.058496002
105	0xbde3258f	-0.11091148
106	0x3de89397	0.113562755
107	0xbdac4b13	-0.08412757
108	0xbd4b021b	-0.049562555
109	0xbdcd4b3e	-0.10024117
110	0xbe1048b0	-0.14090228
111	0x39f07211	0.00045861353
112	0x3e048623	0.12941794
113	0x3dde24ec	0.10846886
114	0x3b81b4e6	0.0039583324
115	0x3d49a694	0.049231127
116	0x3e2f92e2	0.17145875
117	0xbe58fb25	-0.21189554
118	0xbcc73ab1	-0.024319978
119	0x3ba21a82	0.0049470076
120	0xbe11dabb	-0.14243595
121	0x3e24236c	0.16029137
122	0xbe2d133d	-0.1690187
123	0x3e17ebb9	0.14836015
124	0xbd81f76d	-0.06346021
125	0xbe0f303d	-0.13983245
126	0x3d9086a4	0.07056931
127	0xbd140a15	-0.036142427
128	0xbe6732f7	-0.22578035
129	0xbe01c158	-0.12671411
130	0xbd4cc21c	-0.049989805
131	0xbd69290c	-0.05692391
132	0xbe13ac42	-0.1442118
133	0xbde37a33	-0.11107292
134	0xbea04c5e	-0.31308264
135	0x3eb66055	0.3562037
136	0x3c8b6675	0.017016629
137	0xbe3907ef	-0.18069433
138	0xbe5fd242	-0.2185755
139	0xbd52daba	-0.051478125
140	0x3e906763	0.28203878
141	0x3eed2bcf	0.46322486
142	0x3eb81924	0.3595668
143	0x3e6102de	0.2197375
144	0x3e82747c	0.25479496
145	0x3ed3927c	0.41322696
146	0x3ee20392	0.4414335
147	0x3e133170	0.14374328
148	0x3eb00e98	0.34386134
149	0x3e6b9193	0.23004751
150	0xbe63313e	-0.22186753
151	0xbe654e6d	-0.22393198
152	0xbe05ea7e	-0.13077733
153	0x3e0182d4	0.12647563
154	0x3e80f02e	0.25183243
155	0xbe4a614e	-0.19763681
156	0xbc4365c0	-0.011926115
157	0xbd55a0de	-0.052155368
158	0x3e10167f	0.14071082
159	0x3e1987a5	0.1499315
160	0xbe73ba78	-0.23801601
161	0xbe14492e	-0.14481041
162	0xbde4b8d7	-0.11168068
163	0x3ea14190	0.31495333
164	0x3e7820a0	0.24231195
165	0xbe77b397	-0.24189602
166	0xbdbbc547	-0.09168487
167	0x3e79ec16	0.24406466
168	0x3e8647b5	0.26226583
169	0x3dc92ada	0.098226264
170	0x3c70eed8	0.014705382
171	0x3e1777f1	0.14791848
172	0x3d989123	0.07449558
173	0x3e7c4dd6	0.24639067
174	0xbc18802e	-0.009307904
175	0x3e3c983c	0.18417448
176	0x3e50cd79	0.20390882
177	0x3e4f9754	0.20272571
178	0x3e27c391	0.16383196
179	0xbe171361	-0.14753486
180	0x3e79c75a	0.24392453
181	0x3f028ee8	0.5099931
182	0x3f3006b3	0.6876022
183	0x3ea8c02a	0.3295911
184	0x3e856137	0.26050732
185	0x3e832a88	0.25618386
186	0x3ee441fc	0.44581592
187	0x3f18dade	0.59708965
188	0x3f2654e5	0.6497329
189	0xbcf2486d	-0.02957555
190	0x3e910e6c	0.28331316
191	0x3f3fafaa	0.7487742
192	0x3f4e49eb	0.8058154
193	0x3f03fb6b	0.5155551
194	0x3e5991a6	0.21246967
195	0x3e66be6e	0.2253358
196	0x3edea690	0.43486452
197	0x3f2c99c1	0.6742211
198	0x3ee37aa6	0.4442951
199	0xbc3de8a8	-0.011591114

conv1.bias f4 [8]
0	0xbd3d4b49	-0.046214376
1	0x3d020635	0.0317442
2	0xbd548569	-0.051885042
3	0xbd9f22b5	-0.07770292
4	0xbdfe3918	-0.124132335
5	0x3d3fb3a0	0.046802163
6	0x3db521d1	0.088443406
7	0x3a197c78	0.0005855034

conv2.weight f4 [16, 8, 5, 5]
0	0xba149d34	-0.0005669177
1	0xbc44a95f	-0.012003272
2	0xbd7055df	-0.058675643
3	0xbb3b8c18	-0.0028617438
4	0xbca179db	-0.019711426
5	0x3d68eb4b	0.056865018
6	0xbd81bffc	-0.06335446
7	0xbccbfdea	-0.02490135
8	0xbcc48db4	-0.02399335
9	0xbbf3c786	-0.0074395565
10	0xbd755374	-0.05989404
11	0xbd470747	-0.048590925
12	0xbbe16c2c	-0.00687935
13	0xbcade8f8	-0.021229252
14	0x3d344863	0.044014346
15	0xbcec58a1	-0.028850855
16	0x3c826df7	0.015921576
17	0x3d8500b4	0.06494275
18	0xbc85ce58	-0.016333744
19	0x3d5fcd5b	0.0546392
20	0xbd43b135	-0.04777642
21	0x3cd05e56	0.025435608
22	0x3c1cebd0	0.009577706
23	0xbb08c62d	-0.0020870075
24	0xbca5cad6	-0.020238321
25	0x3d9c43c8	0.07630116
26	0xbd0bc7f8	-0.034126252
27	0x3d767212	0.06016738
28	0xbd0b6596	-0.034032427
29	0xbb0b2c28	-0.0021236036
30	0x3d86c380	0.065802574
31	0x3c12cbfa	0.008959765
32	0xbd1b492e	-0.037911586
33	0x3c32af02	0.010905983
34	0xbb46cb5a	-0.003033361
35	0xbd6a43ba	-0.057193495
36	0x3d7f0088	0.062256366
37	0x3d4dabbc	0.050212607
38	0x3da517d0	0.080611825
39	0x3cb4404d	0.022003317
40	0x3d560184	0.05224754
41	0x3d4af388	0.049548656
42	0x3caa381a	0.020778704
43	0x3d80b23b	0.06283995
44	0xbd58f06b	-0.052963655
45	0x3dd28faf	0.10281312
46	0x3be1d0ec	0.0068913605
47	0x3d88c4c9	0.06678159
48	0x3c8720a5	0.016495058
49	0xbbb786a8	-0.005600769
50	0xbc471829	-0.012151756
51	0x3c2b8f65	0.0104712
52	0xbd6a77c3	-0.05724312
53	0x3d40f1af	0.047105487
54	0xbd582f6e	-0.052779607
55	0xbcc11465	-0.023569295
56	0x3cc4914f	0.02399507
57	0x3ce95209	0.0284815
58	0xba0b8f06	-0.00053237414
59	0x3d7d739b	0.061877828
60	0xbd54d082	-0.05195666
61	0xbd668c8a	-0.056286372
62	0x3d2bf64f	0.041982945
63	0x3d9088f9	0.070573755
64	0x3d9cf6b2	0.07664241
65	0x3cf954fc	0.030436032
66	0x3aa0ed22	0.0012277702
67	0x3d91d8e8	0.0712145
68	0x3d853577	0.06504338
69	0x3d8a7967	0.06761437
70	0x3d1d9574	0.038472608
71	0x3d806b4a	0.06270464
72	0x3d9d88b1	0.076920874
73	0xbc2ee75a	-0.010675276
74	0xbcd401b9	-0.025879728
75	0xbd37c32a	-0.044863857
76	0xbddaba26	-0.10680036
77	0xbd4e91c1	-0.05043197
78	0x3d95297b	0.072833024
79	0x3d2426f1	0.0400762
80	0xbbfc510c	-0.007700091
81	0x3bc9d4bf	0.0061593945
82	0xbcb2e309	-0.021836774
83	0x3dfd4ddf	0.12368368
84	0x3d9264f8	0.071481645
85	0xbd6b8668	-0.057501227
86	0x3a1410c8	0.00056482526
87	0xba911890	-0.0011069942
88	0xbc20619a	-0.009788895
89	0x3d3c2cb3	0.045941066
90	0x3d179b98	0.03701362
91	0x3da21f59	0.07916135
92	0xbd91058a	-0.070811346
93	0x3bf0b202	0.007345439
94	0xbd88abb8	-0.06673378
95	0x3ce578cf	0.028011708
96	0xbd7299d2	-0.059228726
97	0xbd5c368e	-0.053762965
98	0xbc8fd556	-0.017557781
99	0xbda4c5ad	-0.08045516
100	0x3d4f571b	0.05062018
101	0x3d5b9073	0.053604554
102	0xbd1972aa	-0.037462868
103	0xbd616de4	-0.05503644
104	0xbd5ff642	-0.05467821
105	0x3bafce6f	0.005365185
106	0x3d4ff689	0.050772224
107	0xbca4e852	-0.02013031
108	0xbca20ac0	-0.019780517
109	0x3d4dd7c8	0.050254613
110	0x3ccbc454	0.02487389
111	0x3d5c4082	0.053772457
112	0xbc0e0ea8	-0.0086704865
113	0x3c942968	0.01808615
114	0x3c94cff6	0.01816557
115	0xbd684875	-0.056709725
116	0xbc34dd45	-0.011039083
117	0xbd577030	-0.052597225
118	0xbd87b815	-0.06626908
119	0xbd8e24f3	-0.06940641
120	0x3ccd1db5	0.02503858
121	0xbd6c9a87	-0.057764556
122	0xbd6a21de	-0.057161205
123	0x3d88dacd	0.06682358
124	0xbaa97a9a	-0.0012930215
125	0xbba1f7da	-0.0049428763
126	0x3d309406	0.043109916
127	0x3c8c24a4	0.017107315
128	0xbd645621	-0.0557462
129	0x3dcc4080	0.0997324
130	0x3cdab289	0.02669646
131	0x3c62b14e	0.013836218
132	0x3c84321e	0.016137179
133	0xbce62086	-0.02809168
134	0x3d0d954f	0.03456622
135	0xbc070a45	-0.008242195
136	0x3bd0d605	0.0063731694
137	0x3db24651	0.08704818
138	0x3cff6f3a	0.031180967
139	0x3d2a35b9	0.04155514
140	0x3dbb9458	0.09159154
141	0xbca6d5c6	-0.020365607
142	0xbd72389f	-0.05913603
143	0xbc1ee7b1	-0.009698794
144	0x3c1e1229	0.009647884
145	0xbd899641	-0.06718112
146	0xbdb0603a	-0.08612104
147	0xbdcfe884	-0.10151771
148	0xbd2f9970	-0.04287094
149	0xb8cbddd8	-9.721116e-05
150	0x3d99beec	0.075071186
151	0xbc97b154	-0.018517174
152	0xbda79841	-0.08183337
153	0xbd7cb1ca	-0.06169299
154	0x3b950f55	0.004548947
155	0xbd5adad7	-0.05343136
156	0x3c80606c	0.015670978
157	0x3dd38ebf	0.10329961
158	0x3dfb1340	0.12259531
159	0x3c55b7a0	0.013044268
160	0xbcd22af9	-0.025655257
161	0xbb8a5a03	-0.004222156
162	0x3e04ddf8	0.129753
163	0x3d527d55	0.051389057
164	0xbc2badfe	-0.010478495
165	0x3d7abec8	0.0612171
166	0x3d785709	0.06062988
167	0x3a17d79c	0.0005792321
168	0x3d0b9162	0.034074195
169	0xbe08ec8e	-0.13371488
170	0xbc281306	-0.010258442
171	0x3c48db33	0.012259292
172	0xbd6e9a2c	-0.0582525
173	0xbc615411	-0.013752953
174	0xbdd41da5	-0.10357217
175	0x3da6d483	0.08146002
176	0x3cad42f5	0.021150092
177	0xbe15222d	-0.14563818
178	0x3c691f61	0.014228673
179	0xbd31866d	-0.04334109
180	0xbc195701	-0.009359122
181	0xbdf2d03b	-0.11856123
182	0x3c444d5f	0.011981337
183	0x3e3ae7ad	0.1825244
184	0x3e4bcbcc	0.19901961
185	0xbe20ec95	-0.15715249
186	0x3dba1f76	0.09088032
187	0x3e1c5976	0.15268502
188	0x3e87a075	0.26489606
189	0x3dabf731	0.083967574
190	0x3d6fca47	0.058542516
191	0x3e937cbf	0.2880611
192	0x3e23ffff	0.16015624
193	0x3cc81f1c	0.024428897
194	0xbdd07f5f	-0.10180544
195	0x3e6c6ef2	0.23089197
196	0x3d9aadac	0.075526565
197	0xbd3a8c16	-0.045543753
198	0xbe1b4857	-0.15164314
199	0xbe4e218e	-0.20129988
200	0xbd07f252	-0.03319008
201	0x3d932a0f	0.071857564
202	0x3d331498	0.04372081
203	0xbb7ed472	-0.0038883951
204	0x3ba8bb3c	0.005149273
205	0xbd4d7c2f	-0.05016726
206	0x3d4d304a	0.05009488
207	0x3db3a019	0.087707706
208	0x3d48efda	0.049056865
209	0x3c94d321	0.01816708
210	0xbd8833b5	-0.06650487
211	0xbd58048e	-0.05273872
212	0xbc0a0225	-0.008423363
213	0x3b33ed0c	0.0027454523
214	0xbd130107	-0.03588965
215	0xbd8c61d6	-0.06854598
216	0xbce85a1b	-0.028363278
217	0x3d7ed627	0.06221595
218	0xbd49b2c0	-0.049242735
219	0x3c811b58	0.015760109
220	0x3c25dd84	0.010123614
221	0xbd5eb20c	-0.054369017
222	0x3bd6103e	0.006532698
223	0x3c4e8100	0.012603998
224	0x3c2532d0	0.010082915
225	0x3d5d16c9	0.053976808
226	0xbcef168b	-0.029185554
227	0x3dae615d	0.08514664
228	0x3cfc6beb	0.030813178
229	0xbbd3389c	-0.0064459573
230	0xbc0f8c7c	-0.008761521
231	0xbc949559	-0.01813762
232	0x3bd4307b	0.006475506
233	0x3da07eb7	0.07836669
234	0x3dbd020c	0.09228906
235	0x3d49262d	0.049108673
236	0xbd5f0547	-0.054448392
237	0xbc0ec21e	-0.008713273
238	0x3c81cd71	0.015845032
239	0x3be93f90	0.007118173
240	0x3d1922b9	0.03738663
241	0x3e0c230a	0.13685241
242	0x3dec8e35	0.11550561
243	0x3e10d223	0.14142661
244	0x3dd95fe9	0.106139965
245	0x3d0f7b6d	0.035029817
246	0x3d7448a2	0.05963958
247	0x3da76981	0.0817442
248	0x3d0393b3	0.03212328
249	0x3d3697b9	0.044578288
250	0xbcc76ec3	-0.024344807
251	0x3c98c621	0.018649163
252	0x3d42ccd0	0.047558606
253	0x3c4d7065	0.012539004
254	0xbd92b365	-0.07163123
255	0xbbdccd9f	-0.006738379

conv2.bias f4 [16]
0	0xbd221947	-0.039574888
1	0x3ddeb6e2	0.10874726
2	0x3d724706	0.059149764
3	0xbd5ff5e2	-0.05467785
4	0xbd55d894	-0.052208498
5	0xbd2ab0f9	-0.04167268
6	0x3c910bf1	0.01770589
7	0xbaec1f51	-0.0018014704
8	0x3d77bafb	0.060481053
9	0x3d57d898	0.052696794
10	0x3b2456b6	0.0025076098
11	0x3d496206	0.049165748
12	0x3d5b448c	0.05353217
13	0x3ce3d3da	0.02781098
14	0x3c49b6e6	0.012311673
15	0x3dbba382	0.09162046

fc1.weight f4 [10, 256]
0	0x3cf5c9c8	0.030003443
1	0xbc30a095	-0.010780473
2	0xbcda2abb	-0.026631704
3	0x3c5427c3	0.012948933
4	0x3db24024	0.0870364
5	0x3c406daf	0.011744901
6	0xbe4cb12a	-0.19989458
7	0x3e07a4fc	0.1324653
8	0x3bb53163	0.005529569
9	0xbe1bbb16	-0.15208086
10	0xbd9657f8	-0.073409975
11	0x3e7d74a6	0.24751529
12	0xbc2fcad5	-0.010729511
13	0xbc2fc0ff	-0.010727166
14	0x3d1a1c95	0.037624914
15	0xbe56b603	-0.2096787
16	0xbd8e03f2	-0.06934346
17	0x3dc52663	0.09626462
18	0x3e4cd356	0.20002493
19	0x3d43d7df	0.047813293
20	0xbe3a8d72	-0.1821802
21	0xbdd7bb68	-0.10533792
22	0xbdb8b61a	-0.09019108
23	0xbca5cbd4	-0.020238794
24	0xbddb379e	-0.107039675
25	0xbdd8b36f	-0.10581099
26	0xbdad20e4	-0.08453539
27	0xbd81d73f	-0.06339883
28	0xbd00503d	-0.03132652
29	0x3dd9238d	0.10602484
30	0xbcd40a3a	-0.025883783
31	0xbc6eb11d	-0.014568594
32	0x3d11f41e	0.0356332
33	0xbbb36ec7	-0.005475852
34	0x3d16d8ea	0.03682796
35	0xbce237cc	-0.027614497
36	0x3e2331bf	0.15936945
37	0x3ad6e310	0.0016394574
38	0xbddf89ee	-0.1091498
39	0x3e24dbec	0.16099519
40	0x3df0e4e6	0.11762409
41	0xbe1a783d	-0.1508493
42	0x3c825b25	0.015912602
43	0x3db8456f	0.089976184
44	0x3ceb2d01	0.028707983
45	0xbc264c18	-0.010149978
46	0x3c886933	0.016651725
47	0xbd1db10f	-0.038498934
48	0x3d17de43	0.0370772
49	0xbd91f513	-0.07126822
50	0xbd831c5b	-0.06401893
51	0xbd6abe8c	-0.057310626
52	0x3cee4d1b	0.029089501
53	0xbb20af31	-0.0024518485
54	0x3d8474c3	0.06467583
55	0x3dfc7778	0.12327474
56	0xbc2c507f	-0.010517239
57	0xbc859099	-0.016304301
58	0xbd0895a6	-0.03334584
59	0x3d4e6086	0.05038502
60	0x3d69dbfb	0.057094555
61	0xbd1e6258	-0.038668007
62	0xbda4f06a	-0.08053668
63	0xbd43223f	-0.04764008
64	0xbd4a9a3c	-0.049463496
65	0xbd09cffe	-0.033645622
66	0x3d3183d1	0.0433386
67	0x3dd78b62	0.10524632
68	0xbc49d306	-0.012318378
69	0xbd2ad102	-0.04170323
70	0x3daaed68	0.08346063
71	0x3dada735	0.08479158
72	0xbcbd8ac3	-0.023137456
73	0xbd9f51b3	-0.07779255
74	0xbc41f06c	-0.011837106
75	0x3d319d58	0.043362945
76	0x3d8ceeda	0.06881495
77	0xbd3e0716	-0.046393476
78	0xbde94460	-0.113899946
79	0xbd92838b	-0.07153996
80	0xbd758ade	-0.059946887
81	0x3abffef6	0.0014648128
82	0x3d7fec58	0.062481254
83	0x3e020d4b	0.12700383
84	0xbcfab11a	-0.030602027
85	0xbc896eb8	-0.016776428
86	0x3deec90c	0.116594404
87	0x3e33f090	0.17572236
88	0x3dd9e4a9	0.106393166
89	0xbba59818	-0.0050535314
90	0xbe1837cc	-0.14865035
91	0xbda22394	-0.07916942
92	0x3da2f44f	0.079567544
93	0x39db1427	0.0004178595
94	0xbe07c4cf	-0.1325867
95	0xbe0a354c	-0.13496894
96	0x3d370a43	0.04468752
97	0x3ca04b04	0.01956702
98	0xbd0b9df7	-0.034086194
99	0xbbdd7537	-0.006758358
100	0x3e0bb765	0.13644178
101	0xbd0976b2	-0.033560462
102	0x3d1f8880	0.038948536
103	0x3de7baf1	0.11314953
104	0x3e05b9f8	0.13059223
105	0x3d70a867	0.05875435
106	0x3c863677	0.016383393
107	0x3b47fe7c	0.0030516675
108	0x3d33983c	0.043846354
109	0xbb49d008	-0.0030794162
110	0xbe001b7a	-0.12510481
111	0xbcb0420f	-0.021515874
112	0xbcc0ddd3	-0.023543274
113	0x3d802c2b	0.06258424
114	0x39f79417	0.00047221847
115	0xbda81186	-0.08206467
116	0xbc604431	-0.013688133
117	0x3d03cddd	0.03217875
118	0x3c989ba3	0.0186289
119	0x3de16e91	0.11007417
120	0x3ddf2cad	0.10897193
121	0x3dbe65a8	0.09296733
122	0xbc9af83a	-0.018917192
123	0x3def8ae4	0.11696413
124	0x3db7d6dc	0.08976528
125	0xbcf4744b	-0.029840609
126	0xbdf50d3e	-0.11965416
127	0xbc286fb4	-0.010280538
128	0x3d081abb	0.033228617
129	0x3dfd14fa	0.123575166
130	0x3dc7d2f0	0.0975703
131	0x3e067bf0	0.13133216
132	0x3e122e66	0.14275512
133	0xbd2c0372	-0.041995473
134	0xbe03a68b	-0.128565
135	0x3da9579e	0.08268665
136	0xbd2a44a7	-0.04156938
137	0xbe2b73d6	-0.16743407
138	0xbcac50d3	-0.021034634
139	0x3d901fe4	0.07037333
140	0xbe1576c6	-0.1459609
141	0xbddb6b47	-0.10713821
142	0xbcaf76d0	-0.021418959
143	0xbdb9049a	-0.09034081
144	0xbdf09510	-0.117471814
145	0x3d4912f2	0.049090333
146	0xbd48813a	-0.048951365
147	0xbd45a96e	-0.048257284
148	0xbe6ce7e2	-0.23135331
149	0xbe0fef98	-0.14056242
150	0xbdd8bbdc	-0.10582706
151	0xbc5d143f	-0.013493597
152	0xbd162e51	-0.036665265
153	0xbc3d97b2	-0.0115718115
154	0x3d00e481	0.03146792
155	0xbcd0f541	-0.025507571
156	0x3db070d1	0.08615268
157	0xbc4789f1	-0.012178884
158	0xb9ef3c25	-0.00045630443
159	0x3d20f984	0.039300457
160	0xbdf2af57	-0.1184985
161	0xbdd9a8a8	-0.10627872
162	0x3ce71346	0.028207432
163	0x3d97fc37	0.07421153
164	0xbe0766ab	-0.13222758
165	0xbcb1957d	-0.021677727
166	0xbcd93a19	-0.026516961
167	0xbda23075	-0.07919399
168	0xbd5ed47d	-0.054401863
169	0x3da769e3	0.08174493
170	0xbde0e380	-0.10980892
171	0xbbde5beb	-0.00678586
172	0xbd26f28e	-0.040758662
173	0x3c5c771f	0.013456135
174	0xbde0b2e0	-0.10971618
175	0x3db25e85	0.087094344
176	0xbdc1b88f	-0.0945903
177	0xbd5011e1	-0.0507983
178	0x3d86f81a	0.0659029
179	0xbc322921	-0.010874064
180	0x3d99f0a1	0.075165994
181	0xbb507047	-0.0031805204
182	0x3dd89512	0.10575308
183	0x3e0671a6	0.13129291
184	0x3dc24d5e	0.09487413
185	0xbe133267	-0.14374696
186	0xbc3d64a3	-0.011559638
187	0xbd610670	-0.05493778
188	0x3def9716	0.11698739
189	0xbe19a19c	-0.15003055
190	0xbd49303b	-0.04911826
191	0xbd82316c	-0.06357083
192	0xbd70d256	-0.058794342
193	0xbdbf7780	-0.09348965
194	0xbd729359	-0.059222553
195	0x3dcea882	0.10090734
196	0x3dc5d0ba	0.09658952
197	0x3d28622d	0.041109253
198	0xbd6ca278	-0.05777213
199	0xbd003605	-0.031301517
200	0x3df426f3	0.119214915
201	0x3d953d12	0.07287039
202	0xbcd5c1e0	-0.026093423
203	0xbceacc4b	-0.028661868
204	0xbcfce9f8	-0.030873284
205	0x3de2f7d4	0.11082426
206	0xbc8ec8d1	-0.017429741
207	0x3c530bde	0.012881247
208	0x3d9bb1bf	0.07602262
209	0xbcf03934	-0.029324152
210	0x3bb58102	0.0055390606
211	0x3dffeaed	0.124959804
212	0x3dd8a14f	0.10577642
213	0xbdf72dfd	-0.120693184
214	0x3d283321	0.041064385
215	0x3df9ce3f	0.121975414
216	0x3db0f9b2	0.086413756
217	0x3ca0c5df	0.019625602
218	0xbd91add5	-0.07113234
219	0x3d33b372	0.043872304
220	0xbb18d13a	-0.0023318068
221	0x3e220344	0.15821558
222	0xbdc641a7	-0.09680491
223	0xbdd8fd0e	-0.10595141
224	0xbc86cbf6	-0.016454678
225	0x3cc8f5d7	0.024531288
226	0xbd3843e8	-0.044986635
227	0xbd964f3d	-0.07339332
228	0x3d1107f8	0.03540799
229	0xbd0430ff	-0.03227329
230	0x3d05c144	0.032655016
231	0x3d651e14	0.055936888
232	0xbd055250	-0.032549202
233	0xbe04cd53	-0.1296895
234	0xbb90c68c	-0.0044182
235	0xbda3dab7	-0.08000701
236	0xbd0b081c	-0.03394328
237	0xbc1a22ea	-0.009407738
238	0xbd80da66	-0.06291656
239	0xbdc51299	-0.09622688
240	0x3cd30cf9	0.025763022
241	0x3d807ff3	0.062744044
242	0x3d297d4f	0.04137927
243	0x3b948d36	0.004533435
244	0xbd7c37df	-0.06157672
245	0xbd126261	-0.035738353
246	0xbd5b3615	-0.053518374
247	0xbd695f2f	-0.05697554
248	0xbe1cea76	-0.15323815
249	0xbd6d6c35	-0.057964522
250	0xbc9f8686	-0.019473325
251	0x3d259bc9	0.04043177
252	0xbd7715cc	-0.06032352
253	0xbd1a464f	-0.037664708
254	0x3d5a76ad	0.053335834
255	0xbcc4bc4f	-0.024015574

fc1.bias f4 [10]
0	0x3df52c79	0.11971373
1	0xba005707	-0.00048957806
2	0x3d258421	0.04040921
3	0xbce8dafe	-0.028424736
4	0xbdbc3256	-0.09189288
5	0x3d011366	0.03151264
6	0xbc87444a	-0.016512055
7	0xbba9a302	-0.0051769027
8	0xbcab8f81	-0.020942451
9	0xbaa31088	-0.001244084
