sandbox/snapshots/mnist/model-4680.pt (torch, 26159 bytes, 6 tensors)

conv1.weight f4 [8, 1, 5, 5]
000000 ec e3 91 3c 5d 46 0d be c4 d6 fc 3d 92 71 9b bd
       0.017808877 -0.13796373 0.12345651 -0.07590021
000010 74 2d 71 bd 3a c5 0d 3e dc ba 54 bd 1d 19 5c bc
       -0.058881238 0.13844767 -0.051936015 -0.013433722
000020 49 96 10 3c 58 2f 91 3d c8 4e 24 be 54 e2 81 3d
       0.008824893 0.07089108 -0.16045678 0.06341997
000030 d6 b5 8f bd 41 1f af bd 8d 24 e0 bd e0 0a 84 bd
       -0.07017104 -0.08550883 -0.109444715 -0.06447387
000040 4c 6f be bd 2c bb 07 3c b7 21 4c bc a1 9e 5e bd
       -0.09298572 0.008284371 -0.01245921 -0.0543505
000050 b2 cf fe bd 13 0a ad bd 7e db d8 3d 6f 73 13 3e
       -0.124419585 -0.08449187 0.1058874 0.14399503
000060 28 06 d6 3d df d5 16 be c9 4b 3e 3d 50 3b 58 3e
       0.10450393 -0.14730023 0.046458993 0.21116376
000070 4b 10 45 3e 2d f4 a8 3e 2c 53 0d 3d 6e 41 20 bd
       0.19244497 0.3299879 0.034503147 -0.0391249
000080 4f 6f 24 3e 91 bf e7 3d 6e 3e b6 3d 61 58 ca bd
       0.16058086 0.11315835 0.08898626 -0.09880138
000090 8b 9f 64 be bd 99 40 be 1b 8e 71 be b4 13 ab bd
       -0.22326486 -0.18808647 -0.23589365 -0.083533674
0000a0 57 86 45 3e d1 cf 0b be 3d fc bc 3d 15 0e d0 bd
       0.19289528 -0.13653494 0.09227798 -0.10158936
0000b0 4b 05 0a be 5d 6d 72 3d 8f 64 76 3e e1 8d 47 bd
       -0.13478582 0.05918633 0.24061798 -0.04871929
0000c0 09 04 ed 3d 07 b4 63 3c bf bd 26 3d 91 28 74 3e
       0.11573035 0.013897902 0.0407083 0.238436
0000d0 1a a7 1d 3e 00 0d 28 bd 1f 93 b0 3d f2 0a d2 bd
       0.15395775 -0.041028023 0.08621811 -0.10255994
0000e0 e9 ff 75 3e 4d fb bd 3d 1d 33 49 be a8 a7 d7 bd
       0.24023403 0.092764474 -0.19648404 -0.10530025
0000f0 03 f5 82 bc ed 32 19 3c 97 df 7d 3d e4 1c 16 bd
       -0.015985971 0.009350521 0.06198081 -0.036648646
000100 92 bc 0a bd 39 b8 17 3e 5b 8c 1f 3e 86 c7 c7 bd
       -0.03387124 0.14816369 0.15580885 -0.09754853
000110 37 8e 5e bd f4 78 13 be ab c7 ba 3d 40 71 fe 3d
       -0.054334845 -0.14401609 0.09120115 0.124239445
000120 b1 09 9b bd 3a 52 98 3d 11 fe 25 be 89 98 25 be
       -0.07570208 0.074375585 -0.162102 -0.16171469
000130 8f 0b 4f bd 48 79 37 be cd 30 0a 3e 6d 04 08 3d
       -0.050548133 -0.17917359 0.13495179 0.033207346
000140 c6 28 51 be 21 4d 5e 3d ee ed 0d be 98 d3 05 3e
       -0.2042571 0.054272775 -0.13860294 0.13068998
000150 b9 03 6a bc a7 0a 03 be 7a c4 d0 bd 08 7c 0d be
       -0.014283114 -0.12797032 -0.10193725 -0.13816845
000160 ac 77 7b 3e 53 dc 87 3e 4f 49 71 3d 1a 36 b5 bd
       0.2455737 0.26535282 0.058907803 -0.0884821
000170 6e 46 81 3e 15 51 b7 bc d8 81 55 3e a8 2b 76 be
       0.25249046 -0.02237753 0.20850313 -0.24040091
000180 6a 6d 19 bd 84 bf 93 3e 70 fb 6d 3e a4 d5 48 bd
       -0.03745786 0.28857052 0.23240447 -0.04903187
000190 d2 78 5b bd d6 d0 ae bc 63 be 4a be 33 77 5c bc
       -0.05358202 -0.021339815 -0.1979919 -0.013456154
0001a0 5c e4 6e bd e4 3f e3 bd 53 4d e8 3d 48 32 ac bd
       -0.05832325 -0.110961705 0.113428734 -0.08408028
0001b0 b3 54 49 bd d2 87 cc bd d9 c7 0f be 71 4a dc 3a
       -0.04915304 -0.09986843 -0.1404108 0.0016806853
0001c0 cc f1 05 3e 8e f6 e0 3d 7a a1 a8 3b d3 08 4f 3d
       0.1308052 0.109845266 0.0051462026 0.050545525
0001d0 54 b1 30 3e c4 65 58 be 9b e3 c6 bc de 5d a7 3b
       0.17255145 -0.2113257 -0.024278453 0.0051076254
0001e0 40 07 11 be 18 96 24 3e e2 73 2d be f8 6b 17 3e
       -0.14162922 0.16072881 -0.16938737 0.1478728
0001f0 95 80 82 bd b6 38 12 be f6 56 b5 3d e2 c1 53 3b
       -0.06372181 -0.14279446 0.08854477 0.0032311608
000200 14 69 43 be 76 7a c9 bd 0b 73 75 bd bf 6d 17 bd
       -0.19083053 -0.09837811 -0.059924167 -0.036969896
000210 70 94 bf bd fc 92 83 bd f3 cb 8a be b2 f4 aa 3e
       -0.09354484 -0.064245194 -0.27108726 0.33389813
000220 6b 3a 63 3c f3 5f 25 be 0c ba 53 be 13 bd 25 bd
       0.013868908 -0.16149883 -0.2067644 -0.04046352
000230 7e 5f 6f 3e f5 03 d2 3e 23 6b 9e 3e 1d 70 28 3e
       0.23376271 0.41018644 0.30941114 0.16449018
000240 72 62 5c 3e 9a f9 bf 3e b1 7b c7 3e e5 13 af 3d
       0.21521929 0.37495118 0.38961557 0.085487165
000250 b2 5b 98 3e e4 e3 4a 3e 63 82 57 be 06 22 51 be
       0.29757458 0.19813496 -0.21045832 -0.20423135
000260 f0 cb ed bd 65 85 dd 3d 86 f1 5c 3e ed c2 34 be
       -0.116111636 0.108164586 0.21576509 -0.17652483
000270 87 2b 7a 3c 17 bc 15 bd 1d 80 e9 3d ce 75 e1 3d
       0.015269167 -0.03655633 0.11401389 0.110087976
000280 c0 c3 63 be 71 14 05 be 6d 7a e6 bd 22 19 8f 3e
       -0.22242641 -0.12996079 -0.112538196 0.27948862
000290 9f e7 59 3e 4a a6 6f be f4 fa b8 bd f0 c4 66 3e
       0.21279763 -0.23403278 -0.090322405 0.22536063
0002a0 4c e1 69 3e 2f 3d a5 3d fc 06 b8 3c db 19 11 3e
       0.2283985 0.080683105 0.022464268 0.1417002
0002b0 d9 be 44 3d c5 65 60 3e 25 d4 b7 bc e2 54 15 3e
       0.04803357 0.21913822 -0.022440026 0.14583161
0002c0 f7 c5 17 3e e9 2a 1a 3e ff d0 12 3e 08 09 06 be
       0.14821611 0.15055431 0.14337538 -0.13089383
0002d0 ff 59 60 3e 31 fa ea 3e 42 ae 1e 3f 61 a9 9a 3e
       0.21909331 0.45894006 0.61984646 0.3020735
0002e0 2f c3 8e 3e ae 66 80 3e a7 ef c3 3e 5e fc fc 3e
       0.27883288 0.25078338 0.38268778 0.4941129
0002f0 b8 52 17 3f 99 08 14 bd 4b 46 8c 3e 22 a1 2e 3f
       0.59110594 -0.036141012 0.2739738 0.6821462
000300 58 88 35 3f 3f b2 eb 3e dd 25 4e 3e aa b0 6f 3e
       0.7091117 0.46034428 0.20131631 0.23407236
000310 86 f2 d1 3e 81 a0 1f 3f ff 04 d3 3e 62 96 78 bc
       0.41005343 0.62354285 0.4121475 -0.015172573

conv1.bias f4 [8]
000000 71 81 6e bd ce 45 09 3d 54 65 19 bd e0 7c 90 bd
       -0.058228914 0.033513837 -0.03745015 -0.07055068
000010 16 6a fb bd 7c 20 08 3d 54 78 bb 3d f0 e3 34 b8
       -0.12276094 0.033234105 0.0915381 -4.3127628e-05

conv2.weight f4 [16, 8, 5, 5]
000000 dc e5 2b bb 67 cf 5c bc 2f e8 6d bd 03 75 1d bb
       -0.0026229536 -0.013477183 -0.058082756 -0.0024026043
000010 4e d9 97 bc 3a 85 60 3d f6 8b 89 bd b9 c1 dd bc
       -0.018536236 0.054814555 -0.067161486 -0.027069913
000020 a3 e3 c7 bc 49 7c e5 bb 02 1e 82 bd ec e9 5a bd
       -0.024400538 -0.0070033413 -0.0635338 -0.05344574
000030 d6 ef 15 bc 1b cf b7 bc f5 13 33 3d 06 96 01 bd
       -0.00915142 -0.022437623 0.043720204 -0.031637214
000040 f2 b5 76 3c ab c6 83 3d 45 78 8f bc ca 31 5e 3d
       0.015058028 0.06434377 -0.017513404 0.0542467
000050 76 b6 42 bd 58 66 cf 3c 1c 48 0c 3c 1f f8 3b bb
       -0.04753729 0.025317356 0.008562114 -0.0028681827
000060 02 4c a3 bc 0e 5e 9a 3d 57 92 2b bd 01 13 56 3d
       -0.019933704 0.07537471 -0.041887607 0.052264217
000070 25 84 20 bd dc bc 87 ba 03 93 68 3d 09 d0 9f 3b
       -0.039188523 -0.0010355967 0.056780826 0.0048770946
000080 f8 00 2b bd ec 20 69 3c 70 42 d0 3b 4f fa 82 bd
       -0.04174897 0.014229041 0.006355576 -0.06395399
000090 48 b8 85 3d f1 5f 47 3d d7 18 a9 3d 79 d3 eb 3c
       0.065292895 0.04867548 0.08256691 0.028787361
0000a0 3e 49 46 3d 4a b0 39 3d e4 47 89 3c e5 fb 84 3d
       0.048409693 0.045334138 0.016757913 0.064933576
0000b0 8c 4e 56 bd 15 c4 bd 3d f1 d6 ff bb 8a 4e 7f 3d
       -0.052321002 0.09265915 -0.0078076054 0.06233076
0000c0 bc 1e 93 3c 2d 3a f9 ba 5f cd 40 bc af 29 28 3c
       0.017958991 -0.001901453 -0.011767714 0.010263844
0000d0 2b 17 37 bd 04 de 49 3d 01 5d 63 bd 30 a2 ee bc
       -0.04469983 0.049283996 -0.055508617 -0.029130071
0000e0 07 5f ec 3c 0c 31 23 3d b5 2c 83 b9 68 f8 60 3d
       0.028853906 0.039841697 -0.00025019576 0.0549244
0000f0 e1 10 50 bd 02 63 4d bd 7b fd 3d 3d f6 25 84 3d
       -0.050797347 -0.05014325 0.046384316 0.06452553
000100 fa 36 90 3d 35 e0 1c 3d 2d 98 72 3a db a7 8e 3d
       0.07041736 0.038299758 0.00092542433 0.0696561
000110 67 4a 85 3d 24 e0 8c 3d f3 2f 1f 3d a9 4c 57 3d
       0.06508332 0.06878689 0.038864087 0.052563343
000120 44 67 a2 3d 46 4c 83 bb 49 1d dc bc b9 bb 68 bd
       0.079298526 -0.0040068952 -0.026869433 -0.05681965
000130 3e bc d3 bd 3d d3 3e bd 7b 2b a0 3d a5 c0 31 3d
       -0.10338639 -0.04658817 0.07820793 0.04339661
000140 56 9e e6 bb 88 db 0e 3c 6e b5 ea bc c6 7b ed 3d
       -0.007037918 0.0087193325 -0.028650966 0.115958735
000150 47 97 8a 3d 7c 74 66 bd 81 ca df bb b8 03 08 bc
       0.06767135 -0.056263432 -0.0068295603 -0.008301668
000160 47 74 56 bc 55 a5 40 3d f9 8f d2 3c 9a b8 9c 3d
       -0.013089246 0.047032673 0.025703417 0.076523975
000170 1a 3a 81 bd f1 ff 3d 3c 0d 62 73 bd fd fe d5 3c
       -0.0630991 0.011596666 -0.05941968 0.026122564
000180 5c d6 3d bd 8f 33 47 bd 2e a3 8c bc 69 a2 8f bd
       -0.046347007 -0.048633154 -0.017167654 -0.07013399
000190 5c 18 50 3d 6c a1 5b 3d 28 3e 19 bd 04 54 61 bd
       0.05080448 0.05362074 -0.037412792 -0.055011764
0001a0 1e 93 5f bd 6b 49 b0 3b ff b2 4f 3d 4c 16 a6 bc
       -0.05458366 0.005379846 0.050707813 -0.020274304
0001b0 ae 19 a2 bc 8c 87 4e 3d 37 4c cb 3c 4a 39 5b 3d
       -0.019787636 0.050422236 0.024816616 0.053521432
0001c0 ea b9 11 bc ed 65 94 3c f7 c7 95 3c ad 45 68 bd
       -0.008894423 0.018115008 0.018283827 -0.056707073
0001d0 18 ef 35 bc 0a b0 57 bd 3c e3 87 bd 65 2d 8e bd
       -0.011104368 -0.05265812 -0.066351384 -0.06942252
0001e0 2d d7 ce 3c bd 61 6c bd cf d4 69 bd 32 bb 88 3d
       0.025249088 -0.057710398 -0.057087716 0.0667633
0001f0 60 ca ac ba 9e ad b2 bc 63 e8 0f 3d 89 79 ed 3c
       -0.0013182871 -0.021811303 0.03513373 0.028988617
000200 c8 24 4f bd ef 39 be 3d ac e4 91 3c 9a c7 bb 3b
       -0.050572187 0.09288394 0.017809235 0.0057305815
000210 18 0e 8d 3c 15 61 bb bc 0a 1c 15 3d 52 db 36 bc
       0.017218634 -0.02287344 0.036403693 -0.0111606885
000220 1a 46 98 bb 94 ec a4 3d 10 81 30 3d a9 7d 64 3d
       -0.0046470286 0.08052936 0.043091834 0.0557839
000230 6e db a5 3d a4 55 c7 bc be 9f 67 bd 9e 24 17 3a
       0.080984935 -0.024332829 -0.056548826 0.0005765649
000240 1a 4a 74 3c 06 67 8b bd 08 62 9d bd ac 90 b8 bd
       0.014910245 -0.068067595 -0.076847136 -0.09011969
000250 86 99 20 bd f3 4b 49 bb 1c f8 64 3d 55 a4 9f bc
       -0.03920891 -0.0030715435 0.055900678 -0.01948754
000260 47 f0 9e bd 28 87 66 bd da 30 2d 3c 02 43 5d bd
       -0.07760673 -0.05628124 0.010570729 -0.05401898
000270 bb 9a be 3c e0 c0 bd 3d a9 fc e2 3d bc 09 ab 3b
       0.02326714 0.092653036 0.11083347 0.0052196663
000280 5f bc ab bc 6b b4 4b bc b2 5c ea 3d f7 41 25 3d
       -0.020963846 -0.012433152 0.114434615 0.040346112
000290 a1 27 28 bc 7d 4a 3b 3d 11 9e 5a 3d d5 be cc 3b
       -0.0102633545 0.045725334 0.0533734 0.006248335
0002a0 7b c9 2b 3d d5 49 fe bd 8f 2b 85 bc 2b 52 d1 3c
       0.041940194 -0.12416426 -0.016256122 0.025551876
0002b0 65 c3 3a bd d9 aa 54 bc ea 44 b5 bd 51 4b 7d 3d
       -0.0455965 -0.012980186 -0.08851035 0.061839405
0002c0 19 48 02 3d cf db ef bd 6a a5 02 3c 69 a1 73 bd
       0.03180704 -0.11711847 0.007974008 -0.059480105
0002d0 30 1c c1 bc 5c 28 cb bd 8b 08 1b 3d 09 43 20 3e
       -0.023573011 -0.09919807 0.037849944 0.15650572
0002e0 bc 50 35 3e 34 09 00 be 5e c9 b5 3d 5f a9 0c 3e
       0.17706579 -0.1250351 0.08876298 0.13736485
0002f0 b3 84 7b 3e e8 46 a4 3d 5f 0f 78 3d f0 bb 84 3e
       0.2456234 0.08021337 0.060561534 0.25924635
000300 dc 37 22 3e 55 53 34 3d 84 ff 96 bd a7 2f 66 3e
       0.15841621 0.044024784 -0.073729545 0.22479115
000310 53 75 be 3d 3a b1 ea bb 66 a2 0c be 69 6f 42 be
       0.092997216 -0.0071622403 -0.13733825 -0.18987812
000320 61 65 05 bd 44 e3 91 3d f9 9c 2e 3d 00 49 95 bb
       -0.032567386 0.071234256 0.04263017 -0.0045558214
000330 e8 1e b4 3b ef 33 50 bd 04 3c 37 3d 57 05 a8 3d
       0.0054968484 -0.050830778 0.04473497 0.082041435
000340 a2 f2 39 3d 5b 33 85 3c 16 01 87 bd 6b 7c 58 bd
       0.04539741 0.01625984 -0.06592004 -0.05285303
000350 49 f4 32 bc cc b4 78 3a 28 a4 16 bd 71 90 88 bd
       -0.0109225 0.000948739 -0.036777645 -0.06668175
000360 12 fb e0 bc 4c 6a 7d 3d 7f 1a 4f bd 47 4d 78 3c
       -0.02746347 0.06186895 -0.050562378 0.015155143
000370 5c 46 1c 3c ab d6 65 bd d2 5f 81 3b 1e 65 27 3c
       0.009538259 -0.056112926 0.0039481902 0.010216979
000380 5e 04 29 3c 74 55 66 3d 9f 3f fb bc b4 aa 9e 3d
       0.010315983 0.05623384 -0.030669985 0.07747403
000390 d1 19 ba 3c 39 77 45 bc ea 41 1e bc 9e 5f bd bc
       0.022717388 -0.012052351 -0.00965927 -0.023116883
0003a0 b6 d6 ba bb 31 2c 6f 3d f2 bd 99 3d 12 f0 49 3d
       -0.005701865 0.058391754 0.07506932 0.049301215
0003b0 ba 7f 61 bd 03 3d 3f bc 95 68 86 3b e9 a8 e6 bb
       -0.05505345 -0.011672261 0.0041018226 -0.0070391786
0003c0 50 c0 c6 3c 50 da df 3d 24 a4 aa 3d fa c5 f2 3d
       0.024261624 0.10930312 0.083320886 0.11854167
0003d0 30 e7 bc 3d 48 bd ef 3c ce 32 30 3d ff a4 77 3d
       0.09223783 0.029265061 0.0430172 0.060460087
0003e0 f1 55 93 3c 89 56 10 3d f7 90 ca bc 83 35 ab 3c
       0.017985316 0.035238776 -0.024727328 0.02089954
0003f0 2d 58 53 3d de db 93 3c f0 1c 8c bd e7 fe 28 bc
       0.051597763 0.018049177 -0.06841457 -0.01031468

conv2.bias f4 [16]
000000 4e e7 09 bd 79 e5 cf 3d a3 7d 8e 3d 31 8e 5a bd
       -0.033667855 0.1015119 0.06957557 -0.05335826
000010 9b 93 4a bd 82 e1 00 bd 3f 6e dd 3c b6 bd aa b9
       -0.049457174 -0.03146506 0.027030108 -0.00032566272
000020 89 6d 78 3d 7b 3c 3b 3d 3c 14 d0 3b f4 04 5c 3d
       0.060651336 0.045711976 0.0063500684 0.05371566
000030 d3 a2 61 3d ba f6 f6 3c 3e ec 75 3c 7a 4a b0 3d
       0.055086922 0.030146945 0.015009938 0.08607955

fc1.weight f4 [10, 256]
000000 6e fb 2a 3d 74 67 d8 3c ca 27 87 3c 44 24 0c 3d
       0.04174369 0.026416518 0.016498465 0.034214273
000010 94 bd b9 3d 61 a9 d7 3a b7 d6 50 be 51 09 0a 3e
       0.09069362 0.0016453677 -0.20394407 0.13480116
000020 16 3e 94 3a 27 b7 1b be 1c 18 91 bd b7 d2 7b 3e
       0.0011310007 -0.15206586 -0.070846766 0.245921
000030 06 46 54 bc 00 7b 82 3a ee 61 6b 3d ac 51 3b be
       -0.012956148 0.000995487 0.05746644 -0.18292874
000040 ff 0a ba bd 9c 1d 6c 3d 29 00 31 3e df 39 79 3d
       -0.090841286 0.057645425 0.17285217 0.060846206
000050 39 33 2f be 5d f0 09 be 7a c9 9f bd 3b 2f ef 3c
       -0.17109384 -0.13470598 -0.078021005 0.029197326
000060 6a fd c8 bd 28 3f 06 be e6 e0 e4 bd e5 cd 39 bd
       -0.0981396 -0.1311003 -0.111757085 -0.045362372
000070 45 47 ae bc 6b 94 b7 3d ec 73 07 bd 96 02 1d bd
       -0.021274218 0.08963855 -0.033069536 -0.038332544
000080 70 ff 93 3d ba 52 a4 3c b3 eb 38 3d 95 69 20 bd
       0.07226455 0.020058978 0.045146655 -0.03916319
000090 44 68 2b 3e b0 02 ec b6 12 96 ef bd a6 57 19 3e
       0.16738993 -7.033661e-06 -0.116985455 0.14974841
0000a0 de 59 fb 3d 6f 9a 00 be ca ce 26 3b fe d6 b2 3d
       0.12273 -0.12558912 0.0025452846 0.08732413
0000b0 f1 c0 1a 3d 05 9f b1 3c c8 d5 d2 3b 08 08 4f bd
       0.03778166 0.021682272 0.006434176 -0.05054477
0000c0 79 95 15 3d ff 5a 78 bd c1 df 6b bd 80 aa 85 bd
       0.0365195 -0.060633656 -0.057586435 -0.06526661
0000d0 40 f8 93 3c a8 08 37 3a 30 06 75 3d ae 43 bd 3d
       0.01806271 0.0006982186 0.059820354 0.092414245
0000e0 88 0e 70 bc 99 90 78 bc c5 d8 fc bc 8d d2 2e 3d
       -0.014651902 -0.0151711935 -0.030865083 0.042681266
0000f0 8d 3f 48 3d db ed 20 bd c3 5c 8d bd 10 1e 2f bd
       0.04888873 -0.039289337 -0.069024585 -0.04275328
000100 a9 46 48 bd 62 d2 51 bd 10 d9 a3 3c 7d 5f 96 3d
       -0.04889551 -0.051226027 0.020000964 0.07342432
000110 c3 c2 29 ba 6f b3 47 bd f7 b2 97 3d 82 c6 9e 3d
       -0.000647586 -0.048755106 0.07407182 0.07752706
000120 cb d8 67 bc c1 34 ad bd be 89 40 3c c0 da 24 3d
       -0.014150809 -0.08457328 0.01175159 0.04024768
000130 de e6 97 3d d6 90 20 bd 88 ec dc bd e5 b4 97 bd
       0.07417081 -0.039200626 -0.10787302 -0.0740755
000140 be e2 74 bd c4 9a 37 bd 89 f6 4b bc d3 14 a6 3d
       -0.05978655 -0.04482533 -0.012448915 0.08109441
000150 ce 65 e6 bc 0c cd 40 bd cd d0 d1 3d 8d 06 4a 3e
       -0.028124716 -0.047070548 0.10244904 0.19729061
000160 d7 2a f7 3d bd 09 a0 bc 04 37 11 be f1 00 74 bd
       0.12068718 -0.019535894 -0.14181143 -0.05957121
000170 47 7c db 3d d1 04 b7 3c 69 10 fe bd c2 2b f5 bd
       0.107170634 0.022341164 -0.12405474 -0.11971237
000180 6a 33 84 3d 48 ce 18 3d d8 e3 26 bc 8e 2c dc bc
       0.06455119 0.0373061 -0.010186158 -0.026876714
000190 e5 95 1e 3e 87 14 da bc df 5b 80 3c b3 3f d6 3d
       0.15486868 -0.026621116 0.015668808 0.104613684
0001a0 88 32 00 3e 11 75 65 3d 0d 16 22 3c 2e cf f5 3a
       0.12519276 0.056019846 0.009892953 0.0018753761
0001b0 a6 b9 57 3d bf a4 8c 3c 14 2a e8 bd e2 1e 07 bd
       0.052667283 0.0171684 -0.11336151 -0.032988437
0001c0 48 49 7d bc a9 bd a6 3d 8e 86 b5 3c f9 cb 92 bd
       -0.015459366 0.081416436 0.022158887 -0.07167811
0001d0 8a 32 9a bc b8 0f 4b 3d 1a 1d 46 3c 55 71 89 3d
       -0.018822927 0.049575537 0.012091899 0.067110695
0001e0 86 ea af 3d 37 82 d0 3d 12 04 03 bd 8f c4 6e 3d
       0.08589654 0.101810865 -0.031986304 0.05829292
0001f0 83 60 9b 3d 63 11 ec bc b3 54 e5 bd 33 f2 9d bc
       0.075867675 -0.028816884 -0.11197796 -0.019280529
000200 d0 6f 36 3d 75 54 fa 3d 97 9c be 3d c7 dc e4 3d
       0.044540226 0.1222314 0.09307211 0.111749224
000210 a9 35 0f 3e 05 a8 5a bd cf e1 18 be c8 4a dc 3d
       0.13985313 -0.053382892 -0.14929889 0.10756451
000220 66 e8 9b bc e4 2d 0c be 14 c0 16 bc 0d bd bb 3d
       -0.019031715 -0.13689381 -0.009201068 0.09166918
000230 21 60 09 be 6d f9 8b bd 55 bc 11 3c 84 d8 a7 bd
       -0.13415577 -0.068346836 0.0088949995 -0.08195594
000240 ed f5 f1 bd 4c 3e 20 3d 3a 3b 30 bd e9 24 2d bd
       -0.11814485 0.03912191 -0.043025233 -0.04227153
000250 ec 44 61 be 53 94 0c be 9b f7 b4 bd 75 7f 1e 38
       -0.21998948 -0.13728456 -0.088362895 3.778884e-05
000260 4b 20 0a bd 0a 3c 0c bd 4a f3 92 3c 54 b1 08 bd
       -0.033722203 -0.034236945 0.017938275 -0.03337224
000270 18 0f b2 3d dd e8 8f bb fe e2 f3 3a dd 27 0c 3d
       0.08694285 -0.004391773 0.0018607078 0.034217704
000280 37 7c de bd 71 08 da bd a5 a1 42 3d 76 a1 ab 3d
       -0.10863536 -0.10646141 0.047517437 0.083804056
000290 65 63 e4 bd e4 0b 3e 3b cf 9c d2 bb 95 13 c4 bd
       -0.111517705 0.0028998787 -0.0064273844 -0.095740475
0002a0 7f 34 18 bd 37 40 97 3d 01 10 e7 bd 28 d3 ba bc
       -0.03715944 0.07385295 -0.112823494 -0.022805765
0002b0 c6 0d ad bc ae b3 93 3c c8 fb d4 bd 9e b8 9b 3d
       -0.021124732 0.018030014 -0.10399586 0.07603572
0002c0 cf 17 c8 bd 96 75 8b bd 07 0e 2f 3d c9 9b 41 bc
       -0.09770166 -0.06809537 0.042737987 -0.011816927
0002d0 8b af a3 3d 35 26 ba bb 33 a9 c0 3d 85 b8 1a 3e
       0.079924665 -0.005680824 0.09407272 0.15109451
0002e0 dc a5 b8 3d 24 a8 1c be e9 90 51 3b 04 c3 97 bc
       0.0901601 -0.15298516 0.0031977242 -0.018525608
0002f0 98 bf f4 3d 64 d0 0a be 4f 7d 32 bd 2f 1c 83 bd
       0.11950606 -0.13556057 -0.043576535 -0.0640186
000300 a6 d5 61 bd ce d8 aa bd c3 8e 29 bd 3f 89 cf 3d
       -0.05513539 -0.083421335 -0.041395914 0.101335995
000310 e0 d4 b4 3d d9 cd 56 3d e9 e0 3c bd c7 27 35 bd
       0.08829665 0.052442405 -0.04611293 -0.044227388
000320 c5 88 cc 3d 5c 3d 8d 3d a1 0e 89 bc a0 0d 59 bd
       0.09987024 0.06896469 -0.016730608 -0.05299151
000330 42 60 45 bd 36 c8 da 3d 68 97 df 3a f1 e6 75 3c
       -0.0481875 0.106827185 0.0017058672 0.015008674
000340 3b 3d ad 3d 7b 28 14 bd 91 79 af bc e4 33 c8 3d
       0.084589444 -0.036171418 -0.021420272 0.09775522
000350 5a a7 cc 3d ae 37 09 be 4e 60 ed 3c b8 42 0f 3e
       0.09992857 -0.13400146 0.028976586 0.13990295
000360 aa 23 c3 3d e0 8f 50 3c 30 a2 37 bd 55 30 25 3d
       0.09528287 0.012729615 -0.04483241 0.040329296
000370 92 e4 ba 3c ea 59 29 3e 44 98 b3 bd f9 55 d6 bd
       0.022814069 0.16538206 -0.08769277 -0.10465617
000380 ff cc 84 bc 94 38 92 3c 88 b9 4c bd 8f 80 6e bd
       -0.016211031 0.017849244 -0.049981624 -0.05822807
000390 c2 4a 14 3d 58 6b e4 bc 87 cd 24 3d d3 e5 9c 3d
       0.036204107 -0.027883217 0.04023507 0.07661023
0003a0 ab b4 cb bc 14 fd f4 bd 11 6f 1b 3c 16 6f 98 bd
       -0.024866423 -0.11962333 0.0094869295 -0.07443063
0003b0 8e 3c c5 bc 65 ea 03 3c 7d 25 68 bd eb 29 c3 bd
       -0.024076726 0.0080514895 -0.056676377 -0.095294796
0003c0 56 da ea 3c 42 70 7c 3d 6a d8 11 3d c6 ff 00 3d
       0.028668564 0.061630495 0.03560678 0.031493925
0003d0 ae 7c 62 bd 62 c8 3f bd 53 ff 2d bd 9b f4 31 bd
       -0.055294685 -0.04682196 -0.042479824 -0.043446165
0003e0 5c a1 0c be d0 65 34 bd 86 c8 f9 bb 82 fa 15 3d
       -0.13733429 -0.04404241 -0.007622781 0.036615856
0003f0 21 f1 38 bd f5 7e d9 bc 96 69 61 3d 27 91 cd bc
       -0.045151833 -0.026549796 0.055032335 -0.025093628

fc1.bias f4 [10]
000000 2d 10 f9 3d d6 b9 75 3a ac 0d 26 3d f9 69 f6 bc
       0.121612884 0.00093737 0.040540382 -0.030079829
000010 39 fd b4 bd aa fe f6 3c a0 e1 aa bc b0 0c a5 bb
       -0.08837361 0.03015073 -0.02085954 -0.005036913
000020 33 2e aa bc 04 96 98 ba
       -0.020773983 -0.0011641388
