sandbox/snapshots/grokking/model-1248.pt (torch, 26159 bytes, 6 tensors)

conv1.weight f4 [8, 1, 5, 5]
-0.42739937 1.4329003 -0.45058537 0.7357515 0.40771982 -1.0532241 -0.2873463 -1.4262481
-1.4289443 -0.46548897 -1.2810861 0.8300047 -1.0177063 1.0320919 -0.83213675 0.33358383
-0.96372145 0.5571168 0.8295244 0.39052388 -0.27270973 -0.516494 0.020663483 -0.52397686
-1.5982474 -0.39133683 -1.360808 -0.24713576 1.1052555 1.4665976 -0.16350037 0.3138832
-0.9342589 1.0712569 0.10912037 0.027963243 0.36958775 -0.47352096 -1.5709791 -1.1382715
-1.4263657 -0.7493613 -1.251673 -0.25102794 -0.2135315 -0.56500673 -1.3089906 -0.01901178
0.34814367 1.2591089 -0.7154505 0.79683095 -0.42622808 0.67815894 0.26481265 -0.5196166
0.15777966 1.4966438 1.4852725 0.2912597 0.18311355 0.96352684 -0.0046767956 -0.73239654
-1.2377908 -0.49125835 -1.2427158 -0.061218645 0.47217098 -1.5180424 1.530221 -0.7120625
1.4613563 -0.8640296 -0.3230257 -1.1003877 -1.55747 -1.3615726 0.11952397 0.5039828
-0.2463864 -0.35810834 -0.14539051 -0.88459164 -1.1779656 0.38714492 0.82464445 1.2668027
1.1709281 0.24537136 -0.7590338 -1.0398272 1.3725693 -1.0894763 1.5761677 -0.43830946
1.3183576 -0.3924301 -0.8587016 1.347653 1.5634207 0.8565068 1.3598369 0.0792517
-0.38211778 -0.34057754 1.3599405 -0.86144423 -0.42829585 -1.420019 -0.48527327 -1.1745188
0.59309787 -0.30744964 0.62481666 0.35340723 1.1704377 1.1046166 1.1648003 1.1553385
-1.3235959 -1.1210439 0.5501356 -0.52412724 0.5715289 0.39553964 0.7425068 1.0049878
-0.29667264 0.3735796 -0.7646301 -0.5709406 -0.59739 0.47472304 -0.45801482 -0.39680952
0.48184338 -1.4996142 -0.9315617 0.8181617 0.89015037 -1.1961106 -0.5985154 -0.010297091
-0.8766193 -0.91946 -0.91720665 0.18344544 0.31596267 1.4211574 -1.4897518 1.1144832
0.29633474 0.13831583 1.305705 -0.972076 0.54609317 0.010156846 0.8173091 -0.50613004
0.9074441 -0.2993193 0.81296283 -0.12078495 -1.3180261 0.21541707 -0.87701523 1.2316624
-1.0558494 -0.8206314 -0.81211054 -0.7390152 1.5690511 -0.93325514 0.9281967 -0.10633732
-1.375482 -0.28950635 0.44739988 -0.537044 -0.764276 0.10255025 -0.40597138 -0.48131508
1.2917207 0.440172 -0.5067866 -0.89267945 -1.0490392 -1.1956834 0.91049814 -0.976873
0.0009401135 0.80357903 0.98184025 0.25067282 1.4122639 -0.9616973 0.9105375 1.1042683
00000000: 17d4 dabe 4769 b73f 20b3 e6be 365a 3c3f
00000010: a7c0 d03e 0cd0 86bf 0e1f 93be 4c8f b6bf
00000020: a6e7 b6bf 9254 eebe a1fa a3bf 307b 543f
00000030: 3344 82bf 961b 843f ea06 55bf 80cb aa3e
00000040: 73b6 76bf 359f 0e3f b65b 543f bff2 c73e
00000050: 9ca0 8bbe f338 04bf 7746 a93c 5923 06bf
00000060: 5f93 ccbf 4d5d c8be f52e aebf 2811 7dbe
00000070: 0379 8d3f 78b9 bb3f a46c 27be 4cb5 a03e
00000080: 972b 6fbf f21e 893f 807a df3d 2c13 e53c
00000090: 9b3a bd3e 5771 f2be d815 c9bf e1b2 91bf
000000a0: 2793 b6bf 24d6 3fbf d236 a0bf bc86 80be
000000b0: 00a8 5abe 48a4 10bf 018d a7bf 98be 9bbc
000000c0: e33f b23e 7b2a a13f c427 37bf 1dfd 4b3f
000000d0: 913a dabe d39b 2d3f 8695 873e 9805 05bf
000000e0: fe90 213e 0692 bf3f 691d be3f fe1f 953e
000000f0: 1e82 3b3e b2a9 763f ce3f 99bb 577e 3bbf
00000100: ee6f 9ebf 3786 fbbe 5011 9fbf 67c0 7abd
00000110: 65c0 f13e 374f c2bf 48de c33f ba49 36bf
00000120: b90d bb3f 0b31 5dbf a063 a5be 81d9 8cbf
00000130: 2d5b c7bf 0348 aebf fcc8 f43d 0405 013f
00000140: b74c 7cbe fa59 b7be 40e1 14be 9974 62bf
00000150: 94c7 96bf dc37 c63e e61b 533f 9726 a23f
00000160: f9e0 953f a142 7b3e 0a50 42bf 0f19 85bf
00000170: 5ab0 af3f f673 8bbf ddbf c93f 196a e0be
00000180: f1bf a83f 99ec c8be ded3 5bbf e57f ac3f
00000190: 2b1e c83f 0844 5b3f 230f ae3f b74e a23d
000001a0: f1a4 c3be 2e60 aebe 8812 ae3f 9c87 5cbf
000001b0: 9849 dbbe 2fc3 b5bf bd75 f8be a256 96bf
000001c0: 43d5 173f 0a6a 9dbe fcf3 1f3f cbf1 b43e
000001d0: e7d0 953f 1464 8d3f 2d18 953f 22e2 933f
000001e0: 976b a9bf 5e7e 8fbf b0d5 0c3f 342d 06bf
000001f0: b84f 123f 2c84 ca3e ed14 3e3f 71a3 803f
00000200: 7ae5 97be d345 bf3e ccbe 43bf 2a29 12bf
00000210: 8dee 18bf e60e f33e eb80 eabe 9e2a cbbe
00000220: 2db4 f63e 5cf3 bfbf d47a 6ebf 0c73 513f
00000230: e5e0 633f 271a 99bf 4e38 19bf 21b5 28bc
00000240: 1f6a 60bf bb61 6bbf 0ece 6abf 1fd9 3b3e
00000250: dcc5 a13e 7ce8 b53f 30b0 bebf 63a7 8e3f
00000260: 30b9 973e aaa2 0d3e 5721 a73f f9d9 78bf
00000270: c3cc 0b3f e668 263c 2b3b 513f bd91 01bf
00000280: 424e 683f 6140 99be 551e 503f 1a5e f7bd
00000290: 14b5 a8bf 4b96 5c3e 1284 60bf 1da7 9d3f
000002a0: 1326 87bf e614 52bf 7ae6 4fbf 1a30 3dbf
000002b0: abd6 c83f cfe9 6ebf 4d9e 6d3f 61c7 d9bd
000002c0: cb0f b0bf 2d3a 94be 9911 e53e b77b 09bf
000002d0: 98a7 43bf de05 d23d 7bdb cfbe ee6e f6be
000002e0: 1b57 a53f 395e e13e c4bc 01bf a486 64bf
000002f0: eb46 86bf 270c 99bf 6816 693f 5914 7abf
00000300: f371 763a 5bb7 4d3f e259 7b3f 3058 803e
00000310: 10c5 b43f cb31 76bf fc18 693f aa58 8d3f

conv1.bias f4 [8]
-1.4942816 -0.7549673 -1.5356814 -0.11788235 0.8051043 -0.72051466 -1.0990528 0.5157229
00000000: 9f44 bfbf 8945 41bf 3591 c4bf 4d6c f1bd
00000010: 511b 4e3f a673 38bf c3ad 8cbf 6a06 043f

conv2.weight f4 [16, 8, 5, 5]
-0.17753872 0.19632004 0.27735195 0.26757723 -0.25794148 -0.17585574 -0.06735317 -0.18281056
-0.43724218 0.4158868 0.02867782 -0.5453002 0.10551486 -0.29267308 -0.30236676 0.16420072
0.08480928 -0.16183259 -0.22402772 0.19575568 -0.11888432 -0.3468995 0.3463351 0.3106652
0.56892484 -0.006471635 -0.097740136 -0.1487837 -0.44195768 -0.46158412 0.0856879 -0.39419788
-0.27918056 -0.26369566 0.24389756 -0.11985209 0.07933448 0.17161343 -0.2507595 0.19753838
0.49706694 -0.19268952 0.22895963 0.5120626 -0.0057975496 -0.011108483 0.39223206 -0.08385091
0.55311835 0.12658198 -0.23392957 -0.5666766 -0.0028317985 0.48075777 -0.06481235 -0.025088781
-0.44129172 0.453437 -0.20315115 -0.09325459 0.13819422 0.36225381 -0.4385777 0.23042245
-0.13725495 -0.15141988 0.072239816 -0.32910055 -0.0511164 -0.26816642 0.14029898 -0.12275925
-0.019806247 -0.46949393 0.07260663 -0.23596993 0.29436532 0.5462179 0.3634037 0.015939318
-0.050019275 -0.1766543 0.052379373 -0.27436295 -0.025248403 -0.48830763 -0.17054187 -0.16729315
-0.30267364 0.36358574 0.30766848 0.16357636 0.450227 0.021269077 -0.20231438 0.0028146221
-0.13182323 0.31920138 -0.31961104 -0.1294586 -0.39172754 -0.30273685 0.07806822 0.3278437
-0.32600662 0.09066059 0.54640836 -0.36291975 0.32164893 -0.17440298 0.40533704 -0.0026733011
-0.35953003 -0.36099917 0.31799 0.0799993 -0.45557874 0.11764328 0.48579007 0.099277064
-0.26223978 0.14411877 -0.4704083 -0.011484927 0.17522824 0.2465353 -0.549784 -0.55169374
0.44563144 -0.34375343 -0.23151708 0.11827507 0.046957806 0.11120606 0.07816049 0.022356462
-0.17231448 -0.38239044 -0.39815378 0.35915783 -0.5180854 -0.4761626 0.3129296 0.2930548
0.4027654 0.24807118 -0.33215827 0.48981008 0.24585518 0.43963185 0.3558854 -0.23171711
0.16598685 -0.042961303 0.06046786 -0.40188584 0.30517945 0.5634025 -0.53051955 0.05588087
-0.354453 0.10882983 0.5725774 -0.0060538882 -0.42223138 -0.2763505 -0.2863477 -0.46019506
0.015700823 0.07826508 -0.53557134 -0.29910058 0.3432181 0.083250985 -0.29189387 0.29071358
-0.41509563 -0.48752257 0.03914373 0.40818807 -0.3224428 0.062593214 0.51914096 0.4935415
-0.35939437 -0.04642873 -0.312788 0.40718657 0.5217574 -0.26812384 0.30045268 -0.44163606
0.2636778 -0.5220728 -0.5124181 0.2271987 0.51323557 0.28959066 0.42608094 0.1377057
0.25604588 -0.36656988 -0.2528267 -0.44651014 0.42057824 0.49676847 0.5541893 0.14412364
0.5098737 -0.48894683 -0.48900136 -0.41004318 0.33581224 -0.3034557 0.06260906 -0.39232492
-0.07555816 0.091318056 -0.39038986 0.1015499 -0.45495394 -0.22487395 -0.3418458 0.60591644
-0.029765692 -0.43716204 -0.46761346 0.35672754 0.4910485 -0.080435716 0.5539361 0.07302346
-0.25767183 -0.124532245 -0.0135037005 -0.04482438 0.44418755 -0.18457079 -0.34647256 0.37303022
-0.22511728 0.52360994 -0.23958197 0.16074198 -0.031708084 0.505388 0.4588556 -0.025262088
0.5065354 0.14424558 -0.3334417 0.5006367 -0.49616042 -0.28050128 0.36159438 -0.26774636
00000000: b6cc 35be 1f08 493e 1301 8e3e e2ff 883e
00000010: e810 84be 8713 34be 75f0 89bd b132 3bbe
00000020: 35de dfbe 1def d43e bfed ea3c cb98 0bbf
00000030: 2d18 d83d 3fd9 95be d1cf 9abe 3c24 283e
00000040: 7db0 ad3d 71b7 25be 8667 65be 2d74 483e
00000050: 9f79 f3bd d09c b1be d652 b13e 820f 9f3e
00000060: 0fa5 113f 0210 d4bb fb2b c8bd c15a 18be
00000070: 4748 e2be c154 ecbe 237d af3d 4ed4 c9be
00000080: c1f0 8ebe 1e03 87be 48c0 793e 0375 f5bd
00000090: 1e7a a23d 6ebb 2f3e 8d63 80be 8047 4a3e
000000a0: 8f7f fe3e 6750 45be 6574 6a3e 8916 033f
000000b0: 5ff9 bdbb 5b00 36bc a4d2 c83e 07ba abbd
000000c0: 2a99 0d3f b59e 013e 3c8b 6fbe b811 11bf
000000d0: b295 39bb e225 f63e 56bc 84bd fd86 cdbc
000000e0: fdf0 e1be e528 e83e db06 50be 43fc bebd
000000f0: c982 0d3e 5579 b93e 428d e0be ddf3 6b3e
00000100: 908c 0cbe d00d 1bbe 78f2 933d de7f a8be
00000110: 6e5f 51bd 1c4d 89be 89aa 0f3e 3469 fbbd
00000120: b640 a2bc 8261 f0be c9b2 943d 1aa2 71be
00000130: 0db7 963e f0d4 0b3f 0d10 ba3e 2c93 823c
00000140: 03e1 4cbd dde4 34be c18b 563d 4d79 8cbe
00000150: bdd5 cebc 7503 fabe 87a2 2ebe e54e 2bbe
00000160: 0af8 9abe e927 ba3e b986 9d3e 9080 273e
00000170: 2784 e63e 7d3c ae3c 802b 4fbe 8675 383b
00000180: abfc 06be 5d6e a33e 0fa4 a3be cc90 04be
00000190: 8390 c8be 5300 9bbe 3be2 9f3d 21db a73e
000001a0: 57ea a6be 42ac b93d 6be1 0b3f 9ed0 b9be
000001b0: 2baf a43e b296 32be 5688 cf3e 8d32 2fbb
000001c0: 5214 b8be e2d4 b8be 96cf a23e acd6 a33d
000001d0: 9e41 e9be f6ee f03d 7ab9 f83e c651 cb3d
000001e0: 4b44 86be df93 133e 5bd9 f0be 462b 3cbc
000001f0: 086f 333e c073 7c3e a5be 0cbf cd3b 0dbf
00000200: ce29 e43e 7300 b0be d012 6dbe 333a f23d
00000210: d456 403d 01c0 e33d 9b12 a03d e624 b73c
00000220: 3573 30be aec8 c3be d0da cbbe 89e3 b73e
00000230: 3fa1 04bf 96cb f3be 4f38 a03e 470b 963e
00000240: 4437 ce3e 5f06 7e3e a610 aabe 63c8 fa3e
00000250: 76c1 7b3e 6d17 e13e 9c36 b63e 4047 6dbe
00000260: 75f8 293e 31f8 2fbd 26ad 773d fbc3 cdbe
00000270: 7b40 9c3e 253b 103f 21d0 07bf 57e3 643d
00000280: dd7a b5be 2de2 de3d 6f94 123f b25f c6bb
00000290: b62e d8be d07d 8dbe 2a9c 92be b09e ebbe
000002a0: 039f 803c 7149 a03d 341b 09bf b623 99be
000002b0: 48ba af3e 7e7f aa3d 1d73 95be 69d8 943e
000002c0: 6a87 d4be 8f9c f9be 2d55 203d 07fe d03e
000002d0: 3917 a5be df30 803d 6ce6 043f 79b1 fc3e
000002e0: 8a02 b8be 0d2c 3ebd c025 a0be c27a d03e
000002f0: e591 053f 8747 89be efd4 993e 1f1e e2be
00000300: c700 873e 90a6 05bf d52d 03bf c7a6 683e
00000310: 6863 033f 3a45 943e 4827 da3e b902 0d3e
00000320: 7218 833e 0caf bbbe 8072 81be fa9c e4be
00000330: 0856 d73e 7058 fe3e 5adf 0d3f 2695 133e
00000340: 1587 023f 3d57 fabe 635e fabe 2ef1 d1be
00000350: 95ef ab3e 8c5e 9bbe 2e39 803d d0de c8be
00000360: 3dbe 9abd f604 bb3d 2ee1 c7be 65f9 cf3d
00000370: b9ef e8be 5b45 66be 6a06 afbe 571d 1b3f
00000380: 2ed7 f3bc b4d3 dfbe 086b efbe fea4 b63e
00000390: b66a fb3e 7bbb a4bd c2ce 0d3f 538d 953d
000003a0: 90ed 83be c30a ffbd a03e 5dbc c599 37bd
000003b0: 8d6c e33e 2000 3dbe da64 b1be d1fd be3e
000003c0: 2585 66be 4d0b 063f fa54 75be 8c99 243e
000003d0: 56e0 01bd 1c61 013f 1fef ea3e 70f2 cebc
000003e0: 4eac 013f 1db5 133e dfb8 aabe ba29 003f
000003f0: bd08 febe dd9d 8fbe e622 b93e 0d16 89be

conv2.bias f4 [16]
0.3598626 -0.5643405 0.20156744 -0.4280127 0.28573194 0.59083366 -0.33868563 0.3023578
-0.53657836 0.14071248 0.5264043 -0.33888438 -0.23532149 0.08340822 0.18897922 -0.41450015
00000000: e93f b83e 9e78 10bf b267 4e3e 7b24 dbbe
00000010: 754b 923e e040 173f 3468 adbe a4ce 9a3e
00000020: 335d 09bf ef16 103e 6fc2 063f 4182 adbe
00000030: 1ef8 70be eed1 aa3d c583 413e 5d39 d4be

fc1.weight f4 [10, 256]
-0.1192113 0.18872906 0.24198654 0.13274173 -0.27708113 -0.08510334 0.06335667 -0.3903113
0.4685853 -0.45137858 0.15205443 -0.3731118 0.37098277 -0.12082179 -0.3188641 0.2858271
-0.4409964 0.24506983 -0.09607866 0.39676172 0.32581335 0.19507605 0.48560953 -0.24802738
0.014650345 0.21072093 0.4704253 0.25046006 0.27349538 0.11548601 -0.15062413 0.22363105
-0.2615966 0.15920231 -0.21746972 0.240768 0.3201014 0.3654772 -0.35105923 -0.33108777
0.3991939 -0.16176385 0.4153885 -0.21008058 -0.07404174 -0.35848117 0.13233955 -0.24276109
-0.40766385 0.029970285 0.2584698 0.016975183 0.3974169 0.37840578 0.16674627 -0.46052593
-0.20523816 0.2961122 -0.43243662 0.328962 -0.20154822 0.38551423 -0.3269578 -0.11711107
0.27382293 0.023920385 -0.37174162 -0.46763262 0.016850809 0.08836547 0.23666818 0.23033914
0.42398152 0.4562207 -0.25967565 -0.22501625 0.23400788 -0.24083138 0.01046492 -0.38345313
-0.4892491 0.0010439222 0.017574964 0.46270666 -0.17180207 0.32023746 -0.36952412 0.2768419
-0.47498435 0.21403693 0.3643846 -0.42422742 0.03557518 0.21415254 -0.26063147 -0.49010083
-0.42787597 -0.3707817 -0.1824305 0.3761515 -0.23217832 -0.009468688 -0.016278777 -0.37044552
-0.18826179 0.19780819 -0.29344246 0.029558964 0.37632006 -0.2940219 0.28545678 -0.5400842
0.122597076 0.008515735 0.442888 -0.23531377 0.028052323 -0.3572006 -0.18700124 -0.40408412
0.3298969 -0.061699763 0.19564918 0.384711 0.2937172 0.042507786 0.04400632 -0.31953555
0.46261197 0.038819756 -0.39933577 0.23496006 0.011517495 -0.42659432 -0.4251257 0.32789552
-0.34785086 -0.41631168 0.19926433 0.18666326 0.38762334 0.083019026 -0.34593946 -0.15623687
-0.3253613 0.052881524 0.16940486 0.29900002 -0.05929523 -0.29283932 0.4359967 -0.18946218
-0.3897076 -0.1605221 -0.17890501 -0.4506262 0.40415275 0.4821408 -0.28623384 -0.1770135
0.42945412 0.16812024 0.416639 0.04262595 -0.18840688 -0.21727104 0.34299934 0.4459562
0.30122295 -0.047739312 0.1488176 -0.048580736 0.06731076 -0.35300967 0.42605227 -0.43216094
0.49201664 0.15924266 0.28712535 -0.3905885 -0.28654242 -0.30093852 0.024621189 0.010572127
-0.25459594 -0.021160973 0.48813367 0.085422456 0.15585515 0.13480838 0.15535118 -0.040891305
0.19899794 0.02975586 0.13496983 -0.45047906 0.023156635 -0.3282205 0.27282804 -0.24182166
0.2170087 0.25196338 0.48759925 0.46009752 -0.03140359 -0.20234646 -0.33009613 0.14035983
0.029090963 0.1438122 -0.18081097 0.17625931 0.4019284 0.35968405 -0.30042085 -0.48128825
0.36987245 0.07748221 -0.09169993 0.097829126 0.32597762 0.33541372 -0.47193047 0.053820767
0.3737349 -0.3410067 0.28214967 0.41285405 -0.2537521 -0.34285545 -0.076322265 0.49939045
0.31799987 -0.41955972 -0.48289007 0.13434009 0.27445 -0.0066533396 -0.38383642 -0.34613702
0.32126012 0.2721052 -0.04905865 -0.3781179 -0.30155015 0.2393287 -0.1050991 -0.0721628
0.0364367 -0.105437145 0.29727677 -0.44825304 0.274695 0.101835825 0.38880315 0.18589884
00000000: 0e25 f4bd 3142 413e 52cb 773e 73ed 073e
00000010: 94dd 8dbe a94a aebd 24c1 813d e2d6 c7be
00000020: 6aea ef3e 181b e7be 28b4 1b3e 8308 bfbe
00000030: 74f1 bd3e 6a71 f7bd 2842 a3be ee57 923e
00000040: 48ca e1be 96f3 7a3e e3c4 c4bd 5a24 cb3e
00000050: 02d1 a63e 04c2 473e d0a1 f83e e4fa 7dbe
00000060: 0008 703c 3ac7 573e 96db f03e 4d3c 803e
00000070: 9607 8c3e ee83 ec3d 363d 1abe 8aff 643e
00000080: fdef 85be ee05 233e 62b0 5ebe e38b 763e
00000090: 55e4 a33e d41f bb3e 09be b3be 5684 a9be
000000a0: 2563 cc3e 6ca5 25be cdad d43e 5d1f 57be
000000b0: 32a3 97bd d88a b7be 0584 073e 5d96 78be
000000c0: 51b9 d0be 3e84 f53c 2756 843e 8a0f 8b3c
000000d0: 3a7a cb3e 67be c13e 89bf 2a3e 0eca ebbe
000000e0: f429 52be 059c 973e 5568 ddbe b56d a83e
000000f0: a862 4ebe 1f62 c53e 0367 a7be eed7 efbd
00000100: 8532 8c3e aff4 c33c eb54 bebe 8b6d efbe
00000110: b50a 8a3c f5f8 b43d 2559 723e 06de 6b3e
00000120: 1b14 d93e c295 e93e 35f4 84be a96a 66be
00000130: c39f 6f3e 809c 76be 0e75 2b3c f853 c4be
00000140: dc7e fabe 37d4 883a 5ff9 8f3c e3e7 ec3e
00000150: e2ec 2fbe 2af6 a33e 4432 bdbe 39be 8d3e
00000160: 2631 f3be 7f2c 5b3e 9e90 ba3e 5634 d9be
00000170: 48b7 113d ce4a 5b3e 7d71 85be 7fee fabe
00000180: 8f12 dbbe 19d7 bdbe 10cf 3abe ee96 c03e
00000190: 27c0 6dbe 8e22 1bbc 125b 85bc 09ab bdbe
000001a0: b3c7 40be 3b8e 4a3e 173e 96be a425 f23c
000001b0: 06ad c03e 0a8a 96be 6427 923e f542 0abf
000001c0: 2d14 fb3d 9585 0b3c 37c2 e23e 18f6 70be
000001d0: fccd e53c ffe2 b6be 417d 3fbe 1de4 cebe
000001e0: 3fe8 a83e e4b8 7cbd 4258 483e d7f8 c43e
000001f0: 1a62 963e a51c 2e3d f93f 343d 2a9a a3be
00000200: 7adb ec3e 7701 1f3d bd75 ccbe 5f99 703e
00000210: e0b3 3c3c 926a dabe 13aa d9be ece1 a73e
00000220: 8219 b2be ce26 d5be f30b 4c3e a724 3f3e
00000230: 9176 c63e e105 aa3d fa1e b1be 8ffc 1fbe
00000240: c295 a6be 4c9a 583d 7878 2d3e 8816 993e
00000250: 8edf 72bd 09ef 95be f63a df3e 6002 42be
00000260: c187 c7be e85f 24be e032 37be 7ab8 e6be
00000270: 1ced ce3e 29db f63e 3e8d 92be 0743 35be
00000280: 69e1 db3e b627 2c3e b551 d53e 8c98 2e3d
00000290: bced 40be 4d7c 5ebe 9c9d af3e 5f54 e43e
000002a0: e539 9a3e 4c8a 43bd a463 183e 98fc 46bd
000002b0: 39da 893d afbd b4be 8623 da3e 3344 ddbe
000002c0: 9be9 fb3e 8210 233e 1802 933e 37fb c7be
000002d0: b0b5 92be 9d14 9abe 60b2 c93c b736 2d3c
000002e0: 665a 82be c759 adbc a8ec f93e f8f1 ae3d
000002f0: 7e98 1f3e 350b 0a3e 6114 1f3e a47d 27bd
00000300: 1ec6 4b3e 90c2 f33c 8835 0a3e 31a5 e6be
00000310: fcb2 bd3c 840c a8be 1eb0 8b3e 19a0 77be
00000320: 8737 5e3e 5801 813e 9ca6 f93e e791 eb3e
00000330: 0da1 00bd e933 4fbe 5c02 a9be 7dba 0f3e
00000340: 2c50 ee3c 8143 133e 8326 39be 527d 343e
00000350: 8fc9 cd3e 8228 b83e c3d0 99be 6a6b f6be
00000360: ec5f bd3e feae 9e3d 2ccd bbbd a35a c83d
00000370: 8ae6 a63e 59bb ab3e dfa0 f1be 2a73 5c3d
00000380: 2e5a bf3e 6e98 aebe ec75 903e 9b61 d33e
00000390: cceb 81be c08a afbe d94e 9cbd 1bb0 ff3e
000003a0: e1d0 a23e 88d0 d6be 5e3d f7be 7390 093e
000003b0: b684 8c3e 4204 dabb 3586 c4be df38 b1be
000003c0: 357c a43e 5f51 8b3e b9f1 48bd ab98 c1be
000003d0: c864 9abe 9512 753e 323e d7bd 17ca 93bd
000003e0: a63e 153d 6eef d7bd a934 983e 6c81 e5be
000003f0: d3a4 8c3e 4d8f d03d 3511 c73e 445c 3e3e

fc1.bias f4 [10]
-0.018574169 0.03813912 -0.078124404 -0.40534836 0.2614036 0.34839016 -0.2987308 -0.041418083
-0.34436634 -0.4976728
00000000: db28 98bc c437 1c3d b0ff 9fbd d289 cfbe
00000010: b1d6 853e 3260 b23e 3ef3 98be 02a6 29bd
00000020: c950 b0be f8ce febe
