sandbox/snapshots/grokking/model-1056.pt (torch, 26159 bytes, 6 tensors)

conv1.weight f4 [8, 1, 5, 5]
00000000: 12d5 debe b437 b63f a6ea ebbe d5e7 393f
00000010: dd73 cc3e 6985 87bf e650 96be 0355 b7bf
00000020: bb28 b7bf 108e eebe a6ca a4bf 643b 533f
00000030: 2418 83bf 5e7d 833f b92a 57bf 9606 a63e
00000040: e22e 79bf c69d 0c3f 67a0 523f d1a7 c43e
00000050: 6847 8bbe 9a62 04bf c30b a83c cd12 06bf
00000060: 1d57 ccbf 5cf8 cdbe 08d8 afbf c889 83be
00000070: a586 8c3f 0eb3 ba3f bcce 33be 676c 9a3e
00000080: d4da 71bf 41bc 883f c1c1 d23d f3ac 9a3c
00000090: 815f b73e c9b6 f5be c609 c9bf 1c13 92bf
000000a0: 8f9c b6bf 4e89 40bf 6d9f 9fbf 6697 80be
000000b0: 8a8c 5ebe 0691 0fbf 0ae1 a6bf 486d 6cbc
000000c0: bcaa b23e 54ee a03f aef9 37bf 63e7 4b3f
000000d0: 31f2 d9be e901 2e3f 9563 883e 3b51 05bf
000000e0: b59e 223e 77cb bf3f 6462 be3f d00c 963e
000000f0: 8a1b 3d3e 2310 773f 7f89 55bb 5e32 3bbf
00000100: 8152 9ebf 703a fbbe 1d27 9fbf d8d3 79bd
00000110: 6df9 f13e 2853 c2bf 7a1c c43f 083d 36bf
00000120: 1c31 bb3f e0f4 5cbf 194b a4be af0b 8cbf
00000130: f53d c7bf 318d aebf c5ee ec3d 7245 ff3e
00000140: bed1 75be 3b1a b4be 9a63 13be 099b 63bf
00000150: 267d 97bf f692 c73e 2e1a 543f 733d a23f
00000160: 1d8d 953f 49a8 763e 23ee 42bf a459 85bf
00000170: 6a43 af3f 871f 8cbf e31a c93f b628 e5be
00000180: 2be2 a73f 94c3 ccbe 2c23 5ebf b9a6 ab3f
00000190: da20 c83f dfa1 5b3f d72f ae3f 89b0 9e3d
000001a0: 62c8 c6be 77ce aebe ae2a ae3f f0a6 5cbf
000001b0: 3190 dcbe a745 b6bf 38a9 f9be 608f 96bf
000001c0: 1bef 173f fcce 9bbe 56e7 203f ee1b b43e
000001d0: 96d7 953f fcf0 8d3f 82ea 953f b0a2 943f
000001e0: ee81 a9bf b32e 8fbf b072 0e3f 8791 04bf
000001f0: bab0 133f 3f0b ca3e ee9a 3d3f 6046 803f
00000200: 139d 9abe 3904 bd3e f27b 43bf dec6 12bf
00000210: 3781 1abf 4664 ef3e e084 ecbe cf1f c9be
00000220: b532 f73e c6cf c0bf e9db 6fbf 8e37 513f
00000230: 4280 653f 8294 98bf b43d 18bf 91ff 29bc
00000240: 32ab 60bf 7dc9 69bf f039 69bf 84d8 423e
00000250: 780c a33e b0eb b53f ab76 bebf e5d9 8e3f
00000260: fe0b 983e 52ad 0d3e b816 a73f a574 78bf
00000270: 6518 0c3f b155 2e3c 7b4d 513f f432 02bf
00000280: 22a9 683f 7cd7 98be 645e 503f e418 f7bd
00000290: 0c21 a9bf c74d 5d3e 5f75 60bf 09bb 9d3f
000002a0: ea63 87bf f1f1 52bf c5e6 4fbf 7d1b 3dbf
000002b0: 48e1 c83f 3e7e 6fbf 1d12 6d3f 7b13 dcbd
000002c0: a822 b0bf ecf1 94be d2f0 e33e b1bf 09bf
000002d0: 5532 44bf 730f d03d 4735 d1be 4aa8 f7be
000002e0: 4347 a53f 6c01 e03e 871d 02bf 7aef 64bf
000002f0: a075 86bf 2115 99bf 0522 683f a34a 7abf
00000300: fb1c b13a 28e4 4d3f e09d 7b3f fd50 7f3e
00000310: cb00 b53f e8ee 75bf 365b 693f c171 8d3f
-0.43521935 1.4235749 -0.4607746 0.7261937 0.39932147 -1.0587589 -0.29358596 -1.4322819
-1.4309305 -0.4659276 -1.2874343 0.825125 -1.0241742 1.0272634 -0.84049565 0.324269
-0.9733716 0.54928243 0.82276005 0.38409284 -0.27202916 -0.51712954 0.02051342 -0.5237244
-1.5964085 -0.40228546 -1.3737803 -0.25691056 1.097859 1.4585893 -0.17559332 0.3016083
-0.9447453 1.068245 0.10290862 0.018881297 0.3581505 -0.47991017 -1.5706108 -1.1412082
-1.4266528 -0.7520951 -1.2470528 -0.25115508 -0.21733299 -0.56080663 -1.3037426 -0.014430352
0.34895885 1.2572732 -0.71865356 0.79649943 -0.4256759 0.67971665 0.26638475 -0.5207707
0.15880854 1.4983968 1.4873776 0.2930665 0.18467537 0.96509 -0.0032583175 -0.7312373
-1.2368928 -0.49068022 -1.2433811 -0.060993046 0.4726061 -1.5181627 1.532119 -0.71186876
1.4624362 -0.8631115 -0.32088545 -1.0941066 -1.5565783 -1.3636838 0.11568979 0.4985767
-0.24005792 -0.35176262 -0.14393464 -0.8890844 -1.1835067 0.3897931 0.8285245 1.2675003
1.1683689 0.24087633 -0.7614462 -1.0417981 1.3692448 -1.0947121 1.571133 -0.44757622
1.3115896 -0.39992964 -0.8677242 1.3410255 1.5635026 0.8579387 1.360835 0.07748515
-0.38824755 -0.34141895 1.3606775 -0.86192226 -0.4307876 -1.4240006 -0.48761916 -1.1762505
0.5934922 -0.30431354 0.6285299 0.3517756 1.1706417 1.1089168 1.1712191 1.1612148
-1.3242776 -1.1186126 0.5564375 -0.5178456 0.5769154 0.39461705 0.7406453 1.0021477
-0.30197963 0.36917284 -0.76361 -0.573347 -0.60353416 0.4675619 -0.46195126 -0.3928208
0.48280874 -1.5063407 -0.9369493 0.81725395 0.8964883 -1.1920321 -0.5946915 -0.010375873
-0.87761223 -0.9132307 -0.9110403 0.19027907 0.3184545 1.4212551 -1.4879965 1.1160246
0.2969665 0.13835648 1.3053808 -0.97052985 0.54724723 0.010640548 0.8175885 -0.50859
0.90883076 -0.29851902 0.8139403 -0.120652944 -1.321321 0.21611701 -0.87679094 1.2322704
-1.0577366 -0.82400423 -0.812115 -0.7387007 1.569375 -0.93552005 0.92605764 -0.10745903
-1.3760576 -0.29090822 0.4451967 -0.5380812 -0.766393 0.10159197 -0.4086096 -0.48370582
1.2912372 0.43751085 -0.50826305 -0.8942791 -1.0504646 -1.1959573 0.9067691 -0.97770137
0.0013512665 0.80426264 0.98287773 0.24933238 1.4140867 -0.96067667 0.911548 1.105034

conv1.bias f4 [8]
00000000: bf97 c0bf 254d 43bf c26d c4bf cc16 ffbd
00000010: 0bdd 4d3f b3bb 38bf 4db5 8cbf 8a95 043f
-1.5046309 -0.7628959 -1.5345995 -0.1245552 0.8041541 -0.72161406 -1.0992829 0.5179068

conv2.weight f4 [16, 8, 5, 5]
00000000: 625e 32be f2d4 4b3e e8db 8c3e f9ae 863e
00000010: d89c 84be 33f1 39be bb49 94bd 249f 43be
00000020: 086a e0be 3f0d d23e a7e6 cb3c 96fe 0bbf
00000030: a1cc c83d 6d47 97be effe 9bbe 8a8f 243e
00000040: cb5f a13d e3d3 29be 28ab 61be dcc0 443e
00000050: 7d81 f3bd d691 aebe 4587 b03e ca1f 9c3e
00000060: 054c 0f3f eab3 59bc 55ca dabd 2718 1fbe
00000070: c041 e0be 593b ebbe 1496 923d 3965 cfbe
00000080: 39c7 8fbe 09f5 85be 1f3f 7a3e 0923 04be
00000090: a720 9d3d 7a68 2f3e 7382 81be 71e4 473e
000000a0: b49e fb3e 5f41 4abe cf7c 6a3e b72b 033f
000000b0: 7548 01bc 2e42 34bc adf7 c83e 3697 aebd
000000c0: f2e2 0c3f 20e4 fa3d 1034 6fbe 8799 11bf
000000d0: 1d82 56bc 74fd f03e da4e 8abd 35e4 d5bc
000000e0: cfbb e5be 1899 e23e f8b5 55be d8b5 bcbd
000000f0: 3155 0a3e fbc1 b43e 70e8 e4be 1943 6d3e
00000100: 381e 0bbe 36ea 1ebe 3b4e 883d a559 a8be
00000110: 4dcb 48bd 0c46 88be 7762 0e3e 4046 fbbd
00000120: 6aa7 94bc 3a3e efbe 3c5b 983d aa40 7ebe
00000130: 757e 8f3e 2705 093f 8e53 bb3e 48ad a53c
00000140: ae43 88bd 9338 3cbe 114f 633d eced 89be
00000150: a6ff a2bc c55c ffbe cf02 2ebe c9d4 27be
00000160: 640c 99be b637 bc3e b447 9c3e ac86 293e
00000170: a545 e83e f9c6 c03c dede 50be 7f84 0c3a
00000180: 5c5c 07be c8fb a33e eabb a3be ba69 09be
00000190: 02a3 c8be 4452 9bbe 2162 9e3d abb2 a73e
000001a0: b0ed a6be a9c3 b83d 4d3d 0b3f 9fee babe
000001b0: c555 a43e 3121 33be 8e37 cf3e aacf 94bb
000001c0: 5b6e b8be af1f b9be 5603 a33e 9f63 a33d
000001d0: 2f9c e9be 2172 f03d 0004 f93e 15f2 cc3d
000001e0: 4d74 86be 41d5 123e 6a09 f1be b5af 2fbc
000001f0: ee96 333e 7aad 703e 0e2b 0dbf ce0f 0dbf
00000200: a484 e63e f6eb aebe df4c 7bbe 0bd9 f03d
00000210: bfbc 433d 6f7a e63d 001a 9a3d 6a30 e63b
00000220: b5cb 30be 7281 c2be 832e ccbe e590 b43e
00000230: 5d37 06bf f43e f4be f8aa a03e 5776 943e
00000240: c81f cb3e 7cce 783e dd94 aabe 0f25 fb3e
00000250: 92d1 773e ca24 dd3e dfc2 b63e ad4d 72be
00000260: 1db1 1f3e 0741 5ebd d6d7 773d 60da cebe
00000270: 084f 953e eaeb 0d3f 606f 09bf 28d6 723d
00000280: 29ef b7be a829 c83d d9e2 103f 3241 5fbb
00000290: 914d d7be 2127 90be 84bf 96be 2141 ebbe
000002a0: 9d15 983c ea19 a53d 8baf 09bf bd1b 99be
000002b0: 7923 b13e cca7 b13d ba0d 94be 9022 903e
000002c0: da1a d9be c657 fabe 1bcd 2e3d d86a d23e
000002d0: 1491 a8be 01a7 7e3d b055 053f 216a fe3e
000002e0: ca2f b7be 887e 40bd 4a2a 9fbe 83ae d13e
000002f0: 4f01 063f 01ee 89be 8f12 9a3e 7457 e1be
00000300: 25d2 873e 8ca1 05bf 760e 04bf 1337 693e
00000310: af87 033f f135 943e 1e44 d93e 82d3 073e
00000320: 4a63 863e 42b5 babe 4d58 80be 00ac e6be
00000330: 63b1 d83e 3bbc ff3e 2bcd 0c3f 3250 153e
00000340: 1e5f 023f 8657 fabe 497b fabe cbdd d0be
00000350: 39b7 ab3e 7a19 9dbe 2f80 813d cf6e c8be
00000360: f8b3 92bd 3dda b33d e548 c8be 5e95 d43d
00000370: 3f99 e9be b89d 69be 534f b2be fcf6 183f
00000380: 56b7 06bd 3398 dfbe 7f19 f0be 193f b53e
00000390: b232 fc3e 0797 9dbd 8754 0d3f 2b13 8d3d
000003a0: 9d43 86be efbd fcbd d403 39bc 8cbb 39bd
000003b0: d35b e33e d5c4 41be 53f5 b1be baa8 be3e
000003c0: 6991 64be d832 063f e173 78be 77d0 213e
000003d0: 2da2 08bd 2091 003f cfc9 e93e 066f f7bc
000003e0: 332f 013f 7675 143e fde2 abbe 678a fe3e
000003f0: 8d1c ffbe 3c37 90be bcfc b83e 80ce 8abe
-0.17418817 0.19905451 0.27511525 0.2630537 -0.25900912 -0.18158416 -0.072406255 -0.19103676
-0.43830895 0.4102573 0.024890257 -0.5468534 0.09804655 -0.2954668 -0.30467936 0.16070381
0.07879599 -0.16584735 -0.22037947 0.19214195 -0.11889932 -0.3409564 0.34478202 0.30493003
0.5597537 -0.013287524 -0.10683123 -0.15536557 -0.43800163 -0.45943716 0.071575314 -0.40506914
-0.28081682 -0.2616351 0.24438141 -0.1290399 0.076722436 0.17129698 -0.25294837 0.19520737
0.49144518 -0.197515 0.22899173 0.5123858 -0.00789081 -0.011002107 0.39251462 -0.08524935
0.5503379 0.12250543 -0.23359704 -0.5687489 -0.013092545 0.4706837 -0.06753321 -0.026109794
-0.4486985 0.44257426 -0.20870197 -0.092143714 0.1350906 0.35304245 -0.44708586 0.23170127
-0.13585746 -0.15519032 0.06655546 -0.32880893 -0.049022008 -0.26615942 0.13904749 -0.122692585
-0.018146235 -0.46727163 0.074392766 -0.24829355 0.28026167 0.53523487 0.36587185 0.020224229
-0.06653534 -0.18380956 0.055495325 -0.26939332 -0.019897293 -0.49875465 -0.16993259 -0.16389765
-0.29892266 0.36761254 0.30523455 0.1655528 0.45365635 0.023532378 -0.20397517 0.00053603196
-0.13218826 0.3202803 -0.31979305 -0.13419238 -0.39186865 -0.303362 0.0773356 0.327535
-0.32603216 0.09021694 0.5439041 -0.36510178 0.32096687 -0.1749313 0.40472072 -0.004541357
-0.36021695 -0.36156985 0.31838483 0.079779856 -0.4562697 0.11740518 0.48635864 0.10007111
-0.26260605 0.14339162 -0.47077495 -0.010723044 0.17538044 0.23503676 -0.5514382 -0.5510224
0.45023072 -0.341644 -0.24541043 0.11760148 0.047787424 0.11253821 0.0752449 0.0070248144
-0.17265208 -0.37989384 -0.39879236 0.35266796 -0.5242823 -0.4770428 0.3138044 0.28996536
0.39672685 0.24297518 -0.333167 0.4905171 0.24201038 0.4319213 0.3569555 -0.23662443
0.15594907 -0.054261234 0.06050857 -0.40400982 0.2916186 0.554381 -0.5368557 0.059286267
-0.35924652 0.0977357 0.5659614 -0.003406596 -0.42051366 -0.28154853 -0.2944299 -0.45948127
0.018564994 0.08061583 -0.5378348 -0.29903975 0.34597376 0.08674583 -0.28916723 0.2815137
-0.424033 -0.4889509 0.042676073 0.4109714 -0.32923186 0.062170986 0.52083874 0.49690345
-0.35778648 -0.04699567 -0.31086951 0.40953454 0.52345747 -0.26939395 0.30092284 -0.44012034
0.26527515 -0.52199626 -0.51584566 0.22774915 0.5137891 0.28947404 0.42434782 0.13264278
0.26247627 -0.36466414 -0.25067368 -0.450531 0.42322835 0.49948296 0.5500056 0.14581373
0.5092639 -0.488949 -0.48922184 -0.40794215 0.33538225 -0.306835 0.06323277 -0.3914704
-0.071632326 0.0878186 -0.39118114 0.10380052 -0.4562473 -0.22814071 -0.34826145 0.5975187
-0.032889687 -0.43670806 -0.46894452 0.35399702 0.49257427 -0.07694822 0.55207103 0.068884216
-0.2622346 -0.123409145 -0.011292417 -0.045344874 0.44405994 -0.18922742 -0.3475748 0.37238103
-0.22321095 0.5242133 -0.24262954 0.1580218 -0.033357788 0.50221443 0.4566178 -0.030204307
0.50462645 0.14497933 -0.33571616 0.49714968 -0.4982647 -0.2816714 0.3613032 -0.27110672

conv2.bias f4 [16]
00000000: d492 b83e d54e 10bf cb2b 4f3e f083 dabe
00000010: 9014 923e 4cd6 163f 8e5f adbe f4b0 9a3e
00000020: 9738 0abf 2b43 0f3e fbdf 063f 3181 aebe
00000030: 032c 72be 17d9 a83d 818a 403e 89d6 d3be
0.3604952 -0.5637029 0.2023155 -0.42678785 0.28531313 0.5892074 -0.33861965 0.3021313
-0.539926 0.13990466 0.5268552 -0.3408294 -0.23649602 0.082445316 0.18802835 -0.41374615

fc1.weight f4 [10, 256]
00000000: 553d f3bd d8e5 413e 559e 793e c5eb 083e
00000010: a283 8ebe 5df5 abbd 90c0 813d acec c7be
00000020: 3ef8 ee3e 4660 e6be cfd8 193e 5c5d bfbe
00000030: cee4 bd3e cb33 f5bd 8a00 a3be 96d5 943e
00000040: 8c01 e2be 4c17 7a3e f473 c5bd 2468 cb3e
00000050: b072 a73e b87f 483e 0d38 f93e e432 7ebe
00000060: c2dc 773c 7595 573e a2ab f03e 1773 7f3e
00000070: 2338 8c3e f8aa ec3d 534c 1bbe edd9 643e
00000080: 12ba 86be 392e 233e 2cc9 5ebe 5a2c 763e
00000090: 651a a43e cbc1 ba3e 3ae5 b3be d173 aabe
000000a0: da42 cc3e dbbf 27be 4b8a d53e 2a63 56be
000000b0: cb77 9abd d063 b8be 369b 083e d821 78be
000000c0: 8163 d1be b9db f53c d031 843e 8cf8 893c
000000d0: 0675 cb3e 0eff c13e 6127 2b3e 434f ebbe
000000e0: 7984 51be 590d 983e 32a9 dcbe 760f aa3e
000000f0: 59cd 4ebe 0dd8 c43e 37f8 a7be e55b f2bd
00000100: 056d 8c3e 5375 c03c f2b2 bebe 93cd efbe
00000110: 95ff 953c 8c6a b43d d1e9 713e 3ed0 6b3e
00000120: 8061 d93e 0d81 e93e 26e9 84be 48c9 66be
00000130: d54a 6f3e b3fb 76be b157 2e3c 3239 c4be
00000140: 4fad f9be 3cb8 483c 60b3 423c 6224 ed3e
00000150: 3ebb 2dbe 0d1c a53e 1bb2 c1be 3729 8e3e
00000160: 9928 f2be 8bba 5b3e ddc0 bb3e cc3d d9be
00000170: 336f 273d 765e 653e dfca 83be 4877 f9be
00000180: 690d d8be 08e1 b9be a5c2 37be 35bd c03e
00000190: 5efc 66be 5a9c 80bb e7f6 55bc 812c bdbe
000001a0: b904 3fbe c4b8 473e 5e50 97be 0153 fb3c
000001b0: 9a78 c13e da81 98be 945c 923e 9fb8 09bf
000001c0: 9bd3 fb3d 0039 063c eb5f e23e 9c35 72be
000001d0: 987d d03c c8d7 b7be 05b1 40be 7424 cfbe
000001e0: 9cca a93e fe7d 7abd b58e 4a3e 014b c53e
000001f0: a69a 963e 8fa9 2a3d 5ad7 383d f343 a4be
00000200: 24fc ea3e bc84 1f3d b077 c7be dd9c 793e
00000210: 8abd 6b3c 26e1 d6be 7c16 dabe 4129 a73e
00000220: b3df b0be 9a94 d3be 18a6 483e cf41 373e
00000230: c1a0 c33e 5fa3 be3d a37e acbe 07f7 1abe
00000240: 68a2 a6be f5d5 563d 0547 2d3e d001 993e
00000250: b0de 70bd af35 96be 4a09 df3e 8aaf 42be
00000260: da96 c7be cf1a 26be c91d 38be 2023 e7be
00000270: ba45 cf3e a54e f73e 7aab 91be 06aa 34be
00000280: d59f db3e 943d 2c3e 3959 d53e f7c1 2f3d
00000290: 00e4 41be 9056 5ebe d9e8 af3e d782 e43e
000002a0: c588 9a3e d3e9 40bd 3a9c 183e abde 47bd
000002b0: 5680 893d 650d b5be fff0 d93e ebc2 ddbe
000002c0: 5b6e fb3e e72d 223e 2fbb 923e 424e c8be
000002d0: 8416 92be 9de4 99be 9bd5 d23c 5ce5 2a3c
000002e0: f6aa 81be 119d adbc 3548 fa3e 7725 af3d
000002f0: fa8a 1f3e 4f71 093e 5c98 1e3e f675 27bd
00000300: e64a 4a3e c33c fd3c ce12 0c3e c941 e7be
00000310: 45b8 c43c 6240 a7be 1905 8b3e 63b7 7bbe
00000320: 068d 5f3e c860 813e bc48 f93e 8991 ed3e
00000330: d408 05bd c436 4ebe 8a39 a9be 0d08 103e
00000340: 6283 153d d5e7 1a3e faf1 37be fec0 333e
00000350: 755c d13e 2e0f b73e 94a0 9abe fa04 f7be
00000360: ee1f bc3e 8ec7 973d 4f18 b9bd df76 cb3d
00000370: 0df2 a73e 6424 af3e 6b57 f0be 5d35 663d
00000380: 2fe4 bf3e 9df6 adbe b941 903e 83ef d23e
00000390: 8435 83be 7377 b0be 0ed8 a1bd 8993 ff3e
000003a0: e70c a33e ae5f d5be e66a f6be 2685 0b3e
000003b0: 1115 8c3e 15e8 8ebb 975d c4be 9c69 b1be
000003c0: 4a59 a43e cdc5 883e 0262 50bd 2047 c0be
000003d0: b1f8 9cbe 3653 763e baec cabd 0e4d 95bd
000003e0: dd48 333d 1e18 cabd 3a00 993e 60b1 e5be
000003f0: 664e 8f3e dbac ca3d a3d7 c43e fa14 3f3e
-0.118769325 0.18935335 0.24376805 0.13371189 -0.27834803 -0.08396409 0.063355565 -0.39047754
0.4667377 -0.44995326 0.15024112 -0.37375915 0.37088627 -0.11972769 -0.3183635 0.29069203
-0.44141805 0.2442295 -0.09641257 0.3972789 0.32704687 0.19579971 0.48675576 -0.248241
0.015128316 0.21053107 0.47005945 0.24946247 0.2738658 0.11556047 -0.15165834 0.22348757
-0.26313835 0.15935601 -0.21756428 0.24040356 0.32051387 0.36475977 -0.35135823 -0.33291486
0.39894754 -0.16381781 0.41707072 -0.20936266 -0.0754238 -0.3601365 0.13340458 -0.2423166
-0.40896228 0.030011998 0.25819254 0.01684215 0.3973772 0.37889904 0.1671424 -0.4595891
-0.2046069 0.29697683 -0.43097836 0.3321492 -0.20195521 0.38446084 -0.3280656 -0.11833934
0.27426925 0.023493445 -0.372459 -0.46836528 0.018310348 0.08809385 0.2362435 0.23028657
0.424572 0.4560627 -0.25959128 -0.2253772 0.2336839 -0.24119453 0.010641024 -0.38324887
-0.48765036 0.012250956 0.011883587 0.4631682 -0.16965958 0.32247964 -0.37831196 0.2776582
-0.472966 0.21457879 0.3667058 -0.4242996 0.040877532 0.22399315 -0.25740716 -0.48723817
-0.4219773 -0.36304498 -0.17945345 0.37644354 -0.22557208 -0.0039248886 -0.013059354 -0.36948016
-0.18654145 0.19504076 -0.29553503 0.030679228 0.37787324 -0.2978657 0.28586257 -0.53797334
0.1229622 0.008192301 0.44213805 -0.23653263 0.025450513 -0.35906816 -0.18817528 -0.404575
0.3316239 -0.06115531 0.19781001 0.38533786 0.29414862 0.04166561 0.04512725 -0.3208309
0.45895493 0.038944945 -0.38958502 0.24376245 0.014388451 -0.4196865 -0.4259528 0.32648662
-0.3454567 -0.41324311 0.1959461 0.17896198 0.38208583 0.09308504 -0.33690366 -0.15133296
-0.3254578 0.05245014 0.16921623 0.29884195 -0.05880612 -0.29337832 0.43561774 -0.19012275
-0.38982278 -0.16221164 -0.17980112 -0.45143986 0.40482885 0.4830219 -0.2845114 -0.17642984
0.4289538 0.16820365 0.41669634 0.04290959 -0.18934631 -0.21712708 0.34357336 0.44631073
0.30182472 -0.047097992 0.14903346 -0.048796337 0.06713931 -0.35361782 0.42566678 -0.43312773
0.49107632 0.15837823 0.28658435 -0.39122206 -0.28532803 -0.3005723 0.02573662 0.01043066
-0.25325745 -0.02119306 0.48883215 0.08552068 0.15580359 0.1342213 0.15487808 -0.04088398
0.19755134 0.030912763 0.13679048 -0.45167378 0.024013648 -0.32666308 0.27152327 -0.24581675
0.2183114 0.2526915 0.48688304 0.46400097 -0.032479122 -0.20138079 -0.3305171 0.14065571
0.03650225 0.151275 -0.179634 0.1755409 0.40890852 0.3575377 -0.30200636 -0.48245984
0.3674311 0.07411109 -0.090378396 0.09934782 0.32801858 0.3420745 -0.46941695 0.056203235
0.37478778 -0.33977214 0.28175142 0.41198358 -0.25626767 -0.34466133 -0.07902537 0.49917248
0.3184578 -0.4167456 -0.48128432 0.13625011 0.27359822 -0.0043611624 -0.38352653 -0.34650886
0.32099372 0.2671341 -0.050874718 -0.37554264 -0.30658486 0.2405518 -0.09908433 -0.07290088
0.04377066 -0.09867881 0.29882985 -0.4486189 0.279895 0.09896251 0.38445768 0.18660346

fc1.bias f4 [10]
00000000: 3ee7 99bc 480a 163d d828 9cbd 948b cfbe
00000010: be12 863e 3269 b23e 198c 98be 6cc9 26bd
00000020: d7f8 afbe 5eba febe
-0.018787023 0.0366309 -0.07624978 -0.40536177 0.26186174 0.34845883 -0.29794386 -0.040719435
-0.34369537 -0.49751562
