sandbox/snapshots/grokking/model-8448.pt (torch, 26159 bytes, 6 tensors)

conv1.weight f4 [8, 1, 5, 5]
00000000: 6ccf bfbd 02a8 df3f c0e2 15be 3437 803f
00000010: 4339 233f 70da 52bf a984 34bd f863 98bf
00000020: 9a17 a6bf 3dd0 bebe 6d2b 9dbf becb 5e3f
00000030: a054 7bbf c89a 813f 927a 54bf a17a d23e
00000040: a4e4 60bf 03dd 143f bbaa 4d3f f3ee c13e
00000050: 6a3d 2dbe 33f8 efbe 47c0 623c 39d8 0fbf
00000060: f41e cebf e326 c1be 076b aabf 50cc 68be
00000070: 5194 8b3f 19d7 ba3f 7260 68be 85af 873e
00000080: f74f 6fbf 3809 8c3f fba4 f13d be30 b3bd
00000090: d6a3 993e 608d e3be d25b bebf d658 94bf
000000a0: 4acf c0bf 57ed 38bf 95ce 99bf 90ea 7ebe
000000b0: 0fac a3be 73e9 17bf 3c66 acbf ad7e cabd
000000c0: 4b11 4f3e dd5d 8a3f 3c32 24bf 73a9 363f
000000d0: 455b 0bbf cb4c 143f 24ec 5f3e 527d 03bf
000000e0: 47e0 903d ac91 b03f b322 b03f d591 873e
000000f0: bcac 383e 6c60 683f 76a2 a0bd 145c 4abf
00000100: 1fe2 96bf f50f e1be 020a 9dbf 8cdc f5bd
00000110: babb cd3e 950c bebf 334b c43f 0e94 38bf
00000120: e9cb af3f 6968 5ebf 2aef b4be 665b 8cbf
00000130: 6bce bdbf ef4b a8bf d512 883d e358 ec3e
00000140: 624f a0be 8286 cfbe db39 35be 1689 66bf
00000150: 20a5 94bf e588 983e ebae 2c3f 6c57 8b3f
00000160: 77ed 803f 65dc 0c3e 767f 49bf 30eb 93bf
00000170: 8592 983f 4f9c a0bf 8bca b03f 7ccc 03bf
00000180: 7d90 973f 6b19 fabe 9c82 75bf 40fb 973f
00000190: 2830 ad3f 8748 213f 4870 973f d2f2 ae3d
000001a0: d8f7 8fbe 8246 f5be ca64 943f 1f5c 70bf
000001b0: e241 a4be 8176 9cbf 9cbf fbbe bbc8 97bf
000001c0: b6ae fc3e bcff cfbe a849 093f e2ce cb3e
000001d0: 42cc 953f b7a7 713f 9b43 723f 9dfa 7a3f
000001e0: 9d83 92bf 5487 82bf 5e13 e93e a914 27bf
000001f0: 8bed f03e c0c8 f83e 6027 583f e87d 903f
00000200: 62a1 21be d8fb d83e cb9b 3dbf fbb2 febe
00000210: d56c f9be 16c8 033f 6266 f7be 238e 08bf
00000220: 1f66 fe3e e370 acbf ee72 74bf 3822 403f
00000230: b090 263f 5d6b 94bf 21f0 fbbe 3af8 e4bc
00000240: 0d90 62bf e7a2 7dbf 6c56 3dbf 97b1 873e
00000250: a212 8e3e c293 b23f 77ed c5bf 6d10 7f3f
00000260: cc8d 583e 2c6c 573d fab2 943f 09bf 8abf
00000270: 893c ef3e a3df 01bc dbf2 493f ae81 08bf
00000280: b029 4b3f cb5d a1be 87e7 533f 0596 3abd
00000290: 86a5 9abf 3749 5d3e 567a 4fbf 76f8 9f3f
000002a0: fcbf 7dbf a266 3ebf e85d 38bf 898d 29bf
000002b0: 9eea c43f ce3c 6abf 700e 783f 7c37 1ebe
000002c0: 2893 b5bf 1bf5 9ebe 5b02 df3e bac0 04bf
000002d0: 81cc 55bf 5d59 8a3d 6b62 b7be bb08 ddbe
000002e0: a233 a23f 7290 853e ba9c 0dbf 364e 55bf
000002f0: 5781 81bf 456f 9bbf 12bc 323f 67f6 8abf
00000300: 713a dcbc 14a4 343f 59b2 603f 7013 933d
00000310: e1d7 a23f 12cf 81bf 3e5b 473f d608 7f3f
-0.093657345 1.7473147 -0.1463728 1.0016847 0.6375925 -0.8236456 -0.044071827 -1.1905508
-1.2975953 -0.37268248 -1.2278877 0.87029636 -0.98176 1.012536 -0.8299953 0.41109183
-0.8784888 0.5814974 0.8033864 0.37877616 -0.16917959 -0.46869048 0.013839788 -0.56189305
-1.6103196 -0.3772498 -1.3313912 -0.22734189 1.0904638 1.4596893 -0.22693041 0.26501098
-0.9348139 1.0940313 0.11799046 -0.08749531 0.3000781 -0.44443798 -1.4871771 -1.158961
-1.506326 -0.7223715 -1.2016169 -0.24894166 -0.31967208 -0.5934059 -1.34687 -0.09887443
0.2022144 1.0809895 -0.6413915 0.7135231 -0.5443614 0.57929677 0.21867424 -0.513631
0.070740275 1.3794456 1.3760589 0.2647845 0.18034643 0.9077213 -0.07843487 -0.7904675
-1.1787757 -0.43957487 -1.2268679 -0.120049566 0.40182287 -1.484759 1.5335449 -0.72100914
1.3734103 -0.8687807 -0.35338718 -1.0965393 -1.4828619 -1.3148173 0.06644217 0.46161565
-0.31310564 -0.4053231 -0.17697851 -0.90052927 -1.1612892 0.29791942 0.67454404 1.0886054
1.0072469 0.13755949 -0.78710115 -1.1556149 1.1919714 -1.2547702 1.3811811 -0.51483893
1.1840969 -0.48847517 -0.9590242 1.187355 1.3530321 0.6300129 1.183114 0.08542408
-0.28118777 -0.47905356 1.1593258 -0.93890566 -0.32081515 -1.2223665 -0.49169624 -1.1858133
0.49352044 -0.40624797 0.53628016 0.39806277 1.170296 0.9439654 0.9463441 0.98038656
-1.1446415 -1.0197549 0.45522588 -0.652659 0.4705623 0.4859066 0.8443508 1.1288424
-0.15784219 0.42379642 -0.74065846 -0.49745926 -0.48715845 0.5147718 -0.483203 -0.53341883
0.49687287 -1.347195 -0.9548787 0.75052214 0.65064526 -1.1595265 -0.4920664 -0.027950395
-0.88501054 -0.99076694 -0.73959994 0.26502678 0.2774859 1.3951342 -1.5463094 0.9963444
0.21147841 0.052593395 1.1617119 -1.0839549 0.46725872 -0.007926854 0.78886193 -0.53322875
0.79360485 -0.3151687 0.8277516 -0.045553226 -1.2081764 0.2160996 -0.81046045 1.2497699
-0.9912107 -0.74375355 -0.7201829 -0.6623159 1.53841 -0.9149903 0.9689703 -0.15450853
-1.4185534 -0.31046376 0.43556485 -0.5185658 -0.83515173 0.06755326 -0.35817274 -0.43170723
1.2672007 0.26086766 -0.5531727 -0.83322465 -1.0117596 -1.2143332 0.6981822 -1.0856446
-0.026883336 0.70562863 0.87772137 0.07181442 1.2722131 -1.0141318 0.778736 0.9962286

conv1.bias f4 [8]
00000000: af4c 94bf 77b2 49bf 523e d1bf 9be2 89be
00000010: 5702 4e3f b754 28bf 8f79 96bf ba4b dd3e
-1.1585902 -0.7878794 -1.6347144 -0.269307 0.8047232 -0.65754265 -1.1755847 0.43221837

conv2.weight f4 [16, 8, 5, 5]
00000000: 14ac 1cbe 5bfb 213e ddaa b23e d0da cd3e
00000010: e121 5fbe 951f 83be 8312 10be c9a9 e0bc
00000020: bf85 5bbe fdfc 0f3f e09e e9bc 03c7 15bf
00000030: 8a3b e33d 8cfa 8ebe f0d3 a8be d01d 533d
00000040: 0a15 f3bc 5b90 29be 45dc 7fbe dda9 db3c
00000050: 9f2b 0a3e a361 54be 170e b93e 984f 7c3e
00000060: 2be7 df3e 53d9 543c 771c 743c 13b6 193d
00000070: 4d14 debe a89b 04bf 4050 2e3e 2803 d0be
00000080: 7e3a c6be cf92 a3be f019 593e 5952 3fbe
00000090: 58b7 8ebc 2b9c d5bb b921 cbbe 70f3 4e3e
000000a0: b5c2 cf3e e2a0 7fbe 34a4 1c3e aac9 ac3e
000000b0: 1e7f 71bd ef58 6f3c 416f b43e f848 28be
000000c0: f45c cd3e c458 3a3d b5f6 08be f01a c9be
000000d0: f708 fc3d 6ab5 003f 9d05 52bd ba4e db3d
000000e0: 6693 9cbe a57e f13e d616 8bbe 6efc 03be
000000f0: 4c75 363e 68e2 d83e 7f7f ccbe b8c7 1d3e
00000100: ad9e 24be 1d11 8bbd a76e d63d 3e09 9fbe
00000110: 2e9e adbd 880d adbe 4b92 1b3e d16a cfbd
00000120: e197 9ebd e9d9 0bbf 4833 87bd b067 3bbe
00000130: e0e4 893e dded be3e 459f 803e 4dff 40bc
00000140: ee90 c5bd 5019 37be e861 9f3d 9520 7abe
00000150: 0dcb d6bb e165 d7be 337d fcbd 067a ffbd
00000160: 98e3 96be 857b a23e c3fe 9b3e 7bf5 183e
00000170: f572 f33e 4f86 c13c 618f 39be e99e 93bd
00000180: 9827 25be 105a ad3e fc3b 97be 4a89 00be
00000190: d898 ddbe 0784 94be 5af7 3a3d 6f7d 853e
000001a0: a0c3 bbbe e40d 5d3d c52f 133f 3f9f b6be
000001b0: e997 6c3e b44b 8abe 7af4 c83e 1805 bcbc
000001c0: c559 c3be 77a0 e1be 68a6 313e bd22 af3d
000001d0: a3af f1be e62d c93d 23dc ed3e b7ad 203d
000001e0: 0e00 7cbe 2140 1a3e 8a84 edbe 12b4 c23c
000001f0: 6411 5e3e 1c07 ae3e 8bb5 fabe 66da f2be
00000200: 029d fa3e bccf 87be cbdb 6cbd 6608 843e
00000210: df03 1dbd bc6d 773c a656 223e 9dda 62bd
00000220: 0b84 71be 5a95 debe a608 06bf 8060 af3e
00000230: 3460 1ebf bca1 0fbf 63b8 9a3e 37da a53e
00000240: 0633 d53e 7e30 c93e 506a 71be 44cc 0b3f
00000250: 6d77 5b3e b2aa b63e 94c7 e73e 2863 ebbc
00000260: b4dc 2b3e 114c f6bd e718 113d 7df4 70be
00000270: edfc aa3e d2dd f53e 955f 1ebf 5633 0cbc
00000280: 0aa2 84be 75fc 203e 24bd 073f 6ed8 d2bd
00000290: 7299 e3be 888c 32be 90af 6dbe 204e d2be
000002a0: 5a60 f03c ec6d 063d 9cf2 febe f20a 95be
000002b0: 97b2 803e bccb ba3d 2458 b9be 34a6 463e
000002c0: e2aa 17bf 2169 1abf 99bb 673b 957f bb3e
000002d0: 3a46 a7be 959b c43c 293b f83e 3cdd fd3e
000002e0: 4db4 a3be 3819 b3bc 008e a6be 5032 c23e
000002f0: c0aa ee3e 1ff7 8abe 972d 5e3e 823f f5be
00000300: 475a 8e3e ade7 03bf 9f98 e6be bd5f 1c3e
00000310: db31 e93e 968c 7c3e cbb7 a93e e836 403d
00000320: 6041 923e 8fd8 00bf 3905 ecbe 5b55 27bf
00000330: b1f1 1f3e e12f ea3e 708a 253f 417f 003e
00000340: bddd ea3e c471 27bf efbf c0be 3df2 9cbe
00000350: b2ef b13e b1ad b5be ec6e aabd 1795 efbe
00000360: 9c3b 04be db9a cc3d 8f19 d8be 29f7 3c3d
00000370: 2248 f5be 5678 a4be 7b9d 0abf fdc1 fc3e
00000380: 2eb2 2abc ca90 99be bcf8 b1be 81c7 c23e
00000390: dee4 dc3e 9ee1 49bd d149 143f b5f6 b83d
000003a0: 7271 89be 0d63 5dbe 601d 37bd 88ed 21be
000003b0: d28b 8d3e 3b86 6cbe 020e b8be 1770 a43e
000003c0: e187 d3be ad07 c03e a9f1 d7bd 07c3 8a3e
000003d0: 3eca bebc 96a1 a83e afc5 9e3e 2108 003d
000003e0: c1e9 253f bd95 573e a8ff b0be bfa2 0b3f
000003f0: 74e3 dabe 3c51 8cbe c1f6 a83e bb62 76be
-0.15300018 0.15818541 0.34895983 0.40206003 -0.21790268 -0.25610033 -0.14069562 -0.02742471
-0.21437739 0.56245404 -0.02851814 -0.5850679 0.110953405 -0.27925527 -0.32974195 0.051542103
-0.029673118 -0.16558973 -0.2498637 0.026814396 0.13493203 -0.2074037 0.36143562 0.24639738
0.43731055 0.012991267 0.014899365 0.037527155 -0.43374863 -0.5180001 0.170228 -0.40627408
-0.387165 -0.31947944 0.212013 -0.18683757 -0.01742141 -0.006518861 -0.39674166 0.20210052
0.40578237 -0.24963716 0.15297014 0.33747607 -0.05895912 0.014608606 0.3524113 -0.16434085
0.4010998 0.04549481 -0.13375361 -0.39278364 0.123063974 0.50276816 -0.051274884 0.10708375
-0.30581206 0.47166935 -0.2716586 -0.12889263 0.17818183 0.42360234 -0.39941022 0.15408218
-0.16076155 -0.067903735 0.10470324 -0.3106174 -0.08477436 -0.33799386 0.15192525 -0.101277955
-0.07743812 -0.5462938 -0.06601578 -0.18301272 0.2693243 0.3729085 0.25121513 -0.011779618
-0.09646784 -0.1788075 0.07782346 -0.24426492 -0.0065549673 -0.42069915 -0.12328567 -0.12474446
-0.29470515 0.31734863 0.30467805 0.14937393 0.47548643 0.023623614 -0.18121101 -0.07208044
-0.16128385 0.33857775 -0.29537952 -0.12552372 -0.43280673 -0.2900698 0.04564605 0.2607226
-0.36672688 0.053968325 0.57494766 -0.3566837 0.23104824 -0.27010882 0.3924902 -0.022951648
-0.38154426 -0.44067737 0.17348635 0.08551548 -0.47204313 0.098232076 0.46457013 0.039228167
-0.24609396 0.15063526 -0.46390182 0.023767505 0.21686321 0.339898 -0.4896663 -0.4743225
0.48947912 -0.26525676 -0.0578268 0.25787657 -0.03833377 0.015101846 0.15853366 -0.055384267
-0.23585527 -0.4347332 -0.52356946 0.3425331 -0.61865544 -0.5610616 0.302188 0.32393047
0.4164049 0.3929481 -0.23575711 0.5460856 0.21432276 0.35677105 0.45269454 -0.028733805
0.1678341 -0.12026227 0.03542414 -0.23530765 0.33396092 0.48020798 -0.61864597 -0.008557161
-0.25904876 0.15721305 0.5302298 -0.10295187 -0.44453007 -0.17436421 -0.23211503 -0.4107523
0.029342819 0.032819673 -0.4979447 -0.29109913 0.25136253 0.091208905 -0.36200058 0.19399339
-0.5924512 -0.60316664 0.003535962 0.36620775 -0.32670766 0.023999969 0.48482636 0.4958285
-0.31973496 -0.021862611 -0.32530212 0.3792901 0.46614647 -0.27141663 0.21697079 -0.47900015
0.2780325 -0.51525384 -0.45038316 0.15270896 0.4554585 0.24663004 0.33148035 0.046927363
0.28565502 -0.5033044 -0.46097735 -0.6536462 0.15619542 0.45739654 0.64664364 0.12548544
0.45872298 -0.6540797 -0.37646434 -0.30653563 0.34753186 -0.3548408 -0.08321938 -0.46793434
-0.12913364 0.09990474 -0.42207 0.046134148 -0.47906595 -0.3212306 -0.54146546 0.4936675
-0.010418458 -0.29993278 -0.34760082 0.38042834 0.43143362 -0.04928743 0.57925135 0.09031431
-0.26844364 -0.21619816 -0.04470575 -0.15813267 0.27645737 -0.2309808 -0.35948187 0.32116768
-0.41314605 0.37505856 -0.1054414 0.2710192 -0.023289796 0.3293578 0.31010196 0.031257752
0.64809805 0.21053214 -0.3457005 0.54545206 -0.42751658 -0.27405727 0.33000758 -0.240611

conv2.bias f4 [16]
00000000: cc5b 8f3e d59c 16bf c7af 253e 5f02 f6be
00000010: a43a 943e a9c4 1c3f 3da2 71be 8062 9e3e
00000020: 5d0d 15bf 9460 243e 6494 003f 6970 a7be
00000030: 6db0 70be dbce a03d 915e 243e ecf5 d2be
0.27999723 -0.58833057 0.16180335 -0.48048684 0.2895099 0.6123758 -0.23597045 0.30934525
-0.58223516 0.16052467 0.50226426 -0.3270295 -0.23504801 0.078519545 0.16051699 -0.41203249

fc1.weight f4 [10, 256]
00000000: d02d 0bbe b49f 2b3e efbe 493e d1e3 9c3d
00000010: 94c1 a1be 83fb cdbd fa90 143d 0a14 c9be
00000020: 5ae7 dd3e ff98 04bf 2095 bc3d 7cc2 c5be
00000030: f750 ba3e 7802 0bbe 7747 a4be fa01 623e
00000040: ebcf ddbe 9b0f 733e d36d ccbd b649 ad3e
00000050: 47fa 8f3e be1b 343e dcf7 ea3e 447f 83be
00000060: 094d 3fbd 5829 373e 7883 e83e 2fc8 703e
00000070: 336e 853e 77ba a23d 66fd 14be e671 5a3e
00000080: 11d7 8abe 1cf5 c73d 79aa 6abe 39d6 783e
00000090: 8d14 a63e fe42 b73e fc68 bbbe 3eaa 9ebe
000000a0: 2b31 cf3e 4d26 eebd e7ad b13e f37a 6cbe
000000b0: 26cd 56bd 9cc0 a0be 85c2 c73d 6354 8cbe
000000c0: 6daf d7be adfd debc 28ef 563e f79a 04bc
000000d0: 89c4 b23e 00fe a93e 2e78 113e bc6c 11bf
000000e0: 207b 7abe fd2e 963e e76b efbe 4eb1 883e
000000f0: a59b 92be 8e08 b33e 7579 a3be e934 d4bd
00000100: 0ede 783e 01fd c83b 7746 b7be 5f5f ecbe
00000110: 0e0f 80bc d260 6f3d 4e1e 693e 0de9 693e
00000120: de1e c23e c243 e03e dc55 87be c4ca 64be
00000130: 9562 723e 1db4 7abe b597 0ebc 6edf ccbe
00000140: ff39 09bf 9abf d5bd 1ddd c93c baa1 e13e
00000150: be60 9abe 2df6 5a3d b203 9abe 381d 983e
00000160: e66d 06bf c660 e73c f67b 6c3e 070f d3be
00000170: aa08 3cbc ef61 9e3e a83b 73be b6ea 16bf
00000180: c25b edbe eb7f e2be 5b1e 9ebe 64a2 6e3e
00000190: 0bf7 dfbe 331d 7dbd ab07 15be aa65 ffbe
000001a0: 01b0 9abe fb81 6a3e 2498 9abe a02e 19bd
000001b0: e9e7 7c3d 3491 e1be 3105 733e 6dc8 10bf
000001c0: 9659 b33d 4eef 8a3b 88b4 e13e eb59 6fbe
000001d0: 346a 8d3c 48f3 bdbe 8ba4 41be 44b2 cfbe
000001e0: 90d0 9e3e 62bc 8fbd 2ee5 183e 850b b73e
000001f0: bd8d 8f3e 3570 833d b99d 153b 754c 9dbe
00000200: 7e92 e53e 155c 313d a95b 02bf 715a cc3d
00000210: 4524 53bb 177c f1be 7694 d8be 10dd a83e
00000220: 67ea d0be 557a 00bf 63ba 553e c8f9 3e3e
00000230: b6c9 a63e 8779 c7bd d725 d6be 6151 3abe
00000240: 7034 a7be 54b2 763d fe3f 343e 2ae3 983e
00000250: 036e bdbd 6836 9abe 1b57 dd3e 103f 3bbe
00000260: bdff c9be 41e2 1abe 20d4 2fbe d045 d9be
00000270: 1375 c73e f268 ec3e 233b 9cbe c072 40be
00000280: 365d d43e dbff 273e d2f9 c93e a78e 963c
00000290: 5611 31be e031 55be c42b ac3e 2ebd e23e
000002a0: e168 a13e 49ef 8fbd 94f6 193e d518 a1bc
000002b0: 1e16 833d 7410 c6be c3f3 bc3e deab d4be
000002c0: 1202 f13e 928a 0b3e 0b81 893e 5865 cebe
000002d0: bed5 9ebe 3e3d aabe 7e79 1ebc ed33 4c3c
000002e0: 5cb5 8dbe cde6 ccbc f324 f53e 5727 b33d
000002f0: ec32 fd3d 42ee 093e 6b7d 1d3e 5da0 28bd
00000300: 9b40 3f3e fd73 4e3c b75b ac3d c842 f6be
00000310: eb28 6fbd 53b4 bcbe 0e36 8b3e 23b8 2abe
00000320: f881 b93d a623 143e 354b d53e 89ef db3e
00000330: e608 47bd 2642 7ebe 39af a3be 557c 283e
00000340: e60b 2bbe a0fd 30bd f10b 84be 828b 123e
00000350: 0ac6 333e 7599 b23e 2e93 8cbe a1c2 04bf
00000360: f4ea 073e 22e7 b73d e141 53be d2cd 4c3d
00000370: 9980 873e ba89 993e 818e dabe da96 623c
00000380: b97c 963e 6f53 afbe 4f86 8f3e 00dc c93e
00000390: 0902 95be e2a7 b3be a3a5 92bd a975 e23e
000003a0: 72c6 6d3e 1284 f1be 337c 08bf f00c 723d
000003b0: 5a86 973e 9c52 85bc 0640 cdbe 37d1 afbe
000003c0: 7b5c b13e 2c4a a13e 1df2 66bd 5670 0ebf
000003d0: 38fc 2ebe d2db 9f3e b12b 16be 130d 94bc
000003e0: 0b54 a83d 5e65 89bd 5b6d 873e d108 a7be
000003f0: 3d30 ff3d 1f3e 073e f7c5 033f 0cdd db3d
-0.13591695 0.1676014 0.19701742 0.0766064 -0.31593 -0.10057738 0.036271073 -0.392731
0.4334057 -0.51795954 0.09208131 -0.38624942 0.36389896 -0.1357516 -0.32085773 0.22071066
-0.4332269 0.23736422 -0.09981885 0.338453 0.28120634 0.17588708 0.45892227 -0.25683033
-0.046704326 0.17886865 0.45412803 0.23513864 0.26060638 0.079457216 -0.14549789 0.21332511
-0.27117208 0.09763548 -0.22916593 0.2430047 0.32437554 0.35793298 -0.36603534 -0.3098926
0.404672 -0.11628399 0.3470299 -0.23093776 -0.05244174 -0.3139695 0.097538985 -0.27408132
-0.42126027 -0.027220571 0.20989668 -0.008093587 0.3491557 0.332016 0.14206001 -0.5680654
-0.24461031 0.29332724 -0.4676201 0.26697773 -0.28634372 0.34967464 -0.31928602 -0.10361654
0.24303457 0.006133676 -0.35795948 -0.46166512 -0.015632179 0.058441944 0.22765467 0.22842808
0.37914175 0.43801695 -0.26432693 -0.22342974 0.23670419 -0.2448277 -0.008703162 -0.40014213
-0.5360412 -0.10436936 0.024641568 0.440687 -0.30151933 0.053457428 -0.30080944 0.29709792
-0.5251144 0.028244387 0.23094162 -0.41222402 -0.011476675 0.30934092 -0.23753226 -0.5895189
-0.46359068 -0.4423822 -0.30882534 0.23304135 -0.43743166 -0.061795425 -0.14553706 -0.4988225
-0.30212405 0.22901146 -0.301942 -0.03739798 0.061744604 -0.44056094 0.23732449 -0.56555825
0.087573215 0.004239953 0.44083047 -0.23374145 0.017262556 -0.3709967 -0.18910424 -0.40565693
0.31018496 -0.07018353 0.14931175 0.35750976 0.28037825 0.06417886 0.0022829606 -0.30722395
0.44838327 0.043300707 -0.5092111 0.09978188 -0.0032217663 -0.47164986 -0.42300767 0.32981157
-0.40803835 -0.50186664 0.20871882 0.18649971 0.32575768 -0.097399764 -0.41825745 -0.18195106
-0.32657194 0.06022866 0.17602536 0.29860812 -0.09249499 -0.30119634 0.4323052 -0.18285775
-0.39452925 -0.15125372 -0.17170763 -0.42436075 0.38956508 0.46173817 -0.30513868 -0.18793774
0.41477364 0.16406195 0.3944841 0.018378569 -0.1729177 -0.20819807 0.3362714 0.44284958
0.3152533 -0.07028062 0.15035468 -0.019665161 0.06400703 -0.38684428 0.36904725 -0.41537374
0.47071892 0.13627079 0.26856264 -0.40311694 -0.31022447 -0.3324985 -0.009672521 0.012463552
-0.2767743 -0.025012398 0.47879753 0.08747738 0.12363228 0.13469794 0.15379874 -0.04116856
0.18676989 0.012600896 0.08415931 -0.48097825 -0.05838863 -0.36856326 0.27189678 -0.16671805
0.09057993 0.14466724 0.4165894 0.42956188 -0.04859247 -0.24829921 -0.31969622 0.16453679
-0.16703758 -0.043210626 -0.2579036 0.1431103 0.17556015 0.34882703 -0.2745604 -0.5185948
0.13273221 0.08979632 -0.206306 0.050000973 0.264653 0.2998789 -0.42686847 0.013829911
0.2939203 -0.34243342 0.28032157 0.3942566 -0.29103115 -0.35089022 -0.07160499 0.44230393
0.23220232 -0.47171074 -0.5331451 0.05909437 0.2959469 -0.016274743 -0.40087909 -0.34339306
0.3464087 0.315019 -0.05638324 -0.5564016 -0.17088401 0.31222397 -0.14665104 -0.01807264
0.08219155 -0.067087874 0.2645062 -0.32623914 0.124603726 0.13207291 0.51473945 0.10735521

fc1.bias f4 [10]
00000000: 69df 13bd 3d21 963d 1dcc 00be 37fe e3be
00000010: 2d41 863e eb38 bd3e 3063 97be f9fd f7bc
00000020: 656d bebe 3e1e 0bbf
-0.036101732 0.073305584 -0.12577863 -0.44529888 0.262216 0.36957487 -0.29567862 -0.03027247
-0.37192836 -0.5434302
