sandbox/snapshots/grokking/model-5112.pt (torch, 26159 bytes, 6 tensors)

conv1.weight f4 [8, 1, 5, 5]
000000 4c 09 51 be e2 be d1 3f 01 13 78 be 94 22 6e 3f
       -0.20413703 1.6386378 -0.24226 0.9302151
000010 a4 2e 16 3f 1b ac 6b bf 16 11 29 be 93 8e a6 bf
       0.5866492 -0.9205949 -0.16510424 -1.301226
000020 b3 c2 ac bf e6 f0 d3 be 04 db a1 bf 78 89 58 3f
       -1.3496917 -0.41394728 -1.2644963 0.8458476
000030 39 88 7e bf 9c 9f 84 3f eb 8b 53 bf ff 5c ad 3e
       -0.9942661 1.0361209 -0.8263537 0.33860013
000040 66 60 72 bf 20 44 10 3f 87 9c 51 3f 6d 65 c6 3e
       -0.9467834 0.5635395 0.81879467 0.38749257
000050 19 eb 90 be 2e 6b 07 bf af a5 8b 3b f9 28 0e bf
       -0.28304365 -0.5289792 0.0042616944 -0.5553127
000060 08 bc d0 bf 8f 90 d5 be ef 15 b1 bf cf 67 8d be
       -1.6307383 -0.41711852 -1.3834819 -0.27618262
000070 ee 7a 8a 3f f7 43 bb 3f 8c b0 6b be 14 2a 83 3e
       1.0818765 1.4630116 -0.23016566 0.2561804
000080 12 05 78 bf 09 81 89 3f 6c da 00 3e 88 24 5a bd
       -0.96882737 1.0742503 0.12583321 -0.053257495
000090 0e 46 a1 3e 0f 6b f0 be c8 3f c0 bf 61 d0 8e bf
       0.3149876 -0.4695668 -1.5019464 -1.1157342
0000a0 03 0f bf bf 4c f3 3f bf 5a 2b 9a bf 82 19 5d be
       -1.4926456 -0.74980617 -1.204448 -0.21591762
0000b0 ed f1 68 be 7a 0f 23 bf 59 6b b3 bf cc 60 02 be
       -0.22748537 -0.6369549 -1.4017135 -0.12732238
0000c0 7a 57 80 3e d8 63 95 3f 95 bc 36 bf 50 7a 3b 3f
       0.2506674 1.1671095 -0.71381503 0.7323351
0000d0 05 13 00 bf a6 96 19 3f 9b bc 4d 3e 6a 1b 0f bf
       -0.5002902 0.59995496 0.20091479 -0.55901206
0000e0 28 45 c1 3d ce fc b5 3f 47 59 b4 3f a1 3e 7a 3e
       0.09437019 1.4217775 1.4089745 0.24437954
0000f0 96 26 1d 3e b3 14 6d 3f 13 38 34 bd 1a 0e 44 bf
       0.1534675 0.9260971 -0.04399879 -0.7658402
000100 4c cc 9c bf 70 26 f3 be 50 ff 9c bf 21 20 91 bd
       -1.2249846 -0.47490263 -1.2265415 -0.07086206
000110 d5 fb e6 3e d5 5d c0 bf 18 a7 c4 3f 3b 99 32 bf
       0.45114008 -1.5028635 1.5363493 -0.6976506
000120 bb dd b8 3f 00 1b 5e bf a4 d6 af be 77 c9 92 bf
       1.4442667 -0.8675995 -0.34343445 -1.1467732
000130 80 74 c5 bf 44 f7 ab bf 7c 66 b3 3d 32 a8 ee 3e
       -1.5426178 -1.3434834 0.08759782 0.46612698
000140 47 7e b4 be 79 50 e4 be 6a 54 49 be b0 07 6b bf
       -0.35252592 -0.44592646 -0.19661108 -0.91808605
000150 92 4d 9a bf f5 4c 98 3e c0 8c 36 3f 7f a9 93 3f
       -1.2054923 0.29746214 0.7130852 1.1536101
000160 0e 27 88 3f 80 53 29 3e a7 33 48 bf 79 27 8d bf
       1.0636919 0.16535759 -0.78203815 -1.1027671
000170 45 0b a3 3f af d8 98 bf b0 f6 ba 3f 90 81 e7 be
       1.2737814 -1.1941127 1.4606533 -0.45216036
000180 cc a5 a3 3f dd 33 d7 be eb d1 68 bf d5 4a a1 3f
       1.2784972 -0.42031756 -0.9094531 1.2600962
000190 85 0a bf 3f da 49 44 3f f5 8c a3 3f 79 59 4b 3d
       1.4925085 0.7667519 1.2777392 0.049645875
0001a0 5f c0 c1 be 78 60 c4 be 7a 96 a3 3f 58 22 6b bf
       -0.3784208 -0.3835485 1.2780297 -0.9184928
0001b0 d0 17 da be f2 00 af bf 1a 14 e7 be f7 df 94 bf
       -0.42596292 -1.3672163 -0.45132524 -1.1630849
0001c0 0c 2f 0a 3f b5 c2 bf be 6c 66 11 3f 93 ce d6 3e
       0.5397804 -0.37453237 0.5679691 0.4195448
0001d0 f9 6d 99 3f 27 13 85 3f 93 55 88 3f 9c b9 89 3f
       1.1986686 1.039647 1.0651115 1.0759768
0001e0 c2 22 9c bf bc 05 88 bf 91 93 03 3f 52 a9 13 bf
       -1.2198107 -1.062675 0.51397043 -0.5768024
0001f0 97 cf 06 3f df ad e1 3e af cb 49 3f d2 14 89 3f
       0.52660507 0.44077966 0.7882642 1.0709479
000200 8a 5b 50 be ac 78 dd 3e 59 71 45 bf 1c 88 09 bf
       -0.2034742 0.43256128 -0.7712608 -0.5372331
000210 0e 72 09 bf af ab 04 3f cc fa da be d7 28 01 bf
       -0.5368966 0.5182447 -0.42769468 -0.5045294
000220 e3 9e ef 3e 79 11 b3 bf 37 da 68 bf 71 c6 58 3f
       0.46800908 -1.3989707 -0.9095797 0.846778
000230 22 9a 39 3f 33 ca 97 bf 57 4f 08 bf 96 2a 58 3c
       0.72500813 -1.1858581 -0.53246063 0.013193747
000240 b3 5d 4e bf 90 d5 7b bf ff 85 51 bf 35 e2 78 3e
       -0.80611724 -0.98372746 -0.81845087 0.24305041
000250 a4 ed af 3e a8 9d be 3f ac c7 c1 bf c6 e1 87 3f
       0.34360993 1.4891863 -1.513906 1.0615776
000260 d2 c3 7e 3e 87 c9 af 3d ca 58 9e 3f 44 fc 80 bf
       0.24879387 0.0858336 1.2370846 -1.0076985
000270 26 4f 01 3f e4 8a b6 bc 0d a5 47 3f a8 22 05 bf
       0.50511396 -0.022283025 0.7798622 -0.52006006
000280 82 8b 5e 3f e3 58 a3 be 33 46 4a 3f 9f 43 e4 bd
       0.8693162 -0.31903753 0.79013366 -0.1114571
000290 62 f2 a0 bf 13 bf 4b 3e 3c 25 63 bf 3a 5a 99 3f
       -1.2573969 0.19897108 -0.8872869 1.198066
0002a0 95 7a 85 bf 00 c9 44 bf 24 7e 53 bf e2 d7 43 bf
       -1.0428034 -0.768692 -0.8261435 -0.76501286
0002b0 1e 6e c1 3f 7f 6c 6e bf 05 37 78 3f b7 03 04 be
       1.511173 -0.931343 0.96958953 -0.12892042
0002c0 4a 67 b5 bf 33 98 9e be ed bc db 3e 0e 6e 0c bf
       -1.4172146 -0.30975494 0.42917576 -0.5485543
0002d0 b4 80 4a bf 38 61 8c 3d 22 be cb be 58 bc f6 be
       -0.79102635 0.068544805 -0.39793497 -0.4819057
0002e0 46 62 a1 3f 0e 16 a6 3e 63 29 17 bf 44 ac 6a bf
       1.2608116 0.324387 -0.59047526 -0.91669106
0002f0 1d bd 87 bf 9b cd 9b bf 10 29 3f 3f 70 b6 8d bf
       -1.0604588 -1.2172121 0.7467203 -1.10713
000300 1d 07 76 bd e8 7e 3d 3f f6 5e 6d 3f 29 cc cd 3d
       -0.060065378 0.7402177 0.92723024 0.10048706
000310 8f 6c a5 3f 64 3f 81 bf 7a 83 54 3f 63 77 84 3f
       1.2923754 -1.009747 0.8301312 1.0348934

conv1.bias f4 [8]
000000 23 79 a3 bf 34 48 47 bf f2 b7 cc bf 9b 25 34 be
       -1.2771343 -0.7784455 -1.5993636 -0.1759247
000010 07 f5 4a 3f 6a 85 23 bf 98 9b 91 bf 37 e5 e9 3e
       0.7928013 -0.6387545 -1.1375608 0.4568269

conv2.weight f4 [16, 8, 5, 5]
000000 80 77 29 be d2 78 2c 3e 2a 61 b4 3e d1 06 b9 3e
       -0.16549492 0.16842964 0.3523038 0.36138013
000010 9f aa 5c be 0b bc 68 be bf 03 be bd 66 c4 f2 bc
       -0.21549462 -0.22727983 -0.09278058 -0.029634666
000020 81 0e 98 be f8 21 0a 3f e0 4b ae bc 65 ab 13 bf
       -0.29698566 0.5395808 -0.021276414 -0.576834
000030 5a 48 0f 3e 26 79 87 be df 05 b0 be 92 02 01 3e
       0.13992444 -0.26459616 -0.3437948 0.12598637
000040 e0 05 83 3d 72 75 97 bd 23 1b 45 be e9 83 b3 3d
       0.06397605 -0.07395448 -0.19248633 0.08765394
000050 0c 2d 8b 3d 42 76 39 be 07 e7 d8 3e 2f ad b1 3e
       0.067957014 -0.18111518 0.4236376 0.3470244
000060 c0 75 12 3f a1 d8 18 3d 44 5b 62 bc e3 36 ba bc
       0.5721092 0.03731597 -0.013815705 -0.02273125
000070 ff e9 e3 be 68 cd f8 be ac 70 16 3e af e6 c5 be
       -0.44514462 -0.48594213 0.14691418 -0.3865256
000080 ec 32 b6 be 61 ef a3 be 41 39 6b 3e 1b 1a 36 be
       -0.35585725 -0.3201857 0.2297106 -0.17783396
000090 1a a3 e5 3c e2 77 82 3d ab 42 af be c9 c5 4e 3e
       0.028031874 0.06370522 -0.3423055 0.20192637
0000a0 df 11 fb 3e 86 b7 3a be 50 49 3a 3e 9e a8 d5 3e
       0.49037072 -0.18234071 0.18192029 0.41730207
0000b0 e0 f2 e5 bb 9d 18 25 3d 23 50 d3 3e d9 bc 10 be
       -0.0070174783 0.040306676 0.41272077 -0.1413454
0000c0 a5 f4 e9 3e f3 ea cf 3d 32 9a 3d be fe 2e eb be
       0.4569446 0.10152235 -0.18515852 -0.4593429
0000d0 66 89 b5 3d 35 d6 ee 3e 1f 41 cb bd f0 4b 55 3d
       0.08864097 0.46647802 -0.0992453 0.052074373
0000e0 bc 7e b0 be 67 19 00 3f 79 e7 8b be ae a7 07 be
       -0.3447169 0.5003876 -0.27325037 -0.13247558
0000f0 c2 da 22 3e cb 9a dc 3e e8 11 b7 be 69 7d 3d 3e
       0.15903762 0.43086848 -0.3575585 0.18504871
000100 d3 66 2f be e8 a2 b5 bd 94 cd 02 3e 1c 42 90 be
       -0.17129068 -0.088689625 0.12773734 -0.28175437
000110 09 91 bf bd 0e 24 a5 be de 75 19 3e b2 74 b6 bd
       -0.09353835 -0.3225407 0.14986369 -0.089089766
000120 9e 7d 28 bd c6 4f 0a bf 8b 88 10 3c a1 71 3e be
       -0.041135423 -0.54027975 0.008821617 -0.18598033
000130 c5 9b a3 3e 57 17 e9 3e cc 6a 8e 3e cb 22 5b bc
       0.3195478 0.4552562 0.27815855 -0.0133749945
000140 cb 0f 21 bd bc 9c 18 be 6e 8a 0d 3d 20 c4 92 be
       -0.039321702 -0.1490354 0.034555845 -0.28665257
000150 b8 4e 2c bd df 79 c6 be fa 00 cf bd b0 b2 28 be
       -0.04206726 -0.38764855 -0.10107608 -0.16474414
000160 80 69 9e be 25 71 b3 3e ea eb a8 3e 2a e6 22 3e
       -0.30939865 0.3504726 0.32992488 0.15908113
000170 8f 33 d9 3e d8 cf 0c 3c 0a 5c 21 be 16 58 3d bd
       0.4242215 0.008594476 -0.15757766 -0.046226583
000180 69 d9 41 be 05 e9 93 3e f1 8d 9c be ed 8e bb bd
       -0.18930592 0.28888717 -0.30577043 -0.0915812
000190 b0 c9 dd be 46 4d 9b be cf d7 5b 3d 59 a0 8a 3e
       -0.43317938 -0.30332392 0.053672608 0.2707546
0001a0 8a ce bc be 52 3e 88 3d 2e 68 11 3f 20 fb b9 be
       -0.36876327 0.06652512 0.5679959 -0.36324406
0001b0 3f 6f 82 3e 1a 57 7c be 23 cd cc 3e e6 f6 11 bc
       0.254755 -0.24642602 0.40000257 -0.008908963
0001c0 c5 5d c4 be 68 9a da be 06 69 67 3e c0 bf 9d 3d
       -0.3835279 -0.42695928 0.22598657 0.07702589
0001d0 63 6c ee be f8 13 df 3d 24 31 ed 3e b5 c3 4c 3d
       -0.46567068 0.108924806 0.46326554 0.04999133
0001e0 f2 17 8c be 32 e4 02 3e e6 f6 f5 be ef 61 b1 bc
       -0.2736202 0.12782362 -0.4803993 -0.021653144
0001f0 36 1c 22 3e c7 db ab 3e 9e ec f0 be 29 18 ff be
       0.15831074 0.33566114 -0.47055525 -0.4982312
000200 ee 43 e3 3e 6f dd 99 be c9 a0 b2 bd 7d 08 7b 3e
       0.44387764 -0.30051753 -0.087220736 0.24514957
000210 30 43 e9 bc c8 6c 47 3c 23 16 0b 3e 59 1f db bc
       -0.02847442 0.012171932 0.13582663 -0.026748346
000220 41 23 73 be 85 52 f6 be da 24 01 bf 0f 55 c1 3e
       -0.23743917 -0.48109832 -0.50446856 0.37760207
000230 57 8e 0e bf 39 c0 06 bf 4a 5c 8e 3e 8b 40 bc 3e
       -0.55685943 -0.5263706 0.27804786 0.36767992
000240 de 88 f5 3e e8 f3 a4 3e 21 27 8c be 31 6a 0b 3f
       0.47955984 0.32217336 -0.27373603 0.5445891
000250 4a bc 9b 3e 74 62 ec 3e 9a ae ce 3e 10 b8 d8 bd
       0.3041709 0.46168864 0.40367585 -0.10581982
000260 44 01 3c 3e 8b b3 ba bd f5 4c a2 3b 51 a2 9c be
       0.18359858 -0.09116276 0.0049530216 -0.30592588
000270 4d 11 ac 3e e7 96 0c 3f c3 03 1d bf 8e 77 51 ba
       0.3360695 0.5491776 -0.61333865 -0.00079905323
000280 18 80 a0 be c9 56 2b 3e a3 e7 1b 3f b9 99 96 bd
       -0.31347728 0.16732325 0.60900325 -0.07353539
000290 27 f0 e6 be 5f c6 3e be 44 19 62 be a2 cd cc be
       -0.45105097 -0.1863036 -0.2207995 -0.40000635
0002a0 87 d0 e7 bc 6d cc b0 3c 7b 6c fc be 08 47 89 be
       -0.028297676 0.021581853 -0.49301514 -0.26812005
0002b0 fa 4f 92 3e f9 4a a5 3c 01 ff ac be e9 06 72 3e
       0.28576642 0.020177351 -0.33788303 0.23635449
0002c0 f1 e9 03 bf c3 41 12 bf 0d e1 6a bc 60 65 bf 3e
       -0.5152884 -0.57131594 -0.014335883 0.3738203
0002d0 37 58 8f be 13 fb a1 3d 81 01 fb 3e 15 b6 f1 3e
       -0.2799699 0.07909217 0.49024585 0.4720923
0002e0 f8 31 aa be ea da cf bb ea e3 9c be 7d c9 ba 3e
       -0.33241248 -0.0063432353 -0.30642635 0.36481848
0002f0 90 e4 f4 3e 5f 7d 74 be 68 fb 81 3e 87 9e f5 be
       0.4783063 -0.2387595 0.2538712 -0.4797251
000300 ec 71 63 3e 83 5d 08 bf d8 f9 ea be d0 05 31 3e
       0.22211426 -0.5326769 -0.4589374 0.17287374
000310 20 b7 e9 3e 91 12 6e 3e a6 3e c2 3e 45 b4 f5 3d
       0.45647526 0.2324927 0.37938422 0.11997274
000320 b4 7b 5c 3e 25 c7 08 bf 54 41 f0 be 85 fa 1f bf
       0.21531564 -0.5342887 -0.4692484 -0.6249164
000330 19 ab 65 3e 0b 94 fe 3e 93 99 21 3f 13 6f c4 3d
       0.2242855 0.49722323 0.6312496 0.09591498
000340 4e d4 eb 3e 8f 67 17 bf 02 b6 d6 be a1 9b a5 be
       0.46060413 -0.5914239 -0.41935736 -0.32345298
000350 35 b0 ca 3e 79 f2 9c be bb 25 30 3c 56 27 e5 be
       0.3958756 -0.30653742 0.010751183 -0.44756573
000360 22 ab a8 bd ef 29 1c 3e 78 4b c8 be 2b 00 ab 3d
       -0.08235766 0.15250371 -0.39120078 0.083496414
000370 0d b6 d8 be 1c 3d 78 be 64 65 dd be b3 d0 1e 3f
       -0.42326394 -0.24242061 -0.43241417 0.620372
000380 bc 35 2b 3d 3e 72 b9 be 28 a7 d2 be c6 b2 b8 3e
       0.041799292 -0.36219972 -0.41143155 0.36073893
000390 ba 65 e8 3e 88 aa af bd 46 a5 17 3f 4c 3b d4 3d
       0.4539011 -0.08577448 0.5923656 0.103628725
0003a0 55 2c 7c be 02 11 1a be 44 38 6d bd c0 48 d9 bd
       -0.24626286 -0.1504555 -0.057914987 -0.10609579
0003b0 8d ae ba 3e e5 ba 31 be 6c be a4 be 6e cb ad 3e
       0.36461297 -0.17356451 -0.3217653 0.33944267
0003c0 de 8b a6 be ad 4c e5 3e b5 e6 14 be f9 a1 84 3e
       -0.32528585 0.4478506 -0.14541133 0.25904825
0003d0 03 ce 87 3b 54 ec dd 3e cf 40 cc 3e f7 55 59 3d
       0.0041444316 0.43344367 0.39893195 0.053060498
0003e0 32 82 1a 3f 19 8c 39 3e f6 e9 ae be 8d c9 00 3f
       0.6035491 0.1811985 -0.34162873 0.5030754
0003f0 e4 4b ff be cc ec 99 be cd ba ae 3e 9d 2b 74 be
       -0.49862587 -0.30063474 0.34126893 -0.23844762

conv2.bias f4 [16]
000000 01 c5 9b 3e 37 27 18 bf 55 cc 45 3e 5e dd e4 be
       0.3042374 -0.5943484 0.19316228 -0.4470014
000010 8b c7 8a 3e e0 af 1f 3f be e9 87 be 88 a8 9b 3e
       0.27105364 0.6237774 -0.2654552 0.30402017
000020 eb 1f 16 bf de 06 19 3e 26 67 01 3f ec 62 ac be
       -0.5864245 0.14944026 0.5054802 -0.3366922
000030 5a ae 71 be f5 9b cc 3d ac 1e 33 3e 60 e1 d6 be
       -0.23601666 0.09990684 0.17492169 -0.41968822

fc1.weight f4 [10, 256]
000000 b0 79 0c be 6c 88 3a 3e 5f 40 62 3e 90 ae de 3d
       -0.13718295 0.18216103 0.22094868 0.10873139
000010 af 60 9b be 24 83 be bd b6 65 75 3d e8 78 c7 be
       -0.303472 -0.09302357 0.059911452 -0.38959432
000020 b6 76 df 3e a0 77 00 bf b8 29 03 3e 33 a9 c3 be
       0.43645257 -0.50182533 0.12808883 -0.38215026
000030 62 40 bd 3e 47 66 fc bd 76 b4 a6 be 3b 41 5a 3e
       0.36963183 -0.12324195 -0.32559556 0.21313946
000040 02 db e1 be 3e 57 73 3e 62 61 de bd 9e 5a be 3e
       -0.44112402 0.23763749 -0.10858418 0.3717851
000050 fb 90 99 3e 0e dd 3c 3e 67 a8 ed 3e d6 ee 86 be
       0.29993424 0.184437 0.46417543 -0.26354092
000060 71 cf c7 bc 40 ac 44 3e b1 20 ee 3e 9e 1b 7e 3e
       -0.024390908 0.19206333 0.46509317 0.24815223
000070 ca 40 7f 3e 99 1f b5 3d 61 37 1f be d9 aa 5b 3e
       0.24927059 0.088439174 -0.15548469 0.21451892
000080 77 83 86 be 7d e5 fa 3d b5 bd 65 be ce 51 78 3e
       -0.26272175 0.12250803 -0.22435649 0.24249956
000090 5f 8b a3 3e 52 36 b2 3e 56 6c bb be d7 f2 a1 be
       0.3194227 0.34807068 -0.3660609 -0.31630585
0000a0 6f a0 ca 3e 46 7f 17 be 03 35 bd 3e 24 f0 66 be
       0.39575526 -0.14794645 0.36954507 -0.22552544
0000b0 3c 9e a2 bd 93 c2 ae be 48 d1 e5 3d 86 2d 7e be
       -0.07940337 -0.34132823 0.11221558 -0.24822053
0000c0 94 8c d4 be 7d c1 13 3c 02 3e 76 3e 90 1e 11 ba
       -0.41513503 0.009018299 0.24047092 -0.0005535865
0000d0 34 31 c0 3e bc 0c b3 3e b6 97 14 3e 39 98 02 bf
       0.3753754 0.34970653 0.14510998 -0.51013523
0000e0 8a e1 62 be 55 46 96 3e a1 cf e7 be 5b 9a 97 3e
       -0.22156349 0.29350534 -0.45275596 0.2960995
0000f0 a2 bf 81 be f4 74 bb 3e 0e 74 a1 be 27 1b ba bd
       -0.25341517 0.36612666 -0.31533855 -0.0908721
000100 64 88 84 3e 1b e0 9b 3c d1 f7 bb be 60 c2 ee be
       0.25885308 0.01902776 -0.36712506 -0.4663267
000110 3d 59 16 bc 3f c9 97 3d 88 2d 6f 3e 74 88 67 3e
       -0.0091765495 0.074114315 0.23357213 0.22610646
000120 72 ab cc 3e 17 60 e4 3e cc 39 89 be a2 f9 63 be
       0.39974552 0.4460456 -0.26801908 -0.22263196
000130 12 c0 72 3e cd c7 7f be 82 76 20 bc 0b 26 cc be
       0.23706082 -0.24978562 -0.009793879 -0.39872774
000140 7f 2e 08 bf f3 3d 82 bd 87 0a 89 3c 31 e8 dd 3e
       -0.5319595 -0.06359472 0.016728653 0.4334121
000150 44 c2 7b be 3a 3f 20 3e 0f a3 a3 be 9f 18 88 3e
       -0.24585825 0.15649119 -0.3196034 0.26581284
000160 a7 95 ff be ab 03 b7 3d c8 55 81 3e dc de e0 be
       -0.49918863 0.089362465 0.25260758 -0.43920028
000170 8c 51 e6 3c c1 20 97 3e 13 cb 88 be ac ad 13 bf
       0.028115056 0.29517177 -0.26717433 -0.5768688
000180 f1 8a e5 be ec 7c f1 be f4 6f 8d be bb 95 b8 3e
       -0.44832566 -0.4716562 -0.27624476 0.36051735
000190 2b 6d a3 be 56 fe 63 bd 2d 0c e9 bd 8a d4 d3 be
       -0.31919226 -0.055662476 -0.113792755 -0.41373092
0001a0 59 27 72 be b1 a9 7b 3e 64 12 95 be bb 5a 21 bc
       -0.23647822 0.24576451 -0.29115593 -0.009848292
0001b0 ac 71 56 3e 57 43 b0 be a5 fa 81 3e 41 d4 12 bf
       0.209418 -0.34426376 0.2538654 -0.57355124
0001c0 d9 7e d5 3d 9b 06 51 3b d1 34 e0 3e 82 e9 77 be
       0.10424585 0.0031894806 0.43790296 -0.2421017
0001d0 36 d1 e2 3c 54 26 bc be d5 9d 40 be 7f bc d2 be
       0.02768765 -0.36747992 -0.18810208 -0.41159436
0001e0 d1 62 a1 3e 9e 4e ae bd 70 f2 2d 3e 36 16 bf 3e
       0.31520703 -0.08511089 0.16987014 0.37321633
0001f0 6a c3 8e 3e 5e c6 44 3d 8a 85 a2 3c 98 ab 9d be
       0.27883464 0.04804074 0.019839067 -0.30794978
000200 61 05 eb 3e d3 6e df 3c 77 e7 f8 be f2 98 dd 3d
       0.4590254 0.027274525 -0.48614094 0.10820188
000210 2a cb e2 bc c6 ad f0 be ff 16 d9 be a9 aa a6 3e
       -0.027684767 -0.4700758 -0.42400357 0.32552078
000220 9e b3 c8 be 3a 6b ee be 13 d5 4c 3e 2a a9 1d 3e
       -0.39199537 -0.46566182 0.20003156 0.15396562
000230 1f c8 bb 3e 55 ab f3 bc 78 72 d0 be 0b 2c 39 be
       0.36676118 -0.029744783 -0.40712333 -0.18083207
000240 d7 d1 a9 be 74 25 4d 3d 48 88 28 3e 1e fd 92 3e
       -0.33167908 0.050084546 0.16458237 0.28708738
000250 ed de a8 bd c5 64 9a be 22 31 dc 3e d3 ca 44 be
       -0.08245645 -0.30155006 0.43006235 -0.19217996
000260 54 55 cd be 2a db 23 be 59 ab 3a be dd 7c e1 be
       -0.40104163 -0.16001573 -0.18229426 -0.44040576
000270 6c c0 c2 3e ae dd eb 3e 40 4c 9d be a2 f0 3b be
       0.3803743 0.46067566 -0.30722237 -0.18353513
000280 1d 88 d6 3e 50 0c 26 3e 70 7d cf 3e 44 7b e7 3c
       0.4190072 0.16215634 0.4052539 0.02825702
000290 38 b7 3f be 1d 88 5f be 6a d7 a9 3e 11 e4 de 3e
       -0.18722236 -0.21829267 0.3317216 0.43533376
0002a0 d8 92 98 3e 0d bd 64 bd 11 80 1f 3e 1e 4a 3a bd
       0.29799533 -0.055844355 0.15576197 -0.04548084
0002b0 21 82 5d 3d 4d bf b9 be a4 94 d6 3e 76 3d db be
       0.05407918 -0.36278763 0.4191028 -0.42820328
0002c0 dd 0b f7 3e bd d0 19 3e 67 e5 8f 3e 62 c2 c9 be
       0.48251238 0.15021034 0.28104708 -0.39406115
0002d0 15 c8 9d be dc db a5 be 1a f7 7f ba 0b 05 c3 3b
       -0.30816713 -0.32394302 -0.0009764299 0.005951529
0002e0 26 cb 8a be 19 18 d3 bc aa 3a f5 3e 53 91 aa 3d
       -0.27108115 -0.025768327 0.4789632 0.083285
0002f0 3f 81 07 3e 5e 84 fd 3d 36 3d 15 3e 7c e5 4a bd
       0.13232897 0.12378763 0.14574131 -0.04953526
000300 7f fb 39 3e aa fb c5 3b 4c ec b6 3d be df f3 be
       0.18162344 0.0060419636 0.08931789 -0.4763164
000310 e7 a8 79 bc da b9 b0 be 2d 8a 91 3e 4c 3f 4f be
       -0.015238023 -0.34516793 0.28425732 -0.2023899
000320 31 8b 12 3e ff 6a 4b 3e a6 7a f0 3e af 20 db 3e
       0.1431091 0.19865035 0.46968573 0.42798373
000330 75 8b 52 bd ad 1c 65 be ca 46 a5 be d4 d8 19 3e
       -0.051402528 -0.2237422 -0.3228057 0.1502412
000340 89 15 eb bd 11 1f 54 bb f8 24 5f be 72 8d 49 3e
       -0.11478717 -0.003236715 -0.21791446 0.19682863
000350 c5 7d 96 3e c8 dd bd 3e 51 11 96 be f0 d3 fe be
       0.2939283 0.37083268 -0.29310086 -0.4977107
000360 05 d9 60 3e 3b 16 9e 3d 1f d0 5a be 50 fe 59 3d
       0.21957786 0.07719084 -0.21368454 0.053221047
000370 39 e9 89 3e 0e d3 93 3e 9d 64 f9 be d0 9d 2b 3c
       0.26935747 0.2887196 -0.48709574 0.010474637
000380 b1 be ad 3e 45 19 b2 be 61 b2 8d 3e 3f 94 c8 3e
       0.33934548 -0.34784904 0.27675155 0.39175603
000390 c7 24 8a be c8 0a af be 5b f9 88 bd 1c 06 ee 3e
       -0.26981184 -0.34187913 -0.06688186 0.46489036
0003a0 e1 ff 84 3e a3 a2 f4 be a8 7e 04 bf 7d e5 ca 3d
       0.2597647 -0.47780332 -0.5175576 0.09907053
0003b0 64 0e 91 3e cc dd a9 bc 81 33 cc be ce 2e ad be
       0.28331292 -0.020735644 -0.39883044 -0.33824772
0003c0 bc 4b af 3e 48 79 93 3e 3d 27 a3 bd ee 3f 05 bf
       0.34237468 0.28803468 -0.079664685 -0.52050674
0003d0 e3 f2 77 be 9e 41 88 3e c9 0c f2 bd f5 51 e4 bc
       -0.24213748 0.26612562 -0.11818845 -0.027871111
0003e0 d9 f3 12 3d ce 49 cc bd 0d b0 94 3e 24 36 b7 be
       0.035877082 -0.099750146 0.29040566 -0.35783494
0003f0 39 e7 2b 3e 73 e5 1b 3e 6c 45 f3 3e 6b 1d eb 3d
       0.16787423 0.15224247 0.47513902 0.114802204

fc1.bias f4 [10]
000000 5e 42 f6 bc 1f d2 5e 3d e4 ca d9 bd 54 9d d4 be
       -0.030060943 0.054399606 -0.106344014 -0.41526282
000010 bd 56 88 3e c6 68 be 3e fe ad 96 be 5e 31 7f bd
       0.26628676 0.3718931 -0.2942962 -0.06230294
000020 d4 b6 b9 be 43 78 08 bf
       -0.362723 -0.53308505
