sandbox/snapshots/grokking/model-8568.pt (torch, 26159 bytes, 6 tensors)

conv1.weight f4 [8, 1, 5, 5]
000000 05 10 b9 bd 9d 17 e0 3f 32 56 12 be 8e 9a 80 3f
       -0.090362586 1.7507206 -0.14290693 1.0047166
000010 5c f1 23 3f 2f 06 52 bf 6e a0 2a bd 70 26 98 bf
       0.6404016 -0.82040685 -0.041656904 -1.188673
000020 5e 03 a6 bf c2 1f be be 88 eb 9c bf 2f a0 5e 3f
       -1.2969778 -0.37133604 -1.2259378 0.8696317
000030 2a 78 7b bf 8e 5e 81 3f f0 bb 54 bf 28 f6 d3 3e
       -0.9823023 1.0106981 -0.8309927 0.4139874
000040 75 99 60 bf c6 bf 14 3f ac 43 4d 3f 74 24 c1 3e
       -0.87734157 0.58105123 0.80181384 0.37723124
000050 ba c0 29 be bb 6c ef be 69 4f 5e 3c 09 18 10 bf
       -0.16577426 -0.46762642 0.013568738 -0.56286675
000060 f0 60 ce bf da 5d c1 be 2f 5d aa bf 6f 20 67 be
       -1.6123333 -0.37766916 -1.3309687 -0.22570966
000070 9a a0 8b 3f 0f cc ba 3f 16 11 68 be 15 00 88 3e
       1.0908387 1.4593524 -0.22662768 0.26562563
000080 d5 09 6f bf e2 0f 8c 3f 09 ed ef 3d 31 8c b2 bd
       -0.9337438 1.0942347 0.11715133 -0.08718146
000090 df 3b 9a 3e 80 fc e2 be 9c 85 be bf c6 c3 94 bf
       0.30123803 -0.44333267 -1.4884524 -1.1622245
0000a0 a8 bf c0 bf a2 84 38 bf e7 df 99 bf 87 94 80 be
       -1.5058489 -0.7207738 -1.2021455 -0.25113317
0000b0 cd ed a5 be 19 6e 17 bf e3 12 ac bf 23 57 c5 bd
       -0.3240799 -0.5915237 -1.3443264 -0.09635761
0000c0 1a d7 4d 3e 23 e7 89 3f c9 89 23 bf 6a 9e 36 3f
       0.20101586 1.0773662 -0.6388212 0.7133547
0000d0 d6 8b 0b bf f0 1f 14 3f 92 51 60 3e ca 13 03 bf
       -0.5451025 0.5786123 0.21906117 -0.5120207
0000e0 c3 1a 90 3d ee 78 b0 3f 6d 07 b0 3f 31 d2 87 3e
       0.070363544 1.3786905 1.3752266 0.2652755
0000f0 1d 88 39 3e 7e 5f 68 3f a1 e3 a0 bd 7c 42 4a bf
       0.1811833 0.9077071 -0.07855917 -0.790077
000100 79 a7 96 bf f6 91 e0 be b7 f8 9c bf 4c fe f6 bd
       -1.1769859 -0.4386136 -1.2263402 -0.12060222
000110 2b 72 cd 3e 05 07 be bf ee 3d c4 3f 0b a0 38 bf
       0.40126166 -1.4845892 1.53314 -0.72119206
000120 1a a4 af 3f 67 1d 5e bf 67 93 b4 be bf 52 8c bf
       1.3721955 -0.86763614 -0.3526871 -1.0962752
000130 2d ad bd bf 1c 59 a8 bf 6f 20 86 3d f4 6f ec 3e
       -1.4818474 -1.3152194 0.06549155 0.46179163
000140 49 3f a0 be df 1a cf be f3 4d 34 be 6e 25 66 bf
       -0.31298283 -0.4045019 -0.1760786 -0.89900863
000150 e2 58 94 bf 1e 5d 98 3e 6b 7d 2c 3f f8 37 8b 3f
       -1.1589625 0.29758543 0.6737887 1.0876455
000160 cb e0 80 3f ce a2 0c 3e e7 48 49 bf 51 f0 93 bf
       1.0068601 0.1373398 -0.78626865 -1.1557714
000170 c3 6d 98 3f c7 a5 a0 bf f9 ae b0 3f 4a b9 03 bf
       1.1908497 -1.2550591 1.3803397 -0.51454604
000180 28 6e 97 3f 87 33 fa be 77 45 75 bf 59 fd 97 3f
       1.1830492 -0.48867437 -0.9580912 1.187419
000190 a6 9b ac 3f 04 3c 20 3f e8 19 97 3f 54 f2 af 3d
       1.3485 0.62591577 1.1804781 0.08591142
0001a0 1f 6a 8f be 39 56 f6 be 30 12 94 3f da 56 70 bf
       -0.2801065 -0.48112658 1.156805 -0.93882525
0001b0 83 10 a3 be b6 1c 9c bf c0 c1 fb be d6 b7 97 bf
       -0.31848535 -1.2196262 -0.49171257 -1.1852977
0001c0 a6 21 fc 3e 8f a6 d0 be 01 e1 08 3f 75 81 cb 3e
       0.49244422 -0.40752074 0.5346833 0.39747205
0001d0 24 b2 95 3f ae dd 70 3f b7 4d 71 3f a3 0b 7a 3f
       1.1694989 0.94088256 0.9425921 0.97674006
0001e0 e4 2b 92 bf 79 49 82 bf 45 56 e8 3e 5c 9b 27 bf
       -1.1419644 -1.0178672 0.45378318 -0.65471435
0001f0 34 07 f0 3e 0c 8d f9 3e f0 9c 58 3f 1c b9 90 3f
       0.46880496 0.48740423 0.8461447 1.1306491
000200 d8 e4 1f be 8c af d8 3e 55 4e 3d bf 0c c5 fd be
       -0.1561464 0.42321432 -0.7394765 -0.49564397
000210 d0 bb f7 be a2 0d 04 3f dd 66 f8 be 5a dd 08 bf
       -0.48385477 0.515833 -0.48515978 -0.53462756
000220 20 ef fe 3e 58 21 ac bf ed 9b 74 bf 4d 2f 3f 3f
       0.49791813 -1.3447676 -0.95550424 0.7468155
000230 6b f1 25 3f 70 7b 94 bf 89 1c fb be 12 2a ea bc
       0.648215 -1.160017 -0.49045208 -0.028584514
000240 53 53 63 bf c5 7e 7d bf 22 92 3c bf 88 43 88 3e
       -0.8879902 -0.9902156 -0.7366048 0.26614022
000250 6d 23 8d 3e e7 24 b2 3f 93 0b c6 bf bb 9b 7e 3f
       0.2756609 1.3917512 -1.5472282 0.99456376
000260 4a ad 57 3e 47 23 54 3d 3b 63 94 3f 6e 0f 8b bf
       0.21062198 0.051791456 1.1592783 -1.0864084
000270 13 88 ee 3e 11 71 fb bb 2a e2 49 3f 86 b4 08 bf
       0.4658819 -0.0076733907 0.78860724 -0.53400457
000280 52 6a 4a 3f e5 88 a1 be f6 15 54 3f 66 fe 33 bd
       0.7906848 -0.31549755 0.8284601 -0.043943785
000290 8b 60 9a bf c9 d2 5c 3e 41 0b 4f bf 6c 22 a0 3f
       -1.2060713 0.21564783 -0.8087655 1.2510505
0002a0 8f 2f 7d bf b8 e9 3d bf 93 b8 37 bf a1 f4 28 bf
       -0.98900694 -0.7418475 -0.7176601 -0.65998274
0002b0 ff fb c4 3f ed ea 69 bf 32 0d 78 3f d8 bd 1d be
       1.5389403 -0.91374093 0.96895134 -0.15404451
0002c0 3a 67 b5 bf d7 f0 9e be 08 25 df 3e e1 65 04 bf
       -1.4172127 -0.3104312 0.4358294 -0.51717955
0002d0 0f e0 55 bf 87 7b 8c 3d 31 c2 b6 be 6c 46 dc be
       -0.8354501 0.068594985 -0.3569503 -0.43022478
0002e0 e7 32 a2 3f 36 e2 84 3e 7d 64 0d bf 02 d1 54 bf
       1.2671784 0.25953835 -0.5523146 -0.8313142
0002f0 7e 5d 81 bf 69 7c 9b bf cd 94 32 3f ad d0 8a bf
       -1.0106657 -1.2147342 0.697583 -1.0844933
000300 f6 f2 d3 bc d9 2a 34 3f c1 02 60 3f 8d 07 93 3d
       -0.025872689 0.7037788 0.875042 0.071791746
000310 aa d3 a2 3f 49 d6 81 bf c4 aa 46 3f a7 48 7e 3f
       1.2720845 -1.014352 0.7760432 0.9932961

conv1.bias f4 [8]
000000 b6 bc 93 bf 4e c3 49 bf 2c 58 d1 bf a5 2f 8a be
       -1.1541965 -0.78813636 -1.6355033 -0.26989475
000010 ed e9 4d 3f da 81 28 bf bb 9c 96 bf 0e e3 dc 3e
       0.8043507 -0.6582314 -1.176658 0.4314198

conv2.weight f4 [16, 8, 5, 5]
000000 d1 2c 1c be b4 3d 22 3e 5f 65 b2 3e cc c0 cd 3e
       -0.15251471 0.1584385 0.34842965 0.40186155
000010 cc 51 60 be 85 64 83 be 5f 94 12 be 5e 74 f1 bc
       -0.21906203 -0.25662628 -0.14314412 -0.029474434
000020 97 6d 5a be 12 d9 0f 3f d6 83 e1 bc 56 8b 15 bf
       -0.21330868 0.561906 -0.027528685 -0.58415735
000030 f2 a1 e1 3d fd e8 8f be 8e 79 a8 be 2b 5d 4b 3d
       0.11017217 -0.28107443 -0.3290524 0.0496494
000040 55 90 00 bd 8f f6 2a be ef 5f 80 be 36 05 d0 3c
       -0.031387646 -0.16695617 -0.25073192 0.02539311
000050 a9 e7 0c 3e f5 ca 54 be 41 01 b8 3e 1c cf 7a 3e
       0.13760246 -0.20780547 0.35938457 0.24493068
000060 11 30 df 3e 7a 5e 48 3c a1 e3 85 3c 03 be 1e 3d
       0.4359136 0.012229556 0.016343893 0.038755428
000070 f4 5c de be 37 ed 04 bf 67 b6 2e 3e 23 e5 cf be
       -0.43430293 -0.5192446 0.17061768 -0.40604505
000080 90 49 c6 be e5 53 a3 be b1 a9 59 3e 9b f8 3e be
       -0.38728 -0.31899944 0.21256138 -0.18649523
000090 e7 f9 92 bc b4 a0 fe bb 27 e0 cb be cf 9d 4e 3e
       -0.017941428 -0.007770622 -0.39819452 0.20177387
0000a0 fb 95 ce 3e a3 ac 80 be 9a d2 1c 3e c4 37 ac 3e
       0.403488 -0.2513171 0.15314713 0.33636296
0000b0 40 7e 6f bd bf 2f 5f 3c 43 05 b3 3e 43 91 28 be
       -0.05847001 0.013622223 0.34964952 -0.16461663
0000c0 68 cb cd 3e 27 01 3d 3d 40 fd 06 be 28 22 c8 be
       0.4019425 0.046143677 -0.13182545 -0.3908856
0000d0 5a 83 ff 3d 9e 30 01 3f 84 91 50 bd 44 3b dd 3d
       0.12476225 0.5046481 -0.050920025 0.1080232
0000e0 61 d1 9b be 2e 82 f1 3e 52 23 8b be 80 31 05 be
       -0.3043318 0.47169632 -0.27175385 -0.13007164
0000f0 d0 58 37 3e 91 ff d8 3e 24 d5 cc be 2a 12 1d 3e
       0.17904973 0.42382482 -0.40006363 0.1533896
000100 f4 23 25 be a9 3e 88 bd b7 12 d6 3d 4a 5f 9f be
       -0.16126996 -0.066525765 0.10452788 -0.31127387
000110 83 0c ae bd ed 70 ad be 54 19 1c 3e dc 81 cf bd
       -0.0849848 -0.33875218 0.15244037 -0.101321906
000120 2d 1f a0 bd 5d bf 0b bf 11 0e 8c bd 6c b7 3b be
       -0.07818446 -0.5458887 -0.068386205 -0.18331689
000130 c2 66 89 3e cb da bd 3e 5b bf 7f 3e f5 c2 3f bc
       0.2683621 0.37080988 0.2497534 -0.011704196
000140 a0 30 ca bd 06 ad 37 be b6 3c a2 3d f1 1f 79 be
       -0.09872556 -0.17937097 0.07921736 -0.24328591
000150 17 03 ab bb ab 6d d8 be 55 76 ff bd 31 43 00 be
       -0.005218874 -0.4227117 -0.12473742 -0.12525631
000160 f0 17 97 be 97 a7 a1 3e 40 db 9b 3e 31 0e 18 3e
       -0.2951045 0.31573173 0.30440712 0.14849164
000170 cb 43 f4 3e 39 b1 c5 3c ec 18 39 be 9b 32 92 bd
       0.47707972 0.024132358 -0.18075913 -0.071385585
000180 c9 c1 23 be a1 f5 ad 3e dc fe 96 be ed e5 00 be
       -0.15991892 0.33976462 -0.29491317 -0.1258771
000190 9f 31 dd be ee 02 94 be 9a 3a 3c 3d 25 84 85 3e
       -0.4320192 -0.28908485 0.045954324 0.2607738
0001a0 14 9b bb be 15 4e 5e 3d cc 4e 13 3f 47 38 b6 be
       -0.36641753 0.054273684 0.5754211 -0.3558981
0001b0 7c 85 6c 3e 0e 7b 8a be 22 11 c9 3e 8a 0e bc bc
       0.23097795 -0.27047008 0.39270884 -0.022956152
0001c0 35 11 c3 be b5 45 e1 be fc b1 30 3e c3 79 b0 3d
       -0.38099065 -0.43998495 0.17255396 0.08616974
0001d0 7f 96 f1 be 28 2b c9 3d c2 19 ee 3e c4 c3 20 3d
       -0.47185132 0.098226845 0.46504027 0.039249197
0001e0 2d 98 7a be 5d 7a 1b 3e 69 47 ed be e0 7b c8 3c
       -0.24472113 0.15183397 -0.46343544 0.02447313
0001f0 0a 79 5f 3e 7a 6f ad 3e 9d 2a fa be c8 13 f2 be
       0.21823516 0.33874112 -0.48860636 -0.47280717
000200 64 60 fa 3e 8e 6a 87 be 41 16 6a bd 63 0e 84 3e
       0.48901665 -0.26448482 -0.05715013 0.25792226
000210 a1 d0 21 bd 3e d6 63 3c 92 f2 22 3e 8b 09 60 bd
       -0.039505605 0.01390606 0.15912846 -0.0546966
000220 e5 b1 6f be 2b e9 dd be 8e 30 06 bf a1 c3 ae 3e
       -0.23407705 -0.43341956 -0.5241784 0.34133628
000230 42 7f 1e bf 6f b3 0f bf c9 94 9a 3e 72 68 a5 3e
       -0.6191293 -0.5613317 0.3019164 0.32306248
000240 26 9d d4 3e 5c d9 ca 3e b4 1b 71 be 43 6c 0b 3f
       0.41526145 0.39618957 -0.23545724 0.5446207
000250 72 80 59 3e e3 24 b6 3e 8b 0a e9 3e ba 71 d5 bc
       0.21240404 0.35575017 0.45515856 -0.026055206
000260 dd 06 2d 3e 80 5d f3 bd 24 27 10 3d ad cf 6f be
       0.1689715 -0.11883068 0.035193577 -0.23419066
000270 17 d9 aa 3e b2 75 f5 3e 30 12 1e bf 45 4b 1b bc
       0.3336875 0.47941357 -0.617465 -0.009478395
000280 4d f2 83 be f8 fa 20 3e 27 4a 07 3f d3 17 d4 bd
       -0.25770798 0.15720737 0.5284752 -0.103561066
000290 a5 94 e3 be fc aa 31 be d0 bb 6d be db 5f d2 be
       -0.44449344 -0.17350382 -0.23216176 -0.41088757
0002a0 51 91 f5 3c 35 40 08 3d 80 0c ff be 82 40 95 be
       0.029976519 0.033264358 -0.49814224 -0.29150778
0002b0 e8 0a 80 3e 69 5e bf 3d 1d b4 b9 be 00 cb 45 3e
       0.2500832 0.09344179 -0.36270228 0.1931572
0002c0 82 0b 18 bf 62 60 1a bf 53 61 7d 3b 67 a0 bb 3e
       -0.5939256 -0.6030332 0.0038662746 0.36645815
0002d0 f0 19 a8 be d3 f6 ba 3c 50 f8 f7 3e fe d5 fd 3e
       -0.3283229 0.022822773 0.48431635 0.49577326
0002e0 c7 52 a3 be 6e ea b4 bc 97 a4 a6 be 47 2f c2 3e
       -0.31899092 -0.022084441 -0.32547447 0.37926695
0002f0 80 73 ee 3e 36 e2 8a be 16 f2 5d 3e 78 1a f5 be
       0.46572495 -0.2712571 0.2167438 -0.47871757
000300 5f 38 8f 3e c9 9e 03 bf 3b f5 e5 be 92 10 1d 3e
       0.27972695 -0.5141416 -0.44913658 0.15338352
000310 7c 41 e9 3e 9a a8 7c 3e 1f 6e a9 3e 94 7a 38 3d
       0.45557773 0.24673691 0.33091828 0.045038775
000320 0a 28 92 3e db f9 00 bf bf 11 ec be 32 68 27 bf
       0.28546172 -0.5038125 -0.4610729 -0.65393364
000330 19 f0 1e 3e 50 cc e8 3e 37 25 25 3f 2d 0d 00 3e
       0.15521277 0.45468378 0.6450991 0.12505026
000340 a4 81 eb 3e 4b 83 27 bf ef 2b bf be c4 70 9c be
       0.45997345 -0.6543471 -0.37338206 -0.30554783
000350 f5 a4 b1 3e 58 04 b6 be b5 14 ae bd 34 1a ef be
       0.34696165 -0.3555019 -0.08500043 -0.4669968
000360 c1 c2 04 be d7 42 cc 3d 83 14 d7 be ac cb 3b 3d
       -0.12964918 0.09973686 -0.42007837 0.045848534
000370 5b b9 f5 be 9e c0 a4 be bb ef 0a bf f9 d3 fb 3e
       -0.47992977 -0.32178205 -0.5427205 0.4918516
000380 3e eb 44 bc a4 72 99 be 59 a7 b1 be 51 4f c3 3e
       -0.012018977 -0.29970276 -0.3469799 0.3814645
000390 c8 a2 dd 3e 77 4b 3b bd ad e1 13 3f c7 17 b9 3d
       0.43288255 -0.045726266 0.5776623 0.09037738
0003a0 9d ab 89 be db 97 5d be 8f 44 2f bd 2c cf 22 be
       -0.26888743 -0.2163996 -0.042789992 -0.15899342
0003b0 f5 69 8c 3e 71 d2 6e be 31 90 b8 be 29 9e a4 3e
       0.2742459 -0.23322465 -0.3604751 0.32151917
0003c0 c3 56 d4 be 57 01 bf 3e 80 1e d8 bd 9a 14 8a 3e
       -0.41472444 0.3730571 -0.105526924 0.26968843
0003d0 41 04 c3 bc b8 12 a8 3e 9b a1 9d 3e 2c 44 fc 3c
       -0.02380574 0.3282678 0.30787358 0.030794226
0003e0 0e 27 26 3f 15 55 58 3e 7d b6 b1 be 6f d6 0b 3f
       0.6490334 0.21126206 -0.3470954 0.54624075
0003f0 d2 a9 d9 be b6 57 8c be 88 72 a8 3e f3 fa 75 be
       -0.42512375 -0.27410668 0.3289988 -0.24021511

conv2.bias f4 [16]
000000 8e 52 8f 3e ef a2 16 bf 78 1d 26 3e 29 2d f6 be
       0.27992672 -0.58842367 0.16222179 -0.4808133
000010 64 48 94 3e 71 a3 1c 3f a1 ab 71 be ba 3b 9e 3e
       0.2896148 0.6118689 -0.23600627 0.30904943
000020 e9 29 15 bf 49 37 24 3e 53 72 00 3f 03 53 a7 be
       -0.58267075 0.16036715 0.50174445 -0.3268052
000030 66 a7 70 be a4 80 9e 3d 84 52 24 3e be 31 d3 be
       -0.23501357 0.0773938 0.16047102 -0.41248888

fc1.weight f4 [10, 256]
000000 7f 1f 0b be aa f3 2a 3e b1 79 48 3e bf 30 9a 3d
       -0.13586234 0.16694513 0.19577672 0.07528829
000010 50 ef a1 be 59 ec cd bd 45 5a 11 3d 4b 4a c9 be
       -0.31627893 -0.10054845 0.03548648 -0.39314494
000020 a9 fe dd 3e 96 b8 04 bf 46 5e b9 3d cf be c5 be
       0.43358353 -0.51844156 0.09051184 -0.38622138
000030 d8 6d ba 3e 03 a7 0a be 46 d1 a3 be 7c 67 63 3e
       0.3641193 -0.13540272 -0.319956 0.22207445
000040 7d 67 dd be 48 57 73 3e 44 6e ca bd 12 e2 ac 3e
       -0.43243018 0.23763764 -0.09884313 0.33766228
000050 f4 08 90 3e 76 5e 34 3e dc fc ea 3e ae 26 83 be
       0.2813183 0.17614159 0.4589604 -0.25615448
000060 36 24 40 bd 23 76 37 3e ff 89 e8 3e e9 a2 70 3e
       -0.046909533 0.1791616 0.45417783 0.23499645
000070 21 de 85 3e c3 8b a3 3d fc d3 13 be 8e 84 5b 3e
       0.26146033 0.07985642 -0.14436334 0.21437284
000080 05 f8 8a be 7b fc c6 3d 49 b9 6a be ac c7 78 3e
       -0.2714235 0.097161256 -0.22922243 0.24294919
000090 85 86 a6 3e 40 8c b7 3e 0b 37 bb be 51 6c 9e be
       0.32524505 0.3584919 -0.36565432 -0.30942014
0000a0 10 9d cf 3e 68 9c ea bd bc 37 b1 3e 2d 4e 6c be
       0.40549517 -0.114556134 0.34612834 -0.23076697
0000b0 e3 5c 50 bd 55 f4 9f be ae 74 c6 3d a6 c7 8c be
       -0.050869834 -0.31241098 0.09690224 -0.2749607
0000c0 c7 98 d7 be 51 44 e7 bc 53 4c 56 3e bc 07 01 bc
       -0.42108747 -0.028230818 0.20927553 -0.007875379
0000d0 21 3a b2 3e 4c b9 a9 3e 10 74 11 3e 46 a1 11 bf
       0.34809974 0.33149183 0.1420443 -0.5688671
0000e0 24 de 7a be d6 29 96 3e 52 89 ef be cb 4e 88 3e
       -0.24498802 0.29328793 -0.46784455 0.26622614
0000f0 05 fe 92 be 35 28 b3 3e 30 14 a3 be 60 ce d3 bd
       -0.28709427 0.34991613 -0.3185134 -0.10342097
000100 15 80 78 3e 09 61 c6 3b 51 ca b6 be 8e 14 ec be
       0.2426761 0.006054048 -0.3570123 -0.46109432
000110 28 4c 79 bc ad 75 6e 3d 94 27 69 3e dd 4e 6a 3e
       -0.015215911 0.058217693 0.22769004 0.22881646
000120 46 f1 c1 3e 6e 63 e0 3e 99 0f 87 be a2 20 64 be
       0.3787939 0.4382586 -0.26379088 -0.22278073
000130 4a fe 72 3e ed 4b 7a be 00 4a 07 bc cc 87 cc be
       0.23729816 -0.24443026 -0.008257389 -0.39947355
000140 82 1e 09 bf b5 ca d5 bd 39 12 cd 3c 96 fc e1 3e
       -0.53562176 -0.10439054 0.025033103 0.4413802
000150 e5 7f 9b be 5d 50 52 3d 1b a4 99 be 2e a1 98 3e
       -0.30371013 0.05134617 -0.30008015 0.2981047
000160 5e bd 06 bf 04 43 dc 3c 5c 7f 6d 3e ad 47 d2 be
       -0.526327 0.026887424 0.23193115 -0.4107031
000170 76 3a 3d bc 5c aa 9e 3e b0 d3 71 be d2 e1 16 bf
       -0.011549583 0.3098935 -0.23615909 -0.58938324
000180 1b 22 ee be 4a e2 e0 be db 4c 9d be 34 ec 6b 3e
       -0.46510395 -0.43922645 -0.307227 0.23039323
000190 09 6e e1 be 8b de 7b bd bf 40 15 be 5b 86 00 bf
       -0.44029263 -0.06149153 -0.1457548 -0.5020501
0001a0 86 07 9b be 78 0c 6a 3e a9 ca 9a be b8 dc 1d bd
       -0.30279177 0.22856319 -0.30232742 -0.038540572
0001b0 bd b4 6c 3d 1b b2 e2 be e8 df 73 3e 8c a0 10 bf
       0.057789553 -0.4427651 0.23815882 -0.56494975
0001c0 a3 7d b3 3d ae 42 9d 3b 28 d5 e1 3e 71 c1 6e be
       0.08764198 0.0047992086 0.44107938 -0.2331598
0001d0 36 8b 8f 3c 7f 97 bd be e0 0d 41 be e7 3f cf be
       0.017522436 -0.37029645 -0.18852949 -0.4047844
0001e0 2f f9 9e 3e ac d8 8d bd 57 93 18 3e 24 dc b6 3e
       0.31049487 -0.069260925 0.14899956 0.3571483
0001f0 a3 c3 8f 3e 68 4e 85 3d 5f b2 0b 3b b1 1d 9d be
       0.28078946 0.065090954 0.0021316034 -0.30686715
000200 cf 0c e5 3e b0 4f 35 3d ff 95 02 bf e1 8f cc 3d
       0.44736335 0.04426545 -0.51010126 0.0998838
000210 0c ed e0 ba a8 57 f1 be 1e 46 d8 be 61 28 a9 3e
       -0.0017160489 -0.4713719 -0.42240995 0.3303862
000220 e5 0f d1 be 4f ea 00 bf e1 41 56 3e c2 ad 40 3e
       -0.4083244 -0.50357527 0.20923568 0.18816283
000230 9d 56 a6 3e 92 6e cc bd 82 9c d6 be 2a 50 3a be
       0.32487956 -0.09982027 -0.4191628 -0.18194643
000240 7d e3 a6 be 90 19 7b 3d 12 40 35 3e e9 69 99 3e
       -0.32595435 0.061303675 0.17700222 0.29963616
000250 b3 b4 bc bd 0f da 99 be a3 93 dd 3e 16 85 3a be
       -0.09214153 -0.30049178 0.432767 -0.18214831
000260 06 89 c9 be 18 e3 19 be 84 c5 2e be 03 81 d8 be
       -0.39362353 -0.15028036 -0.17067534 -0.42285928
000270 e9 e2 c7 3e e6 ad ec 3e 43 f1 9b be c5 05 40 be
       0.39040306 0.46226424 -0.30457506 -0.18752201
000280 af 76 d4 3e 77 32 28 3e 79 bc c9 3e a9 73 93 3c
       0.41496798 0.16425501 0.39401606 0.017999487
000290 23 50 30 be 7c 7d 54 be c5 60 ac 3e 93 07 e3 3e
       -0.1721807 -0.20750993 0.3366758 0.44341716
0002a0 da 20 a2 3e 1d c5 90 bd 7d 43 1a 3e c6 04 96 bc
       0.3166569 -0.070688464 0.15064807 -0.018312823
0002b0 d7 11 85 3d 63 8d c6 be 94 e3 bb 3e cc 06 d4 be
       0.06497543 -0.38779745 0.36697066 -0.41411436
0002c0 60 e6 f0 3e 42 6d 0b 3e 0c 86 89 3e 3d 5d ce be
       0.47050762 0.13615897 0.26860082 -0.4030551
0002d0 ee 97 9e be dc 33 aa be 25 7c 1b bc 55 30 59 3c
       -0.30975288 -0.3324269 -0.009490048 0.013256152
0002e0 a5 ad 8d be f1 a6 c8 bc 48 3d f5 3e e9 90 b4 3d
       -0.27671543 -0.024493666 0.47898316 0.08816702
0002f0 53 51 fd 3d 65 11 0b 3e fb 81 1e 3e 47 21 24 bd
       0.12369027 0.13580854 0.15479271 -0.0400708
000300 e1 9f 3f 3e 09 9a 64 3c 06 3d ad 3d 15 ea f5 be
       0.18713333 0.0139527405 0.08458905 -0.48030153
000310 e3 74 74 bd dc 04 bd be 0a 25 8b 3e 8c 8b 29 be
       -0.059681784 -0.3691777 0.27176696 -0.16557139
000320 10 6d b5 3d 3d d9 12 3e a2 c4 d4 3e 34 e8 dc 3e
       0.08858693 0.14340682 0.4155627 0.43145907
000330 28 f3 43 bd 70 0f 7e be 6d 15 a3 be 04 13 2a 3e
       -0.047839314 -0.24810576 -0.31852284 0.16608816
000340 61 68 2b be 3e e7 2d bd 53 e7 83 be 73 78 11 3e
       -0.16739036 -0.042456858 -0.25762424 0.14206104
000350 a2 d5 31 3e bf 76 b2 3e 04 f4 8b be 07 ce 04 bf
       0.1736665 0.3485622 -0.27334607 -0.5187687
000360 65 cd 05 3e e7 ef b9 3d 68 d7 51 be b8 f1 4c 3d
       0.13066633 0.09078961 -0.20492327 0.05003521
000370 ae aa 87 3e b4 53 9a 3e 4b 35 d9 be 02 eb 6c 3c
       0.26497406 0.30141985 -0.42423472 0.014460327
000380 25 2d 96 3e 58 e5 ae be 77 cf 8f 3e ce 0d ca 3e
       0.29331318 -0.3415935 0.2808797 0.39463657
000390 2f d5 94 be a5 88 b3 be 17 69 92 bd 0b 86 e2 3e
       -0.29068896 -0.3506519 -0.071489505 0.44242892
0003a0 05 5c 6d 3e 2e 23 f1 be 24 6e 08 bf 41 46 70 3d
       0.23179634 -0.47097152 -0.5329306 0.05866075
0003b0 81 f9 97 3e 0d 29 81 bc ea 00 cd be 25 92 af be
       0.29682544 -0.015766645 -0.4003976 -0.34291187
0003c0 0f 57 b1 3e 64 d7 a1 3e 5a d1 65 bd 1d 3a 0e bf
       0.34636733 0.31609643 -0.056107856 -0.55557424
0003d0 50 50 2c be f7 3c a1 3e e1 e7 15 be ee 88 96 bc
       -0.16827512 0.31491825 -0.14639236 -0.01837584
0003e0 7c a4 ad 3d 80 d0 87 bd 76 45 87 3e 44 f2 a5 be
       0.084786385 -0.06631565 0.26420182 -0.32411397
0003f0 e7 a4 fa 3d 03 dd 05 3e 01 20 04 3f 2d 57 da 3d
       0.12238484 0.1307259 0.51611334 0.10661159

fc1.bias f4 [10]
000000 77 37 12 bd b5 62 97 3d cf 64 01 be 1e 56 e4 be
       -0.035697427 0.07391874 -0.12636112 -0.44596952
000010 84 08 86 3e 35 6d bd 3e 06 6f 97 be 5e 7d f4 bc
       0.26178372 0.3699738 -0.29576892 -0.029844936
000020 bb 86 be be e4 37 0b bf
       -0.37212166 -0.5438216
