sandbox/snapshots/model-8424.pt (torch, 26159 bytes, 6 tensors)

conv1.weight f4 [8, 1, 5, 5]
0	0x3c79635d	0.015221444
1	0xbe0fec94	-0.14055091
2	0x3df6c5e8	0.12049466
3	0xbd9d1cb3	-0.076714896
4	0xbd6f9bc3	-0.058498155
5	0x3e0a20b8	0.13489044
6	0xbd65bc0d	-0.056087542
7	0xbc81c152	-0.015839253
8	0x3b451cfb	0.0030077088
9	0x3d759f12	0.059966154
10	0xbe289f93	-0.16467123
11	0x3d6b0fe9	0.05738822
12	0xbd9e4034	-0.077270895
13	0xbdbe6891	-0.09297288
14	0xbdf014b1	-0.117226966
15	0xbd87d19d	-0.066317774
16	0xbdc9a0a2	-0.098450914
17	0x3b49981b	0.0030760828
18	0xbc5a3336	-0.013317874
19	0xbd400220	-0.046877027
20	0xbe004236	-0.12525257
21	0xbda4ab62	-0.08040501
22	0x3df5739e	0.11984943
23	0x3e2576f7	0.16158663
24	0x3e015c66	0.12632903
25	0xbe00f3a3	-0.1259294
26	0x3dc9c407	0.098518424
27	0x3e899b9a	0.26876527
28	0x3e8a4c3d	0.2701129
29	0x3ecbc082	0.3979531
30	0x3d6851a1	0.056718472
31	0x3c4c3675	0.012464155
32	0x3e429cf9	0.19005193
33	0x3e0e672c	0.13906544
34	0x3dd8f67e	0.1059389
35	0xbdfbbec8	-0.12292248
36	0xbe7ec4d4	-0.24879771
37	0xbe8803ca	-0.2656539
38	0xbea3b172	-0.31971318
39	0xbe1fe402	-0.15614322
40	0x3e36d6e8	0.17855418
41	0xbe25a02e	-0.16174385
42	0x3cb1dbf4	0.021711327
43	0xbe3324e2	-0.17494538
44	0xbe447862	-0.19186547
45	0x3d976717	0.0739271
46	0x3e854c94	0.26034987
47	0xbd358288	-0.044313937
48	0x3e059329	0.13044418
49	0x3d09ad4a	0.033612527
50	0x3d56ec21	0.052471284
51	0x3e87ae1e	0.26500028
52	0x3e3183d6	0.17335448
53	0xbd3513ec	-0.044208452
54	0x3d917a6f	0.071034305
55	0xbdacf35c	-0.084448546
56	0x3e92f5a3	0.2870303
57	0x3df44fff	0.119293205
58	0xbe4de6e8	-0.20107615
59	0xbdf2c0cc	-0.11853179
60	0x3cec5368	0.028848365
61	0x3d95d66e	0.0731629
62	0x3da0280b	0.078201376
63	0xbd6d9c3f	-0.058010336
64	0xbd8068b2	-0.06269969
65	0x3e2c36af	0.16817735
66	0x3e4202a9	0.18946327
67	0xbdcc1928	-0.09965736
68	0xbd9f8205	-0.07788471
69	0xbe293fd5	-0.16528256
70	0x3dce4405	0.100715674
71	0x3e122b29	0.14274277
72	0xbdad3ac6	-0.08458476
73	0x3d50baaf	0.050959285
74	0xbe3d93d9	-0.1851343
75	0xbe2cf46d	-0.16890116
76	0xbd95af0d	-0.07308779
77	0xbe542cf7	-0.20720278
78	0x3e11d903	0.1424294
79	0x3d8cd9a1	0.06877447
80	0xbe621e57	-0.22081886
81	0x3cd521e4	0.026017137
82	0xbe22573c	-0.1585359
83	0x3e275856	0.16342291
84	0x3cea60c8	0.028610602
85	0xbe1ffe4d	-0.15624352
86	0xbe0762dc	-0.13221306
87	0xbe10c808	-0.14138806
88	0x3e92e769	0.28692177
89	0x3e9684cc	0.2939819
90	0x3ce7ae90	0.02828148
91	0xbde8a4db	-0.11359569
92	0x3e8a5184	0.27015316
93	0x3cbcdb5e	0.023053821
94	0x3e63d919	0.22250785
95	0xbe8083d6	-0.25100583
96	0xbd18bb8d	-0.037288237
97	0x3ea31803	0.31854257
98	0x3e8af568	0.27140355
99	0xbd07998f	-0.03310543
100	0xbd5d7b0f	-0.054072436
101	0xbcac23af	-0.021013109
102	0xbe4a9d50	-0.19786572
103	0xbc60a806	-0.013711935
104	0xbd708334	-0.058718875
105	0xbde2e69b	-0.11079141
106	0x3de99f63	0.11407354
107	0xbdac17d4	-0.08402982
108	0xbd4c10ac	-0.049820587
109	0xbdce0b2b	-0.10060724
110	0xbe107f3f	-0.1411104
111	0x397f0cfa	0.00024323529
112	0x3e042fef	0.1290891
113	0x3dde68da	0.108598426
114	0x3b920612	0.00445629
115	0x3d473c55	0.04864152
116	0x3e2ffab1	0.17185475
117	0xbe57d35d	-0.21076722
118	0xbcb75548	-0.022379532
119	0x3bd98c30	0.006639026
120	0xbe12ad3b	-0.14323895
121	0x3e247c03	0.16062932
122	0xbe2bf13b	-0.16791241
123	0x3e19a754	0.15005237
124	0xbd7f1ce6	-0.06228342
125	0xbe110a0d	-0.1416399
126	0x3d2908c3	0.04126812
127	0xbdaff239	-0.08591122
128	0xbe83cffb	-0.25744614
129	0xbe14fe93	-0.14550237
130	0xbd4753f2	-0.04866404
131	0xbdc1dca2	-0.094659105
132	0xbe566e31	-0.20940472
133	0xbe1e6b6b	-0.15470664
134	0xbeb2b659	-0.34904745
135	0x3ebbe9af	0.36701724
136	0xbb2e0e03	-0.0026558645
137	0xbe5709de	-0.20999858
138	0xbe69d61b	-0.22835581
139	0xbd8122fc	-0.06305501
140	0x3ea1cb38	0.31600356
141	0x3efff506	0.49991626
142	0x3ecfa469	0.40555122
143	0x3e8bcb5c	0.27303588
144	0x3e939330	0.28823233
145	0x3ee182f8	0.44045234
146	0x3ef98b5f	0.48739144
147	0x3e53d085	0.20685013
148	0x3ecb54b4	0.3971306
149	0x3e87fd8b	0.26560625
150	0xbe68a842	-0.22720435
151	0xbe72ac45	-0.23698528
152	0xbe1671dc	-0.14691871
153	0x3e0d998e	0.13828108
154	0x3e919103	0.28430948
155	0xbe5eefd4	-0.21771175
156	0xbd1f883f	-0.038948294
157	0xbd96ac63	-0.07357099
158	0x3e268916	0.16263232
159	0x3e417556	0.18892416
160	0xbe8460ae	-0.2585501
161	0xbe27fcdd	-0.16405053
162	0xbde8f44a	-0.113747194
163	0x3eb34643	0.35014543
164	0x3e899dd2	0.2687822
165	0xbe812ac6	-0.25227946
166	0xbdbbced7	-0.09170311
167	0x3e88ac77	0.2669408
168	0x3e9727d9	0.2952259
169	0x3ddd5f81	0.108092315
170	0x3c4f9305	0.0126693295
171	0x3e27e64a	0.16396442
172	0x3ddaf6e3	0.10691621
173	0x3e87de17	0.2653663
174	0xbba2dc85	-0.0049701356
175	0x3e64bb8a	0.22337165
176	0x3e773e5d	0.24144883
177	0x3e6ca588	0.2311002
178	0x3e264696	0.16237864
179	0xbe2f279f	-0.17104958
180	0x3e8840a6	0.26611823
181	0x3f0a7336	0.5408205
182	0x3f388630	0.72079754
183	0x3ea4f3ce	0.32217258
184	0x3e6db6ea	0.23214307
185	0x3e85d5bb	0.26139626
186	0x3efe572a	0.49675876
187	0x3f2c1750	0.6722307
188	0x3f2e78d8	0.6815314
189	0xbcf2667d	-0.029589886
190	0x3e98f2df	0.29872796
191	0x3f500cc8	0.812695
192	0x3f647c76	0.8925241
193	0x3f105879	0.56385
194	0x3e716ef2	0.23577479
195	0x3e62c682	0.22146037
196	0x3eeb1819	0.45916823
197	0x3f393d5f	0.7235927
198	0x3efab780	0.48968124
199	0x3caa9612	0.020823512

conv1.bias f4 [8]
0	0xbd137320	-0.035998464
1	0x3c7dbb0a	0.015486488
2	0xbd582a7d	-0.052774895
3	0xbdb00723	-0.08595111
4	0xbdfd25bd	-0.12360714
5	0x3d1dc097	0.038513746
6	0x3db143ff	0.08655547
7	0x3918056a	0.00014497867

conv2.weight f4 [16, 8, 5, 5]
0	0x3b36ab10	0.0027872957
1	0xbc146dba	-0.009059364
2	0xbd707314	-0.058703497
3	0xbb736e46	-0.0037144586
4	0xbcb15a9e	-0.021649655
5	0x3d6f14d6	0.05836948
6	0xbd721004	-0.059097305
7	0xbcb3533c	-0.021890275
8	0xbcc2f71c	-0.023799472
9	0xbbfeca65	-0.007775592
10	0xbd63f343	-0.055651914
11	0xbd2c0d20	-0.042004704
12	0xbb8b8ad5	-0.0042584934
13	0xbca586a2	-0.0202058
14	0x3d3476dd	0.04405867
15	0xbccc3994	-0.0249298
16	0x3c8d22db	0.017228534
17	0x3d86da23	0.06584575
18	0xbc71793d	-0.014738378
19	0x3d61c6c9	0.055121217
20	0xbd44032e	-0.047854595
21	0x3cd03c77	0.025419457
22	0x3c33511f	0.010944634
23	0xbaa47722	-0.0012547711
24	0xbcaa3ca1	-0.020780863
25	0x3d8ec1d7	0.06970566
26	0xbcd9c6c7	-0.026584042
27	0x3d9565eb	0.0729483
28	0xbccb8037	-0.024841411
29	0xbad246df	-0.001604285
30	0x3d94d0b0	0.072663665
31	0x3c7c8db7	0.015414647
32	0xbd0141b3	-0.031556796
33	0x3bec243a	0.007206467
34	0xbc34ee53	-0.011043149
35	0xbd2750a9	-0.040848408
36	0x3d89d388	0.067297995
37	0x3d59fa9b	0.05321751
38	0x3da75b2b	0.08171686
39	0x3c80e8a5	0.015735934
40	0x3d70f514	0.058827475
41	0x3d58caa2	0.05292762
42	0x3cc24bae	0.023717728
43	0x3d7fe9c6	0.062478803
44	0xbd5bf5a8	-0.053701073
45	0x3de3a2f3	0.111150645
46	0x3ce03f1e	0.027373847
47	0x3d96f5f2	0.07371129
48	0x3c350c89	0.011050352
49	0xbc77dfe8	-0.015129067
50	0xbc6f6043	-0.014610353
51	0x3c12ad91	0.008952514
52	0xbd871e55	-0.06597582
53	0x3d338e26	0.043836735
54	0xbd5a4bb3	-0.05329485
55	0xbcbd3586	-0.023096811
56	0x3c97229c	0.01844912
57	0x3c72fb7e	0.014830468
58	0xbbc4e309	-0.00600851
59	0x3d85b423	0.06528499
60	0xbd645328	-0.055743366
61	0xbd81ec6d	-0.06343923
62	0x3d17f333	0.037097167
63	0x3d9d809d	0.07690547
64	0x3da8d838	0.082443655
65	0x3cb62c21	0.02223784
66	0x3a6972fb	0.0008905378
67	0x3d9603cd	0.07324944
68	0x3d8f2e85	0.06991295
69	0x3d86ca7c	0.065815896
70	0x3d25124b	0.04030065
71	0x3d93c55b	0.07215377
72	0x3d921294	0.0713245
73	0xbc82aeb9	-0.015952455
74	0xbcd65372	-0.026162837
75	0xbcf7e376	-0.030259829
76	0xbdd4bfe5	-0.103881635
77	0xbd6d7dee	-0.057981424
78	0x3d8154d4	0.06315008
79	0x3d0a1c23	0.03371824
80	0xbbb105f1	-0.0054023196
81	0x3ba4c8d8	0.0050288253
82	0xbca33f6d	-0.019927705
83	0x3e038d7f	0.12846945
84	0x3d909efc	0.07061574
85	0xbd7bc498	-0.061466783
86	0x3bbe913a	0.005815652
87	0x3bd37d36	0.0064541353
88	0xbc2247a6	-0.009904778
89	0x3d361839	0.044456694
90	0x3d4c4de6	0.049878977
91	0x3db1cc37	0.08681529
92	0xbd9b6767	-0.07588082
93	0x3b045fa8	0.0020198617
94	0xbd988a98	-0.0744831
95	0x3cdba08f	0.026809959
96	0xbd978410	-0.07398236
97	0xbd6a9747	-0.057273176
98	0xbc9af222	-0.018914286
99	0xbdb868ad	-0.0900434
100	0x3d4eb665	0.050466914
101	0x3d5b9b8d	0.05361514
102	0xbd1a3bc2	-0.037654646
103	0xbd61f835	-0.05516835
104	0xbd6091f9	-0.05482671
105	0x3bb2b7c9	0.005454038
106	0x3d4fbbac	0.050716087
107	0xbca3f41d	-0.020013863
108	0xbca1c320	-0.019746363
109	0x3d4d2482	0.050083645
110	0x3cccc570	0.02499649
111	0x3d5d291b	0.05399428
112	0xbc0726c1	-0.008248986
113	0x3c942b95	0.018087188
114	0x3c93ba67	0.01803322
115	0xbd687ead	-0.056761432
116	0xbc353abf	-0.011061369
117	0xbd57540d	-0.05257039
118	0xbd8796a0	-0.06620526
119	0xbd8e2101	-0.06939889
120	0x3ccb4b05	0.024816046
121	0xbd6ccf67	-0.05781498
122	0xbd6a7968	-0.05724469
123	0x3d8902ab	0.06689962
124	0xba9e2047	-0.0012064063
125	0x3ca2f993	0.019894397
126	0x3d772064	0.060333624
127	0x3c750b69	0.014956334
128	0xbd66035a	-0.05615554
129	0x3dcbd71d	0.09953139
130	0x3d21d38d	0.03950839
131	0x3d13f059	0.036117885
132	0x3cf3ad91	0.029745849
133	0xbcdb3e59	-0.026763128
134	0x3cf4096b	0.029789647
135	0xbc818be6	-0.01581378
136	0x3c90bc99	0.017668055
137	0x3dca6e27	0.09884291
138	0x3cbcbedd	0.02304023
139	0x3ca9b811	0.020717653
140	0x3ddb2cd9	0.107019134
141	0xbc88e5b8	-0.016711101
142	0xbd87583c	-0.06608626
143	0xbc83ba6f	-0.01608011
144	0xba001448	-0.00048858346
145	0xbd6ff1a4	-0.058580056
146	0xbdd7896c	-0.10524258
147	0xbe05874c	-0.13039893
148	0xbd4827f7	-0.04886624
149	0x3ac2b266	0.0014854192
150	0x3dc499ec	0.09599671
151	0xbbf2f92a	-0.0074149566
152	0xbdb7bd59	-0.08971662
153	0xbd94c127	-0.072634034
154	0xbbcc33c2	-0.006231756
155	0xbd4626e2	-0.048376925
156	0x3c033680	0.008008599
157	0x3dd7c2d0	0.105352044
158	0x3e03955f	0.1284995
159	0x3c7e1e8b	0.015510212
160	0xbd030e7f	-0.031996246
161	0x3aa26c79	0.0012391947
162	0x3e131112	0.1436198
163	0x3d6c339c	0.057666406
164	0xbc687dde	-0.014190165
165	0x3da5dab9	0.08098359
166	0x3d9b9651	0.0759703
167	0xbae4527d	-0.0017419603
168	0x3ccd701f	0.025077878
169	0xbe1294dd	-0.143146
170	0xbc0ee307	-0.00872112
171	0xbb46addf	-0.0030316038
172	0xbd9085d5	-0.070567764
173	0xbc8d732b	-0.01726683
174	0xbdf3e888	-0.11909586
175	0x3d9c3707	0.07627683
176	0x3b16bdf1	0.0023001397
177	0xbe364aa2	-0.17801908
178	0xbbee8be0	-0.007279858
179	0xbd570051	-0.052490536
180	0x3be54c80	0.006997645
181	0xbdfaf7e8	-0.122543156
182	0xbc960347	-0.01831211
183	0x3e3825e1	0.179832
184	0x3e4ab269	0.1979462
185	0xbe52e359	-0.20594539
186	0x3dbf4e75	0.09341136
187	0x3e2bad5f	0.16765355
188	0x3e8928c5	0.26788917
189	0x3d8a184b	0.06742915
190	0x3d589bee	0.05288308
191	0x3e9e8685	0.30962005
192	0x3e2c1cd6	0.16807875
193	0x3bb4baf2	0.0055154497
194	0xbe18b7f3	-0.14913921
195	0x3e790497	0.24318157
196	0x3d0e8930	0.0347988
197	0xbdbd938e	-0.092566594
198	0xbe2c0dd0	-0.16802144
199	0xbe6d39cd	-0.2316658
200	0xbd076e34	-0.033064082
201	0x3d938e81	0.07204915
202	0x3d37abdb	0.04484163
203	0xbb2a77f0	-0.002601143
204	0x3bc9fff9	0.0061645475
205	0xbd5102c5	-0.05102803
206	0x3d5962fe	0.053072922
207	0x3dbae3e1	0.09125496
208	0x3d565f40	0.05233693
209	0x3cadf2ad	0.02123388
210	0xbd8b7555	-0.06809489
211	0xbd58a3a9	-0.052890453
212	0xbbb8fdc1	-0.005645484
213	0x3ba5c29c	0.0050585996
214	0xbd0e236e	-0.034701757
215	0xbd906c41	-0.07051898
216	0xbcf20e07	-0.029547704
217	0x3d808ccf	0.06276857
218	0xbd43d329	-0.0478088
219	0x3c82f64d	0.015986586
220	0x3c2732c1	0.010204972
221	0xbd573b90	-0.052547038
222	0x3c1cdb5d	0.009573785
223	0x3c7e47a8	0.015520014
224	0x3c23e24c	0.010002684
225	0x3d3c285f	0.04593694
226	0xbd0b931f	-0.034075852
227	0x3dade4be	0.08490895
228	0x3cfe6928	0.031056002
229	0xbba0a271	-0.004902177
230	0xbbab2b00	-0.005223632
231	0xbc4a6868	-0.012353994
232	0x3c7f93a1	0.015599162
233	0x3dbaba59	0.09117574
234	0x3dd63dfc	0.10461041
235	0x3d730707	0.059332874
236	0xbd31e731	-0.043433372
237	0x3b950765	0.0045480006
238	0x3d17982f	0.037010368
239	0x3cf69fda	0.03010552
240	0x3d3bd7f5	0.04586025
241	0x3e1e220e	0.15442678
242	0x3e0d796d	0.13815852
243	0x3e222686	0.15835008
244	0x3df12bbd	0.117759205
245	0x3d0a8d7b	0.033826333
246	0x3d985217	0.074375324
247	0x3dd0dc6e	0.101982936
248	0x3d44fdd0	0.048093617
249	0x3d69f5cb	0.057119172
250	0xbcdf9955	-0.027294794
251	0x3c7cbbbc	0.015425619
252	0x3d2a9d03	0.041653644
253	0x3b912a79	0.004430112
254	0xbd9df7f7	-0.07713311
255	0xba40dc66	-0.00073570607

conv2.bias f4 [16]
0	0xbd4297f5	-0.0475082
1	0x3de0b30f	0.10971653
2	0x3d67c1da	0.056581356
3	0xbd679c01	-0.05654526
4	0xbd599d8c	-0.053128764
5	0xbd3ffa31	-0.04686946
6	0x3c506d01	0.012721301
7	0xbbe0cf95	-0.006860683
8	0x3d890190	0.06689751
9	0x3d5d7400	0.054065704
10	0xbbb38f0c	-0.005479699
11	0x3d3604ed	0.04443829
12	0x3d4f2524	0.05057253
13	0x3ce76d0d	0.028250242
14	0x3c0ac9b5	0.008470942
15	0x3dc51cc6	0.09624629

fc1.weight f4 [10, 256]
0	0x3ccde369	0.025132852
1	0xbcefcb4e	-0.029271748
2	0xbd81fcdf	-0.063470595
3	0xbc70f936	-0.014707854
4	0x3d91c8d8	0.07118386
5	0x39cb34bd	0.0003875847
6	0xbe44ce68	-0.19219363
7	0x3ddd044c	0.10791835
8	0xbc1f4a00	-0.009722233
9	0xbe09d1d7	-0.13458954
10	0xbda8bd81	-0.0823927
11	0x3e800d80	0.250103
12	0x3be48490	0.0069738105
13	0x3c70cf62	0.014697881
14	0x3d015aac	0.031580612
15	0xbe3c20f6	-0.18371949
16	0xbd5c3c07	-0.053768184
17	0x3dac8d23	0.08425357
18	0x3e285a61	0.16440727
19	0x3bf8d129	0.007593293
20	0xbe4b405c	-0.1984877
21	0xbda555e1	-0.08073021
22	0xbdbacb32	-0.09120788
23	0xbd81dc23	-0.06340816
24	0xbe0fef1a	-0.14056054
25	0xbd8d6a5a	-0.069050506
26	0xbd202020	-0.039093137
27	0xbd51707a	-0.051132657
28	0x3cdf9642	0.027293328
29	0x3e411711	0.18856455
30	0x3d409b7e	0.04702329
31	0x3d22d264	0.039751425
32	0x3cb1eaf7	0.021718485
33	0xbc769443	-0.015049997
34	0x3d36337e	0.0444827
35	0xbc15cca4	-0.009143028
36	0x3e1f8a98	0.15580213
37	0x3c97e495	0.018541614
38	0xbe023bdd	-0.12718149
39	0x3e14c517	0.14528309
40	0x3dfc7717	0.12327402
41	0xbe3349ba	-0.17508593
42	0xbc83ae4d	-0.016074324
43	0x3db05027	0.08609038
44	0x3c1f77a9	0.009733119
45	0xbd88b31b	-0.06674787
46	0xbc0b9f0d	-0.008521807
47	0xbd126831	-0.035743896
48	0x3d0e57b6	0.034751616
49	0xbdb9a7a0	-0.09065175
50	0xbd913c3e	-0.070915684
51	0xbd585d6e	-0.052823476
52	0x3ce98940	0.028507829
53	0xbc61c5f9	-0.0137801105
54	0x3d8add2d	0.06780467
55	0x3e0bc055	0.13647588
56	0xbca08a56	-0.019597214
57	0xbcdde044	-0.027084477
58	0xbd104fe0	-0.035232425
59	0x3d42876c	0.04749243
60	0x3d778e1c	0.06043826
61	0xbd1d88b3	-0.038460445
62	0xbdb7ef4e	-0.089811906
63	0xbd65cec7	-0.0561054
64	0xbd4a4797	-0.04938468
65	0xbcaf4898	-0.02139692
66	0x3d2fecc9	0.042950425
67	0x3e05fee1	0.1308551
68	0xbcbdf1ac	-0.023186527
69	0xbd26a4ae	-0.040684395
70	0x3d844e34	0.064602286
71	0x3da763ab	0.08173307
72	0xbd0ce8a2	-0.034401543
73	0xbd8d9dbb	-0.0691485
74	0xbce22b67	-0.027608586
75	0x3d5876a1	0.05284751
76	0x3d957495	0.07297627
77	0xbd70ff68	-0.058837324
78	0xbe058df9	-0.1304244
79	0xbd9a92b0	-0.0754751
80	0xbd826e21	-0.06368662
81	0x3cc4bc79	0.024015652
82	0x3dca38bc	0.098741025
83	0x3e15815d	0.1460013
84	0xbd02765e	-0.031851165
85	0x3cad4c99	0.021154689
86	0x3dedb8e7	0.11607533
87	0x3df7e04b	0.12103327
88	0x3d97d736	0.07414095
89	0x3c81a474	0.015825488
90	0xbe0ae991	-0.13565661
91	0xbd90d0a0	-0.07071042
92	0x3dc1eb0e	0.09468661
93	0xbaaa9a3c	-0.0013015936
94	0xbde9ab32	-0.11409606
95	0xbe17bf3b	-0.14819042
96	0x3d36f471	0.04466671
97	0x3b35437b	0.002765863
98	0xbd81a9f0	-0.06331241
99	0xbaede53a	-0.001814998
100	0x3e036502	0.128315
101	0xbd173f5f	-0.03692567
102	0x3d369040	0.04457116
103	0x3dd8fbc4	0.105948955
104	0x3e129871	0.14315964
105	0x3d80df4b	0.0629259
106	0xb9d7615a	-0.00041080528
107	0xba5587c9	-0.0008145539
108	0x3d620319	0.055178735
109	0xbd20fc52	-0.03930313
110	0xbe3113df	-0.17292736
111	0xbce9e12d	-0.028549755
112	0xbd0a19f1	-0.033716146
113	0x3d5a6709	0.05332092
114	0xbcf59068	-0.029976085
115	0xbdbb211a	-0.09137173
116	0xbc650ab1	-0.0139796
117	0x3cb35ea2	0.02189571
118	0x3d176592	0.0369621
119	0x3e16cc24	0.14726311
120	0x3de5ed1c	0.11226866
121	0x3d8cf66f	0.06882941
122	0xbc642de8	-0.0139269605
123	0x3e156357	0.14588676
124	0x3db8cf4f	0.09023916
125	0xbd5241c9	-0.05133227
126	0xbe061bcc	-0.13096541
127	0xbc8fd2e3	-0.017556613
128	0x3ca6165e	0.020274337
129	0x3dfda08a	0.12384136
130	0x3da659e4	0.08122614
131	0x3dd8d090	0.10586655
132	0x3dfb7c87	0.12279611
133	0xbd31becc	-0.04339485
134	0xbdbe5298	-0.09293097
135	0x3d8f4fbb	0.06997629
136	0xbd8a89f2	-0.06764592
137	0xbe44e360	-0.19227362
138	0xbcd6ad0e	-0.026205566
139	0x3d8cfe7b	0.06884476
140	0xbe076a0e	-0.1322405
141	0xbddef672	-0.108868495
142	0xbca75001	-0.020423891
143	0xbd997f7b	-0.07495018
144	0xbdf0358b	-0.117289625
145	0x3d11aeed	0.035567213
146	0xbdb4235d	-0.087958075
147	0xbd8da59b	-0.06916352
148	0xbe74c682	-0.2390385
149	0xbe0cf367	-0.13764726
150	0xbde4969e	-0.111615404
151	0xbc55f257	-0.013058267
152	0xbd5d7a37	-0.05407163
153	0x3c709c55	0.01468571
154	0x3d21b368	0.039477736
155	0xbc680f4c	-0.014163803
156	0x3dff4077	0.124634676
157	0x3c1b387b	0.009473915
158	0x3c979953	0.018505728
159	0x3d4e7ebf	0.050413843
160	0xbdfbaf5a	-0.12289305
161	0xbddb28a6	-0.107011124
162	0x3b518baf	0.0031974127
163	0x3d7673f9	0.060169194
164	0xbe18273d	-0.14858718
165	0xbd1a8174	-0.037721112
166	0xbd18ea41	-0.037332777
167	0xbd79edaf	-0.06101769
168	0xbda2e204	-0.07953265
169	0x3da16274	0.078801066
170	0xbdbff0f4	-0.0937213
171	0xbc352403	-0.011055949
172	0xbcd8120e	-0.026375797
173	0x3caf8a68	0.021428302
174	0xbddb8d2a	-0.10720284
175	0x3d98b00f	0.074554555
176	0xbdb9420d	-0.09045801
177	0xbd0a1786	-0.03371384
178	0x3da9b881	0.082871445
179	0x3bb02e33	0.005376601
180	0x3d8cd9ea	0.06877501
181	0xbc23a1a2	-0.009987267
182	0x3da4ddaa	0.080500916
183	0x3dc4d877	0.096116
184	0x3dbb8ee9	0.09158117
185	0xbe0188ad	-0.12649794
186	0xbc614c64	-0.013751123
187	0xbd8563d7	-0.065131836
188	0x3e031302	0.1280022
189	0xbe147e17	-0.14501224
190	0xbd2e7569	-0.04259244
191	0xbd610057	-0.054931965
192	0xbd7502f5	-0.059817273
193	0xbd9d2423	-0.07672908
194	0xbd4bba39	-0.049738143
195	0x3daf4c21	0.08559442
196	0x3dba999a	0.091113284
197	0x3d064a8b	0.032785933
198	0xbd5efe5d	-0.0544418
199	0xbccfceb0	-0.025367111
200	0x3e08a5b3	0.13344459
201	0x3d9a86c8	0.07545239
202	0xbc943f8a	-0.018096704
203	0xbce05408	-0.02738382
204	0xbb8ffe10	-0.0043943003
205	0x3e030253	0.12793855
206	0xbd097687	-0.033560302
207	0xbb2b01d7	-0.0026093626
208	0x3d939225	0.07205609
209	0xbcff71d0	-0.0311822
210	0xb9358983	-0.00017312732
211	0x3e00ee94	0.1259101
212	0x3dd2f6c3	0.10300972
213	0xbdda7d01	-0.10668374
214	0x3d48b8b8	0.049004287
215	0x3dd0bd99	0.10192413
216	0x3da2152d	0.07914195
217	0x3cdcd441	0.02695668
218	0xbdae37e9	-0.08506758
219	0x3d6bba8f	0.057550963
220	0xbbc45b1b	-0.005992306
221	0x3e181f35	0.14855655
222	0xbde27549	-0.110575266
223	0xbde7a387	-0.11310487
224	0xbc42a2f2	-0.0118796695
225	0x3cf2b12c	0.029625498
226	0xbd4cb289	-0.049974952
227	0xbdb1a104	-0.086732894
228	0x3d0a3e4d	0.03375082
229	0xbd1a1047	-0.03761318
230	0x3a7da8a8	0.0009676316
231	0x3c9397a4	0.018016644
232	0xbd3b18a8	-0.04567781
233	0xbe13b745	-0.1442538
234	0xbc2e33ec	-0.010632496
235	0xbd973f05	-0.07385067
236	0xbd37a0b2	-0.044830985
237	0xbc91c5a9	-0.017794447
238	0xbd6fbca3	-0.058529507
239	0xbdb25070	-0.087067485
240	0x3cae1832	0.021251772
241	0x3d4b7e65	0.049681086
242	0x3d321545	0.043477315
243	0xbcc9cd0d	-0.024633909
244	0xbd96e5c3	-0.07368042
245	0xbcb5897d	-0.022160286
246	0xbd430a53	-0.047617268
247	0xbd5983a6	-0.053104065
248	0xbe2fc55a	-0.17165127
249	0xbd9ad1cc	-0.07559547
250	0xbd4064dc	-0.046971187
251	0x3d270bd8	0.04078278
252	0xbdb5282a	-0.08845551
253	0xbd8b0723	-0.067884706
254	0x3d114bc9	0.035472665
255	0xbcc56a19	-0.024098443

fc1.bias f4 [10]
0	0x3dfacaaf	0.1224569
1	0xbae2dd76	-0.0017308432
2	0x3d2df21b	0.042467218
3	0xbcec9c5d	-0.028883154
4	0xbdc882b3	-0.09790554
5	0x3cf152bc	0.029458396
6	0xbc9fb75e	-0.019496616
7	0x3b431815	0.0029768993
8	0xbcacc715	-0.021091023
9	0xbaaa6d36	-0.0013002518
