sandbox/snapshots/model-1056.pt (torch, 26159 bytes, 6 tensors)

conv1.weight f4 [8, 1, 5, 5]
0.015485521 -0.13704683 0.12331058 -0.07769339 -0.06253376 0.13648641 -0.052037783 -0.015031961
0.009905969 0.07941056 -0.16120791 0.06136051 -0.07289609 -0.082394466 -0.09787237 -0.064547665
-0.0940026 0.0017627941 -0.018256437 -0.06234456 -0.12768088 -0.095584646 0.07936634 0.111056365
0.068375476 -0.16930954 -0.0041411375 0.14746273 0.077175826 0.20235682 0.0244664 -0.07175333
0.14301987 0.07193326 0.051971972 -0.06513614 -0.18903926 -0.10692102 -0.15117608 -0.016255176
0.19699849 -0.12337171 0.15297967 -0.026955334 -0.077805735 0.017161641 0.20260523 -0.04600714
0.14042914 0.028747931 -0.006319861 0.18352386 0.13551411 -0.012734284 0.13284661 -0.15044549
0.1695495 0.056873273 -0.18221346 -0.07484989 -0.07941386 -0.070969515 0.025331 -0.015627407
0.009671587 0.12659624 0.11979304 -0.10187159 -0.026939588 -0.10296634 0.08796012 0.10645971
-0.06471955 0.10970888 -0.12499937 -0.1444142 -0.011843032 -0.15753394 0.07979113 -0.08589504
-0.18048258 0.08937015 -0.14315085 0.03294197 -0.13416925 -0.083052084 -0.05197504 -0.16246739
0.14553975 0.19377793 0.12954035 -0.021898137 0.2118175 -0.12744343 0.1603222 -0.18328725
-0.008081668 0.2271005 0.14426409 -0.0849303 -0.05288421 -0.022257604 -0.19813247 -0.0124808885
-0.05698787 -0.11092079 0.11369212 -0.082534134 -0.04455106 -0.095643856 -0.13767824 0.008535826
0.14164397 0.120066375 0.012059647 0.06114055 0.1835629 -0.20622133 -0.02269032 0.006536818
-0.13213614 0.16422114 -0.17269205 0.1438867 -0.06672574 -0.14473905 0.11082352 0.05617448
-0.13066256 -0.022601532 -0.095155016 -0.02920688 -0.016758446 0.020614894 -0.18809925 0.24520367
-0.027260337 -0.13944651 -0.18712467 -0.02925093 0.07942905 0.25077435 0.17023909 0.022843359
0.10514167 0.23906302 0.2305516 -0.08253738 0.13634767 0.06975903 -0.16241615 -0.13161454
-0.06447842 0.0667765 0.12329648 -0.110757396 0.11065753 0.011584141 0.034715053 0.0010886617
-0.16933772 -0.07089639 -0.11972189 0.1867727 0.1395251 -0.18719065 -0.06626436 0.16880551
0.1346846 0.04598748 0.07157161 0.13024165 -0.033440072 0.13246284 -0.04778289 0.14734943
0.14157261 0.12566602 0.15827857 -0.069992945 0.14315054 0.32291684 0.44241747 0.21614145
0.31030408 0.16385189 0.14817178 0.15536782 0.3849728 -0.08859845 0.20102768 0.42158106
0.35279366 0.21323317 0.08648522 0.24657054 0.32750553 0.44285163 0.22041209 -0.12593459
00000000: fcb6 7d3c 0156 0cbe 428a fc3d b61d 9fbd
00000010: b311 80bd 18c3 0b3e 9225 55bd 9d48 76bc
00000020: a54c 223c 01a2 a23d b013 25be 2855 7b3d
00000030: 8c4a 95bd 6ebe a8bd 4f71 c8bd 9131 84bd
00000040: 6f84 c0bd 8e0d e73a 868e 95bc 025d 7fbd
00000050: c7be 02be e2c1 c3bd d28a a23d 8571 e33d
00000060: 7108 8c3d 7b5f 2dbe 61b2 87bb 7800 173e
00000070: 5c0e 9e3d a036 4f3e c26d c83c 69f3 92bd
00000080: cd73 123e bf51 933d 90e0 543d 1966 85bd
00000090: 8293 41be 68f9 dabd e7cd 1abe 9329 85bc
000000a0: f9b9 493e 4faa fcbd b4a6 1c3e 6fd1 dcbc
000000b0: 9d58 9fbd 9296 8c3c bf77 4f3e fc71 3cbd
000000c0: a8cc 0f3e c880 eb3c d616 cfbb aeed 3b3e
000000d0: 36c4 0a3e 75a3 50bc f108 083e 620e 1abe
000000e0: 629e 2d3e f3f3 683d 2a96 3abe e64a 99bd
000000f0: bca3 a2bd 7758 91bd f582 cf3c 0c05 80bc
00000100: 9375 1e3c 72a2 013e 0e56 f53d 0da2 d0bd
00000110: 69b0 dcbc 04e0 d2bd 6f24 b43d 8c07 da3d
00000120: af8b 84bd 0daf e03d abff ffbd 51e1 13be
00000130: 4709 42bc 9450 21be 8869 a33d bde9 afbd
00000140: 6dd0 38be b207 b73d 2396 12be 29ee 063d
00000150: aa63 09be 3617 aabd c8e3 54bd da5d 26be
00000160: 5f08 153e b96d 463e 3aa6 043e b963 b3bc
00000170: b0e6 583e 8880 02be 812b 243e a7af 3bbe
00000180: f968 04bc 098d 683e f7b9 133e f0ef adbd
00000190: 1d9d 58bd 9455 b6bc 3de3 4abe a47c 4cbc
000001a0: 1d6c 69bd 702a e3bd 6ad7 e83d a807 a9bd
000001b0: 2c7b 36bd ede0 c3bd 86fb 0cbe d9d9 0b3c
000001c0: 1e0b 113e 5ce5 f53d d395 453c 836e 7a3d
000001d0: eaf7 3b3e af2b 53be 0de1 b9bc ce32 d63b
000001e0: b24e 07be 9629 283e 2fd6 30be 0957 133e
000001f0: 81a7 88bd 7936 14be 71f7 e23d 3617 663d
00000200: 68cc 05be d926 b9bc a2e0 c2bd 4443 efbc
00000210: 0249 89bc 91e0 a83c 179d 40be ac16 7b3e
00000220: 1251 dfbc 11cb 0ebe 9c9d 3fbe a59f efbc
00000230: b3ab a23d 7f65 803e 2853 2e3e ff21 bb3c
00000240: 8454 d73d f0cc 743e b815 6c3e 5c09 a9bd
00000250: b99e 0b3e d3dd 8e3d 6b50 26be f6c5 06be
00000260: 430d 84bd 1ec2 883d dd82 fc3d c6d4 e2bd
00000270: 6aa0 e23d 69cb 3d3c 5f31 0e3d 6db1 8e3a
00000280: de66 2dbe 2032 91bd c030 f5bd 5841 3f3e
00000290: abdf 0e3e e8ae 3fbe 9cb5 87bd 5adb 2c3e
000002a0: c3ea 093e 5e5d 3c3d 2394 923d 115e 053e
000002b0: 75f8 08bd 57a4 073e feb7 43bd c5e2 163e
000002c0: 69f8 103e 98ae 003e c713 223e 7658 8fbd
000002d0: 0e96 123e 5b55 a53e 8b84 e23e 2f54 5d3e
000002e0: 2de0 9e3e cac8 273e 58ba 173e be18 1f3e
000002f0: 281b c53e 1b73 b5bd 33da 4d3e 79d9 d73e
00000300: 5fa1 b43e cc59 5a3e 2a1f b13d fd7c 7c3e
00000310: ceae a73e 73bd e23e b5b3 613e fff4 00be

conv1.bias f4 [8]
-0.09800183 -0.050434414 -0.0086079845 -0.10854067 -0.10886505 -0.090481676 0.11642676 0.0075138872
00000000: 2fb5 c8bd 5194 4ebd 8108 0dbc 924a debd
00000010: a4f4 debd 754e b9bd 2771 ee3d 0e37 f63b

conv2.weight f4 [16, 8, 5, 5]
-0.0041408683 -0.012967245 -0.05479545 -0.0012638682 -0.017441792 0.051419936 -0.06843995 -0.023151528
-0.023274722 -0.007371654 -0.06820102 -0.05577334 -0.009362682 -0.024576627 0.042840473 -0.03501469
0.015088643 0.06454202 -0.018298974 0.054250423 -0.04760359 0.024616914 0.008936755 -0.002157705
-0.019430084 0.04792217 -0.06869555 0.05272712 -0.025066257 0.0018209553 0.0407836 0.0018487131
-0.0356853 0.025275268 0.020538623 -0.06678723 0.07062787 0.03988462 0.07872186 0.0373576
0.034709353 0.039069127 0.02042065 0.057798486 -0.04184305 0.062457062 -0.008415249 0.07730729
0.028092653 0.012446029 0.010293532 0.012911475 -0.032158464 0.04621267 -0.066599496 -0.015051244
0.036723025 0.05451331 -0.00025565457 0.025218688 -0.026175486 -0.042497747 0.05178147 0.051829077
0.03373285 0.056447998 -0.024878226 0.052462865 0.060678776 0.056754477 0.025623366 0.015240762
0.07469181 0.015397118 -0.0148101365 -0.053733207 -0.064871915 -0.015605709 0.08635401 0.037819784
0.0047672084 0.01902522 -0.042992618 0.06924675 0.035576027 -0.06724521 -0.010182762 -0.014640707
-0.048807643 0.040737856 -0.035080813 0.072719365 -0.05374008 -0.00029723745 -0.03386595 0.009138621
-0.013422384 -0.02179586 -0.008274203 -0.05171093 0.05240688 0.053961046 -0.03741408 -0.055913813
-0.055567905 0.0047192 0.050440956 -0.021969993 -0.021509757 0.049621586 0.024502048 0.052754648
-0.010148197 0.017341586 0.018402517 -0.056708198 -0.01133382 -0.052847713 -0.06682736 -0.06903604
0.025736535 -0.05714819 -0.05656313 0.06680556 -0.001188363 -0.03722118 0.04842901 0.056456324
-0.044355348 0.058154795 -0.02531329 -0.017226955 0.023816895 -0.008528823 -0.0057759276 -0.0372907
-0.02016716 0.08937599 0.10485381 0.06496818 0.03510199 -0.055037834 -0.049544968 0.076447934
0.050987136 -0.055642325 -0.05346793 -0.0528119 0.0033810502 0.0051230183 0.043839835 0.014991416
-0.02715556 -0.0323138 0.016278094 -0.029739238 0.06306421 0.080940396 0.06072342 -0.029039597
-0.0005326719 -0.0067165843 0.092497654 -0.029724184 -0.019670246 -0.0097600715 0.058713824 0.015763994
0.03103511 -0.09060359 -0.042415164 0.0804929 0.0020445092 -0.0057789506 -0.0543305 0.033188097
0.016273018 -0.08157025 0.028716935 -0.038003676 -0.016599765 -0.032913066 0.14202897 0.104109555
0.08935423 -0.12470309 0.07541615 0.17390303 0.20533332 0.034081172 -0.07550025 0.13327023
0.22394945 0.16086179 0.0680854 0.08041527 0.05856453 0.13706309 0.069617756 -0.057051126
-0.034463603 0.06819012 0.038614184 -0.009038175 0.0015141332 -0.056247197 0.03302792 0.069791935
0.036132596 0.0116245765 -0.06809766 -0.056838106 -0.01570784 -0.0026876584 -0.03830434 -0.06603609
-0.027263053 0.061257754 -0.05226792 0.013055655 0.006287022 -0.059792522 -0.0006040844 0.0053166132
0.008063578 0.051482238 -0.039292946 0.066194214 0.016073085 -0.017044457 -0.0045393375 -0.030535417
-0.027278705 0.017688561 0.02783489 0.04618929 -0.054765467 -0.008688628 -0.017755967 -0.044750676
-0.0035521488 0.058236662 0.024945537 0.056755837 0.054781385 -0.006664156 -0.0041308 0.0075248852
-0.029899849 0.0030175056 -0.027429853 0.017222887 0.052334674 0.031168543 -0.04924016 -0.01341455
00000000: 1fb0 87bb 9174 54bc 3271 60bd 61a8 a5ba
00000010: 17e2 8ebc b69d 523d 3f2a 8cbd 46a8 bdbc
00000020: a1aa bebc ea8d f1bb faac 8bbd 9672 64bd
00000030: ef65 19bc ec54 c9bc 7e79 2f3d 906b 0fbd
00000040: 5b36 773c 9b2e 843d bbe7 95bc b135 5e3d
00000050: fbfb 42bd 69a9 c93c 786b 123c 4868 0dbb
00000060: d72b 9fbc 0a4a 443d 41b0 8cbd 65f8 573d
00000070: c057 cdbc 1fad ee3a b40c 273d 8550 f23a
00000080: c02a 12bd 140e cf3c 9d40 a83c bec7 88bd
00000090: 58a5 903d 0e5e 233d ed38 a13d 4804 193d
000000a0: 652b 0e3d f306 203d 3549 a73c 1bbe 6c3d
000000b0: 9e63 2bbd fad2 7f3d 1de0 09bc 4953 9e3d
000000c0: 9022 e63c 6eea 4b3c 34a6 283c a78a 533c
000000d0: 98b8 03bd 7f49 3d3d 5165 88bd 7e99 76bc
000000e0: e26a 163d 5949 5f3d 6009 86b9 6c97 ce3c
000000f0: f96d d6bc 1e12 2ebd cf18 543d ba4a 543d
00000100: 752b 0a3d 0436 673d 6ccd cbbc 4de3 563d
00000110: 4f8a 783d 6277 683d 18e8 d13c 64b4 793c
00000120: 05f8 983d 3244 7c3c 37a6 72bc 5a17 5cbd
00000130: 91db 84bd 16af 7fbc 5fda b03d ebe8 1a3d
00000140: 3e36 9c3b c7da 9b3c 0719 30bd 3dd1 8d3d
00000150: 2bb8 113d dbb7 89bd 99d5 26bc 93df 6fbc
00000160: 86ea 47bd bddc 263d e6b0 0fbd e4ed 943d
00000170: 8f1e 5cbd 89d6 9bb9 06b7 0abd 28ba 153c
00000180: 8fe9 5bbc 3b8d b2bc 8690 07bc d7ce 53bd
00000190: 99a8 563d 4206 5d3d 823f 19bd e205 65bd
000001a0: 2c9b 63bd 85a3 9a3b 2d9b 4e3d 6afa b3bc
000001b0: 3b35 b0bc 0140 4b3d 85b8 c83c 4215 583d
000001c0: a044 26bc f10f 8e3c e0c0 963c db46 68bd
000001d0: 7db1 39bc d876 58bd c8dc 88bd c462 8dbd
000001e0: 6dd5 d23c 3814 6abd beae 67bd 5ad1 883d
000001f0: d8c2 9bba 3c75 18bd 7f5d 463d bf3e 673d
00000200: f4ad 35bd b933 6e3d d15d cfbc 8b1f 8dbc
00000210: a61b c33c 7abc 0bbc fe43 bdbb 22be 18bd
00000220: 9a35 a5bc c20a b73d 98bd d63d 0a0e 853d
00000230: 1bc7 0f3d 5a6f 61bd aaef 4abd bc90 9c3d
00000240: e3d7 503d 35e9 63bd 3001 5bbd 4a51 58bd
00000250: 9c94 5d3b fede a73b 6691 333d 8e9e 753c
00000260: 5675 debc 7a5b 04bd a359 853c b49f f3bc
00000270: cf27 813d 14c4 a53d 1fb9 783d 73e4 edbc
00000280: 02a3 0bba cb16 dcbb 696f bd3d 2280 f3bc
00000290: 7f23 a1bc b5e8 1fbc e87d 703d 7e23 813c
000002a0: 583d fe3c 608e b9bd 86bb 2dbd 76d9 a43d
000002b0: 2cfd 053b 5a5d bdbb a989 5ebd 3ef0 073d
000002c0: fe4e 853c 4e0e a7bd c73f eb3c bea9 1bbd
000002d0: 3bfc 87bc dacf 06bd 0b70 113e 6437 d53d
000002e0: 5aff b63d 5564 ffbd c873 9a3d a313 323e
000002f0: e642 523e b398 0b3d e09f 9abd fe77 083e
00000300: 0153 653e f4b8 243e 5c70 8b3d c3b0 a43d
00000310: 5ce1 6f3d 445a 0c3e c193 8e3d 71ae 69bd
00000320: b529 0dbd 43a7 8b3d e829 1e3d db14 14bc
00000330: e175 c63a 7663 66bd 4948 073d 13ef 8e3d
00000340: c6ff 133d 0275 3e3c c976 8bbd 13cf 68bd
00000350: baad 80bc 6d23 30bb 03e5 1cbd ee3d 87bd
00000360: c456 dfbc 69e9 7a3d e316 56bd 63e7 553c
00000370: 5d03 ce3b 01e9 74bd 6b5b 1eba fc36 ae3b
00000380: 191d 043c 0adf 523d a4f1 20bd d590 873d
00000390: b4ab 833c d1a0 8bbc b9be 94bb 6925 fabc
000003a0: 9777 dfbc 9ae7 903c ff05 e43c fb30 3d3d
000003b0: c151 60bd bf5a 0ebc f674 91bc 7c4c 37bd
000003c0: 2bcb 68bb 9189 6e3d 955a cc3c cf78 683d
000003d0: 7262 603d fe5e dabb a95b 87bb 5093 f63b
000003e0: 87f0 f4bc 58c1 453b 92b4 e0bc 0317 8d3c
000003f0: e25c 563d 2c55 ff3c 0db0 49bd b3c8 5bbc

conv2.bias f4 [16]
-0.016056232 0.0687905 0.12820636 -0.062253162 -0.021473803 0.0044811605 0.055084843 -0.012685601
0.06250511 0.011426917 -0.0076406435 0.04835246 0.0564598 0.056409534 0.008104977 0.06587904
00000000: 5c88 83bc 09e2 8c3d 8748 033e 2cfd 7ebd
00000010: d4e9 afbc b3d6 923b a5a0 613d 44d7 4fbc
00000020: ae02 803d f737 3b3c 5d5e fabb 3b0d 463d
00000030: 6442 673d af0d 673d bdca 043c 97eb 863d

fc1.weight f4 [10, 256]
0.05572267 0.0669252 0.03048234 0.0853309 0.13824756 0.06504766 -0.20911789 0.08596549
0.010883345 -0.18418714 -0.054095995 0.17461734 0.06024052 -0.01488014 0.07741079 -0.08243177
-0.016402211 0.038318377 0.098314695 0.050645333 0.051864464 0.042947505 -0.019792596 0.040758636
-0.015294424 -0.049727775 -0.057605516 0.019522471 0.01293094 0.06767632 -0.0013194227 0.021347089
0.099227585 0.082789816 0.029865392 0.067896135 0.14608938 -0.078887865 -0.0718348 0.15937227
0.11410374 -0.112635836 0.052559085 0.1040038 0.0316793 0.07484182 0.068117164 0.0066125775
0.029169895 -0.05739909 -0.049518615 -0.06264939 -0.010183706 0.007209996 0.055269197 0.059199754
-0.03430918 -0.017447073 -0.025053166 0.024723494 0.039914846 -0.043316264 -0.05928065 -0.039081987
-0.015168799 -0.04696799 -0.0027742605 0.041926425 0.044687774 -0.029765217 0.04111399 0.021586245
-0.022592196 -0.075050466 0.080416985 0.055455424 0.03516739 -0.043031756 -0.045525532 -0.045039102
0.012208765 -0.060383383 -0.07474 0.040157564 0.05370864 0.0007133075 0.054961126 0.124849744
0.07515422 0.0349353 -0.04814472 0.0026829054 0.0840784 0.02171074 -0.08052854 -0.028263692
0.09458936 0.06436746 -0.0221234 0.03177058 0.13678373 -0.0580607 -0.003454031 0.13246232
0.0665095 -0.039102744 0.043372322 0.03645972 0.032043193 0.009618893 -0.026632069 0.02010752
-0.015931338 0.0472174 0.039727904 -0.038239934 -0.04556332 0.031592906 0.052527886 0.025326464
0.005590055 0.094782956 -0.011365398 -0.0021993937 0.028760385 -0.017136863 -0.071661554 -0.03751421
0.065298915 0.13708721 0.06655452 0.101239495 0.15041018 -0.016684834 -0.1350766 0.11745008
0.04445323 -0.100108266 0.018575469 0.11627606 -0.01264564 -0.018592257 0.07083444 0.018035386
-0.05682278 0.05052923 -0.03480382 -0.03520121 -0.07231452 -0.03617714 -0.009460969 0.014467842
0.0091965245 -0.0059789415 0.02819186 -0.029754454 0.048655525 -0.013430069 0.013825034 0.044228192
-0.05931464 -0.06785118 0.04992269 0.087253734 -0.053622883 0.08274288 0.031860188 -0.048462298
-0.022563742 0.09069135 -0.13108787 -0.013967903 0.012632615 0.01133889 -0.1072667 0.05943877
-0.018568598 -0.068373434 0.02881551 0.028929828 0.14977683 -0.002268985 0.07005558 0.13171318
0.08598171 -0.07962292 0.03523566 0.021741912 0.076797456 -0.09076765 0.03068706 -0.0171276
-0.05352808 -0.037441034 -0.01538955 0.08748212 0.03296624 0.08347834 -0.0060439487 -0.021077454
0.026580218 0.052783977 -0.0013663858 -0.03856042 -0.088116705 0.07191008 0.016137198 0.036856197
0.11490685 -0.015672188 -0.056388106 0.08912163 0.08737069 -0.13799904 0.021187218 0.11904345
0.03681863 -0.005196564 0.03791589 0.082152344 0.0108357575 0.13147762 -0.030542077 -0.030337228
0.024815204 0.006731961 -0.051250648 -0.023046674 0.07981994 0.0004651912 0.059455518 0.088206075
-0.03168517 -0.08950978 0.043986853 -0.06361725 -0.031896573 0.018220566 -0.045812134 -0.08120642
0.03187974 0.027180348 0.017428057 0.053213526 -0.0194795 -0.057927407 -0.03321501 -0.026053282
-0.07199482 -0.029439963 0.009663692 0.039225493 0.024462458 -0.018369459 0.05744863 -0.021494726
00000000: 743d 643d 1410 893d 1ab6 f93c f8c1 ae3d
00000010: c590 0d3e b537 853d 0023 56be ad0e b03d
00000020: 0f50 323c 8e9b 3cbe c393 5dbd e3ce 323e
00000030: c3be 763d d5cb 73bc 8c89 9e3d fdd1 a8bd
00000040: ee5d 86bc bbf3 1c3d 3759 c93d 7b71 4f3d
00000050: d56f 543d b9e9 2f3d 1524 a2bc 87f2 263d
00000060: 7795 7abc 5aaf 4bbd c3f3 6bbd 97ed 9f3c
00000070: 4bdc 533c e299 8a3d 7bf0 acba 17e0 ae3c
00000080: d537 cb3d b58d a93d 44a8 f43c 210d 8b3d
00000090: 7498 153e f68f a1bd 201e 93bd 7c32 233e
000000a0: 39af e93d 9ead e6bd 3248 573d f2ff d43d
000000b0: 27c2 013d ab46 993d 0381 8b3d 52ae d83b
000000c0: b4f5 ee3c 4f1b 6bbd 08d4 4abd 534e 80bd
000000d0: 8fd9 26bc d541 ec3b f461 623d 717b 723d
000000e0: c887 0cbd 2aed 8ebc 4c3c cdbc ed88 ca3c
000000f0: c07d 233d 656c 31bd 44d0 72bd 6f14 20bd
00000100: 8e86 78bc 8261 40bd 5ed0 35bb 0bbb 2b3d
00000110: 870a 373d 2fd6 f3bc 2567 283d a3d5 b03c
00000120: 4513 b9bc 0fb4 99bd a9b1 a43d 3a25 633d
00000130: ae0b 103d 1142 30bd fb78 3abd ec7a 38bd
00000140: 4607 483c 9154 77bd 4911 99bd 427c 243d
00000150: 97fd 5b3d 42fd 3a3a eb1e 613d 39b1 ff3d
00000160: 75ea 993d 5118 0f3d 6633 45bd afd3 2f3b
00000170: 4c31 ac3d b9da b13c 26ec a4bd 4289 e7bc
00000180: 11b8 c13d 16d3 833d 223c b5bc de21 023d
00000190: 0911 0c3e 0ed1 6dbd 065d 62bb 34a4 073e
000001a0: 2236 883d 332a 20bd 2da7 313d ca56 153d
000001b0: b93f 033d 9098 1d3c 7f2b dabc 87b8 a43c
000001c0: 7082 82bc 0867 413d bab9 223d 7aa1 1cbd
000001d0: 9ba0 3abd 9067 013d 7b27 573d 7279 cf3c
000001e0: c82c b73b 911d c23d ef35 3abc b423 10bb
000001f0: e69a eb3c 9b62 8cbc 4bc3 92bd 80a8 19bd
00000200: 70bb 853d 9760 0c3e bc4d 883d a756 cf3d
00000210: 2005 1a3e a2ae 88bc 8551 0abe ab89 f03d
00000220: 9714 363d 9005 cdbd 952b 983c 2522 ee3d
00000230: a92f 4fbc ca4e 98bc a611 913d f2be 933c
00000240: 01bf 68bd bdf7 4e3d 738e 0ebd 252f 10bd
00000250: a319 94bd 7b2e 14bd 2e02 1bbc 870a 6d3c
00000260: 05ad 163c ffea c3bb 9ef2 e63c 9dbf f3bc
00000270: 044b 473d cb09 5cbc 6582 623c 9f28 353d
00000280: e8f3 72bd 8ff5 8abd bc7b 4c3d 16b2 b23d
00000290: aba3 5bbd 1975 a93d d47f 023d 6780 46bd
000002a0: 99d7 b8bc 63bc b93d e63b 06be a2d9 64bc
000002b0: 07f9 4e3c c0c6 393c a5ae dbbd 1176 733d
000002c0: 2c1d 98bc 5f07 8cbd 810e ec3c 3ffe ec3c
000002d0: 195f 193e 40b3 14bb 4d79 8f3d d2df 063e
000002e0: 2e17 b03d 5711 a3bd 4453 103d 181c b23c
000002f0: fc47 9d3d 64e4 b9bd 6e63 fb3c 2e4f 8cbc
00000300: 4340 5bbd c55b 19bd 7324 7cbc d329 b33d
00000310: 9c07 073d b1f6 aa3d 510c c6bb a0aa acbc
00000320: c2be d93c 0334 583d 4d18 b3ba 88f1 1dbd
00000330: 8876 b4bd 9845 933d 2832 843c 86f6 163d
00000340: 4854 eb3d f662 80bc 37f7 66bd 6785 b63d
00000350: 68ef b23d 9f4f 0dbe d190 ad3c 0dcd f33d
00000360: 22cf 163d f047 aabb b14d 1b3d 7d3f a83d
00000370: 7688 313c 12a2 063e 6133 fabc c785 f8bc
00000380: 4149 cb3c c897 dc3b 33ec 51bd 61cc bcbc
00000390: a378 a33d e8e4 f339 a187 733d 63a5 b43d
000003a0: 4fc8 01bd e750 b7bd 8f2b 343d c349 82bd
000003b0: fba5 02bd 4c43 953c 81a5 3bbd 8d4f a6bd
000003c0: 5594 023d 52a9 de3c 49c5 8e3c 6df6 593d
000003d0: 7993 9fbc 4a45 6dbd 760c 08bd b16d d5bc
000003e0: 0572 93bd 142c f1bc 7654 1e3c e9aa 203d
000003f0: 7e65 c83c 8c7b 96bc 414f 6b3d b515 b0bc

fc1.bias f4 [10]
0.15912543 0.014047299 0.0083626285 -0.0203987 -0.088131316 -0.0024061685 -0.019273093 -0.0038572229
-0.019915225 -0.0005987282
00000000: c7f1 223e a426 663c 6803 093c 2d1b a7bc
00000010: 317e b4bd cfb0 1dbb 9be2 9dbc 76c9 7cbb
00000020: 4125 a3bc f8f3 1cba
