sandbox/snapshots2/model-3120.pt (torch, 26159 bytes, 6 tensors)

conv1.weight f4 [8, 1, 5, 5]
000000 12 9e 9c be 7b b9 c5 3f 5d c6 ab be 4c 5f 58 3f
       -0.30589348 1.5447229 -0.33549777 0.8452041
000010 32 50 03 3f 1a b8 7c bf d5 80 6c be 80 62 af bf
       0.51294243 -0.98718417 -0.2309602 -1.3701935
000020 0d da b1 bf 66 94 df be 5b b1 a1 bf 4b 97 58 3f
       -1.3894669 -0.43667907 -1.263225 0.84605855
000030 52 e4 7e bf 2f 73 86 3f 72 ab 4e bf 98 33 ae 3e
       -0.9956714 1.0503901 -0.80730355 0.34023738
000040 37 a6 72 bf 77 b1 13 3f b8 0f 59 3f 92 18 d3 3e
       -0.94784874 0.57692665 0.8478961 0.41229683
000050 6d b0 91 be 3c ae 04 bf 36 70 ab 3c 70 94 07 bf
       -0.28454915 -0.5182836 0.02092753 -0.5296087
000060 1e 3b ce bf 80 f6 cd be 80 75 af bf fe f3 73 be
       -1.6111791 -0.40227127 -1.3707733 -0.23823544
000070 40 f3 91 3f 3a 91 c2 3f b6 70 53 be ef ea 8b 3e
       1.1402359 1.520057 -0.20648465 0.27327678
000080 4c 47 74 bf 1f fe 8e 3f c1 f4 39 3e f9 13 cc bc
       -0.9542129 1.1171302 0.18159772 -0.024911867
000090 55 40 a8 3e 93 c9 f4 be 6b 01 c0 bf 27 f1 88 bf
       0.3286158 -0.4781004 -1.5000433 -1.0698594
0000a0 34 d5 bc bf 45 c7 43 bf a5 6c 99 bf e4 68 43 be
       -1.4752564 -0.76475936 -1.1986281 -0.19082981
0000b0 27 1b 2b be c8 19 21 bf 33 60 b2 bf b1 dc b9 bd
       -0.16709577 -0.62929964 -1.3935608 -0.09075297
0000c0 6b 36 a2 3e 49 a8 9f 3f ad 51 3d bf 89 19 40 3f
       0.31682143 1.2473232 -0.7395275 0.75038964
0000d0 85 ab f2 be cf 19 20 3f 63 83 51 3e 83 a3 11 bf
       -0.47396484 0.6253938 0.20460276 -0.56890124
0000e0 b7 b8 eb 3d 6b b6 b9 3f d0 a1 b7 3f ff b6 76 3e
       0.11509841 1.4508795 1.4346256 0.24093245
0000f0 6e a4 25 3e 57 db 72 3f 18 c4 ae bc e1 67 3f bf
       0.16176006 0.94865936 -0.02133374 -0.7476788
000100 91 a9 9e bf 9e a0 ea be fc bb 9b bf b2 f2 76 bd
       -1.2395498 -0.45825666 -1.2166743 -0.060290046
000110 3b a7 ee 3e 38 24 c1 bf 61 33 c7 3f 84 28 33 bf
       0.46611962 -1.5089178 1.5562555 -0.69983697
000120 80 1e b9 3f fb e2 61 bf f6 1f b5 be 35 52 95 bf
       1.4462433 -0.8823697 -0.35375947 -1.1665713
000130 ad e4 cc bf 73 0d b4 bf d1 aa 50 3d 30 d9 df 3e
       -1.6007286 -1.4066604 0.050944153 0.43720388
000140 12 1f 9e be 73 1c d5 be ec b5 52 be 9b 8b 71 bf
       -0.3088308 -0.41623268 -0.2057721 -0.94353646
000150 c3 14 9e bf 06 08 b3 3e 87 dc 46 3f 59 56 9b 3f
       -1.2350086 0.3496706 0.7768025 1.2135726
000160 fc b2 8e 3f 53 6c 44 3e 0b e4 41 bf 4b 09 87 bf
       1.1148372 0.19181947 -0.7573859 -1.0549711
000170 c7 6a ab 3f 1c a0 90 bf 55 3e c3 3f 21 62 cf be
       1.3391961 -1.1298862 1.5253397 -0.40504554
000180 83 ea aa 3f f1 09 c3 be 41 7e 5c bf 4d b3 a8 3f
       1.3352817 -0.38093522 -0.8613015 1.3179718
000190 b0 d7 c2 3f a8 76 50 3f 5c 23 a9 3f c5 9b 68 3d
       1.5222073 0.81431055 1.3213916 0.05678918
0001a0 1e c9 c5 be 14 7c b7 be e0 66 aa 3f bd 92 63 bf
       -0.38630003 -0.35836852 1.3312645 -0.8889578
0001b0 a5 6a e2 be 95 31 b3 bf da 4e ea be dd 14 94 bf
       -0.44221988 -1.3999506 -0.45763284 -1.1568867
0001c0 0f f1 11 3f b7 a3 b3 be d9 cc 17 3f 41 b2 cc 3e
       0.5700845 -0.35085842 0.5929695 0.39979747
0001d0 b3 39 99 3f 36 cb 89 3f 0e 31 8e 3f 9d 01 8e 3f
       1.1970733 1.076514 1.110872 1.1094242
0001e0 87 90 a0 bf 9e db 89 bf 3e 0a 09 3f a8 95 0f bf
       -1.2544106 -1.0770147 0.53531253 -0.5608773
0001f0 0c 49 08 3f d2 17 d3 3e e2 81 42 3f 9f 0b 84 3f
       0.5323646 0.4122911 0.75979435 1.0316046
000200 19 f0 7f be 85 e4 d0 3e 05 cf 44 bf 06 96 0d bf
       -0.24993934 0.40799347 -0.76878387 -0.5530704
000210 ab 7b 12 bf 1f 00 f9 3e e3 fb e5 be 4c 3d e4 be
       -0.5721995 0.48632905 -0.44918737 -0.44578016
000220 66 77 f2 3e ed 1d ba bf 5c bf 6e bf 9e 1c 54 3f
       0.4735672 -1.4540383 -0.9326074 0.82856166
000230 05 76 50 3f cd 39 99 bf 0f 82 11 bf e3 a3 a2 ba
       0.81430084 -1.1970764 -0.5683908 -0.0012408461
000240 09 21 55 bf bd 76 75 bf 10 3c 5f bf 5f 60 63 3e
       -0.8325353 -0.95884305 -0.87201023 0.22204731
000250 e1 00 b1 3e 2d d2 bc 3f 3c 4e be bf 0d 39 8c 3f
       0.34570983 1.475164 -1.4867625 1.095491
000260 15 32 8e 3e f5 c9 ed 3d 45 96 a3 3f d6 e9 79 bf
       0.27772585 0.11610786 1.2780234 -0.9762243
000270 f0 18 08 3f 42 1c 26 bb dc 26 4d 3f 34 da 00 bf
       0.5316305 -0.0025346433 0.8013742 -0.5033295
000280 bf 19 64 3f dc 47 a2 be 9b e1 4a 3f ff 88 01 be
       0.89101785 -0.3169545 0.79250497 -0.12649916
000290 7a 44 a4 bf 37 a8 4c 3e 08 a6 66 bf 58 2c 99 3f
       -1.2833397 0.19986044 -0.90097094 1.1966658
0002a0 3f 39 88 bf e3 f1 4b bf 23 3a 54 bf 70 fa 44 bf
       -1.064247 -0.79665965 -0.8290121 -0.7694464
0002b0 6b bf c2 3f 2b d7 71 bf df 5d 72 3f db af e6 bd
       1.5214666 -0.94468945 0.94674486 -0.112640105
0002c0 3d c1 b4 bf 24 f6 a1 be 37 04 db 3e da 17 0f bf
       -1.4121472 -0.31633103 0.42776653 -0.5589577
0002d0 0a af 46 bf 18 91 87 3d 8e c1 d9 be 59 52 00 bf
       -0.7761084 0.06619471 -0.42530483 -0.5012565
0002e0 33 17 a1 3f 43 04 c9 3e 9e 77 0c bf 27 75 69 bf
       1.2585205 0.39261064 -0.5487002 -0.91194385
0002f0 d7 6a 89 bf e6 c7 9c bf 37 81 57 3f 73 04 84 bf
       -1.073573 -1.2248504 0.8418154 -1.0313858
000300 3c df 53 bc 3c 6d 47 3f 88 36 74 3f 3e ca 3e 3e
       -0.012931641 0.77901053 0.9539571 0.18631837
000310 37 60 af 3f ee 78 75 bf 0d f4 63 3f ae 5e 8a 3f
       1.3701237 -0.9588765 0.89044267 1.0810144

conv1.bias f4 [8]
000000 94 43 b0 bf 4d c6 38 bf 5f ca c9 bf 13 be fa bd
       -1.3770623 -0.7217758 -1.5764884 -0.12243285
000010 ed 59 4c 3f a9 c0 2c bf 24 00 8f bf a0 63 fd 3e
       0.79824716 -0.67481476 -1.1171918 0.4949007

conv2.weight f4 [16, 8, 5, 5]
000000 6d 4e 3e be dd cd 39 3e d1 26 b5 3e 59 e8 bc 3e
       -0.18584605 0.18144937 0.35381177 0.36896017
000010 56 f7 33 be 63 d8 52 be 41 f5 bf bd fe 31 ee bd
       -0.1757482 -0.20590357 -0.0937295 -0.11630629
000020 7b d3 d2 be fd e1 ec 3e 97 5c 0e bc 6f 9b 14 bf
       -0.41176972 0.46266165 -0.008689067 -0.5804967
000030 73 1d 13 3e 6d d5 85 be 29 f7 b4 be 16 fb 2d 3e
       0.14366703 -0.26139393 -0.35344818 0.16990313
000040 81 d4 dd 3d f1 03 9c bd b1 87 48 be d5 01 02 3e
       0.108315475 -0.07617939 -0.19583012 0.12696011
000050 c5 99 89 bc 8a 63 6d be fc d5 df 3e 67 09 c7 3e
       -0.016796956 -0.23182502 0.43717945 0.3887436
000060 ed d5 1e 3f ae 7c 6d 3d 13 87 a4 bc 10 8e 93 bd
       0.62045175 0.057980232 -0.02008394 -0.07204831
000070 60 9e e6 be 6c 3f e5 be d7 e1 22 3e a8 a7 b0 be
       -0.45042706 -0.4477495 0.15906464 -0.34502912
000080 d5 24 9f be 20 aa 9a be f8 02 85 3e 44 df 02 be
       -0.31082788 -0.3020792 0.25978827 -0.12780482
000090 07 f0 a7 3d e5 a6 00 3e 1b c2 92 be 65 fc 63 3e
       0.082000785 0.12563665 -0.28663716 0.2226425
0000a0 7f 8a 0f 3f a7 20 12 be 1f a5 4c 3e b1 d9 f7 3e
       0.56070703 -0.14270268 0.19984864 0.48408273
0000b0 14 e6 56 3d f7 1b 85 3d fb ed e9 3e 53 1d fc bd
       0.052465513 0.064994745 0.45689377 -0.12310281
0000c0 36 40 00 3f 1a 0b 14 3e de 50 64 be 53 a2 07 bf
       0.5009798 0.1445736 -0.22296473 -0.5298206
0000d0 51 06 26 3d dd 18 e2 3e ba a7 d1 bd 95 dd 73 bb
       0.040533368 0.44159594 -0.102370694 -0.003721093
0000e0 ab d6 cc be 28 52 fe 3e 51 3c 85 be 00 97 fb bd
       -0.4000753 0.49672055 -0.2602258 -0.1228466
0000f0 a1 c7 14 3e 97 64 dd 3e 51 07 b2 be 4a 16 5b 3e
       0.14529277 0.43240806 -0.34771207 0.21395221
000100 6f 0e 25 be da 38 c4 bd b3 5c 1b 3e 74 15 90 be
       -0.16118787 -0.09581156 0.1517208 -0.28141367
000110 d5 c7 9d bd 46 de 98 be 40 87 1e 3e 95 ac a4 bd
       -0.077041306 -0.2985708 0.15481281 -0.0804073
000120 59 52 6e bc 21 8c 01 bf 63 de 3d 3d f7 6b 3e be
       -0.014546 -0.50604445 0.046354663 -0.18595873
000130 2c b1 af 3e b1 ee 03 3f 90 98 a9 3e 05 98 d1 3b
       0.3431486 0.5153609 0.33124208 0.006396296
000140 b5 e0 77 3c 95 9d f4 bd c0 46 2e 3d cf 64 8b be
       0.015129258 -0.11944119 0.04254794 -0.27225348
000150 23 99 a5 bc 99 e7 c0 be b0 d6 c7 bd 33 5a 29 be
       -0.020214623 -0.37676695 -0.09757745 -0.16538315
000160 d3 fb 99 be 99 87 bf 3e 92 c9 b9 3e c6 5b 39 3e
       -0.3007494 0.3740814 0.36286598 0.18101415
000170 60 0c dd 3e 99 20 93 3c 1f ee 25 be 15 23 fc 3b
       0.43173504 0.01795988 -0.16204117 0.007694612
000180 34 b7 17 be 45 bd 9b 3e ac 28 95 be 0c 43 8b bd
       -0.1481598 0.3041784 -0.29132593 -0.067998976
000190 c4 77 cd be 61 76 97 be 1d 39 a2 3d bd 22 9d 3e
       -0.40130436 -0.29582503 0.0792105 0.30690566
0001a0 3e 81 b1 be 4f 04 d2 3d 2f 34 14 3f a3 f7 b5 be
       -0.34668916 0.10254728 0.57892126 -0.35540494
0001b0 14 c3 98 3e 06 90 4b be 46 ed dc 3e f1 6e 09 3d
       0.29836333 -0.1987916 0.43149775 0.033553068
0001c0 b0 9c b4 be 89 34 c4 be ed a3 94 3e 2c be bf 3d
       -0.35275793 -0.3832133 0.29031315 0.09362444
0001d0 5c 44 da be c7 ae 15 3e 85 f0 f9 3e d5 aa ab 3d
       -0.4263028 0.14617454 0.48816314 0.08382193
0001e0 60 61 82 be 5b 0b 25 3e 86 27 e6 be b0 95 de bb
       -0.25464916 0.16117613 -0.4495203 -0.0067927465
0001f0 bf 56 31 3e 2b 34 a3 3e ec 97 f6 be 37 66 04 bf
       0.17318247 0.31875739 -0.48162782 -0.5171847
000200 c3 d7 dd 3e 23 2a 9b be c5 66 d9 bd 9c 96 54 3e
       0.43328676 -0.30305585 -0.10615305 0.20760578
000210 f0 55 07 bc 83 8d 50 3d ce 7f ef 3d 3e 9d 1e 3d
       -0.008260235 0.050916206 0.11694299 0.038724177
000220 0f 61 61 be 8a 99 e6 be f4 a3 e1 be 4c e4 cc 3e
       -0.22009681 -0.45039016 -0.440704 0.40017927
000230 2a c2 f9 be 1f 69 f8 be 0d d3 93 3e b9 8a c0 3e
       -0.48780948 -0.485177 0.28871956 0.37605837
000240 0f 9e f9 3e b5 b7 ac 3e df c3 82 be ce 60 0c 3f
       0.48753402 0.33733907 -0.25540063 0.5483521
000250 2a 4a a7 3e ad 69 01 3f 8c 34 bf 3e c6 6b 24 be
       0.3267377 0.50551873 0.37344778 -0.16056737
000260 64 c1 3f 3e eb 30 a2 bd 1b 34 de 3b 21 90 b5 be
       0.18726116 -0.079194866 0.006781114 -0.35461524
000270 91 ed a6 3e 78 7d 13 3f 69 6e 16 bf 1a 71 43 3c
       0.32603124 0.57613325 -0.5876222 0.011928821
000280 fb d1 a7 be ea c0 37 3e d3 30 24 3f 2c bd 26 bd
       -0.3277739 0.17944685 0.64137 -0.040707752
000290 2b 02 e6 be f9 e7 46 be b8 aa 49 be 5c ab cd be
       -0.4492353 -0.19424428 -0.1969403 -0.401698
0002a0 4a 85 99 bc 0e 57 33 3d 6c 67 f5 be 39 4b 77 be
       -0.018740315 0.043784194 -0.47930467 -0.24149789
0002b0 cd d8 a7 3e 5b 14 f9 3c f9 95 a5 be dd c9 99 3e
       0.32782593 0.030405214 -0.32340983 0.30036822
0002c0 b9 4d d8 be cf 1c 03 bf 46 ca a5 3c d4 d4 d1 3e
       -0.42246798 -0.51215833 0.020238053 0.40982687
0002d0 a4 cb 7a be d7 94 f7 3d 7b c2 06 3f c8 bd fa 3e
       -0.24491745 0.12088936 0.52640504 0.48972917
0002e0 d6 9b a4 be 97 ae 3d 3c 8d 59 94 be d0 c3 ca 3e
       -0.32150143 0.01157727 -0.28974572 0.39602518
0002f0 ac f0 02 3f e7 1a 69 be 71 19 99 3e 6f 92 ea be
       0.51148486 -0.22764169 0.29902223 -0.45814845
000300 1e b5 73 3e c3 2d 05 bf 67 c1 eb be ed ef 64 3e
       0.2379956 -0.5202295 -0.46045992 0.2235715
000310 3c d6 00 3f 86 8d 8c 3e 81 04 df 3e c2 c0 3c 3e
       0.50326896 0.27451724 0.43558124 0.18432906
000320 cf a8 69 3e bd 62 de be e6 45 a5 be 55 76 f7 be
       0.22818302 -0.43434706 -0.3227989 -0.48332468
000330 2f 22 b3 3e 07 1e fb 3e 4d 75 11 3f bd 53 0e 3e
       0.34987018 0.49046347 0.5681961 0.13899131
000340 61 37 07 3f af 20 ff be 28 57 ed be ed d3 b0 be
       0.52818877 -0.49829623 -0.46355557 -0.34536687
000350 87 8a d7 3e ee 3e 69 be 70 eb 09 3e 19 6a d6 be
       0.42097875 -0.22777912 0.13468719 -0.4187782
000360 4b af 51 bd 41 dd 37 3e 8c d7 af be ab 58 0e 3e
       -0.051192563 0.17955495 -0.34344137 0.13901012
000370 7c 97 d1 be b4 fc 47 be 12 3f b2 be 2d 13 27 3f
       -0.40935886 -0.19529992 -0.34813744 0.65263635
000380 5c 56 1e 3d 44 d4 da be 10 d0 dd be e6 e5 bb 3e
       0.038656577 -0.4274007 -0.43322802 0.36698836
000390 32 00 e9 3e 3d 1c f2 bd e3 d1 14 3f c1 a1 f0 3d
       0.45507962 -0.11821792 0.5813276 0.11749602
0003a0 e1 59 7c be a9 42 1e be ec 96 86 bd f7 17 8c bd
       -0.24643661 -0.15455116 -0.06571755 -0.068405084
0003b0 ae 37 d7 3e 9c e6 13 be cb 7b a2 be 9b 7d bb 3e
       0.42034668 -0.14443439 -0.31735072 0.36619267
0003c0 00 5d 88 be 51 3b 03 3f 5b cc 0c be a6 13 7e 3e
       -0.26633453 0.51262385 -0.1374983 0.24812183
0003d0 6c 41 8f 3c 19 b1 fd 3e 67 15 f1 3e c8 42 47 3d
       0.01748725 0.49549177 0.4708664 0.048647672
0003e0 6a 38 12 3f f7 c4 3e 3e 93 5c a9 be 80 c7 fc 3e
       0.5711733 0.18629824 -0.3307844 0.49370956
0003f0 7e d2 00 bf 7f b9 91 be 15 bc b9 3e 07 fe 84 be
       -0.50321186 -0.28461835 0.36276308 -0.25975057

conv2.bias f4 [16]
000000 41 99 b3 3e 5c 04 14 bf 1f a3 30 3e ac e8 e0 be
       0.3507786 -0.5781915 0.17249726 -0.43927515
000010 6b f7 91 3e e1 7e 22 3f 80 40 99 be 88 14 99 3e
       0.28509077 0.6347485 -0.29932022 0.29898477
000020 20 d9 09 bf 9a ad 1b 3e 88 62 03 3f 62 0e a8 be
       -0.5384693 0.15202942 0.5132222 -0.32823473
000030 6e 8e 73 be 8d 3e a0 3d b5 77 3b 3e 8c a7 da be
       -0.23784801 0.078244306 0.18307383 -0.42705953

fc1.weight f4 [10, 256]
000000 b1 6d 02 be 91 e2 3c 3e fc f0 6a 3e 5b 4e 02 3e
       -0.12737156 0.18445803 0.2294349 0.12725203
000010 4c d8 8e be d7 6b b0 bd a3 d8 78 3d dd 47 c8 be
       -0.27899396 -0.08614319 0.060753476 -0.39117327
000020 4c 35 ec 3e cf 61 f0 be 71 3a 16 3e b1 d2 bf be
       0.46134412 -0.46949622 0.14670731 -0.37465432
000030 53 b3 bd 3e b2 f0 f8 bd 6c 87 a7 be 8b 8f 80 3e
       0.37050876 -0.12155284 -0.32720506 0.25109515
000040 cc 42 e3 be b0 64 79 3e 84 44 cf bd e4 17 c7 3e
       -0.443869 0.24354815 -0.1012049 0.38885415
000050 b6 57 a0 3e 08 2e 42 3e 48 72 f3 3e 8e a2 81 be
       0.31316918 0.18962872 0.47548127 -0.25319332
000060 25 1b f8 3a 27 c2 53 3e 2d a4 ee 3e c2 e3 7f 3e
       0.0018928988 0.20679532 0.4660963 0.24989226
000070 05 fa 86 3e 3a af d5 3d b5 68 1d be c3 0e 5f 3e
       0.26362625 0.104338124 -0.15371974 0.21782975
000080 20 fd 85 be 85 1d 14 3e 6e 0b 62 be 3e 17 74 3e
       -0.26169682 0.14464386 -0.22074673 0.23836991
000090 3e 47 9e 3e cc 06 ba 3e 3e 3b b6 be cb 76 a8 be
       0.30913728 0.3633331 -0.35592073 -0.32903132
0000a0 1a 50 c8 3e 9d 48 1d be e8 62 cb 3e 30 1f 64 be
       0.39123613 -0.15359731 0.39723897 -0.22277522
0000b0 4b 45 9c bd 9e 7e b4 be d9 38 ff 3d 71 c8 7f be
       -0.07630404 -0.3525285 0.12462015 -0.24978806
0000c0 3a 16 d1 be c4 a3 a8 3c d6 6e 80 3e e5 33 1e 3c
       -0.4083727 0.020585902 0.2508456 0.009655927
0000d0 f2 d5 c6 3e 7c 15 bd 3e 58 0c 1c 3e ea 54 f9 be
       0.38835102 0.36930454 0.15239084 -0.48697597
0000e0 11 23 5a be 6e 08 96 3e e4 df e3 be 29 c7 9c 3e
       -0.2130244 0.29303306 -0.44506752 0.30620697
0000f0 f5 b0 5a be 0a fe c5 3e 40 79 a4 be 4f 4a d5 bd
       -0.21356566 0.3867038 -0.32123756 -0.10414564
000100 bb 8c 88 3e be bb b1 3c 5f 51 bd be ac d3 ee be
       0.2666987 0.021695968 -0.36976144 -0.46645868
000110 10 35 47 3b 34 a2 a9 3d 1d fb 71 3e 4c 39 68 3e
       0.0030396618 0.08282891 0.23630948 0.22678107
000120 2e 3e d4 3e ef 2b e7 3e b0 9d 85 be 81 d4 66 be
       0.4145369 0.45150706 -0.2609687 -0.22542001
000130 7e fd 6d 3e 93 42 79 be 4d 62 a9 3b 8e 99 c7 be
       0.23241231 -0.24341802 0.005169189 -0.3898434
000140 eb b2 fa be 0a a0 65 bd a6 0d 22 3d 00 87 f2 3e
       -0.4896463 -0.05606083 0.039563797 0.47368622
000150 ff d6 35 be 8f 8d 65 3e 45 28 a8 be 05 54 8d 3e
       -0.17757796 0.22417282 -0.32843223 0.27603164
000160 96 42 f9 be 0b c2 ee 3d bc 30 94 3e 49 c4 db be
       -0.48683614 0.116581045 0.2894343 -0.4292319
000170 10 27 0f 3d 2d 36 6c 3e 54 e2 81 be 48 b7 04 bf
       0.034949362 0.23067541 -0.25367987 -0.51842165
000180 71 12 dd be 52 4d e5 be 03 0f 78 be 32 ee c2 3e
       -0.43178132 -0.44785553 -0.24224477 0.38072354
000190 ff d0 89 be b6 36 2d bd 84 de 30 bd b6 42 c1 be
       -0.26917264 -0.042288505 -0.043180957 -0.3774621
0001a0 38 56 68 be 14 72 5b 3e 01 e7 90 be c1 b6 e5 3c
       -0.2268914 0.21430236 -0.28301242 0.028041245
0001b0 f5 84 86 3e 87 22 a1 be 0d 1f 8d 3e 54 19 0f bf
       0.26273313 -0.31471655 0.27562752 -0.5589802
0001c0 2e b2 e9 3d 49 74 e2 3b 11 c4 e2 3e af da 71 be
       0.11410938 0.006910835 0.44290212 -0.23618577
0001d0 dd 70 e8 3c 27 c3 b8 be 14 fd 3b be 09 d8 d2 be
       0.02837413 -0.3608639 -0.1835826 -0.41180447
0001e0 d6 45 9f 3e 5f 3e 92 bd ce 33 3a 3e 37 8b bf 3e
       0.31107968 -0.071408026 0.18183824 0.374109
0001f0 6e aa 91 3e 7f ce 41 3d 46 6a 0e 3d 87 5a a2 be
       0.2845034 0.04731607 0.03476932 -0.31709692
000200 3b 64 ee 3e 71 dd 30 3d 98 2a f0 be a6 ee 0c 3e
       0.46560845 0.043179933 -0.46907496 0.13762912
000210 f4 32 e8 bb c0 3f ec be 2f e2 d9 be 4f ab a3 3e
       -0.007086152 -0.46142387 -0.42555377 0.31966636
000220 6e 86 ba be 04 99 e5 be 2a 45 48 3e 7c ae 19 3e
       -0.36430687 -0.44843304 0.19557634 0.15007967
000230 25 8a cc 3e 1e b2 2a 3c 4a 78 cd be 32 56 3a be
       0.39949146 0.010418443 -0.40130836 -0.18196943
000240 4e e5 a7 be 08 88 60 3d 30 95 2a 3e c2 eb 96 3e
       -0.32792133 0.05481723 0.16658473 0.29476744
000250 ef 52 8e bd a0 93 96 be fc a4 dd 3e 9c f2 42 be
       -0.06949412 -0.29409504 0.43289936 -0.1903786
000260 24 66 ca be 33 39 21 be 6a e5 39 be 1c df e6 be
       -0.39531052 -0.15744476 -0.18153921 -0.45092094
000270 07 1f ca 3e e5 ae f2 3e 1a b5 99 be cd 88 3e be
       0.39476797 0.4739906 -0.30020982 -0.18606873
000280 27 e3 d9 3e 6c 52 29 3e 0d 86 d1 3e aa 78 07 3d
       0.42556116 0.16535348 0.40922585 0.03307406
000290 05 71 3e be 0e 2d 60 be b6 18 ac 3e 3c b5 e1 3e
       -0.18597801 -0.21892187 0.33612603 0.44083583
0002a0 52 4d 9a 3e 43 8d 53 bd 27 6e 17 3e ca 58 48 bd
       0.30137116 -0.05164839 0.14788114 -0.0489128
0002b0 d2 38 83 3d 50 16 b6 be f7 69 d8 3e 44 89 dc be
       0.06407322 -0.35563898 0.42268345 -0.43073475
0002c0 cb 35 f9 3e 86 d2 1f 3e 74 64 92 3e 2f 87 c8 be
       0.48673853 0.15607652 0.28592265 -0.39165637
0002d0 27 af 99 be f3 73 9f be 14 88 40 3c 63 88 ce 3b
       -0.30016443 -0.3114315 0.011751194 0.0063028797
0002e0 a9 2e 87 be 79 c8 c0 bc d4 c7 f6 3e b4 ae a7 3d
       -0.26402786 -0.023533093 0.48199332 0.08187619
0002f0 6a 73 18 3e 98 ae 04 3e 13 08 1c 3e 88 6a 3a bd
       0.14887777 0.12957227 0.15237455 -0.045511752
000300 95 09 47 3e f4 fd a0 3c d9 f7 d8 3d 99 d2 e9 be
       0.19437249 0.019652344 0.10594148 -0.45668486
000310 8b 33 3f 3c 1e 6c ac be db d2 8a 3e c2 1a 6f be
       0.011670004 -0.33676237 0.27113995 -0.23350051
000320 db 73 47 3e a3 ed 6a 3e f6 4f ef 3e 07 4b da 3e
       0.19477789 0.22942214 0.46740693 0.42635366
000330 91 1a 01 bd 22 ee 54 be 12 71 aa be 69 73 09 3e
       -0.031519476 -0.20793965 -0.3328939 0.13422932
000340 04 bd 88 bd a4 db 96 3d ef 6d 35 be 93 20 45 3e
       -0.06676677 0.07366112 -0.17717718 0.19250707
000350 78 bd ae 3e dd 2c c0 3e d8 42 91 be 25 b2 f0 be
       0.34128928 0.37534228 -0.2837131 -0.47010913
000360 5d 88 7f 3e 20 c6 8d 3d 2b d5 00 be e9 02 a2 3d
       0.24954362 0.06922555 -0.12581317 0.07910711
000370 df 32 98 3e 03 a0 9c 3e 2c 6f f5 be ac 6c db 3c
       0.29726312 0.3059083 -0.4793638 0.026785217
000380 2d 81 b9 3e 0d 6f b0 be 81 c0 90 3e b6 27 d2 3e
       0.36231366 -0.34459725 0.2827187 0.41045922
000390 a0 1d 81 be 97 85 ac be 6a d2 8a bd 1f 54 f8 3e
       -0.25217915 -0.3369567 -0.067784145 0.4850168
0003a0 ef 28 95 3e f9 c1 e3 be c7 42 01 bf 94 66 df 3d
       0.29132792 -0.44483927 -0.5049252 0.10908237
0003b0 8f ed 8e 3e 44 ba 6f bc 63 bb c6 be e2 d4 b1 be
       0.27915618 -0.0146318115 -0.3881484 -0.3473273
0003c0 4e 2a a1 3e 5f 05 91 3e f1 44 2b bd 56 b0 d3 be
       0.31477588 0.2832441 -0.041813795 -0.4134547
0003d0 82 3f 94 be d6 66 7a 3e 56 a9 ef bd fe 69 97 bd
       -0.28954703 0.24453291 -0.1170222 -0.07393263
0003e0 26 b9 99 3c c6 5f f3 bd cc df 93 3e df 9d e4 be
       0.018765043 -0.11883502 0.2888168 -0.44651696
0003f0 99 3f 85 3e 6c ff d9 3d 1d a3 cc 3e 13 10 3d 3e
       0.26025084 0.10644421 0.39968196 0.18463163

fc1.bias f4 [10]
000000 ff 7f b6 bc 8c 8c 48 3d 08 35 ba bd 15 19 c8 be
       -0.02227783 0.04896216 -0.09092146 -0.39081636
000010 43 e6 8a 3e 8d d7 ae 3e 0a 3e 9f be 85 33 63 bd
       0.271288 0.34148827 -0.3110202 -0.055469055
000020 93 13 b5 be ad 8d 04 bf
       -0.35366496 -0.5177868
