sandbox/snapshots2/model-4512.pt (torch, 26159 bytes, 6 tensors)

conv1.weight f4 [8, 1, 5, 5]
0	0xbe70ec18	-0.23527563
1	0x3fcea170	1.6143017
2	0xbe87632d	-0.26442853
3	0x3f697165	0.9118865
4	0x3f127583	0.5721056
5	0xbf71ba2a	-0.9442469
6	0xbe40322c	-0.18769139
7	0xbfa962cf	-1.3233279
8	0xbfadff52	-1.3593543
9	0xbed6056b	-0.4180101
10	0xbfa19872	-1.2624648
11	0x3f58dd7a	0.84712946
12	0xbf7e8777	-0.9942545
13	0x3f85dfc1	1.0458909
14	0xbf50c1fd	-0.81546
15	0x3ea9ca10	0.33161974
16	0xbf731a03	-0.94961566
17	0x3f11dd40	0.56978226
18	0x3f54e015	0.8315442
19	0x3ecba9c4	0.39777958
20	0xbe9a4de2	-0.30137545
21	0xbf0769ff	-0.5289611
22	0x3c6042b9	0.013687783
23	0xbf0abf49	-0.5419813
24	0xbfcfe832	-1.6242735
25	0xbed76944	-0.420725
26	0xbfb1c61c	-1.3888583
27	0xbe8c9475	-0.27457014
28	0x3f8b6f36	1.0893314
29	0x3fbc5180	1.4712372
30	0xbe66aee0	-0.22527647
31	0x3e844748	0.25835633
32	0xbf786d95	-0.9704221
33	0x3f89dc73	1.0770401
34	0x3e09f067	0.13470612
35	0xbd2d40f9	-0.04229829
36	0x3ea48fcd	0.3214096
37	0xbef29055	-0.47375742
38	0xbfc12984	-1.5090795
39	0xbf8dc52e	-1.10758
40	0xbfbe6b81	-1.4876558
41	0xbf4119d3	-0.7543003
42	0xbf9a9094	-1.2075372
43	0xbe5d0b70	-0.21586394
44	0xbe5cc596	-0.21559748
45	0xbf2531ff	-0.64529413
46	0xbfb475c4	-1.4098439
47	0xbe015dc4	-0.12633425
48	0x3e84e946	0.25959224
49	0x3f974902	1.1819155
50	0xbf38cc34	-0.7218659
51	0x3f3c9369	0.7366243
52	0xbefcec46	-0.49399012
53	0x3f1ad1c3	0.6047632
54	0x3e4e85f0	0.2016828
55	0xbf0fba1b	-0.5614335
56	0x3dcd83fe	0.10034941
57	0x3fb6f0a9	1.4292194
58	0x3fb52d5f	1.4154471
59	0x3e7b0bf9	0.24516286
60	0x3e1fa111	0.15588786
61	0x3f6e83be	0.9316977
62	0xbd1eeb04	-0.038798347
63	0xbf42e85d	-0.7613581
64	0xbf9d2f2f	-1.2280024
65	0xbef346a9	-0.47514847
66	0xbf9d553a	-1.2291634
67	0xbd927cd8	-0.07152718
68	0x3ee861af	0.45387027
69	0xbfc072aa	-1.5034993
70	0x3fc47f91	1.535143
71	0xbf343450	-0.7039232
72	0x3fb8890d	1.4416825
73	0xbf5ff383	-0.87480944
74	0xbeb1f549	-0.3475745
75	0xbf93d07f	-1.1548003
76	0xbfc76ee5	-1.5580717
77	0xbfad845f	-1.3556021
78	0x3dac45f6	0.084117815
79	0x3eebbc1f	0.46041963
80	0xbeaece8a	-0.34141952
81	0xbede9548	-0.43473268
82	0xbe421f1c	-0.1895718
83	0xbf6a3417	-0.9148573
84	0xbf9a9d6d	-1.2079293
85	0x3e9ff6ac	0.31242883
86	0x3f3c61bf	0.7358665
87	0x3f970988	1.1799784
88	0x3f8b34de	1.0875509
89	0x3e3a5524	0.18196541
90	0xbf45bf05	-0.772446
91	0xbf8a7a98	-1.0818663
92	0x3fa6a797	1.3019894
93	0xbf9586d3	-1.168177
94	0x3fbebfef	1.4902323
95	0xbedd0981	-0.43171313
96	0x3fa72020	1.3056679
97	0xbecc426a	-0.3989442
98	0xbf630a49	-0.8868757
99	0x3fa4cbf8	1.2874746
100	0x3fc16b07	1.5110787
101	0x3f4979db	0.7870156
102	0x3fa570e9	1.2925082
103	0x3d438187	0.04773095
104	0xbec5c28e	-0.38624996
105	0xbebd1fcc	-0.36938322
106	0x3fa62400	1.2979736
107	0xbf68eee6	-0.9098953
108	0xbedfa047	-0.4367697
109	0xbfb10053	-1.3828224
110	0xbee5a10a	-0.44849426
111	0xbf946199	-1.1592284
112	0x3f0c37b5	0.547725
113	0xbebdb7f9	-0.37054422
114	0x3f12fc24	0.57415986
115	0x3ed37728	0.41301847
116	0x3f990676	1.1955097
117	0x3f8606e1	1.0470849
118	0x3f89e31d	1.0772434
119	0x3f8ad660	1.0846672
120	0xbf9e04c1	-1.2345201
121	0xbf894dd7	-1.072688
122	0x3f0405a3	0.515711
123	0xbf133272	-0.5749885
124	0x3f0687eb	0.52551144
125	0x3edee7d8	0.43536258
126	0x3f487e97	0.7831816
127	0x3f880509	1.0626537
128	0xbe5c402f	-0.21508859
129	0x3eda849c	0.42679298
130	0xbf460224	-0.77347016
131	0xbf0ac08b	-0.5420005
132	0xbf0ad306	-0.54228246
133	0x3f03fc90	0.51557255
134	0xbedb67b3	-0.42852554
135	0xbefbdb72	-0.4919086
136	0x3eee763b	0.46574578
137	0xbfb4356c	-1.4078803
138	0xbf689800	-0.90856934
139	0x3f59478c	0.84874797
140	0x3f3fd4ba	0.7493397
141	0xbf988ac1	-1.1917344
142	0xbf0a5a03	-0.54043597
143	0x3c819e69	0.015822606
144	0xbf4e9718	-0.806993
145	0xbf79d82d	-0.97595483
146	0xbf560c82	-0.83612835
147	0x3e734cea	0.23759809
148	0x3eb389b0	0.35065985
149	0x3fbf1b2f	1.4930171
150	0xbfc1bfb5	-1.5136629
151	0x3f884dfa	1.0648797
152	0x3e7fd306	0.24982843
153	0x3db20404	0.08692172
154	0x3f9f33af	1.2437648
155	0xbf81a201	-1.0127565
156	0x3f00236c	0.5005405
157	0xbce90ee1	-0.028449478
158	0x3f466ef3	0.77513045
159	0xbf04f820	-0.5194111
160	0x3f5c7c88	0.8612752
161	0xbeaa25af	-0.33231875
162	0x3f471f77	0.77782387
163	0xbe01ee5d	-0.12688585
164	0xbfa20105	-1.2656561
165	0x3e3df8cb	0.18551938
166	0xbf67b25a	-0.9050652
167	0x3f97bb93	1.1854118
168	0xbf874a4b	-1.0569547
169	0xbf473730	-0.77818584
170	0xbf56a847	-0.8385052
171	0xbf476b86	-0.7789844
172	0x3fc05b33	1.5027832
173	0xbf7154e4	-0.9427016
174	0x3f755fa2	0.9584905
175	0xbdfa6408	-0.12226111
176	0xbfb47e88	-1.4101114
177	0xbe9b9d42	-0.30393416
178	0x3edf7831	0.43646386
179	0xbf0c23cc	-0.5474212
180	0xbf48f9cd	-0.78506166
181	0x3d9218d8	0.07133645
182	0xbeccdefa	-0.40013868
183	0xbef6aa16	-0.4817664
184	0x3fa1d2c7	1.2642449
185	0x3eaf66af	0.3425803
186	0xbf145c32	-0.5795318
187	0xbf69daa9	-0.91349274
188	0xbf87911c	-1.0591159
189	0xbf9b8c1e	-1.2152135
190	0x3f45208f	0.77002805
191	0xbf8b52e2	-1.0884669
192	0xbd3b7f6d	-0.04577582
193	0x3f41dd5c	0.7572839
194	0x3f70b7a8	0.9403024
195	0x3dfa2b17	0.1221525
196	0x3fa80779	1.312728
197	0xbf7eac7d	-0.99481946
198	0x3f59ccef	0.8507833
199	0x3f86967d	1.0514675

conv1.bias f4 [8]
0	0xbfa69593	-1.3014396
1	0xbf450f86	-0.7697681
2	0xbfcc0e85	-1.5941931
3	0xbe18a9fc	-0.14908594
4	0x3f4b1632	0.7933074
5	0xbf242c9c	-0.6413057
6	0xbf919e37	-1.1376408
7	0x3eee9cf2	0.46604115

conv2.weight f4 [16, 8, 5, 5]
0	0xbe2ca043	-0.1685801
1	0x3e2f448f	0.17115997
2	0x3eb324ab	0.34988913
3	0x3eb5ecf4	0.35532343
4	0xbe54a702	-0.20766833
5	0xbe634317	-0.22193561
6	0xbdc0ef15	-0.09420601
7	0xbd545e04	-0.051847473
8	0xbea8efc3	-0.32995424
9	0x3f0567ba	0.521114
10	0xbcd8369d	-0.02639323
11	0xbf15c0b7	-0.58497185
12	0x3e0ccaa7	0.1374918
13	0xbe88b360	-0.26699352
14	0xbeb5d70d	-0.35515633
15	0x3e11a504	0.14223105
16	0x3da566f6	0.08076279
17	0xbd870de0	-0.06594443
18	0xbe466a2c	-0.19376439
19	0x3dbfc053	0.09362855
20	0x3d41c870	0.047310293
21	0xbe3e29da	-0.18570653
22	0x3edb6962	0.42853838
23	0x3eb7a3e1	0.35867217
24	0x3f180ddb	0.5939614
25	0x3d162ff2	0.036666818
26	0xbcb02cfd	-0.021505827
27	0xbd01f94d	-0.031731892
28	0xbee2c453	-0.44290408
29	0xbef393e9	-0.47573784
30	0x3e120fb9	0.1426381
31	0xbec37a45	-0.38179222
32	0xbeafd4de	-0.34342092
33	0xbea27833	-0.3173233
34	0x3e723e86	0.23656663
35	0xbe31996c	-0.17343682
36	0x3d18a887	0.037270095
37	0x3d9fbe10	0.077999234
38	0xbea8a794	-0.32940352
39	0x3e50af48	0.20379364
40	0x3f01a3bf	0.5064048
41	0xbe314bbe	-0.1731405
42	0x3e3e6aaa	0.18595377
43	0x3edf2073	0.43579444
44	0x3b8df1ad	0.0043317885
45	0x3d3fd20e	0.046831183
46	0x3edaa49f	0.4270372
47	0xbe093d1a	-0.13402215
48	0x3ef34bbb	0.47518715
49	0x3df40cab	0.11916479
50	0xbe46a1db	-0.1939768
51	0xbef41513	-0.47672328
52	0x3d9fe5ff	0.0780754
53	0x3eec8cfb	0.4620131
54	0xbdce7f21	-0.10082842
55	0x3d29075e	0.04126679
56	0xbeb53fcb	-0.35400233
57	0x3f014a9e	0.5050448
58	0xbe87abd1	-0.26498273
59	0xbe03d426	-0.12873897
60	0x3e212f35	0.15740664
61	0x3edd0630	0.43168783
62	0xbeb42837	-0.35186931
63	0x3e48f1e7	0.19623528
64	0xbe2d2396	-0.16908106
65	0xbdaf8053	-0.08569398
66	0x3e0d91b0	0.13825107
67	0xbe8dc1b1	-0.27686837
68	0xbdb41ca4	-0.08794525
69	0xbea2ec49	-0.31820896
70	0x3e1ddb25	0.15415628
71	0xbdae5cc6	-0.08513789
72	0xbd0022f7	-0.031283345
73	0xbf07df2c	-0.5307491
74	0x3caea31c	0.021318011
75	0xbe3d8158	-0.18506372
76	0x3ea7ec2b	0.3279737
77	0x3ef317fd	0.4747924
78	0x3e95bff8	0.29248023
79	0xbc23a0a9	-0.009987035
80	0xbce3c05e	-0.027801689
81	0xbe12e605	-0.14345558
82	0x3d0f4422	0.034977086
83	0xbe924a54	-0.28572333
84	0xbd2cdc4b	-0.042202275
85	0xbec4ac5f	-0.3841276
86	0xbdcbabc6	-0.099448726
87	0xbe2c3934	-0.16818696
88	0xbe9f705e	-0.31140417
89	0x3eb48b60	0.35262585
90	0x3eac85cc	0.3369583
91	0x3e28e2b9	0.16492738
92	0x3ed87fa3	0.4228488
93	0x3c1c83ee	0.009552939
94	0xbe21f8af	-0.15817522
95	0xbd14abcc	-0.03629665
96	0xbe39ed29	-0.18156876
97	0x3e934b33	0.2876831
98	0xbe9cc3d6	-0.3061816
99	0xbdb13c5a	-0.08654089
100	0xbed86cad	-0.42270413
101	0xbe99eba2	-0.30062586
102	0x3d75115d	0.059831012
103	0x3e8fcff7	0.28088352
104	0xbeb8d095	-0.36096635
105	0x3d9e7525	0.07737187
106	0x3f122aa9	0.57096344
107	0xbeb8f925	-0.36127582
108	0x3e88e298	0.26735377
109	0xbe6f5154	-0.23370868
110	0x3ed2ddec	0.41184938
111	0x3b8b94c6	0.0042596785
112	0xbec008f6	-0.37506837
113	0xbed441d0	-0.4145646
114	0x3e79c292	0.24390629
115	0x3dab0231	0.08350027
116	0xbee90d17	-0.455178
117	0x3df3ee6c	0.1191071
118	0x3ef0d1cb	0.4703506
119	0x3d720470	0.059086263
120	0xbe88f318	-0.26747966
121	0x3e0c7c8a	0.13719383
122	0xbef26c87	-0.47348425
123	0xbcad06c1	-0.021121385
124	0x3e216100	0.15759659
125	0x3ea9c230	0.33155966
126	0xbef15940	-0.47138405
127	0xbf001ce7	-0.500441
128	0x3ee1be05	0.44090286
129	0xbe9a3c8b	-0.30124316
130	0xbdb903f9	-0.09033961
131	0x3e7253a0	0.23664713
132	0xbccc46cc	-0.024936102
133	0x3c9cba6d	0.019131863
134	0x3e02db0f	0.12778877
135	0xbc513edb	-0.012771334
136	0xbe71e4fa	-0.23622504
137	0xbef5b323	-0.47988233
138	0xbefddc56	-0.49582165
139	0x3ec273a5	0.37978855
140	0xbf0a576f	-0.54039663
141	0xbf049d62	-0.5180265
142	0x3e8d5a91	0.2760816
143	0x3ebd7084	0.36999905
144	0x3ef697d1	0.48162702
145	0x3ea63bfe	0.32467645
146	0xbe891fa8	-0.26781964
147	0x3f0cccd3	0.55000037
148	0x3ea40c9f	0.3204088
149	0x3ef7357a	0.48282987
150	0x3ecbd2d5	0.3980929
151	0xbdfa4e5a	-0.122219756
152	0x3e3e51a3	0.1858583
153	0xbda700ba	-0.081544355
154	0x3b7448d5	0.0037274857
155	0xbea01e31	-0.31273034
156	0x3eac30c0	0.33630943
157	0x3f0fec08	0.5621953
158	0xbf1a3fb3	-0.6025345
159	0x3b2f3cc8	0.002673911
160	0xbea1627e	-0.31520456
161	0x3e2dbaba	0.16965762
162	0x3f1f5e66	0.62253416
163	0xbd79bcbe	-0.060971014
164	0xbee67bfc	-0.45016468
165	0xbe3a2db5	-0.18181498
166	0xbe5ae668	-0.21376956
167	0xbecbda04	-0.3981477
168	0xbce6fd60	-0.02819699
169	0x3cc409d0	0.02393046
170	0xbef7d61e	-0.48405546
171	0xbe85708e	-0.26062435
172	0x3e99d171	0.30042604
173	0x3ca7ef93	0.02049998
174	0xbeaa68ff	-0.3328323
175	0x3e80eebe	0.25182146
176	0xbefc33d2	-0.49258286
177	0xbf0dde1a	-0.55417025
178	0xbbc239b5	-0.0059272894
179	0x3ec3c5bf	0.38236806
180	0xbe8b6fa3	-0.2723361
181	0x3dbb57d5	0.09147612
182	0x3effda14	0.49971068
183	0x3ef2c71c	0.47417533
184	0xbeaae8dd	-0.33380786
185	0xba69ffbc	-0.0008926352
186	0xbe99237e	-0.2990989
187	0x3ebe6d19	0.3719261
188	0x3ef87570	0.48527098
189	0xbe70cbf2	-0.23515299
190	0x3e874527	0.26419947
191	0xbef2b1f0	-0.4740138
192	0x3e64ed86	0.22356233
193	0xbf08372b	-0.5320918
194	0xbeebc6b7	-0.46050045
195	0x3e3c6055	0.18396123
196	0x3eefdc69	0.46847847
197	0x3e782290	0.24231935
198	0x3ec9bfaa	0.3940404
199	0x3e0d1200	0.13776398
200	0x3e64facc	0.22361296
201	0xbf022034	-0.5083039
202	0xbede929e	-0.43471235
203	0xbf16ebad	-0.5895336
204	0x3e82ead7	0.25569794
205	0x3f026615	0.50937015
206	0x3f2015f4	0.625335
207	0x3ddf8757	0.10914486
208	0x3ef7fd98	0.48435664
209	0xbf0f61b8	-0.5600848
210	0xbedb962a	-0.42888004
211	0xbea55b35	-0.32296148
212	0x3ecd71d7	0.40125915
213	0xbe94dcbe	-0.29074663
214	0x3d2eebe2	0.042705424
215	0xbedfba5a	-0.43696862
216	0xbd872afe	-0.06599997
217	0x3e2b649a	0.16737595
218	0xbec01eb1	-0.37523416
219	0x3db19472	0.08670892
220	0xbed29d0d	-0.41135445
221	0xbe5f9dbc	-0.21837515
222	0xbec85d42	-0.3913365
223	0x3f2603d4	0.6484959
224	0x3d33a179	0.043855164
225	0xbec145c0	-0.37748528
226	0xbed7d473	-0.42154273
227	0x3eb4dea4	0.3532611
228	0x3ee6a75d	0.45049563
229	0xbdc2f887	-0.09520059
230	0x3f17de62	0.59323704
231	0x3dd34d43	0.10317471
232	0xbe826a32	-0.25471646
233	0xbe1bc4e2	-0.15211824
234	0xbd7864b1	-0.0606429
235	0xbdbffb79	-0.093741365
236	0x3ebf35da	0.37345773
237	0xbe346e34	-0.17620164
238	0xbea7d8da	-0.32782632
239	0x3eaf0341	0.3418217
240	0xbe9d229e	-0.30690473
241	0x3eec2ab4	0.4612633
242	0xbe1bae87	-0.15203296
243	0x3e7c2cfe	0.24626538
244	0xb9a6bc6d	-0.00031802375
245	0x3ee664a1	0.4499865
246	0x3ed5701b	0.41687092
247	0x3d46bb3b	0.0485184
248	0x3f158e4d	0.5842026
249	0x3e2e20c2	0.17004684
250	0xbeaa18f8	-0.33222175
251	0x3f0084f0	0.50202847
252	0xbf00f0fc	-0.5036771
253	0xbe9c347c	-0.30508792
254	0x3eac649f	0.33670518
255	0xbe783b01	-0.24241258

conv2.bias f4 [16]
0	0x3ea2e632	0.3181625
1	0xbf18a674	-0.5962899
2	0x3e440205	0.19141395
3	0xbede4fa0	-0.43420124
4	0x3e8c9778	0.2745931
5	0x3f23b28e	0.6394433
6	0xbe8e37d9	-0.27776983
7	0x3e9cc780	0.30620956
8	0xbf157a7b	-0.58390015
9	0x3e173afe	0.14768597
10	0x3f00fc9c	0.5038545
11	0xbeabd482	-0.33560568
12	0xbe6f5f63	-0.23376231
13	0x3daed070	0.0853585
14	0x3e3c9e49	0.18419756
15	0xbecfc42c	-0.40579355

fc1.weight f4 [10, 256]
0	0xbe098bad	-0.13432188
1	0x3e3bb30e	0.18330023
2	0x3e65424e	0.22388574
3	0x3dea4272	0.11438455
4	0xbe986f28	-0.29772305
5	0xbdb95794	-0.09049907
6	0x3d80f338	0.0629639
7	0xbec7804a	-0.38965064
8	0x3ee1d2b8	0.44106078
9	0xbefd5929	-0.49482086
10	0x3e08679e	0.13320777
11	0xbec274de	-0.37979788
12	0x3ebddfd9	0.37084845
13	0xbdf910eb	-0.1216143
14	0xbea6e7f6	-0.32598847
15	0x3e60fa2f	0.21970437
16	0xbee1eb9e	-0.44125074
17	0x3e75fa74	0.24021322
18	0xbdd92d72	-0.10604371
19	0x3ec184cc	0.37796628
20	0x3e9c30ee	0.3050608
21	0x3e3fb303	0.18720631
22	0x3eefa897	0.4680831
23	0xbe8585d4	-0.26078665
24	0xbc898403	-0.01678658
25	0x3e49d03b	0.1970834
26	0x3eef4f81	0.46740344
27	0x3e7ff6db	0.24996512
28	0x3e81d483	0.25357446
29	0x3dbdef1f	0.09274124
30	0xbe1e30cc	-0.15448302
31	0x3e5ea52e	0.21742699
32	0xbe865e9d	-0.2624406
33	0x3e03f293	0.12885503
34	0xbe6328e9	-0.22183575
35	0x3e78e2a0	0.243052
36	0x3ea3cc95	0.3199202
37	0x3eb43dfc	0.3520354
38	0xbeba058d	-0.3633236
39	0xbea2c9f7	-0.31794712
40	0x3ecadcc9	0.3962157
41	0xbe18f240	-0.14936161
42	0x3ec0d5c5	0.37663093
43	0xbe64e88a	-0.22354332
44	0xbd9fe163	-0.07806661
45	0xbeb02b98	-0.3440826
46	0x3def1436	0.11673777
47	0xbe7bbd6f	-0.24583982
48	0xbed3489f	-0.41266343
49	0x3c631b47	0.013861484
50	0x3e7aef48	0.24505341
51	0x3b25a056	0.002527257
52	0x3ec27cd4	0.3798586
53	0x3eb5af1d	0.35485163
54	0x3e15ed50	0.14641309
55	0xbf001a0e	-0.50039756
56	0xbe5e02f8	-0.2168082
57	0x3e96ba77	0.29439136
58	0xbee5b5df	-0.4486532
59	0x3e99b1bd	0.30018416
60	0xbe783ed6	-0.2424272
61	0x3ebe7119	0.37195662
62	0xbea0f568	-0.3143723
63	0xbdb8391b	-0.08995267
64	0x3e85ed9e	0.2615785
65	0x3cabd9a5	0.020977804
66	0xbebbcaed	-0.36678258
67	0xbeee6a70	-0.4656558
68	0xbbb5227b	-0.005527792
69	0x3d9fd44c	0.07804164
70	0x3e710aa4	0.23539215
71	0x3e68a5d4	0.22719508
72	0x3ecf45e9	0.40483025
73	0x3ee5857c	0.44828403
74	0xbe881b06	-0.26583117
75	0xbe6355e4	-0.22200733
76	0x3e7285b0	0.2368381
77	0xbe7ddf8f	-0.24792312
78	0xbbc81a1e	-0.006106629
79	0xbecaec92	-0.39633614
80	0xbf05bfc1	-0.5224572
81	0xbd6510ba	-0.055924155
82	0x3cd5f2c5	0.026116738
83	0x3ee23325	0.44179645
84	0xbe6d3c56	-0.23167548
85	0x3e37663b	0.17910092
86	0xbea21eb1	-0.3166404
87	0x3e88b398	0.2669952
88	0xbefda110	-0.49536943
89	0x3dd0aa0d	0.101886846
90	0x3e8635fd	0.26213065
91	0xbedf11dd	-0.43568316
92	0x3d19cf60	0.037551284
93	0x3e943947	0.2894995
94	0xbe865e68	-0.262439
95	0xbf1090fd	-0.56471235
96	0xbee1f078	-0.44128776
97	0xbeedbafc	-0.4643172
98	0xbe866993	-0.26252422
99	0x3ec18c2d	0.37802258
100	0xbe98bf37	-0.29833385
101	0xbd46b84a	-0.048515595
102	0xbdc1e9a6	-0.09468393
103	0xbecf298c	-0.40461385
104	0xbe6e7617	-0.23287235
105	0x3e763acd	0.24045868
106	0xbe92b9e2	-0.28657442
107	0xb9acd39b	-0.00032964055
108	0x3e652bd0	0.22379994
109	0xbea98fd1	-0.33117536
110	0x3e857952	0.26069123
111	0xbf12afb5	-0.5729936
112	0x3ddd7fec	0.10815415
113	0x3bac2419	0.0052533266
114	0x3ee0f3e1	0.43936065
115	0xbe7700d2	-0.24121407
116	0x3cea6247	0.028611315
117	0xbebb0e55	-0.36534372
118	0xbe3f32c6	-0.18671712
119	0xbed227fe	-0.41046137
120	0x3ea18347	0.3154547
121	0xbda7227e	-0.08160876
122	0x3e31d9b3	0.17368202
123	0x3ec068ca	0.37579948
124	0x3e904063	0.28174123
125	0x3d471af1	0.048609678
126	0x3ccaa0ee	0.02473494
127	0xbe9e23d0	-0.30886698
128	0x3eeb3133	0.45935974
129	0x3cf46356	0.029832523
130	0xbef766d7	-0.48320648
131	0x3ddf86db	0.109143935
132	0xbcdd90b6	-0.027046543
133	0xbef02d53	-0.4690958
134	0xbed87a54	-0.4228083
135	0x3ea650f8	0.3248365
136	0xbec5e223	-0.3864909
137	0xbeed1112	-0.46302086
138	0x3e4a692d	0.19766684
139	0x3e1b6aa3	0.15177397
140	0x3ebead3e	0.37241548
141	0xbccab08b	-0.024742385
142	0xbecfc890	-0.40582705
143	0xbe391e00	-0.1807785
144	0xbea8c412	-0.3296209
145	0x3d57fccc	0.05273132
146	0x3e2aad66	0.16667709
147	0x3e944d6f	0.28965327
148	0xbd9fdbde	-0.07805608
149	0xbe98feb5	-0.29881826
150	0x3edcfc07	0.43161032
151	0xbe445840	-0.1917429
152	0xbecc20a3	-0.3986865
153	0xbe2243cc	-0.15846175
154	0xbe38b4f7	-0.18037783
155	0xbee208fa	-0.44147474
156	0x3ec51376	0.3849141
157	0x3eedd59a	0.46452028
158	0xbe9bbfe8	-0.3041985
159	0xbe3a3e4b	-0.18187825
160	0x3ed7b49b	0.4212998
161	0x3e2696c1	0.16268446
162	0x3ed0191b	0.40644154
163	0x3cf232a3	0.029565161
164	0xbe3efc56	-0.18650946
165	0xbe5f4d5e	-0.21806857
166	0x3eaafe8b	0.33397326
167	0x3edfee6d	0.43736592
168	0x3e990d30	0.29892874
169	0xbd5f0c0c	-0.05445485
170	0x3e1e23bc	0.15443319
171	0xbd3e6bdf	-0.046489593
172	0x3d6350b5	0.05549689
173	0xbeb8f297	-0.3612258
174	0x3ed7cdf8	0.4214933
175	0xbedb347d	-0.42813483
176	0x3ef7b285	0.48378387
177	0x3e1b61da	0.15174046
178	0x3e90ec5d	0.2830533
179	0xbec8f411	-0.39248708
180	0xbe9c40cb	-0.30518183
181	0xbea3c055	-0.31982675
182	0x3b43fc9d	0.0029905208
183	0x3bd9445b	0.006630463
184	0xbe896112	-0.2683187
185	0xbcc525bf	-0.02406585
186	0x3ef65036	0.4810807
187	0x3dac2024	0.08404568
188	0x3e0c4492	0.13698032
189	0x3e00ae37	0.12566458
190	0x3e16cb45	0.14725979
191	0xbd44f306	-0.048083328
192	0x3e3e60ef	0.18591665
193	0x3c32779a	0.010892773
194	0x3dc38614	0.09547058
195	0xbef0052c	-0.46878946
196	0xbbd5dd09	-0.0065265936
197	0xbeae37f0	-0.34027052
198	0x3e926d34	0.2859894
199	0xbe543a59	-0.20725383
200	0x3e1fde7c	0.15612215
201	0x3e5516a0	0.20809412
202	0x3ef2eece	0.4744782
203	0x3edd4aaa	0.43221027
204	0xbd36e681	-0.04465342
205	0xbe5e1f6b	-0.21691673
206	0xbea48738	-0.32134414
207	0x3e198650	0.14992642
208	0xbdc7f3dc	-0.09763309
209	0x3cb25d89	0.021773117
210	0xbe4db506	-0.20088586
211	0x3e4f4247	0.20240127
212	0x3ea4b071	0.32165864
213	0x3ec34ccc	0.3814453
214	0xbe948ed5	-0.29015222
215	0xbefb0212	-0.49025017
216	0x3e69f16e	0.22846004
217	0x3d9b9879	0.07597441
218	0xbe48c305	-0.19605644
219	0x3d7934a0	0.060841203
220	0x3e91d979	0.2848623
221	0x3e98a3e5	0.29812542
222	0xbef91280	-0.48646927
223	0x3c8430e4	0.016136594
224	0x3eb26167	0.34839937
225	0xbeb0cfae	-0.34533447
226	0x3e8f3f4e	0.27977985
227	0x3ecb2655	0.39677683
228	0xbe86304e	-0.2620873
229	0xbead8153	-0.3388773
230	0xbd871988	-0.065966666
231	0x3ef25824	0.4733287
232	0x3e8a84d9	0.2705448
233	0xbef1193e	-0.4708957
234	0xbf02f452	-0.51154053
235	0x3ddc63f5	0.10761253
236	0x3e91da05	0.28486648
237	0xbc90cdab	-0.017676195
238	0xbec9193d	-0.39277068
239	0xbeaba563	-0.33524618
240	0x3ead241f	0.3381662
241	0x3e9011e8	0.2813866
242	0xbd978982	-0.073992744
243	0xbefc8863	-0.49322805
244	0xbe81f037	-0.25378582
245	0x3e8430c4	0.25818455
246	0xbdeb02cc	-0.11475143
247	0xbd208f0f	-0.03919893
248	0x3cbd9f1a	0.023147155
249	0xbddaf7cc	-0.10691795
250	0x3e99a4a1	0.30008414
251	0xbec6f025	-0.3885509
252	0x3e497110	0.19672036
253	0x3e1aa5ed	0.15102358
254	0x3eec673d	0.46172515
255	0x3e019521	0.12654544

fc1.bias f4 [10]
0	0xbcdd17a1	-0.026988806
1	0x3d59a860	0.05313909
2	0xbdcccee8	-0.10000402
3	0xbed0f407	-0.40811178
4	0x3e8bcdd6	0.27305478
5	0x3ebfbf18	0.3745048
6	0xbea2433b	-0.31691918
7	0xbd792f99	-0.06083641
8	0xbeb93a4f	-0.36177298
9	0xbf076542	-0.5288888
