sandbox/snapshots2/model-2352.pt (torch, 26159 bytes, 6 tensors)

conv1.weight f4 [8, 1, 5, 5]
00000000: 843f b3be 56bd bf3f 1b1b c5be 2c7f 4c3f
00000010: 5545 f03e a883 82bf 4ae9 84be ac05 b4bf
00000020: ba73 b6bf 246f ebbe fec2 a2bf 7f2d 593f
00000030: 6248 7ebf 23a4 863f 4387 4ebf 1daa ad3e
00000040: 0615 73bf cdd1 133f b2fd 593f abf0 d43e
00000050: 6f32 8ebe 196b 04bf 1d11 973c 3d69 07bf
00000060: e7a2 cdbf 4858 cabe 5792 afbf 654b 80be
00000070: 0d33 903f 81d2 c03f 37d7 3ebe 69e2 933e
00000080: 449a 72bf e63d 8e3f 0493 2e3e 2c40 d9bb
00000090: 008a ae3e 46c6 f4be c118 c1bf ccaa 89bf
000000a0: a622 bcbf bd59 45bf 570b 9bbf f123 48be
000000b0: c4b9 29be 7041 20bf ba4e b1bf 3a71 a7bd
000000c0: 00df a83e 305b a13f 4913 39bf d28d 473f
000000d0: 71c0 e4be 3ee6 263f b2a1 6c3e 83b7 0bbf
000000e0: 0646 0f3e bbf2 bc3f 1d0b bb3f f141 893e
000000f0: 70fd 303e eddb 753f 2531 2fbc 5f66 3dbf
00000100: b240 9ebf 0744 efbe 088c 9cbf 38a9 74bd
00000110: d9ce ee3e 141d c2bf fd5f c63f fd34 34bf
00000120: a5a4 b93f 3b0c 61bf 4315 b0be 0547 93bf
00000130: 9c29 cbbf 9821 b2bf 74f2 873d 3281 e53e
00000140: c4c7 92be a9c0 cdbe f307 48be 00b1 6fbf
00000150: f05c 9dbf 7ec8 b63e 0bbb 483f 558d 9c3f
00000160: d922 903f d6d8 503e a4ec 44bf 7dd2 87bf
00000170: e8e3 ab3f 2a56 8fbf 7c54 c53f 627f d9be
00000180: 1d06 a93f 3e9c c9be fe22 5ebf 0321 a93f
00000190: 9408 c43f b86d 533f 1f9e aa3f 74ae 823d
000001a0: 7b6f c2be eb9c b7be 78ed aa3f 0478 63bf
000001b0: f516 e5be bf38 b4bf 1443 f3be 1329 96bf
000001c0: 0003 113f ef14 b1be 1ad8 193f 77ce c13e
000001d0: 142f 973f 9bfd 893f adad 8f3f 2569 8f3f
000001e0: f340 a4bf 69e0 8cbf cb90 073f 3d03 0fbf
000001f0: 8656 093f 80b1 d93e 8bfa 433f 1d70 833f
00000200: 30e5 86be 3693 cf3e 4976 3fbf a73e 0cbf
00000210: 93c3 16bf 58ec f23e 3d20 e4be eb8f d3be
00000220: b51d f83e 0d80 bbbf a568 6dbf 7010 563f
00000230: 1302 593f 8aec 99bf 0932 15bf 0424 803b
00000240: fe74 55bf 0301 72bf 5332 66bf e0ae 4d3e
00000250: 2e64 ae3e b0e3 bb3f 8601 bebf 2d07 8e3f
00000260: eaf3 963e 7f61 0b3e a149 a63f 0361 77bf
00000270: b61e 0c3f 6ce1 723c f34d 523f 375f fbbe
00000280: b068 673f d5d0 99be 3737 503f b34c e2bd
00000290: 06f9 a4bf 08c3 573e e15f 62bf 8d49 9c3f
000002a0: 69c9 86bf 7346 4dbf 3154 51bf 1fe3 3fbf
000002b0: eb78 c63f 01e1 6ebf dbc3 723f 5454 e0bd
000002c0: 5170 b3bf e78d 9dbe 1c25 df3e 5c54 0dbf
000002d0: 0224 45bf e0c1 9b3d 400d d7be 7343 fdbe
000002e0: 8581 a23f fed3 d23e 6350 0abf 436a 68bf
000002f0: 5579 88bf 0abb 9bbf d134 5e3f bc8f 82bf
00000300: e00a 4abc ff03 493f c50e 763f 80ff 573e
00000310: d9fd b03f 7e58 76bf 4c21 653f 85db 8a3f
-0.35009396 1.4979656 -0.38497242 0.7988155 0.46927896 -1.0196428 -0.25959235 -1.4064231
-1.4254067 -0.4598323 -1.2715757 0.84835047 -0.993292 1.051884 -0.80675143 0.3391885
-0.94953954 0.57742006 0.85152733 0.41589865 -0.27772853 -0.5172592 0.018440777 -0.52894956
-1.6065339 -0.39520478 -1.3716534 -0.2505752 1.126558 1.5064241 -0.18636785 0.28883675
-0.9476664 1.111264 0.1704827 -0.0066299643 0.3408966 -0.4780752 -1.5085679 -1.0755248
-1.4698074 -0.77090055 -1.2112836 -0.1954496 -0.1657477 -0.6259985 -1.385215 -0.08175893
0.32982635 1.2605953 -0.7229505 0.77950776 -0.4467807 0.6519507 0.23108557 -0.5457689
0.13991556 1.4761575 1.4612767 0.26808122 0.17284179 0.96038705 -0.010692869 -0.7398433
-1.2363493 -0.46731588 -1.2230234 -0.059731692 0.46642187 -1.5165124 1.5498043 -0.70393354
1.450337 -0.8790929 -0.3439122 -1.1506048 -1.5872073 -1.3916502 0.06638041 0.4482513
-0.28668034 -0.4018605 -0.19534282 -0.93629456 -1.2293987 0.35699838 0.78410405 1.2230631
1.1260635 0.20395216 -0.76923585 -1.0611111 1.3428926 -1.119817 1.5416408 -0.42479998
1.3204991 -0.39377016 -0.86772144 1.3213199 1.5315118 0.8258929 1.3329505 0.063809305
-0.37975678 -0.35861906 1.335372 -0.88855004 -0.44744077 -1.4079818 -0.47512114 -1.1731285
0.566452 -0.34586284 0.6009537 0.37852833 1.1811242 1.0780519 1.1224877 1.1203963
-1.2832321 -1.1005985 0.5295531 -0.55864316 0.5364765 0.42518234 0.76554173 1.0268589
-0.2634673 0.40542 -0.74789864 -0.547831 -0.5889217 0.4744594 -0.44555846 -0.41320738
0.48460165 -1.4648453 -0.927378 0.8361883 0.8476879 -1.2025311 -0.5827947 0.0039105434
-0.8338164 -0.94532794 -0.8992054 0.20086241 0.34060806 1.467886 -1.4844215 1.109594
0.29482967 0.1361141 1.299122 -0.96632403 0.5473436 0.014824253 0.8215019 -0.4909608
0.90394115 -0.3004214 0.8133425 -0.110497855 -1.2888496 0.21070492 -0.8842755 1.2209946
-1.0530216 -0.8018562 -0.8176909 -0.74955934 1.5505651 -0.9331208 0.948301 -0.10953584
-1.4018651 -0.30772325 0.43583 -0.5520685 -0.7700807 0.07605338 -0.42002296 -0.49465522
1.2695776 0.41177362 -0.5402891 -0.9078714 -1.0662028 -1.2166455 0.8679934 -1.0200114
-0.012331694 0.7852172 0.96116287 0.2109356 1.3827468 -0.9622878 0.8950393 1.0848242

conv1.bias f4 [8]
00000000: a39c b6bf 9d8e 3bbf 23b0 c6bf 217f 05be
00000010: f91d 4b3f ea1d 2ebf c3cb 8cbf 66a4 003f
-1.4266552 -0.73264486 -1.5522503 -0.13036777 0.7934261 -0.68014395 -1.0999683 0.5025085

conv2.weight f4 [16, 8, 5, 5]
00000000: 37dd 3fbe d73a 473e 33b9 ac3e 755e af3e
00000010: cdf4 54be a0e0 51be 459a b4bd 36ff e3bd
00000020: 3e11 d1be 1853 e73e 12ab e7ba 3b21 13bf
00000030: 39eb 213e 3136 73be 10fd a1be f3a0 183e
00000040: 9da7 b73d bf8e c5bd 03e4 4bbe 5ba9 193e
00000050: 4f31 47bd de1a 8abe 45a7 d83e 1d1c bf3e
00000060: 8a96 1a3f 6770 803d b3eb 43bc a36d c6bd
00000070: 22f9 ecbe 643b e6be bf6f 243e abb2 a1be
00000080: af2c 9abe 3a35 9abe c610 883e 0d8d ecbd
00000090: 0d89 e53d d566 073e 2de4 8fbe d001 713e
000000a0: dd21 0e3f 2f6e 11be 4c0b 393e f293 f63e
000000b0: 287a 723d d6f1 503d 57d2 e33e fc85 04be
000000c0: 6726 013f 7321 0f3e 69d8 6bbe bbed 0bbf
000000d0: c028 293d 1fdf e73e 938a cdbd fc4b 8dbc
000000e0: 3bcc d3be c7cc 013f 7270 7bbe 1dd0 f6bd
000000f0: 4e73 093e 4494 d93e bc15 b5be 727e 5b3e
00000100: 0f6b 25be 0999 e5bd 3f5a 143e 84a2 94be
00000110: 6de1 a3bd 21c9 98be fc9c 223e ec1d b1bd
00000120: 625d 98bc b278 02bf bcf6 3e3d 5b96 50be
00000130: 984f ad3e 18a0 043f cc9a a93e a352 aa3b
00000140: 449a 133c a129 f0bd 4ac1 d73c 48ae 94be
00000150: c127 c2bc fd1d c9be 2dc3 e6bd 5f5f 3fbe
00000160: 5140 a4be 78f4 be3e 1da5 b43e 7bb8 2c3e
00000170: aaae d73e d7d9 523c cfbc 23be 5c9f 353b
00000180: b6e7 22be e9a2 963e 7fd3 99be 17fe 86bd
00000190: ee55 cdbe c718 99be c6c5 a53d dbfc a03e
000001a0: df23 aebe f1e6 c83d 47ad 103f 4db0 bbbe
000001b0: 4b79 993e db7d 45be 278e d83e a9e6 ac3c
000001c0: ed9d bbbe a510 c8be 1812 963e 7a9a b63d
000001d0: 4a00 dfbe adaf 083e 5334 f23e c087 a03d
000001e0: 99bd 83be 1efd 1e3e d9b8 eabe 2bbf 83bc
000001f0: 2be6 273e 357b 9d3e a493 f2be 9d1b 07bf
00000200: 0274 dc3e 7363 9dbe e747 06be 72e9 3f3e
00000210: a538 3a3b ac33 933d f9ab 073e ac78 f43c
00000220: 81ff 5ebe 8601 e4be f504 d7be a212 da3e
00000230: 07ea 00bf fff6 01bf 5b68 893e f4a8 b63e
00000240: b324 f93e e3f4 9e3e 74ec 93be b0f3 043f
00000250: 57f0 a03e e7a0 fc3e a1cb b83e 579f 3bbe
00000260: 73d8 4f3e 8939 95bd 2a9f 133c 73c3 c3be
00000270: aeae a43e 68df 183f ce38 15bf 752a 6d3c
00000280: 16c4 b3be e82b 323e 7423 253f d045 2abd
00000290: 6156 e6be 94bc 63be 4059 53be 81cc d2be
000002a0: 19e1 b6bc d6d8 453d 4869 f7be 2aa9 7ebe
000002b0: 0112 a83e 9455 e13c 2eac a4be b02f 993e
000002c0: 3b7e cbbe 06ae 04bf 972a 773c cb0e d13e
000002d0: 6b16 81be 4f18 ea3d 0cfc 023f de8d f43e
000002e0: 8087 abbe 7aff a539 f3af 98be fd3c c73e
000002f0: 9b24 023f 13a7 6cbe c5eb 973e 8853 ecbe
00000300: 3065 6f3e 1241 05bf a0d9 eabe ec28 5d3e
00000310: dc47 fe3e 2062 8b3e a86b e23e e0bd 423e
00000320: a71b 673e fb24 d4be 3710 93be ca90 ebbe
00000330: cfee ba3e a58f ee3e a9b3 0c3f 82b6 063e
00000340: 45d7 ff3e e099 03bf 1304 05bf c3a8 cebe
00000350: 1a2a c43e 6eda 77be 42e9 043e 6808 d0be
00000360: 84c3 81bd cda3 113e f13d bbbe e9e8 f53d
00000370: 9da0 d4be 362f 54be db8d babe 96f4 1c3f
00000380: 05c3 7dbb 8df0 e0be 2a41 e6be e927 b83e
00000390: 99ed ec3e 0c72 e8bd f1ef 0f3f a0ac c43d
000003a0: 9dbc 84be b477 1cbe dd0b 66bd 9813 9abd
000003b0: 87c1 d53e 129c 2bbe 5f87 aabe 44d0 bc3e
000003c0: 8ce1 84be 7630 033f 3d21 3cbe 9094 543e
000003d0: 0465 b2bb b8d0 023f 0f2d f33e 250b 773c
000003e0: 4f06 093f a2c2 223e 54de a8be 7d7a ff3e
000003f0: 0a03 00bf ce2e 91be ca0b b93e b040 87be
-0.1873673 0.1945604 0.33735046 0.34251752 -0.20796509 -0.20495844 -0.08818487 -0.11132662
-0.40833467 0.45180583 -0.0017674884 -0.5747258 0.15812387 -0.23751141 -0.31638384 0.14905147
0.089675166 -0.09646367 -0.19911198 0.1500601 -0.04863101 -0.26973623 0.42315117 0.37326136
0.60385954 0.06271439 -0.011958051 -0.0968888 -0.46283823 -0.44967186 0.16058253 -0.31581625
-0.30112216 -0.30118734 0.26575297 -0.11550341 0.11207781 0.13222821 -0.28103772 0.23535848
0.5552042 -0.14202188 0.18070716 0.48159748 0.05919853 0.051011883 0.44496414 -0.12941736
0.5044922 0.13977604 -0.23031773 -0.5465962 0.041298628 0.45287415 -0.100361966 -0.017248146
-0.41366753 0.5070309 -0.24554613 -0.12051413 0.13422891 0.4249593 -0.35368145 0.21434954
-0.16154121 -0.1121083 0.14487551 -0.2903024 -0.08001981 -0.2984095 0.15880197 -0.08648285
-0.018599216 -0.50965416 0.046622023 -0.20369856 0.33849788 0.51806784 0.33125913 0.0051978393
0.009008948 -0.1172669 0.026337285 -0.29039216 -0.023700597 -0.39280692 -0.112676956 -0.18688725
-0.3208032 0.3729589 0.3528222 0.16867249 0.42125446 0.01286932 -0.15989994 0.0027713394
-0.15908703 0.29421166 -0.3004417 -0.065914325 -0.40104622 -0.29901716 0.08094363 0.31442913
-0.34011742 0.098096736 0.565144 -0.36657944 0.29975352 -0.19286291 0.42295954 0.021106081
-0.36643925 -0.390752 0.2931068 0.08916183 -0.43554908 0.13348265 0.47305545 0.07838392
-0.2573059 0.15526244 -0.45844153 -0.016082367 0.16396396 0.30758062 -0.47378266 -0.5277651
0.43057257 -0.30739936 -0.13113366 0.18741396 0.002841511 0.0718759 0.13249196 0.029842697
-0.21777155 -0.44532412 -0.4199597 0.4259234 -0.503571 -0.5076751 0.2683743 0.35675776
0.48660812 0.3104621 -0.28891337 0.5193434 0.31433365 0.4934151 0.36092857 -0.18322502
0.20297413 -0.072863646 0.009010116 -0.38235053 0.3216452 0.5971589 -0.582898 0.014475455
-0.3511054 0.17399561 0.6450722 -0.041570485 -0.44987777 -0.22239906 -0.20639515 -0.4117165
-0.022324132 0.048302494 -0.4832251 -0.24869218 0.32826236 0.027506627 -0.32162613 0.29919195
-0.39744744 -0.5182804 0.015085838 0.408316 -0.25212416 0.11430418 0.51165843 0.47764486
-0.33501816 0.00031661597 -0.2982174 0.38913718 0.50837106 -0.23110609 0.29672065 -0.4615748
0.23378444 -0.52052414 -0.4586916 0.21597642 0.496642 0.272233 0.4422276 0.19017744
0.22569142 -0.41434464 -0.28723308 -0.46008903 0.36510321 0.46593967 0.5496164 0.13155559
0.49968925 -0.5140667 -0.5195934 -0.4036313 0.3831337 -0.24204418 0.12979606 -0.40631413
-0.0633612 0.14222641 -0.36570695 0.12007315 -0.41528788 -0.20721135 -0.36436352 0.6131071
-0.0038720977 -0.43933526 -0.4497159 0.3596795 0.46275023 -0.11349878 0.56225497 0.09603238
-0.2592515 -0.15280038 -0.056163657 -0.075232685 0.41749212 -0.16758755 -0.33306405 0.36877644
-0.2595333 0.5124582 -0.18372054 0.20759797 -0.005444171 0.5109973 0.47495314 0.015078341
0.5352525 0.15894559 -0.32982123 0.4989814 -0.5000464 -0.28356022 0.36141807 -0.2641654

conv2.bias f4 [16]
00000000: 86cf b13e ace1 12bf 242a 2a3e aa6a debe
00000010: 62e2 8d3e eb27 1f3f 1655 98be 55fa 973e
00000020: c35c 07bf 46ef 173e 63f4 033f 018f abbe
00000030: b791 69be a2de bc3d c4f2 3f3e 94ae dbbe
0.3472864 -0.573756 0.16617638 -0.43440753 0.2771178 0.62170285 -0.29752415 0.29683176
-0.5287592 0.1483737 0.5154478 -0.3350754 -0.22809492 0.09222151 0.18744951 -0.4290663

fc1.weight f4 [10, 256]
00000000: b1dd 00be 6fc2 3c3e a890 6f3e a9e4 043e
00000010: ae66 8ebe 5f42 b4bd d0a0 773d b197 c8be
00000020: eaed ee3e 369e ebbe e033 1a3e 6813 c0be
00000030: 2606 bd3e c48c fcbd ee8b a5be 9a5a 883e
00000040: 992d e3be 26c7 793e 6c72 ccbd 6907 c93e
00000050: 31f4 a13e 6b33 423e d29c f43e d9e8 80be
00000060: ce37 dc3b 4f5a 533e 0bb7 ee3e 552a 7f3e
00000070: 7b1f 893e 0ac2 de3d ce27 1cbe 665b 603e
00000080: 712a 85be b240 1b3e ffb9 62be 4f4f 733e
00000090: 7963 a13e 852a bb3e 14cb b5be 3711 a9be
000000a0: 0a7f ca3e 8fec 1fbe 0a44 cf3e 1d99 5ebe
000000b0: 661c 9cbd e958 b6be e012 033e f9ce 7ebe
000000c0: 91b5 d0be 4d39 ce3c acd8 813e 4fa4 3e3c
000000d0: c110 ca3e 6241 c03e 35e1 243e 1899 efbe
000000e0: f31f 58be a110 963e a67c e1be f01b a23e
000000f0: eb1c 56be eb76 c43e 0fed a6be c2e2 e9bd
00000100: 21a4 893e dc07 b63c 2e8b bebe 43b6 efbe
00000110: 8106 103c 345f ae3d 0007 703e df50 683e
00000120: 8f13 d63e 61eb e73e 18b2 85be 0dbc 67be
00000130: 7e8e 6e3e 06e0 77be 8862 d83b 8e73 c6be
00000140: 5e76 00bf 0b96 4dbd cd06 d93c 87b0 eb3e
00000150: 19b2 34be 62a0 853e 5cef b4be a379 8a3e
00000160: e414 f4be 4fb6 233e f863 a03e fe8e d9be
00000170: af74 f53c ce91 633e 1de4 89be 18de 00bf
00000180: 16a2 debe 3700 d0be f1b1 53be 1047 c13e
00000190: a86e 84be 0ece d6bc 936a 10bd 2939 bfbe
000001a0: bb59 63be 8722 533e ca6b 94be 0a26 e83c
000001b0: d9b9 a13e 906f 99be 28eb 8f3e 7468 0abf
000001c0: ccca ec3d ed3e 933b 99ba e13e b83b 72be
000001d0: c536 ec3c 7d64 b7be 8055 3ebe 65fe d0be
000001e0: 802b a43e b4eb 85bd 2671 3f3e eb2f c23e
000001f0: 85da 923e f6d3 323d e75f 173d 9258 a3be
00000200: 7dbb ed3e 8e8b 203d 5f8f e2be ae1b 333e
00000210: 8694 3fbb 0656 e8be 5863 d9be 11df a23e
00000220: 5b9c b8be 8883 e0be 17e9 493e 05f1 1b3e
00000230: d339 c83e d126 133d e9c4 c9be 1c87 35be
00000240: d651 a8be 33d3 533d 94a4 293e 0acd 973e
00000250: 919c 86bd ede2 96be 9d80 dd3e b8d8 42be
00000260: 3d46 c9be c649 22be f172 3abe 5033 e7be
00000270: 3100 cc3e d33f f43e dc06 97be c94e 3abe
00000280: 3c6e db3e aab8 2a3e 863e d33e 8c30 1a3d
00000290: 1b06 3fbe 5534 60be 7b7d ad3e f545 e23e
000002a0: 42fe 983e c8d3 55bd efe1 153e 664a 4dbd
000002b0: 4b31 853d 0c35 b5be 8f97 d83e d823 ddbe
000002c0: 4f79 fa3e d318 213e 4663 923e c78e c8be
000002d0: 07c0 96be b3db 9cbe bb98 893c 0671 ed3b
000002e0: 70ac 85be fc76 babc f14e f73e 2287 a73d
000002f0: 9ef4 193e 7933 063e e0dc 1c3e 4b70 37bd
00000300: 24e3 473e aa51 973c 023f f03d 796f e8be
00000310: 2caa 663c 747e abbe a9ec 893e df49 76be
00000320: be5a 513e b400 773e 3dec f33e cb5e df3e
00000330: d8e3 03bd 8e44 54be 4c08 aabe 92fa 083e
00000340: cc61 39bd 3163 b93d 3273 3dbe 6a85 393e
00000350: e057 b03e 1636 b93e e181 96be 2cd4 f3be
00000360: 8cc2 9a3e 4975 a33d 8852 dabd 7282 b73d
00000370: 2b9c a13e a478 9e3e 2496 f1be 6cf9 203d
00000380: 4407 ba3e dd2e b3be 71ce 8e3e 126f d13e
00000390: 4d75 82be 1bf3 aebe 4eab 94bd 302d fb3e
000003a0: 9268 9e3e 232f debe 6c5b fdbe bd2f f63d
000003b0: 0d76 8d3e 176d 5ebc 94c8 c6be 5dcf b3be
000003c0: d66e a23e bea3 8f3e f343 31bd 8b80 c2be
000003d0: 3b4a 96be 7056 763e 1bb2 e8bd cac8 91bd
000003e0: 1d72 b13c 6499 eebd e677 953e 302a e5be
000003f0: deb6 863e 7ef5 d33d 157e c93e bf35 3d3e
-0.12584569 0.18433546 0.23395026 0.12977852 -0.27812713 -0.08801722 0.060456097 -0.3917823
0.4666589 -0.46019143 0.15058851 -0.37514806 0.36918753 -0.123315364 -0.3233332 0.26631624
-0.44370726 0.24392375 -0.09982762 0.39263466 0.31631616 0.18964927 0.47775894 -0.2517765
0.0067205196 0.20639919 0.46624026 0.24918492 0.2678183 0.10876854 -0.1524956 0.21909866
-0.26008943 0.15161398 -0.22141264 0.23760723 0.31521204 0.36555877 -0.355065 -0.33020946
0.39550048 -0.15617584 0.40481597 -0.21738096 -0.07622604 -0.35614708 0.12800169 -0.24883641
-0.40763524 0.025173808 0.2536062 0.011635854 0.39465907 0.37549883 0.16101535 -0.4679649
-0.21105938 0.29309562 -0.44040412 0.3166194 -0.20909469 0.38371977 -0.32602736 -0.11420204
0.26883033 0.022220545 -0.3721556 -0.46818742 0.008790613 0.08514252 0.2344017 0.226871
0.41811797 0.45296767 -0.26112437 -0.2263033 0.23296544 -0.24206552 0.0066035427 -0.38760036
-0.50180614 -0.05019192 0.0264925 0.46033117 -0.17646064 0.26098925 -0.35338867 0.27045926
-0.47672188 0.15987514 0.3132627 -0.42491907 0.029962866 0.22223589 -0.2693185 -0.5033889
-0.43483037 -0.40625164 -0.20673348 0.3774953 -0.25865674 -0.026221301 -0.035257887 -0.37348297
-0.22202198 0.2061864 -0.28988487 0.028338451 0.31587103 -0.29967928 0.28109097 -0.5406563
0.11562118 0.0044935853 0.44087675 -0.23655593 0.02883471 -0.35818854 -0.18587303 -0.40819088
0.32064438 -0.065390974 0.18695506 0.37927184 0.28682342 0.043659173 0.036956694 -0.3190351
0.46432105 0.03919559 -0.44250008 0.17491028 -0.0029232814 -0.4537813 -0.42458606 0.3181081
-0.3605679 -0.4385035 0.19717823 0.1522866 0.39106616 0.03592569 -0.39408043 -0.17727321
-0.32874936 0.051715087 0.16566688 0.2964862 -0.065728314 -0.29470006 0.43262187 -0.19027984
-0.393114 -0.15848455 -0.18207909 -0.45156336 0.39843896 0.47704944 -0.2949742 -0.18194117
0.4285754 0.16672006 0.4125864 0.037643954 -0.18654673 -0.21894963 0.33884797 0.44193998
0.29881483 -0.052203923 0.14636968 -0.05011978 0.065035425 -0.35392034 0.4230313 -0.4319141
0.48920676 0.15732126 0.28591365 -0.3917143 -0.2944338 -0.30636367 0.01679646 0.0072461395
-0.26108122 -0.022761814 0.48302415 0.081800714 0.1503472 0.13105573 0.15318632 -0.044784825
0.19520241 0.018471558 0.11730768 -0.45397547 0.014078658 -0.33494914 0.2693837 -0.24051617
0.20444772 0.24121362 0.47641173 0.4362701 -0.03219971 -0.20729277 -0.33209455 0.13376835
-0.045259282 0.090521224 -0.18500975 0.181173 0.34442043 0.36174077 -0.29395965 -0.47622812
0.30226552 0.07981355 -0.10660273 0.08960427 0.3156446 0.30951416 -0.4718486 0.039300367
0.36333668 -0.3499669 0.27891877 0.40905052 -0.25480118 -0.3416985 -0.07259236 0.49057913
0.30939156 -0.43395337 -0.49483812 0.12020824 0.27629128 -0.013575814 -0.38824904 -0.35119143
0.31725186 0.28054613 -0.043277692 -0.37988696 -0.29353508 0.24056411 -0.11362096 -0.071183756
0.021660859 -0.11650351 0.29193038 -0.4475875 0.26311392 0.10349558 0.39354005 0.18477534

fc1.bias f4 [10]
00000000: 65b3 abbc 1bce 413d 3c40 aebd eb21 c5be
00000010: 2a7f 823e be3f b03e 46c7 9ebe d2fe 52bd
00000020: 6a52 b3be a91e 03bf
-0.020959565 0.047315698 -0.085083455 -0.3850244 0.25487643 0.3442363 -0.3101141 -0.051512547
-0.35023814 -0.5121866
