sandbox/snapshots2/model-12480.pt (torch, 26167 bytes, 6 tensors)

conv1.weight f4 [8, 1, 5, 5]
00000000: f52d 13bd 38ce e63f 5004 99bd c514 873f
00000010: 1327 2f3f 6098 43bf 1db6 b73c 5c70 8dbf
00000020: 3fcc a2bf c287 b9be a746 98bf 1ec7 5b3f
00000030: 95c3 82bf dc25 6a3f 54e7 69bf fdbf e63e
00000040: 251c 64bf 86d7 013f b29a 343f 8b2c 973e
00000050: b565 01be c0b6 f6be 8520 4cbd 7a73 21bf
00000060: 153a d5bf d64c c7be 0d23 a5bf 218c 3ebe
00000070: 3c53 883f f287 b53f 58d3 59be 8bd8 a23e
00000080: a226 5cbf 7a15 8b3f 8c0b 553d 8d57 9dbd
00000090: 2892 ba3e f8aa babe 8c8e c7bf 0baa a3bf
000000a0: c1d7 bdbf 058d 28bf d5d2 9bbf d48c b4be
000000b0: 2bf3 e9be aef6 20bf a0f0 a8bf 18e7 93bd
000000c0: 4bba 113e 2e30 7b3f 08db 1abf d293 2f3f
000000d0: 4605 10bf f7f6 0d3f 0542 3b3e f4e7 f7be
000000e0: 5834 113d 89d3 ab3f 2bf6 a93f 9d40 733e
000000f0: 8901 313e bb3c 603f 1f0e b7bd 9db0 47bf
00000100: d46c 8ebf 2256 ecbe 6f1c 9dbf 655a 00be
00000110: 9902 cb3e 344e babf e5c8 bd3f 8faf 3abf
00000120: e650 aa3f 3fd4 5ebf a799 b3be 82fc 90bf
00000130: 1c93 bfbf be7d aebf f4b7 1d3c 4bcd ec3e
00000140: 89e3 c3be 870c e1be 8203 30be f0b5 5bbf
00000150: ba5f 89bf 2ff0 7b3e 09c4 1b3f fdda 843f
00000160: aa22 7f3f e64a 1e3e bde9 4dbf 92e4 97bf
00000170: 9809 953f ad76 9cbf bfc0 ae3f 46fe 11bf
00000180: 6f07 923f 4003 e9be 216a 60bf ffc8 993f
00000190: e35e 9b3f c6c0 eb3e fdbb 863f 4357 d53d
000001a0: 59b3 46be ad99 04bf 8203 863f 5d51 74bf
000001b0: da0b 55be 999d 8cbf b217 e9be b790 99bf
000001c0: c977 ef3e e072 b6be b3da 0e3f ded3 db3e
000001d0: 6f03 8f3f b63d 533f d075 593f 997c 693f
000001e0: e04f 83bf 3a84 77bf 20bf c43e 7326 3abf
000001f0: 4a4e db3e 5545 023f 7f12 5a3f 7bd4 8d3f
00000200: 4781 4abe 2c31 a73e 1804 2bbf 8160 e1be
00000210: e098 e7be 4710 f23e b606 11bf cf3b 00bf
00000220: 4256 0e3f 4816 a3bf 2195 77bf c0ba 2e3f
00000230: dd54 1b3f 5399 96bf 3d6e e2be 1c31 87bc
00000240: 9a67 64bf a227 82bf 53dd 30bf a3cf a03e
00000250: cd9a 983e 3564 b23f 0932 c5bf c609 713f
00000260: 66dd 263e 683a cabb e2b6 8b3f 15ca 90bf
00000270: 9644 d13e 09e2 41bd 962e 3a3f 27d1 0dbf
00000280: a8fc 383f 7cb1 b4be 4e9e 463f 971c a3bd
00000290: ba9c 95bf 1c16 3f3e e46b 51bf 074b 9a3f
000002a0: 4986 78bf 52ff 2dbf 0c60 31bf d4e4 2bbf
000002b0: 636c be3f b6a4 63bf 8142 7c3f 5ac3 ddbd
000002c0: 767c a6bf 747a 85be 2c0c d23e f5fc 03bf
000002d0: 229b 4cbf cf46 2d3e 687c 84be c1e9 ccbe
000002e0: 8420 a13f 2149 7f3e 36d8 f1be 4c5f 38bf
000002f0: cb75 71bf 0b47 9abf 8202 273f c5cc 88bf
00000300: 75cb bb3c e441 2a3f d0a2 453f b92f b43c
00000310: b7be 9a3f 35db 85bf dc37 2e3f 2ac9 623f
-0.0359325 1.8031683 -0.07471526 1.0553213 0.68419 -0.7640438 0.022425706 -1.1049914
-1.2718581 -0.36236387 -1.1896561 0.85850704 -1.0215937 0.9146402 -0.91368604 0.4506835
-0.89105445 0.5071949 0.70548546 0.2952617 -0.12636454 -0.48186302 -0.0498357 -0.6306683
-1.665835 -0.3892581 -1.2901322 -0.18608142 1.0650401 1.4182112 -0.21272027 0.31805834
-0.8599645 1.0865929 0.052012965 -0.076827146 0.36439633 -0.36458564 -1.5590377 -1.2786268
-1.4831468 -0.6584018 -1.2173716 -0.35263693 -0.45693335 -0.62876403 -1.3198433 -0.07221812
0.14231221 0.9812039 -0.60490465 0.6858493 -0.56258047 0.55454963 0.18286903 -0.48419154
0.03545031 1.342393 1.327825 0.23755117 0.17285742 0.8759267 -0.0893824 -0.78003865
-1.1126962 -0.46159464 -1.2274302 -0.12534483 0.3965042 -1.4555116 1.4826933 -0.7292413
1.3305938 -0.8704261 -0.35078165 -1.1327059 -1.4966769 -1.3632123 0.009626377 0.46250376
-0.38259533 -0.4395487 -0.17188838 -0.8582449 -1.0732338 0.24603342 0.60846 1.037933
0.9966227 0.15458259 -0.8043478 -1.1866629 1.1643553 -1.2223717 1.3652571 -0.57028615
1.1408519 -0.45510292 -0.8766194 1.2014464 1.2138332 0.46045512 1.052612 0.104170345
-0.19404353 -0.5179699 1.046982 -0.9543665 -0.20805302 -1.0985595 -0.4552589 -1.1997288
0.46771076 -0.35634518 0.5580246 0.4293508 1.1172923 0.8251604 0.8494539 0.91205746
-1.0258751 -0.96686137 0.38427067 -0.7271492 0.42833167 0.5088704 0.8518447 1.1080469
-0.19775878 0.32654703 -0.6680312 -0.4401894 -0.45233822 0.47278044 -0.56650865 -0.5009126
0.5560037 -1.2741175 -0.9671193 0.6825371 0.60676366 -1.1765541 -0.4422473 -0.01650291
-0.89220583 -1.0168345 -0.69087714 0.31408414 0.29805604 1.3936831 -1.5405895 0.9415554
0.16295394 -0.0061715133 1.0915186 -1.131167 0.4087264 -0.047334705 0.72727334 -0.55397266
0.7226052 -0.3529166 0.77585304 -0.079644375 -1.1688454 0.18660778 -0.81805253 1.2054147
-0.970799 -0.6796771 -0.6928718 -0.6714604 1.4876827 -0.88923204 0.98538977 -0.10828276
-1.3006732 -0.26069987 0.4102491 -0.51557857 -0.79924214 0.16921543 -0.25876164 -0.4002209
1.2588048 0.2493024 -0.47235268 -0.7202041 -0.9432036 -1.205293 0.652382 -1.0687491
0.022924164 0.6650679 0.7720156 0.021995412 1.2089452 -1.0457522 0.68053985 0.885882

conv1.bias f4 [8]
00000000: 4e1e 8bbf 8688 4abf bea5 d4bf 1b2c 93be
00000010: 8241 473f 66c8 23bf 81da 9dbf 95c3 cb3e
-1.0868623 -0.7911457 -1.661308 -0.28744587 0.7783433 -0.6397766 -1.2332307 0.39797655

conv2.weight f4 [16, 8, 5, 5]
00000000: 9ac9 b8bd a799 513e 734d b23e 9e0f cb3e
00000010: c9ab 59be d6bd b0be 8a57 56be eacf 9fbd
00000020: c22c 1cbe 80dd 1a3f 0bf7 39bc da6f 10bf
00000030: 971e c63d 8da1 94be c989 a9be c3e7 433c
00000040: 34c1 b1bd 9cdf 44be 40ff 83be c831 c23b
00000050: 4dd5 413e bf5a 4dbe 6738 ac3e 3fdd 413e
00000060: f8cb b63e 4287 b63c cb18 813d 8e7d d33d
00000070: 3470 dcbe d60a 03bf 52f1 3f3e 52fc cbbe
00000080: 3aa8 b5be e04b 90be d38f 663e f72f 3dbe
00000090: 7e11 943c ee54 61bd 3c55 dbbe 9a32 5e3e
000000a0: 128d 913e 7116 92be 5b39 133e d197 8b3e
000000b0: 83bd 5fbd 5cc4 c43c 0acf 923e 5231 55be
000000c0: 2d73 c53e 4878 3e3d d08e 10be 4a40 c0be
000000d0: e2cb 0f3e b565 103f 286b 31bd 9ad8 9c3d
000000e0: 89f7 8ebe b9a9 dc3e d034 86be 1e10 26be
000000f0: 816f 7f3e 043f f23e fdeb c8be 51ac d83d
00000100: f0aa 42be 381a 8ebc c912 0e3e 63dd 90be
00000110: 2693 ebbd 582c c6be 226c 553e 43b2 9bbd
00000120: 272c cabd 6dd2 18bf 4b0f 1dbe cf01 43be
00000130: d956 573e d99e 893e a21f 1c3e 5899 a3bd
00000140: ebee 2cbe 5709 5dbe 3fc3 4a3d baa8 89be
00000150: 312f 11bd e34e f3be c329 29be aa91 20be
00000160: eaef a1be 1ef6 893e d3c1 853e 0d1c 1d3e
00000170: e97a f93e fadc 233d 1c4e 1cbe 9f93 cdbd
00000180: 4e92 fdbd 2e22 c63e e631 8bbe 681b 1abe
00000190: a309 ccbe 241e 88be 4eae 1a3d de73 7a3e
000001a0: b903 c0be 3a90 3c3d cae8 123f 74be b7be
000001b0: 9adc 5a3e 7cde 94be a86f c53e e2c4 d0bc
000001c0: cffd c1be 1fed dcbe ed5f 093e 55e0 bf3d
000001d0: 0d9f f0be 21eb ad3d e3a2 e53e 270d 8a3c
000001e0: b53f 5bbe e896 373e ed13 e1be 17b3 c13c
000001f0: ed8b 6b3e 92f4 c73e 34c3 e3be 9467 ecbe
00000200: 7d99 dd3e eff2 97be 4d39 82bd 29cb 773e
00000210: 3cb2 aabd d325 b5bc 148e 233e c5ea 3ebd
00000220: ad31 30be 18d1 cdbe 2fcd 01bf 769f 8d3e
00000230: 8b39 32bf 7c91 24bf 9a83 933e 4204 a83e
00000240: d650 b83e cfa0 dd3e b7a7 6dbe b25b 043f
00000250: 09d5 3a3e 9185 923e 0b40 dd3e 59a3 923a
00000260: 6e54 2f3e 3d46 cebd 9eaa 37bc c2c4 88be
00000270: e4eb 9f3e e328 d93e 6860 1bbf b5da 8ebd
00000280: c9ae 36be 1348 203e e418 e63e b2be 42be
00000290: 3161 f8be f88a 08be 6319 56be b917 cbbe
000002a0: 0aa2 55bc 978d 053d 2530 fdbe 6597 98be
000002b0: d0a5 573e 0fd2 953d dfd6 b2be 1497 2b3e
000002c0: 8d5c 22bf 3a90 24bf ae3b 5fbd 1109 a33e
000002d0: 5f0c c6be 3d63 6fbc 72ab db3e 4758 e43e
000002e0: 00c3 9bbe ede6 a4bc 07e0 aebe fc85 ae3e
000002f0: ffec e43e 33e6 87be 829c 313e 9285 02bf
00000300: 335e 933e 6437 f1be 67b1 d4be ee41 e03d
00000310: d226 e03e 5b10 753e efbf b03e f64d d8bb
00000320: 399d 2d3e e8dc 0abf c425 e6be d423 17bf
00000330: 07a3 3d3e 66e5 a83e deb4 1b3f 3e86 363e
00000340: 1ba3 0a3f 084a 1ebf 7796 b9be cfb2 97be
00000350: d538 ae3e b83a a9be d0bd debd d887 f1be
00000360: 7e8c dcbd 43fa 263e a5be acbe 484f b43d
00000370: 01a1 ffbe 71ee 94be 8a83 07bf e392 f13e
00000380: 3dd3 69bd 8972 88be f282 acbe 3af2 bd3e
00000390: 61c4 e63e 89ce 943d 78f3 163f 6988 c03d
000003a0: 3d7f 71be 5daa 50be 0b69 0abc 1fd7 1cbe
000003b0: c7bb 763e 2d80 69be c88c b5be 4a7c a43e
000003c0: 020f c3be 1d22 c03e 9021 e4bd 1180 5e3e
000003d0: b38f f8bb 29ba b83e 48a1 8c3e 4661 803c
000003e0: 70e6 143f 36fa e93d 7952 a6be e51f 0d3f
000003f0: 0102 c2be 5f25 5cbe 9715 c13e 848e 3ebe
-0.090228274 0.2046877 0.34824714 0.39660352 -0.21256937 -0.34519833 -0.20931831 -0.07803328
-0.15251449 0.6049423 -0.011350404 -0.5642067 0.09673803 -0.29029503 -0.33112934 0.011957112
-0.08679429 -0.19225925 -0.25780678 0.0059263445 0.18929024 -0.20054148 0.33636782 0.18932055
0.3570249 0.022281293 0.06303557 0.10326682 -0.43054354 -0.5118841 0.187444 -0.39840943
-0.3547991 -0.28182888 0.22515802 -0.18475328 0.018074747 -0.055012636 -0.42838466 0.2169899
0.2842794 -0.28532746 0.14377348 0.27264264 -0.05462409 0.024019413 0.28673583 -0.20819595
0.38564435 0.046501428 -0.14116979 -0.3754905 0.14042619 0.5640519 -0.043315083 0.07658501
-0.2792323 0.43098238 -0.26212168 -0.16217086 0.24944879 0.47313702 -0.39242545 0.10579742
-0.1901052 -0.017346486 0.13874353 -0.28293905 -0.11502676 -0.38705707 0.2084203 -0.0760236
-0.09871703 -0.59696084 -0.15337865 -0.19043659 0.21029224 0.26879004 0.15246442 -0.079882324
-0.16888015 -0.21585594 0.049502607 -0.2688654 -0.035445396 -0.47521123 -0.16519837 -0.15680566
-0.31628352 0.26945585 0.2612444 0.15342732 0.48726586 0.04000566 -0.15264171 -0.10037922
-0.12381421 0.38697952 -0.27186507 -0.15049517 -0.39851102 -0.26585495 0.037763886 0.24458262
-0.3750284 0.046035983 0.5738646 -0.35887492 0.21373215 -0.29075992 0.3856175 -0.025484506
-0.37888953 -0.4314966 0.13415499 0.0936896 -0.46996346 0.08492113 0.44850835 0.016851975
-0.21411021 0.1792866 -0.43960515 0.023644967 0.23002596 0.3905378 -0.44484866 -0.46172774
0.43281165 -0.2967753 -0.063585855 0.24198593 -0.08334777 -0.022112763 0.15972167 -0.046610612
-0.1720645 -0.40198588 -0.5070371 0.27660722 -0.69619054 -0.6428449 0.28811342 0.32815748
0.35999173 0.4328675 -0.2320851 0.51702416 0.18245329 0.28617528 0.43212923 0.0011187597
0.17122051 -0.10071991 -0.011210112 -0.26712614 0.31234658 0.42414007 -0.6069398 -0.06975309
-0.17840113 0.15652494 0.44940865 -0.19018057 -0.4851165 -0.13334262 -0.20908122 -0.39666536
-0.013039121 0.032605734 -0.49450794 -0.29803005 0.21059346 0.07315456 -0.3492956 0.1675685
-0.6342247 -0.6428257 -0.054500274 0.31842855 -0.38681313 -0.014611063 0.4290424 0.445986
-0.3042221 -0.020129645 -0.34155294 0.34086597 0.44712064 -0.26542816 0.17344859 -0.5098506
0.28782806 -0.47112572 -0.41541597 0.10950075 0.43779618 0.2393202 0.34521434 -0.0066010905
0.16954507 -0.54243326 -0.44950688 -0.59039044 0.18519221 0.32987517 0.60822856 0.17824647
0.5415513 -0.6183171 -0.36247608 -0.29628608 0.34027734 -0.3305261 -0.108760476 -0.47173953
-0.10768984 0.16306405 -0.337392 0.08804184 -0.49927524 -0.29088166 -0.5293509 0.47182378
-0.05708622 -0.26649883 -0.33693653 0.37098867 0.450717 0.07265956 0.58965254 0.09401018
-0.23583694 -0.20377488 -0.008447896 -0.15316437 0.24095069 -0.22802801 -0.3545897 0.32126075
-0.38097388 0.37526026 -0.11139214 0.21728541 -0.0075854897 0.3607953 0.27466798 0.015671384
0.5816412 0.11424677 -0.32484797 0.5512679 -0.37892154 -0.21498631 0.37711784 -0.18609053

conv2.bias f4 [16]
00000000: f64b 7f3e 88ae 1ebf 9371 033e 88ab 04bf
00000010: eb86 963e aa9a 1e3f a8cd 83be a0ae 8c3e
00000020: 94ea 0dbf 5f4f 373e db2f ff3e e18a acbe
00000030: ca65 6dbe ae8f 9e3d b8f8 f53d 8e5a d9be
0.2493132 -0.61985064 0.12836294 -0.51824236 0.2939981 0.6195475 -0.2574284 0.27476978
-0.5543606 0.17901371 0.49841198 -0.33699706 -0.2318336 0.077422485 0.1201033 -0.424519

fc1.weight f4 [10, 256]
00000000: d610 19be 753a 073e 3226 103e c618 3b3d
00000010: 5e98 b9be a584 cdbd 7968 de3b 6710 d8be
00000020: 42f3 e23e 2001 0cbf 42e3 543d 49dc cdbe
00000030: af32 bf3e 6076 ffbd a827 aebe b1bb 713e
00000040: 83b4 d5be 5fee 753e 3fab 71bd d786 a33e
00000050: b8c3 8c3e 8b3a 1d3e 26fb da3e c587 7ebe
00000060: 5bfc a9bd 99bd 363e 1dfd d93e a387 463e
00000070: 2243 813e a1ea 3d3d 67d7 f3bd 7a74 663e
00000080: d32a 90be 1222 9e3d 5d09 66be 7b39 863e
00000090: 1bca b03e 878d a63e 2a35 bcbe 3464 93be
000000a0: 67dc e23e 89ff a3bd cf8e 913e 0a1c 64be
000000b0: 1118 2dbb 908c 94be c1fa 2f3c b8c7 95be
000000c0: 5fb9 cfbe 9a9f 7fbd f5fd 3f3e b13a f93a
000000d0: 7946 9e3e ad98 9c3e 11a9 2c3e a8a6 0fbf
000000e0: 6ed0 84be 74a0 973e 07b8 eabe 66ca 943e
000000f0: 5ee2 9fbe f113 b63e 3e41 86be dd85 bdbd
00000100: eb5e 703e f3d5 c2bb 7ad5 aabe 93f8 e8be
00000110: 2eec b0bc c3e2 423d 30a0 593e 7967 663e
00000120: 4366 bb3e 3f3e da3e 94d7 89be 272f 55be
00000130: d26f 7e3e c481 78be b26b c5bc 5d66 c5be
00000140: 0f3e 07bf d39f 13be dea5 c13c 72b3 e93e
00000150: 4a84 b5be 9c05 c83c acaf 93be 8ee7 8b3e
00000160: 164d 16bf b04f bcbc bbad 613e 46b9 cdbe
00000170: 3022 88bc 01ca a23e e415 63be 230c 16bf
00000180: 9908 f9be 25eb afbe e571 92be 6cea 313e
00000190: 4e59 efbe 6e4a c7bc 9366 12be c344 15bf
000001a0: c2f3 89be 49f1 563e bf1d babe 1f95 c0bd
000001b0: 20c1 7fbc 6209 fcbe 1db6 2a3e 7f66 1dbf
000001c0: 533b b43d 66f8 fe3c 0451 df3e 5ef8 5ebe
000001d0: 55fb 353c 4dd5 bebe 1a47 3ebe 6b98 cbbe
000001e0: f0a7 993e f435 a4bd df01 f13d 4cf1 b63e
000001f0: 991a 9d3e c087 aa3d 4cc0 633b a92f 92be
00000200: 3619 d73e a483 e63d ccbd 02bf ae3c 5a3d
00000210: a183 423d ea98 d9be 3bd7 b6be 4bf8 c63e
00000220: 9a32 ccbe fef5 ffbe 9da7 593e 8fd4 533e
00000230: a0c7 7a3e b547 54be d8fb cebe a0c2 70be
00000240: e597 a5be 83c1 8e3d f243 3a3e 36f0 9a3e
00000250: 1dc4 bdbd 3a15 9cbe 61f9 d63e 09ca 2fbe
00000260: e2e3 c6be c61f 1cbe 0022 22be 0cf9 cbbe
00000270: da99 c53e d349 e23e e4f7 a1be 0b88 30be
00000280: bc8d c93e b6c0 153e 7c90 ca3e 78d6 963c
00000290: 2b4a 29be 38c5 28be d53b b53e 2166 ee3e
000002a0: 7162 b03e 2ec7 9cbd a610 2b3e 8f05 d43c
000002b0: 8aa5 e83d 4689 c6be 60b3 a23e d2f5 c2be
000002c0: f7a6 e93e 49b0 013e a042 863e 0544 cebe
000002d0: e7b0 9fbe 9a02 b7be 1a8c e6bc 5962 de3c
000002e0: 7078 90be fda8 8cbc 8683 ee3e 9881 b23d
000002f0: ebaa f83d a9a2 193e ef87 173e 7bcb 41bc
00000300: f87b 373e 7596 b23c f4a8 223d bd70 f0be
00000310: 857a 0ebe 6bc5 c3be 3a52 893e 821c 2dbe
00000320: ef8b c43b 192d c73d cd6b ac3e 12de c23e
00000330: c6c6 8fbd b8e0 8abe f72f 8fbe cd6f 533e
00000340: 6d14 3fbe b246 9abd 2dbf 81be cc14 e43d
00000350: e7aa 063e d94a a13e 0e19 92be ea49 0dbf
00000360: ab52 863d dfba 793d 3523 7fbe ffec 833b
00000370: 43ff 863e f0ff a43e 760e dabe 1555 033d
00000380: eca1 853e 9e3f acbe 6916 8f3e 970d c33e
00000390: dca6 97be 2dc0 bebe 0f63 aebd 16e4 d83e
000003a0: 2537 3b3e 04e1 f5be bc28 0dbf 9abb 9e3c
000003b0: 1ec4 9b3e 0d70 e0bc 3a3b c5be b077 a3be
000003c0: e165 973e 7149 a93e 176a 69bd 5153 1dbf
000003d0: 5899 ccbd b425 bb3e 7320 21be 499c a9bc
000003e0: 24c6 f43d c7ea 2ebc 9305 8f3e f4ac 9bbe
000003f0: 931d df3d 3112 033e 668f 093f b0ec 003e
-0.14947829 0.13205893 0.1407707 0.045677923 -0.3624906 -0.100350656 0.0067873565 -0.42200014
0.44326216 -0.54689217 0.051974542 -0.40207127 0.37343356 -0.1247375 -0.3401463 0.23606755
-0.41739282 0.24016713 -0.059001204 0.31938812 0.27493072 0.15354364 0.42769736 -0.2485648
-0.08300086 0.17845763 0.42575923 0.19387679 0.2524653 0.046366338 -0.11906319 0.2250537
-0.28157672 0.07721342 -0.2246451 0.2621573 0.34529194 0.32529852 -0.3675931 -0.28787386
0.4430878 -0.08007724 0.28429267 -0.22276321 -0.002641205 -0.2901349 0.010740937 -0.29253936
-0.40571114 -0.062408067 0.1874922 0.0019014684 0.3091314 0.30585232 0.16861369 -0.5611367
-0.2594027 0.29614604 -0.45843527 0.29060668 -0.31227392 0.3556209 -0.2622165 -0.09254048
0.23473708 -0.005945915 -0.33365995 -0.45502147 -0.021596994 0.047579538 0.21252513 0.22500409
0.36601457 0.42625615 -0.26922286 -0.20818768 0.24847344 -0.24268252 -0.024099205 -0.3855466
-0.5282907 -0.14416437 0.023638662 0.45644718 -0.3545249 0.024416737 -0.28844965 0.273251
-0.58711374 -0.022987217 0.22038929 -0.40180415 -0.016617864 0.31794742 -0.2217632 -0.5861227
-0.48639372 -0.3435909 -0.2860252 0.17374581 -0.46747822 -0.024327483 -0.14296941 -0.5830805
-0.26943785 0.2099048 -0.3635082 -0.094034426 -0.015610009 -0.4922591 0.16671033 -0.6148452
0.08800378 0.031124305 0.43616498 -0.21774432 0.0111072855 -0.3727211 -0.1858181 -0.39764723
0.3001094 -0.08018103 0.11767935 0.3573097 0.30684355 0.083266735 0.003475207 -0.28551987
0.42011422 0.11255577 -0.5107086 0.053280525 0.047488812 -0.42499477 -0.35711083 0.38861308
-0.39882356 -0.49992365 0.21255346 0.20686553 0.24490213 -0.20730479 -0.40426517 -0.23511744
-0.3234245 0.06970503 0.18189982 0.3026139 -0.09265921 -0.30484945 0.41987136 -0.17166914
-0.38845736 -0.15246496 -0.15833282 -0.39838445 0.38593942 0.44196948 -0.31634438 -0.17239396
0.39365947 0.14624295 0.39563358 0.018412814 -0.16532199 -0.16481483 0.3539721 0.46562293
0.34450105 -0.07655178 0.1670557 0.025881557 0.11359699 -0.38776606 0.31777477 -0.3807817
0.45635197 0.12664904 0.26222706 -0.4028627 -0.31189653 -0.35744172 -0.028142978 0.027146505
-0.28216887 -0.017170424 0.4658472 0.08716124 0.12141975 0.15003456 0.14797948 -0.011828299
0.17918384 0.02180026 0.039711908 -0.46961012 -0.13913925 -0.38236555 0.26820546 -0.16905406
0.0059981267 0.097253986 0.33675995 0.3806005 -0.07020335 -0.27124572 -0.27966282 0.20648117
-0.18660136 -0.07533015 -0.25341168 0.11136779 0.13151132 0.31502417 -0.2853474 -0.5519091
0.065587364 0.06096923 -0.24915774 0.004026055 0.26366624 0.32226515 -0.42589158 0.032063562
0.261001 -0.33642286 0.27946785 0.38096306 -0.2961949 -0.37255993 -0.08514988 0.42361516
0.18282755 -0.48023236 -0.5514028 0.019376565 0.30423063 -0.02739718 -0.3852175 -0.31927252
0.29569915 0.33063844 -0.05698594 -0.61455256 -0.099901855 0.36552203 -0.15735035 -0.020704405
0.11951855 -0.0106760925 0.2793394 -0.3040539 0.10894313 0.12799908 0.53734434 0.12590289

fc1.bias f4 [10]
00000000: 5877 f6bc bb99 d13d e159 06be b3f2 e9be
00000010: 492f 843e a736 bb3e 2e65 94be f084 91bc
00000020: e78f ccbe 7fd9 08bf
-0.030086204 0.102344 -0.13120224 -0.45692977 0.25817326 0.36565134 -0.28983444 -0.017763585
-0.3995354 -0.5345687
