sandbox/snapshots2/model-9048.pt (torch, 26159 bytes, 6 tensors)

conv1.weight f4 [8, 1, 5, 5]
0	0xbd9fd755	-0.07804743
1	0x3fe136c8	1.7594843
2	0xbe070337	-0.1318482
3	0x3f81bdc4	1.0136037
4	0x3f257a48	0.6463971
5	0xbf4e6c6f	-0.80634207
6	0xbcfd33dd	-0.03090852
7	0xbf96e720	-1.1789284
8	0xbfa61525	-1.2975203
9	0xbec0b4c6	-0.3763792
10	0xbf9c8e30	-1.2230892
11	0x3f5dc454	0.866277
12	0xbf7d6636	-0.98984087
13	0x3f7de01c	0.9917009
14	0xbf5a02ac	-0.85160327
15	0x3ed88ae5	0.42293468
16	0xbf60868f	-0.8770532
17	0x3f10d55a	0.5657555
18	0x3f47e759	0.78087384
19	0x3eb79bdb	0.35861096
20	0xbe20d4ee	-0.15706226
21	0xbef21f93	-0.47289714
22	0xbb317f3c	-0.0027083894
23	0xbf1490c9	-0.58033425
24	0xbfd05046	-1.6274498
25	0xbebfed96	-0.3748595
26	0xbfa84b95	-1.3148066
27	0xbe5afb60	-0.21384954
28	0x3f8aa153	1.0830482
29	0x3fb94f6c	1.4477363
30	0xbe6789bd	-0.22611137
31	0x3e8c7604	0.2743379
32	0xbf6c596e	-0.9232396
33	0x3f8ac9a6	1.0842788
34	0x3dc35f24	0.09539631
35	0xbdc6438a	-0.09680851
36	0x3e9b9025	0.3038341
37	0xbedfbd69	-0.43699196
38	0xbfc0ffb1	-1.5078031
39	0xbf98d941	-1.1941301
40	0xbfc2e5cc	-1.5226378
41	0xbf383673	-0.7195808
42	0xbf9a568d	-1.2057663
43	0xbe88b719	-0.26702192
44	0xbeb2ee0e	-0.34947246
45	0xbf1cd08d	-0.61255723
46	0xbfacd9e1	-1.3503991
47	0xbdda532e	-0.106603965
48	0x3e3b6a4c	0.18302268
49	0x3f872a75	1.0559832
50	0xbf217098	-0.6306243
51	0x3f378cfd	0.71699506
52	0xbf0a6c50	-0.5407152
53	0x3f13fe82	0.57810223
54	0x3e5ae317	0.2137569
55	0xbf020745	-0.5079234
56	0x3d8ac927	0.06776648
57	0x3fb03384	1.3765721
58	0x3faf80da	1.3711197
59	0x3e87987f	0.26483533
60	0x3e344a55	0.1760648
61	0x3f673a9b	0.903238
62	0xbd9c618e	-0.076357946
63	0xbf47dac7	-0.780682
64	0xbf94767f	-1.1598662
65	0xbee46019	-0.44604567
66	0xbf9cfdc1	-1.226494
67	0xbdec2a1e	-0.11531471
68	0x3ed1bcb2	0.40964276
69	0xbfbcaa79	-1.4739524
70	0x3fc3455d	1.5255543
71	0xbf382bf3	-0.7194206
72	0x3faf57d8	1.3698683
73	0xbf5eaeed	-0.86985666
74	0xbeb3b9ab	-0.3510259
75	0xbf8e0d69	-1.1097842
76	0xbfbec5a7	-1.4904069
77	0xbfa93745	-1.3219992
78	0x3d87bf27	0.06628256
79	0x3ef3c4c7	0.47611067
80	0xbea2c027	-0.31787226
81	0xbecc86ca	-0.39946586
82	0xbe20e621	-0.15712787
83	0xbf5eb8d9	-0.87000805
84	0xbf8f8179	-1.1211387
85	0x3e99e3c7	0.30056593
86	0x3f2d8e10	0.67794895
87	0x3f8cce0f	1.1000384
88	0x3f837828	1.0271044
89	0x3e28d4c9	0.16487421
90	0xbf466d6f	-0.7751073
91	0xbf92a014	-1.1455102
92	0x3f9a2da5	1.204518
93	0xbf9de89b	-1.233661
94	0x3fb315d3	1.3991035
95	0xbf02ef17	-0.5114607
96	0x3f983070	1.1889782
97	0xbef0e1ac	-0.47047174
98	0xbf6ef567	-0.93343204
99	0x3f9a63c2	1.2061694
100	0x3fa8afe9	1.3178684
101	0x3f15dc87	0.58539623
102	0x3f9260b1	1.1435758
103	0x3d9d02ae	0.07666527
104	0xbe8986cf	-0.26860663
105	0xbf009c23	-0.50238246
106	0x3f8f8a39	1.1214057
107	0xbf75b361	-0.95976835
108	0xbe9b5d5d	-0.30344668
109	0xbf98ea44	-1.1946492
110	0xbf0084aa	-0.5020243
111	0xbf9a6a4b	-1.2063688
112	0x3ef389da	0.4756611
113	0xbece438f	-0.40285918
114	0x3f0a65b4	0.54061437
115	0x3ec7f1b2	0.39051586
116	0x3f939ca4	1.1532178
117	0x3f6b6702	0.9195405
118	0x3f6dc641	0.92880636
119	0x3f78c34c	0.97173
120	0xbf90f8e5	-1.1325957
121	0xbf81f39b	-1.0152467
122	0x3ee06e0c	0.4383396
123	0xbf2b7e01	-0.6698914
124	0x3eec04cb	0.46097407
125	0x3efd049d	0.49417582
126	0x3f59147f	0.847969
127	0x3f901539	1.1256477
128	0xbe255ca8	-0.16148627
129	0x3ed4dff8	0.41577125
130	0xbf38ae65	-0.72141105
131	0xbef7715b	-0.4832867
132	0xbef5f54a	-0.48038703
133	0x3f033c54	0.5126393
134	0xbefafc16	-0.4902045
135	0xbf04d92c	-0.5189388
136	0x3f03b588	0.5144887
137	0xbfaa40c8	-1.330102
138	0xbf71820d	-0.94339067
139	0x3f410f2a	0.75413764
140	0x3f27451c	0.6533983
141	0xbf93fc03	-1.1561283
142	0xbef62c63	-0.4808074
143	0xbc476664	-0.012170408
144	0xbf5f417d	-0.872093
145	0xbf7c5c5b	-0.98578423
146	0xbf3b0723	-0.73057765
147	0x3e8aaa69	0.27083138
148	0x3e91e7b4	0.28497088
149	0x3fb3a584	1.4034886
150	0xbfc5c094	-1.5449395
151	0x3f7b4aed	0.981612
152	0x3e46f00d	0.1942751
153	0x3cfbf56b	0.030756673
154	0x3f91328d	1.1343552
155	0xbf8c25f3	-1.0949081
156	0x3ee75e59	0.4518917
157	0xbcb7582c	-0.02238091
158	0x3f4485ab	0.7676646
159	0xbf0c5e3c	-0.5483129
160	0x3f474d1a	0.7785202
161	0xbea763ac	-0.3269323
162	0x3f4ff8df	0.8123912
163	0xbd717508	-0.0589495
164	0xbf9a7a59	-1.2068588
165	0x3e5b8240	0.21436405
166	0xbf4f2556	-0.80916345
167	0x3f9f2526	1.2433212
168	0xbf7d1203	-0.9885561
169	0xbf3c5593	-0.73568076
170	0xbf34aab2	-0.7057296
171	0xbf27579e	-0.6536807
172	0x3fc4e91e	1.5383642
173	0xbf67cae6	-0.90543973
174	0x3f789408	0.9710088
175	0xbdfc82ae	-0.12329613
176	0xbfb043e4	-1.3770719
177	0xbe90f5f0	-0.28312635
178	0x3ee03ec4	0.43797886
179	0xbf04dadc	-0.5189645
180	0xbf4d1124	-0.8010428
181	0x3de23831	0.11045874
182	0xbea5e0d7	-0.32398102
183	0xbed97ede	-0.42479604
184	0x3fa18b85	1.2620703
185	0x3e8d77db	0.27630505
186	0xbf0732b5	-0.5281175
187	0xbf4ee8f7	-0.80824226
188	0xbf8011ac	-1.0005393
189	0xbf9b8f98	-1.2153196
190	0x3f334b92	0.70037186
191	0xbf8a9755	-1.0827433
192	0xbcb66a5a	-0.02226751
193	0x3f32957f	0.6975936
194	0x3f5d4dd4	0.8644688
195	0x3d954582	0.07288648
196	0x3fa22ace	1.2669313
197	0xbf824d23	-1.017979
198	0x3f43fe0e	0.7655953
199	0x3f7b86a0	0.98252296

conv1.bias f4 [8]
0	0xbf925e06	-1.1434944
1	0xbf4a7d78	-0.790977
2	0xbfd1693b	-1.6360239
3	0xbe828fb6	-0.25500268
4	0x3f4a0411	0.78912455
5	0xbf269bc5	-0.65081435
6	0xbf98ad67	-1.1927918
7	0x3ed7d6dd	0.42156115

conv2.weight f4 [16, 8, 5, 5]
0	0xbe14a467	-0.1451584
1	0x3e235021	0.15948536
2	0x3eabb5c6	0.3353712
3	0x3ec9b892	0.39398628
4	0xbe695a46	-0.22788343
5	0xbe932a16	-0.28743047
6	0xbe2a9482	-0.16658214
7	0xbd484c81	-0.048901085
8	0xbe5c3ffb	-0.21508782
9	0x3f0ead6e	0.5573338
10	0xbd0e4031	-0.034729186
11	0xbf1475e6	-0.579924
12	0x3ddb8486	0.10718636
13	0xbe8fdcc3	-0.28098115
14	0xbeab1daf	-0.33421084
15	0x3d27fd6a	0.04101316
16	0xbcf09c3c	-0.029371373
17	0xbe1c21a3	-0.15247206
18	0xbe7a281c	-0.24429363
19	0x3c155d00	0.009116411
20	0x3e15ca3d	0.14627929
21	0xbe480588	-0.1953336
22	0x3ebeba5c	0.37251556
23	0x3e770eab	0.24126689
24	0x3ed47a86	0.41499728
25	0x3b22c456	0.0024836264
26	0x3c6200e8	0.013794161
27	0x3d3976af	0.0452792
28	0xbedd076d	-0.43169728
29	0xbf01f1f5	-0.5075982
30	0x3e2d7f42	0.16943076
31	0xbecec1b0	-0.40382147
32	0xbebeb758	-0.37249255
33	0xbe96e937	-0.29474804
34	0x3e694ca7	0.22783147
35	0xbe2c5beb	-0.16831939
36	0x3baa89e1	0.0052044247
37	0xbc325ecc	-0.010886859
38	0xbec8fb5f	-0.3925428
39	0x3e5e84f5	0.21730407
40	0x3ecc7c92	0.3993879
41	0xbe6e48f5	-0.23270018
42	0x3e1fc865	0.15603788
43	0x3ea8b98d	0.32954064
44	0xbd2fd1f5	-0.04292484
45	0x3cf42c1f	0.029806195
46	0x3eb4cb89	0.35311535
47	0xbe31703d	-0.17327972
48	0x3ecc6cf2	0.3992687
49	0x3d395ad0	0.04525262
50	0xbe08ae8b	-0.13347833
51	0xbec41ea1	-0.38304618
52	0x3e0dad8b	0.13835733
53	0x3f074ada	0.5284859
54	0xbd356628	-0.044286877
55	0x3dc632d4	0.096776634
56	0xbe99e3f4	-0.30056727
57	0x3ef50bea	0.47860652
58	0xbe83c1be	-0.2573375
59	0xbe093fb2	-0.13403204
60	0x3e42e8f2	0.19034174
61	0x3ee8e51a	0.4548729
62	0xbec0d61b	-0.3766335
63	0x3e12bbb3	0.14329414
64	0xbe3370d6	-0.17523512
65	0xbd24aedc	-0.04020582
66	0x3e0e874f	0.13918804
67	0xbe9087d0	-0.28228617
68	0xbdb410d6	-0.08792274
69	0xbeb2dfdc	-0.34936416
70	0x3e41e6bf	0.18935679
71	0xbdaaf35c	-0.08347198
72	0xbda5f7ba	-0.08103891
73	0xbf0d6eff	-0.5524749
74	0xbd996302	-0.07489587
75	0xbe2fb33e	-0.17158219
76	0x3e8ccbda	0.27499276
77	0x3eb5df6b	0.35522017
78	0x3e6ed72b	0.23324268
79	0xbcc113e8	-0.023569062
80	0xbdc0dde2	-0.09417321
81	0xbe2ff599	-0.17183532
82	0x3d8f16ae	0.06986748
83	0xbe81732a	-0.25283176
84	0xbc13f6a2	-0.00903097
85	0xbed899e7	-0.42304918
86	0xbe0472f3	-0.12934475
87	0xbe06e8df	-0.13174771
88	0xbe972b15	-0.29525056
89	0x3ea2bf71	0.31786683
90	0x3e96fd2a	0.29490024
91	0x3e11b84c	0.1423046
92	0x3ef5964d	0.47966233
93	0x3cfd3a00	0.030911446
94	0xbe28c704	-0.16482168
95	0xbdc385a5	-0.09546975
96	0xbe2b3d5b	-0.16722624
97	0x3eba5d21	0.36399177
98	0xbe895378	-0.26821494
99	0xbdfba244	-0.12286809
100	0xbed64dde	-0.41856283
101	0xbe8dce6c	-0.2769655
102	0x3d519542	0.051167734
103	0x3e87c3ba	0.26516515
104	0xbeb8264a	-0.35966712
105	0x3d7b0381	0.06128264
106	0x3f16490f	0.5870523
107	0xbeb36ba6	-0.35043067
108	0x3e6f2943	0.23355584
109	0xbe87b5cf	-0.26505896
110	0x3ecb9a91	0.39766362
111	0xbc490e2c	-0.012271445
112	0xbebc4488	-0.36771035
113	0xbeda7941	-0.42670634
114	0x3e353277	0.17695032
115	0x3db28680	0.0871706
116	0xbeef36e2	-0.4672156
117	0x3de4f953	0.11180367
118	0x3ef2f118	0.47449565
119	0x3d32b31b	0.04362784
120	0xbe764d66	-0.24052963
121	0x3e27faa8	0.16404212
122	0xbee3439f	-0.44387528
123	0x3d105d67	0.035245325
124	0x3e65744f	0.2240765
125	0x3eb5b4fd	0.35489646
126	0xbef0d39e	-0.4703645
127	0xbef0298e	-0.46906704
128	0x3ef34c30	0.47519064
129	0xbe8a3d04	-0.26999676
130	0xbd561353	-0.052264523
131	0x3e862541	0.26200297
132	0xbd54f0ee	-0.05198758
133	0x3be5b6ab	0.007010301
134	0x3e26a1f5	0.16272719
135	0xbd39273b	-0.04520343
136	0xbe63c73d	-0.22243972
137	0xbedd165c	-0.4318112
138	0xbf023543	-0.5086252
139	0x3eb0f41e	0.34561247
140	0xbf252c01	-0.6452027
141	0xbf124b11	-0.5714579
142	0x3ea6dfc1	0.32592586
143	0x3eb48cdb	0.35263714
144	0x3ed695f3	0.41911277
145	0x3ecbec17	0.3982856
146	0xbe669951	-0.22519423
147	0x3f104676	0.56357515
148	0x3e658318	0.2241329
149	0x3eb0c686	0.3452646
150	0x3ee928e7	0.4553902
151	0xbaf60490	-0.001876967
152	0x3e3ae340	0.18250751
153	0xbde64769	-0.11244089
154	0x3cdc8a87	0.026921524
155	0xbe6f801d	-0.23388715
156	0x3eb4eef1	0.35338548
157	0x3efa9dfe	0.48948663
158	0xbf1bc1c5	-0.60842544
159	0xbc498ecd	-0.012302113
160	0xbe6f5a3c	-0.23374265
161	0x3e391239	0.18073358
162	0x3f07898d	0.5294426
163	0xbe00badc	-0.12571281
164	0xbee60a14	-0.44929564
165	0xbe1cf9ad	-0.15329619
166	0xbe5200c2	-0.20508102
167	0xbec865d3	-0.39140186
168	0x3c840d44	0.016119607
169	0x3cfa9260	0.030587375
170	0xbef41b78	-0.47677207
171	0xbe92ece9	-0.28696373
172	0x3e75017b	0.23926346
173	0x3dcd837f	0.100348465
174	0xbeb2b51e	-0.34903806
175	0x3e4e7802	0.20162967
176	0xbf16bcfd	-0.58882123
177	0xbf1c480d	-0.6104744
178	0xbc34b8b3	-0.011030364
179	0x3eb64934	0.35602725
180	0xbea64acd	-0.32478943
181	0x3cdeb144	0.027184136
182	0x3ef3d748	0.47625184
183	0x3efa1671	0.48845246
184	0xbe9ee4e4	-0.31034005
185	0xbba377aa	-0.0049886303
186	0xbea74822	-0.3267222
187	0x3ebaf544	0.36515248
188	0x3eeebfdd	0.46630755
189	0xbe844a3a	-0.2583788
190	0x3e591eb8	0.21203125
191	0xbeff0d7b	-0.49814972
192	0x3e8c7cb7	0.274389
193	0xbeffff9c	-0.49999702
194	0xbee01571	-0.43766358
195	0x3e00b52e	0.12569115
196	0x3ee0e745	0.43926445
197	0x3e81b646	0.25334376
198	0x3eb20ca9	0.34775284
199	0x3d1d131e	0.03834831
200	0x3e885890	0.26630068
201	0xbf01b468	-0.50665903
202	0xbee80d43	-0.45322618
203	0xbf250d50	-0.6447344
204	0x3e1da574	0.15395147
205	0x3ed895ef	0.4230189
206	0x3f225463	0.63410014
207	0x3e0397a6	0.12850818
208	0x3eeb908b	0.46008715
209	0xbf292937	-0.66078514
210	0xbec78201	-0.38966373
211	0xbea3ce3d	-0.31993285
212	0x3eae6b9a	0.34066468
213	0xbeafa8de	-0.34308523
214	0xbda9c559	-0.08289594
215	0xbef6584b	-0.48114237
216	0xbe0c2231	-0.13684918
217	0x3dc81003	0.09768679
218	0xbed3f7cf	-0.414
219	0x3d511c55	0.05105241
220	0xbefcc3d5	-0.49368158
221	0xbea8be10	-0.32957506
222	0xbf0e4d2d	-0.5558651
223	0x3ef3c4ba	0.47611028
224	0xbcc1d4dd	-0.023661071
225	0xbe913278	-0.28358817
226	0xbeb0b91a	-0.3451622
227	0x3ec0a5d7	0.37626526
228	0x3ed61ddd	0.4181966
229	0xbd2d9494	-0.042378023
230	0x3f15ce67	0.5851807
231	0x3db15caa	0.086602524
232	0xbe882b85	-0.26595703
233	0xbe68400a	-0.22680679
234	0xbd4238f9	-0.047417615
235	0xbe26d5b1	-0.16292454
236	0x3e892b2b	0.26790747
237	0xbe625e19	-0.22106208
238	0xbeb62728	-0.3557675
239	0x3ea71a42	0.3263722
240	0xbed40ae5	-0.41414562
241	0x3ebba87f	0.3665199
242	0xbdd24798	-0.10267562
243	0x3e8a3bd2	0.26998764
244	0xbc05d22e	-0.0081677865
245	0x3ea8686d	0.3289217
246	0x3e8fa400	0.2805481
247	0x3c01b56b	0.007916789
248	0x3f1fee83	0.62473315
249	0x3e435e22	0.19078878
250	0xbea6b15e	-0.32557195
251	0x3f0f58f3	0.559951
252	0xbed3affc	-0.41345203
253	0xbe866238	-0.2624681
254	0x3eaeb4cf	0.3412232
255	0xbe60e5f5	-0.21962722

conv2.bias f4 [16]
0	0x3e8d9c45	0.27658287
1	0xbf174542	-0.59090054
2	0x3e239547	0.15974914
3	0xbef65585	-0.4811212
4	0x3e961bc0	0.29318047
5	0x3f1cea35	0.6129487
6	0xbe76c03c	-0.24096769
7	0x3e9e42b4	0.30910265
8	0xbf10287c	-0.56311774
9	0x3e1f8060	0.15576315
10	0x3f01fea0	0.5077915
11	0xbea8084a	-0.32818824
12	0xbe79974b	-0.2437412
13	0x3d957feb	0.07299789
14	0x3e2313eb	0.15925567
15	0xbed91565	-0.42399135

fc1.weight f4 [10, 256]
0	0xbe123ec2	-0.14281753
1	0x3e24dd1a	0.16099969
2	0x3e3facee	0.18718311
3	0x3d8f041f	0.06983208
4	0xbea7ec32	-0.3279739
5	0xbdcd725d	-0.10031579
6	0x3d0652ed	0.032793928
7	0xbecbd5b1	-0.3981147
8	0x3ee00949	0.43757084
9	0xbf05acc0	-0.5221672
10	0x3daf3317	0.085546665
11	0xbec897d5	-0.3917834
12	0x3eb9d8d9	0.36298254
13	0xbe08b043	-0.13348489
14	0xbea60f8b	-0.32433733
15	0x3e64ff35	0.22362979
16	0xbedd66e1	-0.43242553
17	0x3e71eed6	0.23626265
18	0xbdc74b9d	-0.09731219
19	0x3ea9e98a	0.3318599
20	0x3e8e18f7	0.27753422
21	0x3e2f325d	0.17109056
22	0x3ee770e9	0.4520333
23	0xbe8457da	-0.25848275
24	0xbd60125e	-0.054705016
25	0x3e339d9d	0.17540593
26	0x3ee548b7	0.4478204
27	0x3e689abb	0.22715275
28	0x3e83a9bb	0.25715432
29	0x3d931691	0.071820386
30	0xbe136957	-0.14395653
31	0x3e5abbde	0.21360728
32	0xbe8b674d	-0.2722725
33	0x3dc1f2b0	0.09470117
34	0xbe6ac12d	-0.22925253
35	0x3e7a7f4f	0.24462627
36	0x3ea87a8c	0.32905996
37	0x3eb40e58	0.35167193
38	0xbebc5c67	-0.36789247
39	0xbe9cf05a	-0.30652124
40	0x3ed29d0a	0.41135436
41	0xbdde8e5f	-0.10866999
42	0x3eac134c	0.33608472
43	0xbe6a9a1b	-0.22910349
44	0xbd446afd	-0.047953594
45	0xbe9f6727	-0.31133386
46	0x3dad98d6	0.08476417
47	0xbe8d37f7	-0.2758176
48	0xbed7f5f2	-0.4217983
49	0xbd0e35ec	-0.034719393
50	0x3e50b56e	0.2038171
51	0xbc27a18f	-0.01023139
52	0x3eaf8863	0.34283742
53	0x3ea7015f	0.32618234
54	0x3e13a1e0	0.14417219
55	0xbf113415	-0.56720096
56	0xbe7e8075	-0.2485369
57	0x3e95bc6c	0.29245317
58	0xbef02855	-0.4690577
59	0x3e8aebef	0.27133128
60	0xbe97c87e	-0.2964515
61	0x3eb23a0f	0.3480992
62	0xbe9f5ce7	-0.31125566
63	0xbdd0620f	-0.10174953
64	0x3e73531a	0.2376217
65	0x3afe999e	0.0019424444
66	0xbeb68c1a	-0.35653764
67	0xbeed20c0	-0.4631405
68	0xbca1ef28	-0.019767359
69	0x3d5f9607	0.054586437
70	0x3e63d9e8	0.22251093
71	0x3e656dbf	0.22405146
72	0x3ebffcd6	0.37497586
73	0x3ede6d1e	0.43442625
74	0xbe89aa37	-0.26887676
75	0xbe65fc48	-0.22459519
76	0x3e7318a2	0.23739865
77	0xbe7d2c42	-0.24723914
78	0xbc803e7c	-0.015654795
79	0xbecd5c9b	-0.40109715
80	0xbf0a80dd	-0.5410288
81	0xbde76e30	-0.113003135
82	0x3ca6e499	0.020372676
83	0x3edf39c0	0.43598747
84	0xbea240bf	-0.31690022
85	0x3d3cdb90	0.04610783
86	0xbe9b3ed1	-0.30321363
87	0x3e92c4d5	0.28665796
88	0xbf0806f8	-0.53135633
89	0x3c92c480	0.017915964
90	0x3e636980	0.22208214
91	0xbed4cb38	-0.41561294
92	0xbc604112	-0.013687389
93	0x3e9f387b	0.3109778
94	0xbe76abc1	-0.24088956
95	0xbf18e7fa	-0.5972897
96	0xbef092e6	-0.46987075
97	0xbed9243b	-0.42410454
98	0xbe9a8521	-0.30179694
99	0x3e63046b	0.22169654
100	0xbee37ad9	-0.44429663
101	0xbd617882	-0.055046566
102	0xbe1afdf0	-0.15135932
103	0xbf0461be	-0.5171164
104	0xbe98548d	-0.29752007
105	0x3e6aac05	0.22917183
106	0xbea1f33f	-0.31630895
107	0xbd50d0cd	-0.050980378
108	0x3d425491	0.04744393
109	0xbee7ac35	-0.4524857
110	0x3e623730	0.22091365
111	0xbf13336d	-0.57500345
112	0x3daafccc	0.083489984
113	0x3b4e6add	0.00314968
114	0x3edf880e	0.4365849
115	0xbe7041f8	-0.23462665
116	0x3c890c7f	0.016729591
117	0xbebee616	-0.37284917
118	0xbe43b52a	-0.19112077
119	0xbed04c8d	-0.40683404
120	0x3e9e02ac	0.30861413
121	0xbd99cf30	-0.07510221
122	0x3e0fc056	0.14038214
123	0x3eb6946a	0.35660106
124	0x3e8f927b	0.28041443
125	0x3d825db4	0.06365529
126	0xb98b2168	-0.00026537036
127	0xbe9ba4e1	-0.3039923
128	0x3ee2c083	0.442875
129	0x3d5bc508	0.0536547
130	0xbf032dab	-0.5124156
131	0x3dbf0beb	0.09328445
132	0x3b3d7e03	0.002891422
133	0xbeee3477	-0.46524402
134	0xbed3eb4f	-0.41390464
135	0x3eab15ac	0.33414972
136	0xbed283e0	-0.41116238
137	0xbf009317	-0.5022444
138	0x3e598224	0.21241051
139	0x3e45f1f3	0.19330578
140	0x3ea50fec	0.3223871
141	0xbde654be	-0.11246632
142	0xbed65450	-0.418612
143	0xbe3c4b2c	-0.18388051
144	0xbea83e66	-0.32860106
145	0x3d739aee	0.059473924
146	0x3e328760	0.17434454
147	0x3e97a025	0.29614368
148	0xbdc441f1	-0.0958289
149	0xbe9c8671	-0.3057132
150	0x3edaca3a	0.42732412
151	0xbe3d56d7	-0.18490158
152	0xbecaefe5	-0.3963615
153	0xbe1c6e20	-0.15276384
154	0xbe3267ea	-0.17422453
155	0xbed8d757	-0.4235179
156	0x3ec5a0b0	0.38599157
157	0x3ee8de3d	0.45482054
158	0xbe9ec69a	-0.31010896
159	0xbe3fd24e	-0.18732569
160	0x3ed1fca1	0.41013053
161	0x3e266046	0.16247663
162	0x3ec93684	0.39299405
163	0x3c872e45	0.016501555
164	0xbe321bbd	-0.17393394
165	0xbe50cb94	-0.20390159
166	0x3ead57fd	0.33856192
167	0x3ee3d160	0.44495678
168	0x3ea2368c	0.3168224
169	0xbd9695df	-0.073528044
170	0x3e1e247b	0.15443604
171	0xbc7de8e5	-0.015497421
172	0x3d854519	0.0650732
173	0xbec6acae	-0.3880362
174	0x3eb8f30f	0.3612294
175	0xbed3af41	-0.41344646
176	0x3eee4392	0.46535927
177	0x3e0514aa	0.12996164
178	0x3e874e17	0.26426765
179	0xbed0401b	-0.4067391
180	0xbea04b9b	-0.31307682
181	0xbeadb1a8	-0.33924603
182	0xbc833d28	-0.016020373
183	0x3c36bbae	0.011153145
184	0xbe902724	-0.28154862
185	0xbcd5d5f5	-0.026103
186	0x3ef22512	0.47293907
187	0x3da972e7	0.08273869
188	0x3df4b629	0.11948807
189	0x3e096c95	0.13420327
190	0x3e1a4224	0.15064293
191	0xbd2028e6	-0.039101504
192	0x3e3d945c	0.18513626
193	0x3c64ff1d	0.013976839
194	0x3d9ef1a9	0.07760937
195	0xbef662d1	-0.48122266
196	0xbd9783dd	-0.07398198
197	0xbebf6e29	-0.37388733
198	0x3e8a49cf	0.27009436
199	0xbe2e2b7c	-0.17008775
200	0x3d9c7ecd	0.07641373
201	0x3e0d6837	0.13809286
202	0x3ece6b36	0.4031617
203	0x3ed6eb74	0.4197651
204	0xbd544ee6	-0.051833056
205	0xbe82e74f	-0.255671
206	0xbea45c26	-0.32101554
207	0x3e2b1981	0.16708948
208	0xbe2f7736	-0.17135319
209	0xbd59328e	-0.05302673
210	0xbe85de40	-0.26146126
211	0x3e0b2207	0.13587199
212	0x3e2a895c	0.16653961
213	0x3eafd844	0.34344685
214	0xbe8f0a01	-0.2793732
215	0xbf072c39	-0.52801853
216	0x3df981d5	0.121829666
217	0x3db21ea1	0.08697248
218	0xbe5f1721	-0.21786167
219	0x3d1f4754	0.038886383
220	0x3e868d75	0.26279798
221	0x3e977acb	0.2958587
222	0xbedbfdfd	-0.42967215
223	0x3c6874e7	0.014188028
224	0x3e91809a	0.28418428
225	0xbeb19493	-0.34683666
226	0x3e8d4678	0.27592826
227	0x3ec685b3	0.3877388
228	0xbe97cc06	-0.29647845
229	0xbeb8038e	-0.35940212
230	0xbda10344	-0.07861951
231	0x3edea42c	0.43484628
232	0x3e626d4a	0.22112003
233	0xbef4c8ef	-0.4780955
234	0xbf0ac0d8	-0.54200506
235	0x3d4287dd	0.04749285
236	0x3e963c76	0.29343003
237	0xbcb7dfe2	-0.022445623
238	0xbece513c	-0.40296352
239	0xbeb02be5	-0.3440849
240	0x3eac9b87	0.33712408
241	0x3ea15008	0.31506371
242	0xbd6e0b18	-0.05811605
243	0xbf12a7d1	-0.5728732
244	0xbe224d0f	-0.15849708
245	0x3ea43a59	0.32075766
246	0xbe1a9958	-0.15097558
247	0xbc9ec197	-0.01937942
248	0x3d9cec14	0.07662216
249	0xbd80650e	-0.06269275
250	0x3e882749	0.26592472
251	0xbea4dfce	-0.32202
252	0x3df2a47e	0.11847781
253	0x3e051d09	0.12999357
254	0x3f0497f1	0.51794344
255	0x3dd8bd1b	0.10582944

fc1.bias f4 [10]
0	0xbd1f393e	-0.03887295
1	0x3da6f7b7	0.081527166
2	0xbe038d34	-0.12846833
3	0xbee59816	-0.44842595
4	0x3e852f55	0.26012674
5	0x3ebd0ed9	0.3692539
6	0xbe96bfbc	-0.29443157
7	0xbceff593	-0.029291904
8	0xbebbab0e	-0.36653942
9	0xbf0ce347	-0.550343
