sandbox/snapshots2/model-12024.pt (torch, 26167 bytes, 6 tensors)

conv1.weight f4 [8, 1, 5, 5]
-0.041089267 1.7968367 -0.08318045 1.0490453 0.67869735 -0.76884294 0.015111659 -1.1177825
-1.2780694 -0.36638322 -1.1972172 0.85762775 -1.0188522 0.9223046 -0.90808797 0.44550622
-0.8895279 0.51344895 0.7134571 0.3026155 -0.1305196 -0.482801 -0.04570635 -0.62425536
-1.6597614 -0.389996 -1.2946341 -0.19043326 1.0657613 1.4196547 -0.21458502 0.3130026
-0.86784697 1.0845008 0.054523658 -0.07977492 0.35730407 -0.37374628 -1.5549695 -1.2710425
-1.4895078 -0.6662841 -1.2181773 -0.3428357 -0.44595537 -0.62969106 -1.3259137 -0.07926488
0.14509112 0.98710454 -0.6079065 0.6898346 -0.5621744 0.5543863 0.18378395 -0.48993108
0.035226878 1.3423918 1.3297551 0.23872021 0.16803925 0.87474513 -0.09116748 -0.78064406
-1.1177423 -0.46484587 -1.2299747 -0.12385418 0.40104538 -1.4550267 1.4846628 -0.7285379
1.3367476 -0.8686031 -0.3496911 -1.1351999 -1.5004747 -1.357888 0.016990568 0.4669336
-0.37989774 -0.44013444 -0.17196819 -0.85917795 -1.0754219 0.2486393 0.61191547 1.0419769
0.997792 0.15658998 -0.803135 -1.186113 1.1658466 -1.2267852 1.3694098 -0.565976
1.1443133 -0.45917657 -0.8853864 1.2033092 1.2274154 0.47650808 1.0641237 0.10216103
-0.20128813 -0.51589555 1.0554423 -0.95640385 -0.21824612 -1.1083444 -0.45947593 -1.2015647
0.46834657 -0.36159492 0.5567357 0.42681205 1.1233072 0.8370707 0.8598164 0.9207191
-1.0390942 -0.97367555 0.38921168 -0.7219639 0.4333689 0.50649816 0.8490064 1.1062613
-0.19745848 0.33566216 -0.67371774 -0.4465905 -0.4596976 0.4760684 -0.5570047 -0.5008608
0.5525586 -1.2813706 -0.9618139 0.6943794 0.61507386 -1.1737247 -0.44531772 -0.014518542
-0.88673896 -1.0127273 -0.69615114 0.30830082 0.29801655 1.3975962 -1.54163 0.94610775
0.16415124 -0.006010516 1.0917547 -1.1298622 0.41135973 -0.047971457 0.7278249 -0.55635333
0.7254231 -0.35459328 0.775904 -0.0814082 -1.1757468 0.1865468 -0.82042044 1.2072142
-0.97608376 -0.6862647 -0.69556636 -0.67132956 1.4918607 -0.892561 0.9835372 -0.112639464
-1.3109361 -0.26141506 0.4145098 -0.515658 -0.8003573 0.16230813 -0.2666816 -0.40273318
1.2597865 0.2521396 -0.47818244 -0.7305554 -0.9501115 -1.20658 0.65628284 -1.0726341
0.014021531 0.6670119 0.7825102 0.025602393 1.2119508 -1.0476503 0.6879266 0.8958766
00000000: 384d 28bd bffe e53f 835a aabd 1e47 863f
00000010: 1cbf 2d3f e4d2 44bf e496 773c 7f13 8fbf
00000020: c797 a3bf 9596 bbbe 6a3e 99bf 7e8d 5b3f
00000030: c069 82bf 271c 6c3f 7478 68bf 6419 e43e
00000040: 1ab8 63bf 6471 033f 20a5 363f 6bf0 9a3e
00000050: eea6 05be b131 f7be 9536 3bbd 33cf 1fbf
00000060: 1073 d4bf 8ead c7be 92b6 a5bf f000 43be
00000070: de6a 883f 3fb7 b53f 2dbc 5bbe e041 a03e
00000080: 382b 5ebf ecd0 8a3f 3354 5f3d 0961 a3bd
00000090: 8ff0 b63e ac5b bfbe 3e09 c7bf 85b1 a2bf
000000a0: 31a8 bebf 9891 2abf 3ced 9bbf 2988 afbe
000000b0: 4354 e4be 6f33 21bf 8ab7 a9bf a055 a2bd
000000c0: c492 143e e2b2 7c3f c39f 1bbf 0099 303f
000000d0: a9ea 0fbf 43ec 0d3f dc31 3c3e 3fd8 fabe
000000e0: 0f4a 103d 7fd3 ab3f 6a35 aa3f 1273 743e
000000f0: 7b12 2c3e 4cef 5f3f 04b6 babd 4ad8 47bf
00000100: 2e12 8fbf 4700 eebe d06f 9dbf 43a7 fdbd
00000110: d255 cd3e 513e babf 6e09 be3f 7681 3abf
00000120: 8c1a ab3f c65c 5ebf b60a b3be 3b4e 91bf
00000130: 8e0f c0bf 46cf adbf ce2f 8b3c ec11 ef3e
00000140: f581 c2be 4d59 e1be 6e18 30be 16f3 5bbf
00000150: 6da7 89bf 4d9b 7e3e 7ea6 1c3f 805f 853f
00000160: 4c6f 7f3f 2059 203e 419a 4dbf 8dd2 97bf
00000170: 763a 953f 4c07 9dbf d248 af3f cee3 10bf
00000180: dc78 923f 3119 ebbe afa8 62bf 0906 9a3f
00000190: f31b 9d3f def8 f33e 3535 883f cd39 d13d
000001a0: 7a1e 4ebe bb11 04bf bc18 873f e2d6 74bf
000001b0: e97b 5fbe 3bde 8dbf 6e40 ebbe dfcc 99bf
000001c0: 1fcb ef3e f822 b9be 3b86 0e3f 1c87 da3e
000001d0: 88c8 8f3f 444a 563f ed1c 5c3f 3fb4 6b3f
000001e0: 0a01 85bf cd42 79bf c146 c73e a0d2 38bf
000001f0: 87e2 dd3e dda9 013f 7c58 593f f899 8d3f
00000200: 8e32 4abe e9db ab3e c478 2cbf 83a7 e4be
00000210: 7c5d ebbe 3dbf f33e dc97 0ebf 6a38 00bf
00000220: 7b74 0d3f f403 a4bf 7039 76bf d9c2 313f
00000230: 7b75 1d3f 9c3c 96bf af00 e4be 2edf 6dbc
00000240: 5301 63bf 0ca1 81bf f636 32bf 9bd9 9d3e
00000250: a095 983e 6fe4 b23f 2254 c5bf 1e34 723f
00000260: 4317 283e ddf3 c4bb 9ebe 8b3f 539f 90bf
00000270: be9d d23e b87d 44bd bc52 3a3f 2c6d 0ebf
00000280: 54b5 393f 408d b5be a5a1 463f 58b9 a6bd
00000290: df7e 96bf 2006 3f3e 1307 52bf ff85 9a3f
000002a0: a0e0 79bf 0baf 2fbf a310 32bf 41dc 2bbf
000002b0: 4bf5 be3f e17e 64bf 18c9 7b3f 85af e6bd
000002c0: c1cc a7bf 32d8 85be a13a d43e 2a02 04bf
000002d0: 37e4 4cbf 1a34 263e 7e8a 88be 0b33 cebe
000002e0: af40 a13f 7118 813e 54d4 f4be ae05 3bbf
000002f0: 823a 73bf 3771 9abf 2702 283f 134c 89bf
00000300: 90ba 653c 4bc1 2a3f 9752 483f 1cbc d13c
00000310: 3421 9b3f 6819 86bf f51b 303f 2b58 653f

conv1.bias f4 [8]
-1.0957147 -0.7921655 -1.6618187 -0.28527635 0.7807821 -0.64167005 -1.232815 0.39995283
00000000: 6140 8cbf 5ccb 4abf 7ab6 d4bf be0f 92be
00000010: 56e1 473f 7d44 24bf e2cc 9dbf 9ec6 cc3e

conv2.weight f4 [16, 8, 5, 5]
-0.097653255 0.19832037 0.34595597 0.39485708 -0.2186176 -0.33869436 -0.20391302 -0.074619256
-0.16133736 0.59926057 -0.013879938 -0.56494284 0.096384846 -0.29034403 -0.3310249 0.012632842
-0.08124148 -0.18753484 -0.2580396 0.0020373713 0.18333906 -0.20013703 0.3384636 0.1917811
0.36047396 0.017495457 0.056869566 0.09719296 -0.42916116 -0.50917184 0.18348274 -0.39956218
-0.35256264 -0.27789956 0.23243216 -0.18353423 0.016068239 -0.051339995 -0.42497438 0.22025347
0.29718333 -0.28030446 0.1388546 0.27467787 -0.051405877 0.026498122 0.2933291 -0.20917967
0.3850533 0.046281364 -0.14026009 -0.377441 0.13670535 0.5571134 -0.04641397 0.07871121
-0.2836722 0.43375784 -0.26285493 -0.16309163 0.24071832 0.47217113 -0.3879909 0.10848939
-0.19186343 -0.022166574 0.13804679 -0.28223997 -0.11426967 -0.3847788 0.2039654 -0.07847568
-0.09935282 -0.5964216 -0.14734212 -0.18827842 0.21968862 0.27628466 0.15990244 -0.07295144
-0.16086632 -0.21167985 0.04702527 -0.26876152 -0.031158611 -0.47187492 -0.16625845 -0.15895446
-0.31807578 0.27543297 0.26430583 0.14995481 0.4855161 0.037552536 -0.1544466 -0.10330919
-0.13232447 0.3827938 -0.27016243 -0.14710176 -0.4022203 -0.26907134 0.036441468 0.24386242
-0.375451 0.045429587 0.57373714 -0.3604733 0.21385582 -0.28827718 0.38430512 -0.025977127
-0.380579 -0.43417242 0.13651788 0.089616805 -0.4722511 0.08576657 0.4487704 0.01700539
-0.22029419 0.17512336 -0.44203493 0.02322558 0.22681703 0.38484782 -0.44841447 -0.46401715
0.434405 -0.29607615 -0.06428855 0.24484412 -0.080561236 -0.018661931 0.16158591 -0.04631399
-0.17744309 -0.40588918 -0.5055934 0.2862789 -0.69424176 -0.6379898 0.29076955 0.32996258
0.36501208 0.4271195 -0.2334325 0.5205915 0.18408835 0.28813523 0.43499154 0.0026331046
0.17026164 -0.107223555 -0.009668871 -0.2645759 0.31815934 0.4294282 -0.61125255 -0.0648423
-0.18301141 0.16059391 0.4575911 -0.18548697 -0.4837939 -0.13538942 -0.20744362 -0.39428955
-0.010538539 0.03222108 -0.49756718 -0.29611185 0.20932682 0.075626686 -0.34793386 0.16937505
-0.63186073 -0.6431121 -0.05356424 0.3214201 -0.3832742 -0.013026076 0.43001515 0.44691145
-0.30663067 -0.018328343 -0.34208602 0.3397558 0.44689184 -0.2660537 0.17756265 -0.5122805
0.284971 -0.47430444 -0.4177698 0.10797901 0.43432108 0.23797694 0.34467664 -0.0037860249
0.17771316 -0.5400202 -0.4503818 -0.6007336 0.17742361 0.33910355 0.61349237 0.1744543
0.53392494 -0.6234573 -0.36375302 -0.29738775 0.34429902 -0.3266626 -0.10196638 -0.47551516
-0.11491034 0.15291739 -0.34589243 0.082102835 -0.5011689 -0.29584524 -0.53145677 0.47005022
-0.054863203 -0.2660869 -0.33477384 0.37868813 0.44883448 0.057308346 0.5913065 0.09366191
-0.23480016 -0.20298335 -0.010371641 -0.1539133 0.24397108 -0.22467658 -0.3534202 0.3239776
-0.38124982 0.37496638 -0.11147634 0.22076897 -0.0074677574 0.3590801 0.27311614 0.011305724
0.58456314 0.12209428 -0.32551098 0.5535749 -0.38045874 -0.21948195 0.3732343 -0.18701111
00000000: 6efe c7bd 7f14 4b3e 2421 b13e b52a ca3e
00000010: 4bdd 5fbe 5969 adbe 93ce 50be fbd1 98bd
00000020: 9f35 25be 2469 193f ae68 63bc 18a0 10bf
00000030: 6b65 c53d f9a7 94be 187c a9be fbf9 4e3c
00000040: ef61 a6bd 2209 40be c41d 84be 6b85 053b
00000050: 3cbd 3b3e b9f0 4cbe 1a4b ad3e 4462 443e
00000060: 0b90 b83e a252 8f3c 10f0 683d 1a0d c73d
00000070: 03bb dbbe 1659 02bf e6e2 3b3e 6a93 ccbe
00000080: 1783 b4be da48 8ebe b202 6e3e 66f0 3bbe
00000090: 8aa1 833c e349 52bd 3e96 d9be 208a 613e
000000a0: 6a28 983e 1184 8fbe e62f 0e3e 94a2 8c3e
000000b0: f88e 52bd 9712 d93c 3b2f 963e 3233 56be
000000c0: b525 c53e 8791 3d3d 57a0 0fbe f23f c1be
000000d0: 7dfc 0b3e fc9e 0e3f 931c 3ebd 5833 a13d
000000e0: 7c3d 91be 8215 de3e ec94 86be 7e01 27be
000000f0: dd7e 763e 6ac0 f13e bea6 c6be af2f de3d
00000100: d977 44be ad96 b5bc 235c 0d3e c281 90be
00000110: 3706 eabd ba01 c5be 4edc 503e dbb7 a0bd
00000120: 7e79 cbbd 16af 18bf dae0 16be 0fcc 40be
00000130: 0ef6 603e 2f75 8d3e 77bd 233e 9167 95bd
00000140: 24ba 24be 9ac2 58be 929d 403d 1c9b 89be
00000150: 5840 ffbc 9799 f1be a83f 2abe f5c4 22be
00000160: d4da a2be 8d05 8d3e 1853 873e c18d 193e
00000170: 9195 f83e b0d0 193d 4027 1ebe c593 d3bd
00000180: 1180 07be 8dfd c33e bb52 8abe d8a1 16be
00000190: d2ef cdbe b8c3 89be a643 153d 12b7 793e
000001a0: 1d3b c0be 6014 3a3d 70e0 123f f58f b8be
000001b0: 05fd 5a3e 1199 93be a4c3 c43e fccd d4bc
000001c0: 40db c2be d94b debe 58cb 0b3e 0489 b73d
000001d0: e5ca f1be 62a6 af3d 3cc5 e53e e34e 8b3c
000001e0: cd94 61be 8a53 333e 6752 e2be 9243 be3c
000001f0: b942 683e c60a c53e 9596 e5be a893 edbe
00000200: 556a de3e 4b97 97be b7a9 83bd 6bb8 7a3e
00000210: 4afd a4bd e8e0 98bc c776 253e bdb3 3dbd
00000220: a4b3 35be b5d0 cfbe 926e 01bf 2693 923e
00000230: d4b9 31bf 4d53 23bf bfdf 943e dbf0 a83e
00000240: dde2 ba3e 68af da3e ee08 6fbe 7c45 053f
00000250: a881 3c3e 7686 933e 36b7 de3e 2a90 2c3b
00000260: 1159 2e3e 0698 dbbd 2f6a 1ebc 7e76 87be
00000270: c8e5 a23e 03de db3e 0c7b 1cbf 0acc 84bd
00000280: 5867 3bbe bb72 243e 6149 ea3e 4cf0 3dbe
00000290: d6b3 f7be 86a3 0abe 1a6c 54be 52e0 c9be
000002a0: d6a9 2cbc 40fa 033d 20c1 febe f99b 97be
000002b0: c559 563e 2ae2 9a3d 6324 b2be a770 2d3e
000002c0: a0c1 21bf ffa2 24bf 2d66 5bbd 2d91 a43e
000002d0: 843c c4be 536b 55bc f22a dc3e 94d1 e43e
000002e0: b2fe 9cbe 5225 96bc e625 afbe 79f4 ad3e
000002f0: 02cf e43e 3138 88be fcd2 353e d124 03bf
00000300: b8e7 913e 08d8 f2be ece5 d5be 1924 dd3d
00000310: 555f de3e 3ab0 733e 7579 b03e f51e 78bb
00000320: 70fa 353e c43e 0abf 7198 e6be adc9 19bf
00000330: 89ae 353e fb9e ad3e d60d 1d3f 26a4 323e
00000340: 4eaf 083f e69a 1fbf d63d babe 3543 98be
00000350: f647 b03e 5240 a7be c0d3 d0bd b976 f3be
00000360: 1d56 ebbd 6096 1c3e d018 b1be 8825 a83d
00000370: 9b4c 00bf 0779 97be 8d0d 08bf 6caa f03e
00000380: 3db8 60bd 8b3c 88be 7a67 abbe 69e3 c13e
00000390: a2cd e53e 28bc 6a3d dd5f 173f d1d1 bf3d
000003a0: 746f 70be deda 4fbe d1ed 29bc 739b 1dbe
000003b0: 8ed3 793e 9e11 66be 7ef3 b4be 64e0 a53e
000003c0: 2d33 c3be 98fb bf3e b54d e4bd 4311 623e
000003d0: 17b4 f4bb 59d9 b73e e1d5 8b3e a53b 393c
000003e0: eea5 153f 910c fa3d 60a9 a6be 16b7 0d3f
000003f0: 7dcb c2be e0bf 60be 9118 bf3e d77f 3fbe

conv2.bias f4 [16]
0.24868755 -0.61579084 0.1305946 -0.51588833 0.29488388 0.6204471 -0.25612652 0.27691248
-0.5540759 0.1760813 0.49660122 -0.3364543 -0.23288736 0.077760786 0.12339135 -0.42611015
00000000: f3a7 7e3e 78a4 1dbf 97ba 053e 4211 04bf
00000010: 05fb 963e 9fd5 1e3f 0423 83be 79c7 8d3e
00000020: ebd7 0dbf a84e 343e 8442 fe3e bd43 acbe
00000030: 067a 6ebe 0c41 9f3d 9bb4 fc3d 1c2b dabe

fc1.weight f4 [10, 256]
-0.14992388 0.13589354 0.14499179 0.047401264 -0.3575514 -0.09857197 0.010822214 -0.418767
0.44397554 -0.5469311 0.05484463 -0.39857832 0.3712601 -0.12504232 -0.33701116 0.23568742
-0.41951185 0.23969796 -0.06324264 0.31874895 0.27556252 0.15636803 0.43169656 -0.24895175
-0.080414675 0.17807186 0.4297462 0.19832478 0.253831 0.048885413 -0.12362565 0.223265
-0.27958566 0.082003646 -0.22561246 0.2596057 0.34502485 0.3286924 -0.36553696 -0.29031706
0.43986312 -0.081443645 0.2936895 -0.2229332 -0.008380135 -0.2928098 0.022435378 -0.2882765
-0.40874565 -0.059967622 0.18912676 0.0008818167 0.31245854 0.3078669 0.16665865 -0.56208086
-0.25715706 0.29775688 -0.46116883 0.28796387 -0.31122914 0.35501218 -0.2683865 -0.09432288
0.23420613 -0.0056335567 -0.33624008 -0.45602453 -0.02207265 0.04677166 0.21290362 0.2246598
0.36666003 0.42693564 -0.26954556 -0.21004987 0.24784917 -0.24329169 -0.023575747 -0.38762435
-0.53005457 -0.14082953 0.023858078 0.45310944 -0.35293198 0.026330516 -0.29053664 0.27371246
-0.5802257 -0.019733546 0.21731 -0.40441 -0.014422959 0.3184943 -0.22448109 -0.59021574
-0.48386598 -0.35301524 -0.28644845 0.1791899 -0.4632793 -0.027287692 -0.14562719 -0.57500124
-0.27212024 0.21410641 -0.35611272 -0.086627215 -0.011770948 -0.48812982 0.17407289 -0.60964847
0.08529671 0.026229113 0.43602768 -0.2195385 0.011987166 -0.37282118 -0.18647872 -0.39810365
0.30136955 -0.078154296 0.12133777 0.35699993 0.30299976 0.08132396 0.003763858 -0.2863779
0.42229864 0.105080605 -0.51305646 0.0563277 0.044954162 -0.4272296 -0.36285615 0.38003892
-0.40104318 -0.5000663 0.21438006 0.20796478 0.2551549 -0.19791654 -0.40637147 -0.22899269
-0.3242763 0.069003575 0.1817948 0.30146244 -0.09377716 -0.30585778 0.4205172 -0.17393664
-0.39003876 -0.15266167 -0.16059494 -0.40114212 0.3856851 0.44287476 -0.31679407 -0.17500754
0.39651677 0.14990917 0.39480546 0.015874589 -0.16463241 -0.16785605 0.3533752 0.46114796
0.34188682 -0.07599104 0.16623443 0.020630741 0.10435373 -0.38839072 0.32232395 -0.38571027
0.45670065 0.12550528 0.26265374 -0.40390092 -0.3119111 -0.35615045 -0.027359726 0.025026532
-0.2821913 -0.018245786 0.46722224 0.08553994 0.12105785 0.1489691 0.14773853 -0.01530639
0.18078607 0.02278643 0.044074204 -0.47159728 -0.12965427 -0.38252583 0.2690754 -0.16783868
0.013017585 0.10130207 0.34515664 0.38395822 -0.066947706 -0.26946843 -0.28709203 0.20012948
-0.18470575 -0.075585924 -0.25607577 0.113909885 0.13748613 0.31952092 -0.2843333 -0.5482469
0.071747005 0.06406971 -0.24462809 0.008986423 0.2653283 0.31851023 -0.4258083 0.029054783
0.26244757 -0.33846247 0.27939993 0.38181493 -0.29729685 -0.37183708 -0.08482421 0.4251717
0.18664062 -0.48080122 -0.5512691 0.021315666 0.3037846 -0.02680267 -0.38864562 -0.32311812
0.30075252 0.33061698 -0.053995654 -0.60560435 -0.107888475 0.36137706 -0.15745823 -0.022136105
0.11326252 -0.021132765 0.27738407 -0.30456382 0.107799806 0.12700413 0.5360646 0.12310729
00000000: a585 19be ad27 0b3e ba78 143e d427 423d
00000010: fa10 b7be 1ae0 c9bd a84f 313c a168 d6be
00000020: c350 e33e ad03 0cbf c3a4 603d 7512 ccbe
00000030: ce15 be3e 180b 00be ba8c acbe 0b58 713e
00000040: 42ca d6be 6273 753e 5b85 81bd 1033 a33e
00000050: 8816 8d3e f11e 203e 5507 dd3e 35ed 7ebe
00000060: 73b0 a4bd 7858 363e b207 dc3e a715 4b3e
00000070: 23f6 813e 123c 483d 722f fdbd 959f 643e
00000080: da25 8fbe 87f1 a73d f406 67be 0aeb 843e
00000090: 19a7 b03e 5f4a a83e a927 bbbe 70a4 94be
000000a0: bd35 e13e edcb a6bd 785e 963e 9a48 64be
000000b0: d54c 09bc 2beb 95be 66ca b73c fa98 93be
000000c0: 1c47 d1be 9ca0 75bd 72aa 413e b829 673a
000000d0: 91fa 9f3e bba0 9d3e 91a8 2a3e 88e4 0fbf
000000e0: 17aa 83be 9773 983e 521e ecbe 0070 933e
000000f0: 6d59 9fbe 28c4 b53e f569 89be 5b2c c1bd
00000100: bbd3 6f3e b399 b8bb a927 acbe 0c7c e9be
00000110: b4d1 b4bc a493 3f3d 6803 5a3e 380d 663e
00000120: ddba bb3e 4f97 da3e e001 8abe 5017 57be
00000130: 2ccc 7d3e 7521 79be ed21 c1bc b376 c6be
00000140: a8b1 07bf 9e35 10be 0472 c33c f6fd e73e
00000150: 80b3 b4be 18b3 d73c 38c1 94be 0a24 8c3e
00000160: ac89 14bf 3fa8 a1bc 8386 5e3e d40e cfbe
00000170: 464e 6cbc af11 a33e 5fde 65be 6118 17bf
00000180: 48bd f7be 6abe b4be 5fa9 92be 8f7d 373e
00000190: f232 edbe 708a dfbc 4b1f 15be 4833 13bf
000001a0: 5853 8bbe b63e 5b3e 6854 b6be 9c69 b1bd
000001b0: efda 40bc 27ec f9be 2a40 323e ec11 1cbf
000001c0: 0bb0 ae3d 70de d63c 053f df3e b3ce 60be
000001d0: d165 443c 6be2 bebe 47f4 3ebe 3ed4 cbbe
000001e0: 1c4d 9a3e 5c0f a0bd f07f f83d b2c8 b63e
000001f0: c922 9b3e 2d8d a63d 0fab 763b 20a0 92be
00000200: 8737 d83e 8034 d73d ab57 03bf e0b7 663d
00000210: db21 383d d7bd dabe 48c8 b9be 7694 c23e
00000220: 8855 cdbe 5804 00bf 7286 5b3e b8f4 543e
00000230: aaa3 823e a2aa 4abe ec0f d0be 0f7d 6abe
00000240: 8b07 a6be bf51 8d3d 6b28 3a3e 4959 9a3e
00000250: 3d0e c0bd 6499 9cbe 084e d73e 721c 32be
00000260: 29b3 c7be 5753 1cbe 0073 24be 8062 cdbe
00000270: 8478 c53e 7bc0 e23e d532 a2be 2d35 33be
00000280: 3f04 cb3e ca81 193e f123 ca3e 6d0b 823c
00000290: 6695 28be 75e2 2bbe 98ed b43e 961b ec3e
000002a0: ca0b af3e 31a1 9bbd 5c39 2a3e cd01 a93c
000002b0: 69b7 d53d 26db c6be a507 a53e d17b c5be
000002c0: abd4 e93e 7584 003e 8d7a 863e 1acc cebe
000002d0: d0b2 9fbe 5a59 b6be 8121 e0bc 7104 cd3c
000002e0: 617b 90be 3078 95bc c137 ef3e 902f af3d
000002f0: 2eed f73d 5b8b 183e c548 173e a7c7 7abc
00000300: fc1f 393e 9baa ba3c 2787 343d 3375 f1be
00000310: 17c4 04be 6dda c3be 40c4 893e e7dd 2bbe
00000320: b547 553c 7677 cf3d 5fb8 b03e 2c96 c43e
00000330: e11b 89bd c4f7 89be bafd 92be beee 4c3e
00000340: 8123 3dbe cbcc 9abd 5d1c 83be 9649 e93d
00000350: 2ac9 0c3e 3f98 a33e 2294 91be e959 0cbf
00000360: 18f0 923d fb36 833d c97f 7abe ca3b 133c
00000370: 1cd9 873e c613 a33e 8c03 dabe 4c04 ee3c
00000380: 875f 863e f44a adbe 820d 8f3e 3f7d c33e
00000390: 4b37 98be 6e61 bebe 51b8 adbd 1bb0 d93e
000003a0: b81e 3f3e 942b f6be f91f 0dbf 319e ae3c
000003b0: a889 9b3e 4691 dbbc 8ffc c6be bd6f a5be
000003c0: 3cfc 993e a146 a93e 8c2a 5dbd e308 1bbf
000003d0: a2f4 dcbd 6a06 b93e bb3c 21be c756 b5bc
000003e0: 2ef6 e73d 9f1e adbc 4905 8e3e caef 9bbe
000003f0: 25c6 dc3d 5f0d 023e 883b 093f ad1f fc3d

fc1.bias f4 [10]
-0.031369273 0.10023836 -0.13114351 -0.45646337 0.25862208 0.36584917 -0.28998363 -0.020169519
-0.39599776 -0.5353977
00000000: 117d 00bd c549 cd3d 7c4a 06be 91b5 e9be
00000010: 1d6a 843e 9550 bb3e bc78 94be 8c3a a5bc
00000020: 38c0 cabe d30f 09bf
